examples/2_streamflow_isotope_simulation/results/20241125_101506_612553/loss_c60a7_00000_0_batch_size=4,hidden_size=21,learning_rate=0.0050,n_epochs=225,num_layers=1_2024-11-25_10-15-11/checkpoint_000004/model.pt (torch, 11764 bytes, 6 tensors)

lstm.weight_ih_l0 f4 [84, 4]
0.10151444 -0.12103156 0.13846524 0.07439979 0.025468767 0.050379876 0.29447943 0.092411965
0.26567438 -0.028032493 0.24805264 0.02515107 0.15243652 -0.015045879 0.03949046 0.22303356
-0.042938314 0.19952461 -0.20682539 -0.13744421 -0.22635025 0.020270044 -0.085669465 0.00029533333
-0.008859193 -0.112657264 0.16836609 0.07766326 -0.024225269 -0.25588745 -0.10787902 -0.0800264
0.08181136 -0.014889717 0.21142231 0.1362891 0.25384074 -0.27472255 -0.039424524 0.24498762
0.2952696 -0.040181298 -0.14065808 -0.08430624 0.030734066 0.08829949 0.12540229 0.008292591
0.36369747 0.16209641 0.08232429 0.053522866 -0.07025172 -0.09549032 -0.028526438 -0.18771228
0.1201521 0.08863392 0.01121739 -0.21376507 -0.14598843 -0.08530386 0.17252617 -0.20840079
0.2999941 0.07178249 -0.16939478 0.101795286 0.08966689 -0.011412886 0.04794654 -0.07271773
0.32283714 0.2359001 0.17530419 0.13707912 0.00032351585 0.24067084 0.1694353 -0.21626185
0.1229678 -0.2104003 0.12768127 0.07299158 0.15202765 0.0038973526 -0.04399355 -0.2216327
0.0685304 -0.059342228 0.12058743 0.18628255 -0.16700025 0.065397725 0.06319667 0.0820583
0.20890254 0.1328203 0.09675714 0.07540454 0.046141 -0.059723567 0.01878195 -0.26343223
-0.23440616 0.27165243 0.21965812 -0.072350144 0.14815469 -0.02987482 0.1076293 0.006212384
0.30022487 0.061415747 0.049615633 -0.12707856 0.06948336 -0.08588437 -0.059535705 0.15735106
-0.059759166 0.0064945812 0.12397376 -0.03200986 0.2476671 -0.19996133 -0.24135692 -0.14404547
0.06838384 -0.020352155 0.018645128 0.06286468 0.09368856 0.20901385 0.17960131 -0.10596151
-0.156347 0.28305903 -0.08781524 0.18543278 0.10127448 0.10952351 -0.03823836 -0.10318735
0.008009868 0.098710634 0.08091232 0.07010767 0.10060659 -0.17286673 -0.24199148 0.016715659
0.0061299903 0.17191699 -0.12184877 0.1900533 0.20482722 0.26352575 -0.028413374 0.18326698
-0.014803728 -0.009361526 0.07911913 0.09878202 0.34656188 0.01760344 -0.103138484 0.031257015
0.22455558 -0.17854479 -0.025514716 0.070118405 0.36431983 0.019081876 0.05796146 -0.060000755
-0.10229792 0.23016448 -0.07219292 -0.158665 -0.22519793 0.20672467 0.08214555 0.033389505
0.09504806 0.07949172 0.11860657 0.17916538 -0.0031223139 -0.21982035 0.12125407 0.027324893
0.021616088 -0.28951794 -0.18239814 0.09280832 0.0027477683 -0.12284875 -0.2391422 -0.03365424
-0.28004134 -0.11188966 0.09726635 0.045505513 -0.3683151 -0.13682307 -0.23900728 0.16490173
0.28786594 -0.08968724 0.26683408 0.17793892 0.29049516 0.21926059 0.15973605 0.113545634
-0.20111108 0.30262536 0.09011508 -0.042215038 -0.051764473 0.03508461 -0.15942277 -0.21829794
0.04352169 0.057694245 0.2031756 0.16195789 -0.046708807 -0.068614885 -0.19892588 0.20528899
0.3029953 0.021107659 0.18269514 -0.19939402 -0.29658553 -0.072980106 -0.052455343 0.18234476
0.087390356 -0.21303469 -0.28169504 0.0038980932 0.20495766 -0.22418222 0.045840975 0.17993991
-0.008554973 0.24289282 0.21010242 -0.040500008 0.050303355 -0.1740145 -0.056811962 0.18468408
00000000: cde6 cf3d 65df f7bd d5c9 0d3e eb5e 983d
00000010: e0a3 d03c 215b 4e3d 02c6 963e 7c42 bd3d
00000020: 7906 883e 66a4 e5bc 8301 7e3e 9e09 ce3c
00000030: 5218 1c3e fe82 76bc c0c0 213d e962 643e
00000040: 16e0 2fbd 2e50 4c3e 09ca 53be 2dbe 0cbe
00000050: 5cc8 67be 5d0d a63c 7973 afbd f8d6 9a39
00000060: 2626 11bc dab8 e6bd 2968 2c3e ea0d 9f3d
00000070: 1274 c6bc ae03 83be adef dcbd e2e4 a3bd
00000080: b78c a73d 00f4 73bc 177f 583e 5f8f 0b3e
00000090: 6af7 813e 6fa8 8cbe 9c7b 21bd 09de 7a3e
000000a0: 942d 973e 2595 24bd ac08 10be c0a8 acbd
000000b0: 02c6 fb3c 5dd6 b43d 7569 003e a6dd 073c
000000c0: 8e36 ba3e 9afc 253e a399 a83d cb3a 5b3d
000000d0: 22e0 8fbd 6e90 c3bd 47b0 e9bc a637 40be
000000e0: 4e12 f63d b385 b53d 25c9 373c 3be5 5abe
000000f0: fe7d 15be cab3 aebd b3aa 303e 0467 55be
00000100: d498 993e b302 933d d375 2dbe 0c7a d03d
00000110: 46a3 b73d 1dfd 3abc 9763 443d 09ed 94bd
00000120: e94a a53e cc8f 713e f182 333e 785e 0c3e
00000130: 909d a939 6b72 763e 7380 2d3e bf73 5dbe
00000140: 8bd6 fb3d 2d73 57be e1be 023e 9c7c 953d
00000150: 23ad 1b3e ba6a 7f3b 9532 34bd aff3 62be
00000160: ab59 8c3d d610 73bd 8bf6 f63d dac0 3e3e
00000170: 1d02 2bbe 3eef 853d 416d 813d 2f0e a83d
00000180: 8cea 553e 0b02 083e 9b28 c63d b26d 9a3d
00000190: 58fe 3c3d b3a0 74bd 9bdc 993c 97e0 86be
000001a0: 2b08 70be 0716 8b3e 0fee 603e 502c 94bd
000001b0: ddb5 173e 0abc f4bc c06c dc3d 4191 cb3b
000001c0: 13b7 993e 148f 7b3d c339 4b3d e220 02be
000001d0: 4b4d 8e3d 25e4 afbd b6db 73bd a320 213e
000001e0: 07c6 74bd 7fd0 d43b f4e5 fd3d c51c 03bd
000001f0: 729c 7d3e aac2 4cbe 4526 77be a880 13be
00000200: d40c 8c3d 90b9 a6bc abbd 983c 33bf 803d
00000210: cadf bf3d ba07 563e 68e9 373e 5902 d9bd
00000220: 6e19 20be 1ded 903e 7ad8 b3bd 17e2 3d3e
00000230: ff68 cf3d dd4d e03d d49f 1cbd e453 d3bd
00000240: d23b 033c cd28 ca3d 5cb5 a53d 9c94 8f3d
00000250: d40a ce3d fa03 31be 9dcc 77be 47ef 883c
00000260: 16de c83b 020b 303e d98b f9bd 559d 423e
00000270: 3abe 513e d9ec 863e 2ac3 e8bc 57aa 3b3e
00000280: 568b 72bc 1661 19bc 3609 a23d 3a4e ca3d
00000290: 8f70 b13e 1735 903c 453a d3bd 5b07 003d
000002a0: e6f1 653e 72d4 36be 3d04 d1bc 3d9a 8f3d
000002b0: 2188 ba3e 9851 9c3c ff68 6d3d 5ac3 75bd
000002c0: 9281 d1bd 3db0 6b3e e2d9 93bd 1479 22be
000002d0: 499a 66be a2af 533e ed3b a83d 6fc3 083d
000002e0: 8fa8 c23d 8ecc a23d 00e8 f23d 2177 373e
000002f0: bc9f 4cbb 9618 61be 0e54 f83d 74d8 df3c
00000300: 3914 b13c b23b 94be 94c6 3abe 4a12 be3d
00000310: e713 343b 2098 fbbd b1e1 74be 07d9 09bd
00000320: 9461 8fbe 6826 e5bd 9533 c73d fd63 3a3d
00000330: cc93 bcbe 591b 0cbe 53be 74be 00dc 283e
00000340: 2a63 933e f2ad b7bd 7a9e 883e 9f35 363e
00000350: c8bb 943e d985 603e d991 233e 9d8a e83d
00000360: 10f0 4dbe b6f1 9a3e 418e b83d ade9 2cbd
00000370: fc06 54bd e1b4 0f3d b93f 23be 7f89 5fbe
00000380: cd43 323d cd50 6c3d 440d 503e 4ad8 253e
00000390: bc51 3fbd f685 8cbd 3ab3 4bbe 4737 523e
000003a0: 3322 9b3e f8e9 ac3c 6f14 3b3e f22d 4cbe
000003b0: 0fda 97be 9876 95bd 6adb 56bd 96b8 3a3e
000003c0: b7f9 b23d c425 5abe 553a 90be 2777 7f3b
000003d0: 6ce0 513e 0690 65be bfc3 3b3d 2b42 383e
000003e0: 282a 0cbc e5b8 783e 1725 573e 56e3 25bd
000003f0: e40a 4e3d db30 32be a9b3 68bd d31d 3d3e

lstm.weight_hh_l0 f4 [84, 21]
0.014161928 0.32848522 -0.09060365 -0.20752981 -0.0055450313 0.14030111 0.2505115 0.26914817
0.069562234 -0.15390487 0.037507743 0.12716484 -0.0087933885 0.023400906 0.11866079 -0.20448007
0.12433895 0.103880644 0.16274558 -0.17337209 -0.25727412 0.07339856 -0.09859263 -0.13183646
0.20045808 0.28079358 -0.1282343 -0.28138688 0.14912651 0.09980778 -0.2767918 0.0751611
-0.1327186 0.047330752 -0.07528909 0.076495305 0.017713854 0.0919546 -0.082361475 -0.116328865
0.086388916 0.25976253 0.15617844 -0.17616151 -0.12812918 -0.11067641 -0.12874019 -0.103394814
-0.24483795 -0.19328597 -0.054314595 -0.2531731 0.16096479 -0.05072311 0.043577332 -0.04377976
0.15544917 0.0033104792 0.047566526 0.08093943 0.047965106 0.13505767 0.0716614 0.18640849
0.101505876 -0.10942165 0.10968355 0.13920678 -0.09039125 -0.07890911 -0.08856033 -0.1590597
-0.11474403 -0.053565297 -0.12660064 0.08367551 -0.05878412 0.14051545 -0.2762089 0.106844746
0.026735079 0.08219174 -0.13077854 0.1360354 0.15327181 0.13454968 0.0113426605 0.051768236
0.031212531 0.28052282 -0.18148741 0.0958772 0.1896952 0.04517293 0.05656493 -0.15532055
-0.022048473 0.15376386 0.14855902 -0.11829315 -0.16909021 -0.27688897 0.09238628 0.008623747
0.18496375 0.13707526 -0.0039349007 -0.013475874 0.17576885 -0.1766296 -0.040628906 -0.17442933
-0.13013826 0.23358032 -0.20645207 -0.21984732 -0.029244075 0.02187565 -0.041986495 -0.15124004
0.18829036 0.09021047 -0.16950779 -0.1473448 -0.21737988 -0.07242797 0.10298856 0.04506369
0.03027179 0.1066471 -0.009656433 -0.22135696 0.12450073 0.02568257 0.037353266 -0.050282445
-0.095452584 -0.15441823 -0.004012573 0.07467781 -0.02903508 -0.15285166 -0.10237443 0.083857246
-0.21332091 0.162 0.14101024 -0.17596747 -0.16553287 0.039544787 -0.18724568 -0.0751458
0.11888127 0.1300306 0.05111211 -0.07981252 0.06885481 -0.064618416 -0.23967764 -0.03899191
0.18525699 0.22435148 0.147937 0.026910484 0.05011924 -0.12973924 -0.020036925 0.11718123
0.023373222 0.0557605 -0.045936838 0.0142246215 -0.10591482 0.091049105 0.031277213 0.11258336
0.16151439 0.03796973 0.29210025 -0.11522411 -0.09498344 -0.16905439 0.10250351 -0.17702807
0.18744418 -0.070444845 -0.012828073 0.04903385 -0.27404156 0.26453012 0.032317292 -0.06027054
-0.057099454 -0.060111232 0.08970711 -0.13745333 0.2597001 -0.28020054 -0.10129315 0.08717989
-0.07570644 0.12493429 -0.11151387 -0.23085152 -0.2172209 0.31607422 0.15349635 -0.052504256
-0.19887102 0.09358435 -0.029979497 0.068454675 -0.113625884 -0.06259328 0.23365095 -0.3290395
-0.18292719 0.31082687 -0.016602037 0.11749085 -0.102969654 0.1673176 0.08202279 -0.21467511
-0.2198601 -0.03212725 -0.007793365 0.13568698 0.09416877 -0.13049331 -0.2589332 0.017614232
0.19075875 -0.074048355 0.17838982 -0.058212377 0.06714587 0.0326693 0.07910774 0.12905717
-0.07562278 0.006397158 -0.0984679 0.20283277 -0.25299996 0.03639747 -0.2722925 0.03685548
0.0007182007 0.14882721 -0.08970571 -0.11460416 -0.09923394 0.2663243 0.2266901 -0.086486705
00000000: 6e07 683c 372f a83e 688e b9bd b282 54be
00000010: 18b3 b5bb 18ab 0f3e 0b43 803e cacd 893e
00000020: a576 8e3d 3d99 1dbe b8a1 193d 8037 023e
00000030: 2512 10bc 42b3 bf3c 6e04 f33d 3963 51be
00000040: 6ba5 fe3d 60bf d43d c7a6 263e 7488 31be
00000050: 6fb9 83be fc51 963d efea c9bd 2300 07be
00000060: e244 4d3e 2dc4 8f3e da4f 03be f111 90be
00000070: 9fb4 183e 0568 cc3d a8b7 8dbe 10ee 993d
00000080: 62e7 07be e4dd 413d 2b31 9abd 92a9 9c3d
00000090: a51c 913c b152 bc3d 22ad a8bd d43d eebd
000000a0: acec b03d 98ff 843e 3eed 1f3e af63 34be
000000b0: 4c34 03be 50aa e2bd 78d4 03be a9c0 d3bd
000000c0: cdb6 7abe c2ec 45be fb78 5ebd e89f 81be
000000d0: f4d3 243e 09c3 4fbd 257e 323d 6852 33bd
000000e0: 112e 1f3e a0f4 583b 1ed5 423d 92c3 a53d
000000f0: 0f77 443d 8f4c 0a3e 36c3 923d dee1 3e3e
00000100: 50e2 cf3d 7518 e0bd c5a1 e03d 398c 0e3e
00000110: 0c1f b9bd 199b a1bd 1e5f b5bd 8ce0 22be
00000120: ebfe eabd 4967 5bbd 99a3 01be 115e ab3d
00000130: 9ec7 70bd 48e3 0f3e 416b 8dbe 6bd1 da3d
00000140: 8603 db3c 2554 a83d cfea 05be dd4c 0b3e
00000150: 49f3 1c3e 64c7 093e 91d6 393c ee0a 543d
00000160: 6cb1 ff3c b0a0 8f3e d6d7 39be 445b c43d
00000170: 753f 423e 4007 393d a1b0 673d 5a0c 1fbe
00000180: 009f b4bc 4674 1d3e db1f 183e ae43 f2bd
00000190: fc25 2dbe 64c4 8dbe 0535 bd3d 9e4a 0d3c
000001a0: 2367 3d3e 755d 0c3e 57f0 80bb eac9 5cbc
000001b0: c0fc 333e 64de 34be 7f6a 26bd 9a9d 32be
000001c0: f742 05be ae2f 6f3e 2c68 53be a81f 61be
000001d0: 4591 efbc 9034 b33c 08fa 2bbd abde 1abe
000001e0: 30cf 403e 44c0 b83d 7393 2dbe 8ee1 16be
000001f0: d598 5ebe 1e55 94bd abeb d23d b494 383d
00000200: 8cfc f73c cb69 da3d 0436 1ebc 66ab 62be
00000210: 3dfa fe3d 4164 d23c bdff 183d f7f4 4dbd
00000220: a57c c3bd d01f 1ebe e77b 83bb aef0 983d
00000230: fada edbc 2585 1cbe afa9 d1bd 59bd ab3d
00000240: cc70 5abe 54e3 253e fd64 103e d130 34be
00000250: 7381 29be b7f9 213d 55bd 3fbe 0be6 99bd
00000260: 0678 f33d be26 053e ef5a 513d bf74 a3bd
00000270: c003 8d3d a956 84bd 0e6e 75be fbb5 1fbd
00000280: 02b4 3d3e 65bc 653e cc7c 173e 6073 dc3c
00000290: d549 4d3d 5dda 04be 7a24 a4bc b6fc ef3d
000002a0: 3379 bf3c 1f65 643d 4428 3cbd 630e 693c
000002b0: dfe9 d8bd f477 ba3d 891c 003d 1b92 e63d
000002c0: 0764 253e 2686 1b3d 2a8e 953e 9efa ebbd
000002d0: ae86 c2bd 981c 2dbe 5ced d13d d946 35be
000002e0: 5ef1 3f3e 6345 90bd d72c 52bc b8d7 483d
000002f0: 2d4f 8cbe 7e70 873e 235f 043d 3ede 76bd
00000300: 1ee1 69bd 3237 76bd 5cb8 b73d 91c0 0cbe
00000310: 69f7 843e 7276 8fbe c872 cfbd 5f8b b23d
00000320: fa0b 9bbd 8ddd ff3d 6261 e4bd 5764 6cbe
00000330: 286f 5ebe 7bd4 a13e 262e 1d3e b40e 57bd
00000340: d8a4 4bbe 27a9 bf3d 9097 f5bc f731 8c3d
00000350: b0b4 e8bd e830 80bd 3242 6f3e de77 a8be
00000360: 4451 3bbe b324 9f3e ff00 88bc 0b9f f03d
00000370: c1e1 d2bd 4e55 2b3e 91fb a73d cbd3 5bbe
00000380: 0223 61be dd97 03bd 7c5f ffbb 87f1 0a3e
00000390: 8edb c03d 0aa0 05be e492 84be b94b 903c
000003a0: 4356 433e aaa6 97bd d2ab 363e 1a70 6ebd
000003b0: c683 893d 3ed0 053d 3d03 a23d 9027 043e
000003c0: 1ee0 9abd 409f d13b 8aa9 c9bd 65b3 4f3e
000003d0: 3689 81be 8315 153d ec69 8bbe c6f5 163d
000003e0: a245 3c3a 2966 183e a1b7 b7bd 96b5 eabd
000003f0: 2a3b cbbd a95b 883e 7321 683e f11f b1bd

lstm.bias_ih_l0 f4 [84]
0.0031315587 -0.09803118 -0.10335807 0.2838777 -0.2732102 0.03242295 0.22592643 -0.21430634
0.13911884 0.2280587 0.025517896 -0.099570125 -0.035620738 -0.059958577 0.09767419 0.09259077
-0.09586144 0.3042936 -0.02941237 0.18899623 0.028967358 -0.12200259 0.1800634 -0.018404681
0.016943283 -0.13287902 0.14141832 0.017920403 0.0061506224 0.1441544 0.060758617 0.1822615
0.08288329 -0.056124695 -0.027663043 -0.1705543 0.22371079 -0.13929309 0.098614775 0.020506028
0.15388648 0.30703655 0.22273071 0.17694995 0.09795132 -0.14691287 0.014982584 -0.14287367
-0.032995164 0.27744746 -0.024948688 0.15884176 0.15207896 0.028260523 -0.091911644 -0.1887535
-0.1970195 0.06345364 0.036639474 -0.029507216 -0.16727959 -0.029522855 -0.1498827 0.07043693
0.0056106662 0.18552427 0.25346392 -0.11574179 -0.13650508 0.11839215 -0.13470292 0.04449558
0.119650416 -0.039982297 0.056103967 -0.13276756 -0.10822268 -0.044468593 0.13553266 0.13290802
0.052122507 0.18032725 0.07616806 0.25410387
00000000: d63a 4d3b 92c4 c8bd 65ad d3bd 6b58 913e
00000010: 35e2 8bbe edcd 043d 4259 673e 1f73 5bbe
00000020: 2b75 0e3e 3888 693e e80a d13c 6ceb cbbd
00000030: 0de7 11bd 2097 75bd 6809 c83d 3ba0 bd3d
00000040: 0153 c4bd 5fcc 9b3e 36f2 f0bc 3a88 413e
00000050: f44c ed3c 7edc f9bd 8a62 383e 6ac5 96bc
00000060: a4cc 8a3c 7011 08be f7cf 103e cfcd 923c
00000070: 298b c93b 369d 133e 07de 783d c2a2 3a3e
00000080: b7be a93d 02e3 65bd 9b9d e2bc c9a5 2ebe
00000090: 7114 653e d9a2 0ebe 8bf6 c93d 42fc a73c
000000a0: 6b94 1d3e e533 9d3e 8513 643e 5e32 353e
000000b0: b49a c83d 5470 16be 8379 753c 7a4d 12be
000000c0: f025 07bd 980d 8e3e 3161 ccbc 6aa7 223e
000000d0: 96ba 1b3e 9d82 e73c 2c3c bcbd 9948 41be
000000e0: 7bbf 49be fbf3 813d 4613 163d 1eb9 f1bc
000000f0: 574b 2bbe ead9 f1bc da7a 19be 3d41 903d
00000100: aed9 b73b 13fa 3d3e 06c6 813e 080a edbd
00000110: fdc7 0bbe 9577 f23d 90ef 09be ff40 363d
00000120: 470b f53d 7ac4 23bd 46cd 653d 38f4 07be
00000130: daa3 ddbd b324 36bd 13c9 0a3e 0a19 083e
00000140: 697e 553d b5a7 383e 00fe 9b3d e719 823e

lstm.bias_hh_l0 f4 [84]
0.008088695 -0.15995498 0.11304586 0.17431019 -0.04176743 0.1582321 0.22510418 0.03049791
0.14137112 0.2572588 0.13908009 -0.107989654 0.1108346 -0.039943937 0.08095732 0.18563886
0.046408948 0.17779979 0.24511601 0.105659105 0.17092957 0.03351621 -0.062408905 -0.0024353538
0.17558625 -0.10711063 0.16710554 0.018824548 0.04743653 0.15343693 0.086494274 0.006785737
0.22147794 0.17076676 -0.14626035 -0.12572727 0.04507835 -0.12180377 0.2587036 0.020787917
0.15106492 -0.058444433 -0.15840861 0.11895396 -0.10764599 0.05457961 -0.114832506 -0.27863514
-0.02501121 -0.04683008 -0.09304504 -0.074805096 -0.2152176 0.1292924 0.16940346 -0.060873926
-0.21815303 -0.19299826 0.14214766 0.2156388 -0.024991991 -0.14550157 -0.12344455 0.28052232
-0.107443616 0.18735926 0.19768322 -0.034292117 -0.1991287 0.13954748 -0.1777913 0.2004821
0.21112412 0.31483996 -0.059714925 0.23414154 -0.09641814 -0.021516878 0.14986487 -0.05328408
0.12702617 0.2725665 -0.09808022 -0.091876395
00000000: 7286 043c 3dcb 23be 9684 e73d 5f7e 323e
00000010: 5314 2bbd 9807 223e b681 663e c1d6 f93c
00000020: 97c3 103e 6db7 833e 036b 0e3e ae29 ddbd
00000030: 40fd e23d 419c 23bd f4cc a53d 1d18 3e3e
00000040: 4f17 3e3d 2611 363e b1ff 7a3e cd63 d83d
00000050: 2908 2f3e 4b48 093d 7ba0 7fbd 759a 1fbb
00000060: e2cc 333e d15c dbbd b71d 2b3e f035 9a3c
00000070: cf4c 423d 921e 1d3e e923 b13d e35a de3b
00000080: 1dcb 623e 7bdd 2e3e 46c5 15be a6be 00be
00000090: 13a4 383d 4174 f9bd cc74 843e 6c4b aa3c
000000a0: c3b0 1a3e 6e63 6fbd de35 22be 229e f33d
000000b0: 8075 dcbd de8e 5f3d 4e2d ebbd 44a9 8ebe
000000c0: 4fe4 ccbc e6d0 3fbd 668e bebd 6a33 99bd
000000d0: 0162 5cbe 3a65 043e 1a78 2d3e f056 79bd
000000e0: 8263 5fbe 56a1 45be 288f 113e 6bd0 5c3e
000000f0: 01bc ccbc 5dfe 14be 7fd0 fcbd 9fa0 8f3e
00000100: 660b dcbd 1bdb 3f3e 786d 4a3e e475 0cbd
00000110: 65e8 4bbe 89e5 0e3e ec0e 36be 2e4b 4d3e
00000120: ec30 583e b432 a13e a397 74bd cdc2 6f3e
00000130: e076 c5bd 2a44 b0bc 2d76 193e 6840 5abd
00000140: 2613 023e d68d 8b3e 48de c8bd b129 bcbd

linear.model.0.weight f4 [2, 21]
0.26631877 0.24366727 -0.2637357 -0.22933939 0.046209138 0.116051465 -0.04483975 0.096202314
-0.34194973 -0.33294192 0.32102823 0.19099255 -0.23510271 0.109236725 -0.06280166 0.06583811
0.29048967 -0.17672154 0.05752353 0.09407783 -0.04846471 -0.209998 0.21909986 0.025062794
0.020735653 -0.029447308 -0.025341757 -0.23251696 -0.11044451 -0.0053150947 -0.20525317 0.2487638
0.12724145 0.17370288 -0.09573291 0.21407987 -0.08296794 -0.14590144 -0.020955833 -0.17985937
-0.047632683 0.26444685
00000000: ef5a 883e ea83 793e 5e08 87be f2d7 6abe
00000010: cb45 3d3d 64ac ed3d e3a9 37bd b805 c53d
00000020: 0914 afbe 5d77 aabe d05d a43e 8d93 433e
00000030: c4be 70be 81b7 df3d 289e 80bd 22d6 863d
00000040: 10bb 943e 7ef6 34be cb9d 6b3d e1ab c03d
00000050: ef82 46bd b709 57be b75b 603e 7d50 cd3c
00000060: d1dd a93c 7b3b f1bc 8499 cfbc ed18 6ebe
00000070: bb30 e2bd 3f2a aebb e32d 52be f0bb 7e3e
00000080: 954b 023e 2bdf 313e 9e0f c4bd c137 5b3e
00000090: 18eb a9bd 3067 15be 91ab abbc 0e2d 38be
000000a0: 7d1a 43bd 9465 873e

linear.model.0.bias f4 [2]
-0.08754894 -0.015271262
00000000: dc4c b3bd 5134 7abc
