examples/2_streamflow_isotope_simulation/results/20241125_101506_612553/loss_c60a7_00002_2_batch_size=8,hidden_size=11,learning_rate=0.0020,n_epochs=182,num_layers=1_2024-11-25_10-15-11/checkpoint_000009/model.pt (torch, 5556 bytes, 6 tensors)

lstm.weight_ih_l0 f4 [44, 4]
-0.2608381 -0.16994308 0.17403911 0.062787056 0.53087676 -0.09488881 -0.23126861 0.11616502
0.07314617 0.158428 -0.25450927 0.3270296 0.20908105 0.3190763 0.38527593 0.15279073
0.12211495 -0.26047498 0.13007899 -0.15634698 0.0021894895 -0.23463632 0.4089519 0.060684327
0.2794548 0.24497734 0.32129568 0.12252434 0.012824197 -0.11369758 -0.065301694 0.18266776
0.10970729 -0.03928388 0.3201087 0.13744129 0.2050749 0.18595767 -0.13738395 0.021004464
-0.25986078 -0.029633641 -0.13935582 0.00297395 0.31860632 -0.38071504 0.053632528 -0.036880575
0.095845945 0.20270288 -0.21506521 -0.11337435 -0.17296194 0.16012673 -0.23034608 0.08441207
-0.21886426 -0.014005398 0.2239001 0.31955224 0.19936775 -0.24233718 0.18553138 0.24377804
0.08431962 -0.05029829 -0.17969087 -0.22573125 0.3272231 -0.13999727 0.41707882 0.042395484
0.070737325 -0.10150263 0.3267038 0.057365008 0.3795955 0.3652977 0.019124266 -0.04823095
0.3623028 0.0708977 0.17563157 0.08012367 0.10019869 0.2496014 0.31246555 0.3081734
-0.18247536 -0.24572563 0.18126252 0.1457375 -0.28054985 0.15640102 0.031235287 -0.16365741
0.31766698 0.0871702 0.23730373 -0.05190803 0.33345476 -0.20156136 -0.31451023 -0.114881255
-0.33357352 -0.28049132 -0.22868367 -0.032236353 0.014982052 0.36487508 -0.06347679 0.069688715
0.01759724 0.0952357 -0.1255641 -0.17307195 0.07389822 -0.12687707 -0.09067608 -0.22912881
0.023576576 -0.25673273 -0.360958 0.09919482 -0.121237166 0.013236427 -0.29973382 -0.3111719
0.024207158 -0.09040259 -0.15946928 0.065154865 -0.20964123 -0.22234438 0.03737603 -0.12527053
0.19420087 -0.26581267 0.18944132 -0.031004908 0.3514993 0.14984117 -0.25016057 -0.13909662
-0.0049176347 0.17436694 0.4204029 0.3217023 0.050699145 -0.24923527 -0.25841194 0.13200317
-0.17547041 0.1277161 0.0146515025 0.0507174 0.015996544 -0.044526983 0.0037555343 0.2549426
-0.2644407 0.42793685 0.15166959 -0.31161186 0.19864495 -0.02712875 0.17905848 0.050252896
0.47324052 0.31396732 -0.008351315 0.28299442 0.16912566 0.22002603 -0.08137917 0.18573557
00000000: 928c 85be 8f05 2ebe 4f37 323e 8096 803d
00000010: 8ae7 073f 1055 c2bd aed1 6cbe ede7 ed3d
00000020: a9cd 953d f33a 223e 0a4f 82be 6c70 a73e
00000030: 5819 563e f85d a33e e342 c53e 2c75 1c3e
00000040: 6717 fa3d fa5c 85be 6d33 053e 6c19 20be
00000050: 8a7d 0f3b 8144 70be 2562 d13e 2190 783d
00000060: b314 8f3e 57db 7a3e de80 a43e 0bee fa3d
00000070: 951c 523c 47da e8bd e5bc 85bd 420d 3b3e
00000080: 37ae e03d 22e8 20bd 4ae5 a33e 69bd 0c3e
00000090: 28ff 513e b06b 3e3e 61ae 0cbe 8e11 ac3c
000000a0: 790c 85be 40c2 f2bc 4bb3 0ebe 9ae6 423b
000000b0: 5e20 a33e 15ed c2be c8ad 5b3d 1610 17bd
000000c0: e14a c43d 5891 4f3e 0e3a 5cbe d030 e8bd
000000d0: ef1c 31be 43f8 233e d8df 6bbe 3ce0 ac3d
000000e0: f41d 60be e676 65bc 1146 653e 5a9c a33e
000000f0: 0f27 4c3e 3d27 78be f0fb 3d3e f3a0 793e
00000100: c4af ac3d 9405 4ebd e200 38be 1826 67be
00000110: c989 a73e 725b 0fbe 5b8b d53e e3a6 2d3d
00000120: bbde 903d 9ce0 cfbd b845 a73e 92f7 6a3d
00000130: 575a c23e 4d08 bb3e 7eaa 9c3c d18d 45bd
00000140: c17f b93e d032 913d c3d8 333e e117 a43d
00000150: f934 cd3d 8297 7f3e 7cfb 9f3e e7c8 9d3e
00000160: d2da 3abe 809f 7bbe e29c 393e 363c 153e
00000170: 3ba4 8fbe 9727 203e 25e1 ff3c cf95 27be
00000180: 3fa5 a23e 4a86 b23d c0ff 723e 849d 54bd
00000190: 95ba aa3e 1a66 4ebe 7c07 a1be dd46 ebbd
000001a0: 26ca aabe 8f9c 8fbe 0d2c 6abe 440a 04bd
000001b0: 4877 753c e8d0 ba3e 1f00 82bd f5b8 8e3d
000001c0: 1628 903c ef0a c33d e093 00be c639 31be
000001d0: f357 973d 10ec 01be 61b4 b9bd bea0 6abe
000001e0: aa23 c13c 7972 83be 7dcf b8be a726 cb3d
000001f0: 314b f8bd 99dd 583c b676 99be ec51 9fbe
00000200: 174e c63c fe24 b9bd ea4b 23be ea6f 853d
00000210: 31ac 56be 3fae 63be 9c17 193d eb46 00be
00000220: 98dc 463e 9918 88be e8fc 413e 01fe fdbc
00000230: b7f7 b33e f76f 193e 0c15 80be 586f 0ebe
00000240: 1c24 a1bb 3f8d 323e 0d3f d73e 2ab6 a43e
00000250: e8a9 4f3d 8837 7fbe 924e 84be d72b 073e
00000260: 84ae 33be 02c8 023e db0c 703c 0cbd 4f3d
00000270: 2f0b 833c ed61 36bd 691f 763b d687 823e
00000280: c564 87be 8a1a db3e 464f 1b3e 978b 9fbe
00000290: 9569 4b3e 1d3d debc 1b5b 373e fbd5 4d3d
000002a0: 954c f23e 53c0 a03e f4d3 08bc a5e4 903e
000002b0: 472f 2d3e 814e 613e 1faa a6bd 7731 3e3e

lstm.weight_hh_l0 f4 [44, 11]
0.23744377 -0.14755955 0.2079819 -0.23353596 -0.082256936 -0.1606287 0.10638355 -0.053627424
0.23218411 -0.008195925 -0.061753638 -0.14486548 -0.19346184 0.08698364 0.27329308 0.15821245
0.1715875 -0.12918454 0.17986326 -0.23961906 0.035236597 -0.23016627 0.33942696 0.11262751
0.015717858 -0.2001146 0.19726461 0.008875368 -0.23277923 -8.64889e-05 0.07456541 0.20496707
-0.04457182 0.14413583 -0.29286623 0.32064086 0.13439023 -0.39931995 0.31594905 -0.3187553
-0.13838889 -0.39786226 -0.120316245 0.122669704 -0.16442028 -0.022572612 -0.1653413 -0.33951986
0.31809375 0.23657271 0.10316459 0.098988175 -0.1298202 -0.19137977 -0.29591736 -0.07316776
0.11638991 0.09812437 -0.3447407 0.170016 0.19465281 0.1221034 0.23704243 -0.3645199
0.10822874 0.055573307 0.036385555 0.31068355 0.15230845 0.076986745 0.11222596 0.29825854
-0.2675348 0.060475897 -0.16995628 -0.345737 0.19253565 -0.3006415 -0.2502998 -0.25183898
-0.02216647 -0.3775824 -0.08961491 0.21885972 9.174109e-06 0.0058620684 -0.24733278 -0.24658291
0.3607218 -0.039163094 0.06576463 -0.19656573 0.23158033 -0.18795708 0.1308525 0.020490259
-0.034578245 0.22549085 -0.2933711 -0.15199293 0.10601317 0.3190691 0.04350682 -0.00935971
-0.12734303 0.10254758 -0.22464028 0.17242683 0.14555712 0.16200836 0.105935626 -0.06018998
0.021595918 0.003388218 0.15602231 0.34299496 -0.10154955 0.20544754 0.114541054 0.016971713
-0.036275357 -0.020339126 -0.3973536 -0.09625301 -0.24347542 0.12142304 -0.19487533 -0.19060685
0.084364675 0.43765235 0.2688332 -0.19886701 -0.051824257 -0.23625714 0.42342907 0.27209195
0.2358413 0.30973324 0.29338196 -0.14990865 0.009376923 0.091811195 -0.25997978 -0.20917784
-0.11861612 -0.15738276 0.17812556 0.1732921 -0.1091969 -0.2644958 -0.09410627 -0.007064581
0.060708605 -0.07415482 0.13598144 0.07731115 0.14064313 -0.0930529 0.16041838 -0.14226504
0.20816419 -0.24240457 0.08940762 -0.13182445 -0.19518313 0.41250443 -0.12268274 0.24604806
0.004831796 -0.0026462188 -0.17086758 -0.36831015 0.0073697763 0.12604643 0.116563946 -0.32035646
-0.02030302 -0.27071032 -0.26311255 -0.32529098 -0.088919386 0.06447923 0.06965202 0.35476893
0.18604131 -0.16411668 -0.29096752 0.26596564 0.12219817 0.46182662 0.011044526 0.18763387
-0.20022818 -0.23899034 -0.12879393 0.014583058 -0.2690323 -0.067052215 -0.116479054 -0.21834071
-0.16425489 0.20809487 0.11352984 0.43747723 -0.06966221 -0.17798702 -0.38353446 -0.2586355
0.110638306 0.12918186 -0.29627743 0.2334939 -0.48876593 0.19935302 -0.29774645 -0.15947591
0.29974943 -0.22664404 0.05005002 -0.07999804 -0.20605128 0.05484989 0.13041373 -0.11684666
0.043940302 0.24915317 -0.3715518 0.3784388 -0.35572994 -0.08164638 -0.30045462 0.3319754
-0.014291727 -0.049861897 -0.18731266 0.14432882 -0.034628466 -0.23771785 0.43476647 -0.37975183
0.08975823 -0.12653622 0.053294815 0.040247273 0.2500487 0.014206412 -0.018216994 -0.15184179
0.1100804 0.26207128 0.3659092 0.27599505 0.0036822867 0.084455125 0.19328621 0.06392407
00000000: 7624 733e da19 17be 35f9 543e 0d24 6fbe
00000010: 5376 a8bd da7b 24be 9edf d93d 6ea8 5bbd
00000020: acc1 6d3e 3348 06bc 62f1 7cbd 9e57 14be
00000030: dc1a 46be 7b24 b23d 12ed 8b3e 7202 223e
00000040: a2b4 2f3e f448 04be 132e 383e b35e 75be
00000050: 4054 103d b5b0 6bbe 5fc9 ad3e 41a9 e63d
00000060: bdc2 803c d7ea 4cbe bcff 493e fe69 113c
00000070: ae5d 6ebe 6061 b5b8 c0b5 983d e3e2 513e
00000080: f190 36bd 5898 133e 90f2 95be 0a2b a43e
00000090: 989d 093e aa73 ccbe 13c4 a13e e533 a3be
000000a0: d1b5 0dbe 9ab4 cbbe 5d68 f6bd 413a fb3d
000000b0: ca5d 28be 33ea b8bc 3b4f 29be 8cd5 adbe
000000c0: 2fdd a23e 1e40 723e f547 d33d 50ba ca3d
000000d0: 96ef 04be 0ff9 43be 7b82 97be fbd8 95bd
000000e0: d55d ee3d 6ef5 c83d da81 b0be ad18 2e3e
000000f0: 1153 473e 5911 fa3d 40bb 723e 5aa2 babe
00000100: 08a7 dd3d d6a0 633d 0509 153d ea11 9f3e
00000110: bff6 1b3e 3aab 9d3d b9d6 e53d 58b5 983e
00000120: 52fa 88be 93b5 773d 0509 2ebe 7104 b1be
00000130: 1128 453e afed 99be 4c27 80be 0af1 80be
00000140: 7596 b5bc 7b52 c1be 0688 b7bd c31c 603e
00000150: 80ea 1937 9816 c03b ce44 7dbe 3b80 7cbe
00000160: 87b0 b83e 7b69 20bd 9baf 863d 8748 49be
00000170: 6523 6d3e d277 40be 33fe 053e 30db a73c
00000180: eba1 0dbd 13e7 663e bd34 96be 09a4 1bbe
00000190: 6f1d d93d 065d a33e 3534 323d 7859 19bc
000001a0: 3666 02be 7704 d23d 1a08 66be a990 303e
000001b0: ed0c 153e 85e5 253e c7f4 d83d c589 76bd
000001c0: ece9 b03c de0c 5e3b 50c4 1f3e 099d af3e
000001d0: 36f9 cfbd d760 523e 8094 ea3d 4308 8b3c
000001e0: 7895 14bd 3d9e a6bc ee71 cbbe 4c20 c5bd
000001f0: 9f51 79be a5ac f83d 668d 47be 712e 43be
00000200: 63c7 ac3d f813 e03e 81a4 893e cba3 4bbe
00000210: ac45 54bd 64ed 71be b2cb d83e a34f 8b3e
00000220: 6280 713e 5b95 9e3e 2936 963e a781 19be
00000230: aaa1 193c 8207 bc3d 121c 85be b732 56be
00000240: 02ed f2bd f228 21be 8c66 363e 7c73 313e
00000250: a0a2 dfbd fe6b 87be caba c0bd 007e e7bb
00000260: 96a9 783d 7bde 97bd b83e 0b3e 4f55 9e3d
00000270: c104 103e 8592 bebd b744 243e edad 11be
00000280: fe28 553e e738 78be 581b b73d fdfc 06be
00000290: 16de 47be c833 d33e 1741 fbbd 06f4 7b3e
000002a0: 0b54 9e3b 2f6c 2dbb e9f7 2ebe 2693 bcbe
000002b0: 2a7e f13b 5112 013e 14b9 ee3d c305 a4be
000002c0: 8552 a6bc 8b9a 8abe b0b6 86be 8a8c a6be
000002d0: 5e1b b6bd b00d 843d b8a5 8e3d 46a4 b53e
000002e0: 9d81 3e3e 340e 28be b2f9 94be a62c 883e
000002f0: 0943 fa3d 8a74 ec3e 19f4 343c 1823 403e
00000300: 9e08 4dbe e2b9 74be 8ee2 03be c7ed 6e3c
00000310: 9abe 89be ac52 89bd 928c eebd b594 5fbe
00000320: 6f32 28be d216 553e 5582 e83d 04fd df3e
00000330: 10ab 8ebd 3b42 36be a15e c4be df6b 84be
00000340: 5696 e23d 4048 043e adb1 97be 0619 6f3e
00000350: 873f fabe 3323 4c3e 3972 98be a74d 23be
00000360: c278 993e 6015 68be 4001 4d3d 03d6 a3bd
00000370: 1bff 52be 47aa 603d 2d8b 053e 4d4d efbd
00000380: bffa 333d 0222 7f3e 0a3c bebe bbc2 c13e
00000390: 3c22 b6be 3836 a7bd 30d5 99be aef8 a93e
000003a0: d927 6abc fd3b 4cbd e4ce 3fbe efca 133e
000003b0: 94d6 0dbd 4f6c 73be b699 de3e d56e c2be
000003c0: 2ad3 b73d b692 01be aa4b 5a3d 53da 243d
000003d0: 6206 803e 03c2 683c ce3b 95bc 6a7c 1bbe
000003e0: d571 e13d 352e 863e 7358 bb3e 394f 8d3e
000003f0: 8552 713b cff6 ac3d d2ec 453e 9fea 823d

lstm.bias_ih_l0 f4 [44]
0.14413634 0.24270888 0.28044787 -0.16781105 0.22716147 -0.06282559 -0.06788913 0.21520886
-0.12814774 0.3622506 0.46477988 0.19687773 0.25756335 0.11545103 -0.008004677 0.037173215
0.19619156 0.13911203 -0.0675751 0.32528892 -0.088223234 0.47548196 0.14206046 0.106158964
0.05683346 -0.02630229 0.14476235 -0.09360705 -0.16192938 0.15259588 0.0055824984 -0.17296201
-0.34479105 -0.06751296 0.24966659 0.043225937 -0.13739257 0.42289385 0.16925134 0.06316984
-0.0757123 -0.0032774662 -0.1087134 -0.12924531
00000000: 7a98 133e ad88 783e dd96 8f3e a9d6 2bbe
00000010: 049d 683e b4aa 80bd 7509 8bbd b65f 5c3e
00000020: 2939 03be e978 b93e a1f7 ed3e 519a 493e
00000030: 58df 833e 9771 ec3d 0c26 03bc f142 183d
00000040: 71e6 483e 6273 0e3e d064 8abd 458c a63e
00000050: 62ae b4bd 5f72 f33e 4c78 113e df69 d93d
00000060: 34ca 683d e677 d7bc 953c 143e 0eb5 bfbd
00000070: d1d0 25be 1842 1c3e 64ed b63b f41c 31be
00000080: 7488 b0be 3c44 8abd 99a8 7f3e ae0d 313d
00000090: a3b0 0cbe 8b85 d83e 3950 2d3e 305f 813d
000000a0: 0d0f 9bbd c2ca 56bb 22a5 debd e258 04be

lstm.bias_hh_l0 f4 [44]
-0.17160983 0.23428883 0.22769515 -0.024146708 0.02786433 -0.16086794 0.1790535 -0.17892897
0.034683798 0.2773184 -0.11495023 0.13373521 0.14115891 -0.1170108 0.23956919 0.37592706
0.42305502 0.040701244 -0.0047138063 0.5393545 0.32105166 0.27966788 0.24857867 -0.067569494
-0.025216047 -0.2749181 0.087092474 -0.011622708 -0.39367166 0.16482344 0.026066855 -0.15310569
-0.23545453 0.26128173 0.32653105 0.23843081 -0.03239651 -0.11898208 -0.04333373 0.49217242
-0.3060643 0.37403813 0.12567364 0.057716608
00000000: 7dba 2fbe 69e9 6f3e eb28 693e 51cf c5bc
00000010: bc43 e43c 91ba 24be cd59 373e 2839 37be
00000020: 9910 0e3d adfc 8d3e 076b ebbd e2f1 083e
00000030: f68b 103e 5ca3 efbd a051 753e 8379 c03e
00000040: ab9a d83e 59b6 263d 4676 9abb 2313 0a3f
00000050: e260 a43e a130 8f3e 688b 7e3e e061 8abd
00000060: e291 cebc 11c2 8cbe 8a5d b23d 2c6d 3ebc
00000070: 558f c9be 7ac7 283e 288a d53c bdc7 1cbe
00000080: fe1a 71be b8c6 853e 142f a73e 3527 743e
00000090: 34b2 04bd e0ac f3bd b67e 31bd 06fe fb3e
000000a0: 76b4 9cbe ed81 bf3e 97b0 003e 4068 6c3d

linear.model.0.weight f4 [2, 11]
-0.0353698 -0.25307027 0.44588822 0.41347978 -0.17898111 -0.19463068 -0.2715692 -0.120561875
0.07894675 -0.12091829 -0.21851039 -0.17472829 -0.1555944 -0.14694217 -0.34410405 -0.321652
0.16276206 -0.059554305 0.12649146 -0.2281576 -0.3745156 -0.11959202
00000000: ecdf 10bd 6d92 81be 764b e43e 9fb3 d33e
00000010: d346 37be 444d 47be 1e0b 8bbe 25e9 f6bd
00000020: d5ae a13d 02a4 f7bd 30c1 5fbe f9eb 32be
00000030: 2354 1fbe 0278 16be 682e b0be 92af a4be
00000040: 19ab 263e 37ef 73bd fa86 013e 25a2 69be
00000050: 82c0 bfbe a9ec f4bd

linear.model.0.bias f4 [2]
-0.19038087 -0.16615216
00000000: 34f3 42be cb23 2abe
