examples/2_streamflow_isotope_simulation/results/20241125_101506_612553/loss_c60a7_00000_0_batch_size=4,hidden_size=21,learning_rate=0.0050,n_epochs=225,num_layers=1_2024-11-25_10-15-11/checkpoint_000010/model.pt (torch, 11764 bytes, 6 tensors)

lstm.weight_ih_l0 f4 [84, 4]
0.24281725 -0.15747079 0.12032991 -0.09172875 0.20040815 0.24507965 0.37190402 0.07575317
0.4633426 -0.107779816 0.31983918 -0.1302607 0.28199154 -0.05411003 0.12458733 0.123417825
0.0009765831 0.12389068 -0.32108742 -0.18012221 -0.17124473 -0.15291947 -0.08963013 -0.123106286
0.1824188 -0.16256134 0.12455166 -0.10726285 0.25721192 -0.32744431 -0.04721386 -0.22157761
0.2093386 -0.0073042423 0.34558114 0.13488314 0.39241308 -0.21240355 0.0028410489 0.10988276
0.42289376 -0.051058475 -0.20273447 -0.24480088 0.23762923 0.030431317 0.051597245 -0.043705914
0.5021749 0.10885802 0.046535503 -0.06571039 -0.0070694312 -0.10346911 -0.028042575 -0.177675
0.24644934 0.07918766 0.025573917 -0.37636903 0.018798668 -0.12676975 0.15849236 -0.27000058
0.40549237 0.059556346 -0.2095625 0.1791845 0.18443462 0.06850893 0.06849463 -0.136079
0.4759984 0.25889802 0.16116753 0.09639647 0.21722296 0.21335718 0.08803314 -0.29426548
0.35575524 -0.22215626 0.141966 -0.029507631 0.12772506 -0.024274573 -0.11153072 -0.3096719
0.12644704 0.058874063 0.11133268 0.14115182 0.03066653 0.03817896 0.103948146 0.04989664
0.15038249 0.12552191 0.15000196 0.050353583 0.15777425 -0.22784413 -0.18298571 -0.3174694
-0.32062596 0.2826523 0.30719063 -0.16483667 0.28708586 -0.02342238 0.071493305 -0.10693196
0.4678647 -0.0034116763 0.049064446 -0.26418653 -0.023210246 -0.051662374 0.011487409 0.22016895
0.007899638 0.13072819 0.1351962 -0.15987834 0.25659084 -0.12855837 -0.31311506 -0.22890517
0.17021914 0.018547507 -0.031954635 -0.006382156 0.11730259 0.21454407 0.12899058 -0.13903043
-0.15376253 0.32294926 -0.065241456 0.21213786 0.101703726 0.18603396 -0.017343948 -0.24203333
0.0911076 0.12164266 0.061251238 0.07975796 0.15396082 0.0045919465 -0.15899873 0.05725371
-0.23177087 0.24442434 -0.15867276 0.15642525 0.38523045 0.29340333 -0.094364814 0.20712514
-0.038082153 -0.0048410296 0.039440807 0.12083627 0.37754714 0.044578847 -0.1218663 -0.01454758
0.2545743 -0.1855648 0.02738103 -0.0097382795 0.4859284 -0.038765755 -0.009866773 -0.07220823
-0.18498512 0.2666288 -0.086123124 -0.15931855 -0.26463887 0.21355158 0.091457546 0.07427794
0.1049729 0.13699934 0.112813935 0.23923084 0.039038837 -0.23990832 0.16928384 0.27756426
-0.02818006 -0.24991775 -0.077389434 0.07641394 0.11531806 -0.06409697 -0.17194524 -0.12051604
-0.32919914 -0.18305854 0.115629666 0.07790497 -0.36720264 -0.15510878 -0.18167526 0.17576171
0.2826886 -0.05408411 0.25635788 0.31822807 0.2123236 0.28549212 0.1644334 0.12171313
-0.15909025 0.40541467 0.009013119 0.0068239663 -0.11370326 0.1364146 -0.0466808 -0.25703633
-0.008587642 0.04585963 0.08911361 0.22678949 -0.12141006 -0.011405903 -0.12336374 0.16849485
0.19896592 0.13994865 0.29114953 -0.28433147 -0.414596 -0.09428383 -0.081478566 0.08062719
0.009609864 -0.26361322 -0.26028833 -0.0676613 0.25215432 -0.20119643 0.10081367 0.14297934
0.18573916 0.26706916 0.15943812 0.02767324 0.23189797 -0.12594315 0.015873307 0.041714165
00000000: 16a5 783e 0640 21be 876f f63d 48dc bbbd
00000010: cb37 4d3e 29f6 7a3e 346a be3e 7a24 9b3d
00000020: 3e3b ed3e aabb dcbd f6c1 a33e 1063 05be
00000030: 3261 903e 7ba2 5dbd a427 ff3d 7cc2 fc3d
00000040: b100 803a 66ba fd3d 9265 a4be f571 38be
00000050: c75a 2fbe ec96 1cbe 0090 b7bd 261f fcbd
00000060: fecb 3a3e 7b76 26be f114 ff3d a0ac dbbd
00000070: 48b1 833e c8a6 a7be 5263 41bd 3ee5 62be
00000080: dc5c 563e 6d58 efbb 03f0 b03e ce1e 0a3e
00000090: 5eea c83e 5180 59be e430 3a3b 360a e13d
000000a0: 8885 d83e b122 51bd a099 4fbe 15ad 7abe
000000b0: 1455 733e 194b f93c a257 533d f904 33bd
000000c0: 898e 003f f4f0 de3d 039c 3e3d 2b93 86bd
000000d0: b0a6 e7bb 9de7 d3bd 8bb9 e5bc 6ff0 35be
000000e0: 375d 7c3e 242d a23d 6480 d13c 71b3 c0be
000000f0: aaff 993c eecf 01be d24b 223e 843d 8abe
00000100: b29c cf3e 5bf1 733d 8d97 56be 247c 373e
00000110: 6edc 3c3e 694e 8c3d ea46 8c3d 4b58 0bbe
00000120: 10b6 f33e 488e 843e 1a09 253e 836b c53d
00000130: b26f 5e3e 4e7a 5a3e b84a b43d f7a9 96be
00000140: 8d25 b63e ee7c 63be 895f 113e fdb9 f1bc
00000150: 5cca 023e 78db c6bc 386a e4bd 518d 9ebe
00000160: 557b 013e ee25 713d 6302 e43d 1a8a 103e
00000170: 6038 fb3c 8b61 1c3d c4e2 d43d 6b60 4c3d
00000180: defd 193e d188 003e 1d9a 193e 8f3f 4e3d
00000190: 938f 213e f94f 69be 9b60 3bbe 598b a2be
000001a0: 1629 a4be cdb7 903e 1748 9d3e f2ca 28be
000001b0: ebfc 923e 4be0 bfbc 156b 923d 25ff dabd
000001c0: f68b ef3e 6e96 5fbb cdf7 483d 7543 87be
000001d0: 6a23 bebc ed9b 53bd af35 3c3c f873 613e
000001e0: 7c6d 013c 9cdd 053e df70 0a3e 26b7 23be
000001f0: e05f 833e cea4 03be 9e50 a0be 1e66 6abe
00000200: ed4d 2e3e f1f0 973c dde2 02bd 6821 d1bb
00000210: 573c f03d 71b1 5b3e 1b16 043e fe5d 0ebe
00000220: ed73 1dbe 9b59 a53e 509d 85bd ab3a 593e
00000230: 0b4a d03d b07f 3e3e e514 8ebc 96d7 77be
00000240: 9f96 ba3d c91f f93d 94e2 7a3d 2458 a33d
00000250: e8a7 1d3e 0a78 963b 90d0 22be de82 6a3d
00000260: 5855 6dbe 604a 7a3e 1d7b 22be f12d 203e
00000270: ed3c c53e f638 963e 5742 c1bd 9d18 543e
00000280: 08fc 1bbd 80a1 9ebb af8c 213d 0279 f73d
00000290: dc4d c13e 4f98 363d 0a95 f9bd f958 6ebc
000002a0: 9057 823e b304 3ebe 2f4e e03c 4e8d 1fbc
000002b0: 9bcb f83e d7c8 1ebd 3fa8 21bc e9e1 93bd
000002c0: bd6c 3dbe 9283 883e 5261 b0bd 6724 23be
000002d0: bf7e 87be 44ad 5a3e 184e bb3d 081f 983d
000002e0: 08fc d63d 8e49 0c3e fe0a e73d eef8 743e
000002f0: 30e7 1f3d 87aa 75be be58 2d3e e71c 8e3e
00000300: dfd9 e6bc 70ea 7fbe 5a7e 9ebd e97e 9c3d
00000310: e02b ec3d 4645 83bd 6a12 30be 1dd1 f6bd
00000320: ca8c a8be b373 3bbe 3fcf ec3d a48c 9f3d
00000330: fc01 bcbe d6d4 1ebe 1409 3abe e1fa 333e
00000340: 8fbc 903e 4d87 5dbd 5741 833e caee a23e
00000350: 5c6b 593e 062c 923e 3b61 283e bc44 f93d
00000360: 8ee8 22be 8392 cf3e c3ab 133c 949b df3b
00000370: 41dd e8bd 45b0 0b3e 5e34 3fbd 449a 83be
00000380: 2eb3 0cbc 4fd7 3b3d 3281 b63d 813b 683e
00000390: d6a5 f8bd d3df 3abc 21a6 fcbd ea89 2c3e
000003a0: b9bd 4b3e b34e 0f3e 8d11 953e e593 91be
000003b0: ed45 d4be e117 c1bd 3cde a6bd de1f a53d
000003c0: b172 1d3c 50f8 86be 8344 85be 0292 8abd
000003d0: 5f1a 813e 7006 4ebe 6677 ce3d 2d69 123e
000003e0: 6832 3e3e 4abd 883e bf43 233e feb2 e23c
000003f0: a976 6d3e 3ef7 00be bd08 823c 79dc 2a3d

lstm.weight_hh_l0 f4 [84, 21]
0.03651885 0.5542113 -0.074467085 -0.21337683 -0.1852207 0.15154272 0.20717885 0.34258607
0.09130071 -0.29020038 0.010242609 0.16021961 0.035462588 -0.0145590445 0.123062514 -0.29854944
0.10272343 0.053385753 0.18818726 -0.20705205 -0.22957297 0.04215046 -0.079518646 -0.08028583
0.19396703 0.33347023 -0.20671225 -0.33056673 0.18103294 -0.011205998 -0.30570495 0.09903526
-0.0820547 0.10468754 -0.095668554 0.055220723 -0.0030385288 0.27337155 -0.025678456 -0.17728162
0.02017415 0.28643408 0.105732985 -0.073933646 -0.15250047 -0.15092583 -0.12067034 -0.08718202
-0.29629356 -0.16945267 -0.010315233 -0.40938124 0.2674657 -0.02873397 0.053861286 -0.064582035
0.25846893 -0.05729551 0.1281608 -0.116906635 0.054825515 0.13061874 0.12798348 0.18755798
0.21837991 -0.13276327 0.09825042 0.106248446 -0.08272169 -0.121906765 -0.03904558 -0.1450481
-0.20857573 -0.011236301 -0.1038791 0.1166342 -0.06908329 0.16692634 -0.34674394 0.090118796
-0.012701826 0.07533456 -0.14696886 0.18342286 0.3535631 0.15981407 -0.08461772 -0.07793361
-0.08499765 0.2686679 -0.10905282 0.24163988 0.08187396 0.021777684 -0.00435312 -0.15737845
-0.12412706 0.16771817 -0.04454044 -0.061812297 0.0043666456 -0.20687853 0.1707972 0.07146352
0.04449916 0.2496884 0.101992995 -0.059940808 0.1308556 -0.2905775 -0.043642614 -0.21577539
-0.029606562 0.19615816 -0.32917795 -0.18988119 -0.011113038 -0.033304833 -0.014772403 -0.17669109
0.13133529 0.260192 -0.20120558 -0.10403866 -0.2111989 -0.06359395 0.15021597 0.12286313
0.0074787587 0.08455136 -0.12705147 -0.16532679 0.110142484 0.07453764 0.053751025 -0.20530878
-0.054677926 -0.1480707 -0.024608571 0.078989945 0.0045430125 -0.1868599 0.071283534 -0.089796
-0.19126767 0.1864072 0.18053281 -0.05449004 -0.13998216 -0.0666781 -0.2686931 -0.22367282
0.09625918 0.09480258 0.13739403 -0.121667996 -0.0012142886 -0.14492546 -0.20594585 -0.16212855
0.21511209 0.1720559 0.12698552 0.26626885 0.10892985 -0.11471801 -0.025240403 0.055928335
0.03714094 0.20030104 -0.07981034 0.02196563 -0.092396244 0.028804434 -0.034490533 0.19575015
0.16257606 -0.036653854 0.41760942 -0.0073376438 -0.048268553 -0.26437905 0.104746476 -0.275963
0.24492411 -0.08547014 -0.05052676 -0.03999371 -0.25028375 0.3278582 0.059233177 -0.058173694
-0.0678834 -0.08019186 0.0601451 -0.18885534 0.3379193 -0.3379497 -0.19079202 0.119362734
-0.027186478 0.12834027 -0.11093642 -0.26592967 -0.24438326 0.6382802 0.1645767 -0.082008846
-0.239992 0.09791012 0.0709066 0.116386585 -0.106366456 -0.08729721 0.11102746 -0.3430219
-0.19301112 0.39709926 -0.06889403 0.025123842 -0.1208383 0.1916102 0.08515109 -0.22036384
-0.27424675 -0.049563937 0.24239713 0.12197315 0.11538505 -0.14131321 -0.2935487 0.12039674
0.25326157 -0.1141485 0.10957066 -0.14816025 0.067597374 0.04899579 0.20276472 0.118072554
-0.11788317 0.038940243 -0.08805237 0.18212608 -0.27735808 -0.046373874 -0.2911593 0.13659768
-0.09280933 0.17795824 -0.08347865 -0.14342347 -0.08441389 0.35379 0.19764018 -0.13624606
00000000: ca94 153d cbe0 0d3f 3382 98bd 757f 5abe
00000010: 7faa 3dbe 042e 1b3e b126 543e 7167 af3e
00000020: defb ba3d 2595 94be 9ed0 273c 9c10 243e
00000030: 3841 113d 0f89 6ebc 3308 fc3d 79db 98be
00000040: a960 d23d 05ab 5a3d 29b4 403e 7405 54be
00000050: 2d15 6bbe f6a5 2c3d acda a2bd e66c a4bd
00000060: 4b9f 463e 9cbc aa3e 60ac 53be 0b40 a9be
00000070: b360 393e 5d99 37bc 5c85 9cbe 00d3 ca3d
00000080: 4b0c a8bd 6c66 d63d e0ed c3bd 202f 623d
00000090: 0e22 47bb 5bf7 8b3e a05b d2bc 5089 35be
000000a0: 4244 a53c 7da7 923e 898a d83d 866a 97bd
000000b0: 1529 1cbe 4d8c 1abe 0322 f7bd 7d8c b2bd
000000c0: cab3 97be 0085 2dbe 3901 29bc 6b9a d1be
000000d0: 44f1 883e 8163 ebbc a79d 5c3d 9643 84bd
000000e0: 0a56 843e b2ae 6abd 963c 033e bf6c efbd
000000f0: b890 603d ebc0 053e 1a0e 033e 330f 403e
00000100: fc9e 5f3e 18f3 07be 8437 c93d c998 d93d
00000110: fd69 a9bd 41aa f9bd 42ee 1fbd 7d87 14be
00000120: e094 55be 7618 38bc 91be d4bd e9dd ee3d
00000130: 8a7b 8dbd bdee 2a3e 6c88 b1be 3490 b83d
00000140: 521b 50bc 0149 9a3d 017f 16be 34d3 3b3e
00000150: 3906 b53e 4da6 233e 0e4c adbd a89b 9fbd
00000160: 3f13 aebd d78e 893e 1657 dfbd 7270 773e
00000170: 89ad a73d 1d67 b23c 9ea4 8ebb d127 21be
00000180: 5436 febd 50be 2b3e 0970 36bd e42e 7dbd
00000190: 1416 8f3b f7d7 53be 76e5 2e3e 775b 923d
000001a0: c044 363d 51ae 7f3e b4e1 d03d 7e84 75bd
000001b0: 03ff 053e 93c6 94be 99c2 32bd 39f4 5cbe
000001c0: 7689 f2bc afdd 483e 038a a8be 3770 42be
000001d0: 7613 36bc a66a 08bd f307 72bc 82ee 34be
000001e0: c27c 063e e337 853e d608 4ebe 3912 d5bd
000001f0: 8644 58be 8b3d 82bd 37d2 193e aa9f fb3d
00000200: 6010 f53b 4329 ad3d c819 02be 6d4b 29be
00000210: 6292 e13d 31a7 983d 092a 5c3d 773c 52be
00000220: f6f5 5fbd d89f 17be ea97 c9bc 7bc5 a13d
00000230: 8ddd 943b 3458 3fbe 1afd 913d f7e6 b7bd
00000240: acdb 43be 87e1 3e3e 98dd 383e f330 5fbd
00000250: 7c57 0fbe 878e 88bd 2492 89be 7d0a 65be
00000260: 8823 c53d db27 c23d 05b1 0c3e 122d f9bd
00000270: c428 9fba 5767 14be 78e3 52be 0705 26be
00000280: 5846 5c3e 6c2f 303e 7e08 023e 6454 883e
00000290: 9d16 df3d 47f1 eabd f6c4 cebc 1c15 653d
000002a0: 1921 183d b71b 4d3e 9b73 a3bd 44f1 b33c
000002b0: 3e3a bdbd 47f7 eb3c f245 0dbd ba72 483e
000002c0: 577a 263e 5a22 16bd e7d0 d53e 9e70 f0bb
000002d0: 3fb5 45bd b15c 87be 5285 d63d 064b 8dbe
000002e0: 63cd 7a3e f80a afbd 26f5 4ebd 72d0 23bd
000002f0: 3125 80be 08dd a73e 7d9e 723d 8a47 6ebd
00000300: 7406 8bbd a13b a4bd b55a 763d 4b63 41be
00000310: c203 ad3e be07 adbe fc5e 43be 7374 f43d
00000320: 2db6 debc a26b 033e a232 e3bd ef27 88be
00000330: 9b3f 7abe 5566 233f cb86 283e 41f4 a7bd
00000340: 76c0 75be 1a85 c83d 7b37 913d 175c ee3d
00000350: a8d6 d9bd e1c8 b2bd 5d62 e33d 91a0 afbe
00000360: b5a4 45be 9850 cb3e 5018 8dbd 84d0 cd3c
00000370: 127a f7bd 7735 443e b263 ae3d 0fa7 61be
00000380: 126a 8cbe 8e03 4bbd f436 783e 0fcd f93d
00000390: ff4e ec3d 69b4 10be 044c 96be 9192 f63d
000003a0: 80ab 813e b0c6 e9bd 9566 e03d 52b7 17be
000003b0: 7e70 8a3d cfaf 483d 8ea1 4f3e 06d0 f13d
000003c0: bb6c f1bd ce7f 1f3d cd54 b4bd 427f 3a3e
000003d0: e101 8ebe 88f2 3dbd d512 95be 43e0 0b3e
000003e0: d112 bebd af3a 363e dbf6 aabd 9add 12be
000003f0: 31e1 acbd f623 b53e 3062 4a3e 1684 0bbe

lstm.bias_ih_l0 f4 [84]
0.0018958615 -0.035456143 -0.13774964 0.2933229 -0.22815593 0.027441692 0.15797262 -0.17870161
0.22543007 0.25034052 0.026691385 -0.08913459 -0.06400292 -0.04800725 0.08468644 0.059414305
0.005842875 0.3490716 -0.075119145 0.18224828 0.016021008 -0.08367566 0.21119529 -0.015847463
-0.011851723 -0.037908085 0.13594133 0.0042713685 0.036519896 0.19389771 0.019923989 0.15597533
0.047704797 -0.056496266 0.020538762 -0.13138379 0.25947115 -0.14261137 0.14428061 0.05233292
0.14126615 0.3609578 0.21180736 0.15450947 0.07696942 -0.1462613 0.011913173 -0.080945455
-0.023250524 0.3260757 -0.02872662 0.22057843 0.20119502 -0.0025534336 -0.094037436 -0.16468404
-0.18519102 0.08103972 -0.004190764 -0.037858896 -0.18949683 -0.05052521 -0.13749932 0.116777234
0.057659704 0.17732644 0.23987019 -0.056884337 -0.14494358 0.10984607 -0.12174764 0.13068268
0.15880576 0.031651035 0.031602144 -0.14363037 -0.07980521 -0.0011047621 0.12317067 0.271208
0.11184744 0.1760063 0.07526509 0.275049
00000000: 8e7e f83a 763a 11bd 3e0e 0dbe 6b2e 963e
00000010: b5a1 69be 66cd e03c 93c3 213e 8efd 36be
00000020: 24d7 663e a22c 803e e4a7 da3c 328c b6bd
00000030: f713 83bd 40a3 44bd 1670 ad3d 6a5c 733d
00000040: 9775 bf3b 83b9 b23e 11d8 99bd 4b9f 3a3e
00000050: 7d3e 833c 255e abbd 9443 583e 8ad2 81bc
00000060: bb2d 42bc 8245 1bbd 3434 0b3e d6f6 8b3b
00000070: e395 153d 1f8d 463e a237 a33c ffb7 1f3e
00000080: 1b66 433d a168 67bd e840 a83c 7989 06be
00000090: 67d9 843e b708 12be 4cbe 133e 0b5b 563d
000000a0: 13a8 103e 76cf b83e 07e4 583e bb37 1e3e
000000b0: 25a2 9d3d 86c5 15be 782f 433c bbc6 a5bd
000000c0: e277 bebc 65f3 a63e 1754 ebbc 50df 613e
000000d0: 1106 4e3e 8257 27bb b396 c0bd efa2 28be
000000e0: b7a2 3dbe 27f8 a53d ad52 89bb ee11 1bbd
000000f0: 750b 42be 86f3 4ebd 9fcc 0cbe e728 ef3d
00000100: 952c 6c3d 1095 353e 88a0 753e 8dff 68bd
00000110: 176c 14be faf6 e03d d456 f9bd aed1 053e
00000120: fa9d 223e 84a4 013d 4071 013d d713 13be
00000130: ea70 a3bd aacd 90ba e740 fc3d c6db 8a3e
00000140: 4510 e53d ff3a 343e 9524 9a3d 39d3 8c3e

lstm.bias_hh_l0 f4 [84]
0.006852997 -0.09737999 0.07865429 0.18375541 0.0032868688 0.15325078 0.15715037 0.06610267
0.22768235 0.27954063 0.14025359 -0.09755412 0.08245243 -0.027992602 0.067969576 0.15246229
0.14811328 0.22257803 0.19940917 0.09891115 0.15798317 0.071843185 -0.03127706 0.00012185646
0.14679128 -0.012139676 0.16162854 0.005175512 0.077805765 0.20318024 0.04565966 -0.019500475
0.18629947 0.1703952 -0.09805856 -0.08655671 0.080838665 -0.12512204 0.3043695 0.052614808
0.1384446 -0.0045232037 -0.16933197 0.09651341 -0.12862788 0.0552312 -0.117901936 -0.21670689
-0.015266572 0.0017981337 -0.09682297 -0.013068392 -0.16610155 0.09847843 0.1672776 -0.036804464
-0.20632455 -0.17541221 0.101317465 0.20728713 -0.047209222 -0.16650395 -0.111061186 0.32686263
-0.05539458 0.17916143 0.18408929 0.024565358 -0.2075672 0.13100135 -0.164836 0.2866692
0.2502795 0.3864734 -0.08421675 0.22327872 -0.068000674 0.021846963 0.13750286 0.085015856
0.18675114 0.2682456 -0.09898319 -0.07093114
00000000: 1b8f e03b 296f c7bd 8015 a13d 612a 3c3e
00000010: 8268 573b c6ed 1c3e 07ec 203e d660 873d
00000020: 9025 693e f31f 8f3e a39e 0f3e 74ca c7bd
00000030: d2dc a83d be50 e5bc a233 8b3d 131f 1c3e
00000040: 02ab 173e 7feb 633e eb31 4c3e ee91 ca3d
00000050: 57c6 213e 8522 933d 601c 00bd 308d ff38
00000060: 7450 163e 7ee5 46bc f481 253e 5797 a93b
00000070: a158 9f3d 7b0e 503e a005 3b3d 76bf 9fbc
00000080: 4ac5 3e3e 147c 2e3e edd2 c8bd a544 b1bd
00000090: be8e a53d fe1f 00be 52d6 9b3e a082 573d
000000a0: 6cc4 0d3e 6237 94bb 5c65 2dbe d3a8 c53d
000000b0: 07b7 03be 1c3a 623d 9276 f1bd 69e8 5dbe
000000c0: a520 7abc 5baf eb3a 1f4b c6bd cf1c 56bc
000000d0: 8616 2abe 0faf c93d d24a 2b3e 47c0 16bd
000000e0: be46 53be 429f 33be 887f cf3d 1443 543e
000000f0: 755e 41bd 0380 2abe 0c74 e3bd 8a5a a73e
00000100: 6de5 62bd 1876 373e e781 3c3e 4a3d c93c
00000110: 7f8c 54be 3825 063e c5ca 28be 4ec6 923e
00000120: a224 803e d7df c53e d579 acbd 2da3 643e
00000130: f043 8bbd 67f8 b23c 8dcd 0c3e cb1c ae3d
00000140: b13b 3f3e 7d57 893e b3b7 cabd 5844 91bd

linear.model.0.weight f4 [2, 21]
0.3876976 0.34709257 -0.44628614 -0.38357472 0.2446164 0.12012357 -0.09683328 0.24410613
-0.4957601 -0.47146285 0.4645952 0.3478009 -0.3506578 0.09033411 -0.054352812 0.034371875
0.44733143 -0.2989931 0.048703473 0.14861557 -0.036523715 -0.24769504 0.31368998 -0.009489224
-0.022928877 0.01761081 -0.026249008 -0.22893633 -0.10196096 -0.04187119 -0.25149268 0.32718724
0.14598562 0.23734355 -0.11401419 0.26151586 -0.097229674 -0.24323241 -0.048202857 -0.18312183
-0.053543527 0.28569672
00000000: 4d80 c63e 1eb6 b13e 9e7f e4be e863 c4be
00000010: b97c 7a3e 5903 f63d 8750 c6bd f5f6 793e
00000020: 45d4 fdbe 9463 f1be 6cdf ed3e f612 b23e
00000030: 6b89 b3be 1701 b93d 0ea1 5ebd 86c9 0c3d
00000040: a008 e53e a015 99be 4b7d 473d ae2e 183e
00000050: e499 15bd c5a3 7dbe f99b a03e b178 1bbc
00000060: 57d5 bbbc 8c44 903c 2908 d7bc 496e 6abe
00000070: e8d0 d0bd 2081 2bbd a6c3 80be 1685 a73e
00000080: 417d 153e 300a 733e 4680 e9bd 68e5 853e
00000090: 5a20 c7bd eb11 79be 5c70 45bd 4a84 3bbe
000000a0: 7550 5bbd d746 923e

linear.model.0.bias f4 [2]
-0.040792603 -0.01241945
00000000: 2516 27bd f37a 4bbc
