examples/2_streamflow_isotope_simulation/results/20241125_101506_612553/loss_c60a7_00005_5_batch_size=8,hidden_size=17,learning_rate=0.0020,n_epochs=251,num_layers=2_2024-11-25_10-15-11/checkpoint_000005/model.pt (torch, 19740 bytes, 10 tensors)

lstm.weight_ih_l0 f4 [68, 4]
0	0xbe02d01a	-0.12774697
1	0x3dcfad90	0.10140526
2	0x3df61430	0.12015569
3	0xbe164beb	-0.14677398
4	0xbc9e8c5b	-0.019354036
5	0xbe23b3fb	-0.15986626
6	0x3d98c0b7	0.074586324
7	0x3cce82a7	0.025208784
8	0x3e56fce8	0.20994914
9	0xbdd5fe9b	-0.10448953
10	0xbd1f73f6	-0.03892895
11	0xbd02e4db	-0.031956535
12	0xbe7489bf	-0.23880671
13	0x3e2d070b	0.16897218
14	0xbe695c96	-0.22789225
15	0xbe1be16a	-0.15222707
16	0x3e99c52a	0.30033237
17	0x3e16a641	0.14711858
18	0xbe299acb	-0.16562955
19	0x3d399b6b	0.045314234
20	0xbe8f22dc	-0.27956283
21	0xbcc22256	-0.023698013
22	0x3dabc9d0	0.08388102
23	0x3d1936a7	0.037405636
24	0xbd96381f	-0.07334923
25	0x3e12f296	0.14350352
26	0xbd266148	-0.04062012
27	0xbe7aa870	-0.24478316
28	0x3e94480b	0.28961214
29	0x3ce0fc92	0.027464185
30	0xbe09cdec	-0.13457459
31	0x3e1dbc06	0.15403756
32	0xbdbf294b	-0.09334048
33	0xbe0120a1	-0.12610103
34	0xbe6eac3d	-0.23307891
35	0x3e4cab3c	0.19987196
36	0x3d07ea55	0.03318246
37	0xbdc78b4e	-0.09743367
38	0x3d99aabd	0.07503269
39	0x3d34f88d	0.04418235
40	0x3e48286c	0.1954667
41	0x3ce07de6	0.027403783
42	0x3e29d533	0.16585235
43	0x3e0f840d	0.14015217
44	0x3e0b5c46	0.13609418
45	0xbd5783a3	-0.052615773
46	0xbba2b19b	-0.00496502
47	0xbcd3c58d	-0.025851035
48	0xbe27091a	-0.16312066
49	0x3e397882	0.18112376
50	0xbe82507d	-0.25452033
51	0xbe275e81	-0.16344644
52	0x3e55488d	0.20828457
53	0xbe752d9f	-0.23943184
54	0xbe203cf1	-0.15648247
55	0x3e7475cc	0.23873061
56	0x3ea0a8a3	0.3137866
57	0x3d824abd	0.063619114
58	0x3c12a643	0.008950773
59	0xbdba8437	-0.09107249
60	0x3deb96f2	0.115034
61	0x3c0a0041	0.008422912
62	0xbd8dfd4a	-0.06933077
63	0x3e211930	0.15732265
64	0x3e99ee8f	0.30064818
65	0xbe17bb2d	-0.14817496
66	0xbddca7aa	-0.10774167
67	0x3d1b6cd5	0.037945587
68	0xbc01064c	-0.007875036
69	0x3e98e825	0.29864612
70	0xbd79035d	-0.060794223
71	0xbe12daf3	-0.14341335
72	0x3e9ac972	0.30231816
73	0x3e8b8cc2	0.27255827
74	0x3e970ad2	0.29500443
75	0x3e1b245c	0.15150589
76	0x3e177828	0.1479193
77	0x3e2288df	0.15872525
78	0x3e604320	0.21900606
79	0x3e5e137d	0.21687122
80	0x3e8c1ec5	0.27367225
81	0xbda6f802	-0.081527725
82	0xbe8d0d2f	-0.2754912
83	0xbe53a6ae	-0.20669052
84	0x3ea2e735	0.31817022
85	0x3e0f6a80	0.1400547
86	0x3d401449	0.046894345
87	0xbe10d28a	-0.14142814
88	0xbe8981c0	-0.26856804
89	0x3d98e5b0	0.074656844
90	0xbe39cde1	-0.18144943
91	0x3da6c292	0.0814258
92	0x3e44d506	0.19221887
93	0x3e5d0d93	0.2158721
94	0x3cba8df9	0.022772776
95	0x3dac544c	0.08414516
96	0xbc87582f	-0.016521541
97	0xbd1d4b19	-0.038401697
98	0x3d97b85b	0.0740821
99	0x3e684441	0.22682287
100	0x3cb9d3b8	0.022683963
101	0x3e71250f	0.23549293
102	0x3d91e162	0.071230665
103	0xbe8b711e	-0.2723474
104	0x3e6b71ea	0.22992674
105	0xbe91b387	-0.2845728
106	0xbd1e0c4d	-0.03858595
107	0x3d2216e9	0.03957263
108	0x3e844fb6	0.25842065
109	0xbdfc7185	-0.1232634
110	0x3e97091d	0.2949914
111	0x3db15a74	0.08659831
112	0xbc8b1244	-0.016976483
113	0x3d172f07	0.036910083
114	0x3e02ddf7	0.12779985
115	0x3d032e70	0.032026708
116	0xbe1bc76b	-0.1521279
117	0xbe8217e7	-0.2540886
118	0xbd443d43	-0.047909986
119	0xbe41d9fc	-0.1893081
120	0xbdb3c34f	-0.087774865
121	0xbe585e69	-0.21129765
122	0xbd49d2a4	-0.04927315
123	0xbe3d5278	-0.1848849
124	0xbbacebce	-0.0052771335
125	0x3d44822d	0.047975708
126	0x3e172acf	0.14762424
127	0xbe3aa5bb	-0.18227284
128	0xbe83fe94	-0.25780165
129	0xbd1bd901	-0.038048748
130	0xbe82c75d	-0.25542727
131	0xbc62a618	-0.013833545
132	0x3e1b74c9	0.15181269
133	0xbd83686f	-0.064164035
134	0xbce29a1c	-0.027661376
135	0x3e89a5a2	0.2688418
136	0xbeacae17	-0.3372657
137	0xbe4eb444	-0.20185953
138	0xbe822008	-0.25415063
139	0x3e7ba617	0.24575077
140	0x3e415f17	0.1888393
141	0x3e42761d	0.18990369
142	0x3e24c355	0.16090138
143	0xbdbfd280	-0.093663216
144	0x3d925db8	0.07146782
145	0x3df50f1f	0.11965775
146	0x3e824405	0.2544252
147	0xbca566fc	-0.020190708
148	0xbe58b5de	-0.21163127
149	0xbe33aad7	-0.17545639
150	0x3d1f700f	0.038925227
151	0x3e1b25db	0.1515116
152	0x3ce8ce40	0.02841866
153	0x3e36499a	0.17801514
154	0x3de726f5	0.11286727
155	0x3dea4c0f	0.11440288
156	0xbdb4583a	-0.088058904
157	0xbd9872a5	-0.07443742
158	0x3e025064	0.12725979
159	0xbe56db14	-0.20982009
160	0x3e91c58e	0.28471035
161	0xbdf4196a	-0.1191891
162	0x3d3a0c49	0.045421872
163	0x3d55f18a	0.052232303
164	0x3e86e74a	0.26348335
165	0xbdd756a8	-0.10514575
166	0x3e4dac46	0.20085248
167	0x3da6fa34	0.08153191
168	0xbcdd0565	-0.026980111
169	0xbd25089a	-0.040291406
170	0x3e467eeb	0.19384353
171	0xbe0d0d5b	-0.13774626
172	0xbd130e2f	-0.0359022
173	0xbe89692b	-0.2683805
174	0xbe15caa7	-0.14628087
175	0xbdc9e8f2	-0.09858884
176	0x3e430a97	0.19047008
177	0x3c43c900	0.011949778
178	0x3d835995	0.06413571
179	0x3d41110f	0.04713541
180	0xbda47308	-0.08029753
181	0xbe0a97f4	-0.13534528
182	0xbe85676f	-0.26055476
183	0x3de4d06d	0.111725666
184	0x3ead491c	0.3384484
185	0x3dd87b20	0.10570359
186	0x3ddb552e	0.10709606
187	0xbbfb96fa	-0.00767791
188	0xbeaa6feb	-0.33288512
189	0xbd5f6e9d	-0.05454885
190	0x3d20dd34	0.039273456
191	0x3e329c4b	0.17442434
192	0xbe856ca6	-0.26059455
193	0x3da5b54e	0.08091222
194	0x3da5ec03	0.08101656
195	0x3e33a5cf	0.1754372
196	0x3e51ed75	0.20500739
197	0x3d9e8d3a	0.077417806
198	0xbe12002a	-0.14257875
199	0xbe446612	-0.19179562
200	0xbe131902	-0.14365008
201	0x3e27ceb8	0.1638745
202	0x3dc8aa68	0.097981274
203	0xbe23d70e	-0.16000006
204	0x3e8aeb40	0.27132607
205	0x3e630225	0.22168787
206	0x3dd5baf4	0.10436049
207	0x3e725ea6	0.23668918
208	0x3d9bd271	0.07608498
209	0xbd4d0a4f	-0.05005866
210	0x3dc3a936	0.09553759
211	0x3e27933b	0.16364758
212	0xbe3bac98	-0.18327558
213	0xbd35e5fd	-0.044408787
214	0x3e9716de	0.29509634
215	0x3e7ebf65	0.24877699
216	0xbe31967e	-0.17342564
217	0xbe2a59dc	-0.16635841
218	0xbdacdced	-0.08440576
219	0x3e2e5b02	0.17026904
220	0x3ead749b	0.33878025
221	0x3aae3151	0.0013289844
222	0xbe371e03	-0.17882542
223	0xbe03c1ee	-0.12866947
224	0xbe94a077	-0.29028675
225	0xbdc0d7af	-0.094161384
226	0x3d9f4663	0.07777097
227	0xbe4bd72e	-0.19906303
228	0x3da22d20	0.07918763
229	0x3e930dd8	0.287215
230	0x3e795f5d	0.24352784
231	0xbd1c6260	-0.038179755
232	0x3e0ed295	0.13947518
233	0xbe2cde52	-0.16881683
234	0x3df0f7f6	0.11766045
235	0x3daeeabe	0.08540867
236	0x3ddeb2d4	0.108739525
237	0x3da13db4	0.07873097
238	0xbe28fea0	-0.16503382
239	0xbdf7d312	-0.12100805
240	0x3e2f0c6f	0.17094587
241	0xbe5e0b49	-0.21683992
242	0xbce45b02	-0.027875427
243	0x3cfae45a	0.030626465
244	0x3b6637ef	0.0035128554
245	0xbbf5d8f2	-0.0075026685
246	0x3dd5e8b4	0.10444775
247	0xbdd19324	-0.10233143
248	0x3be3c8f5	0.006951446
249	0x3e19f2cf	0.1503403
250	0xbe037fad	-0.12841673
251	0xbc2aa735	-0.010415842
252	0x3d259acb	0.040430825
253	0xbe9e514e	-0.30921406
254	0x3b977b93	0.0046228855
255	0xbd24f0fd	-0.040268887

lstm.weight_hh_l0 f4 [68, 17]
0	0x3d0320c5	0.032013673
1	0x3e850512	0.2598043
2	0x3e8afa06	0.27143878
3	0xbe152c84	-0.14567763
4	0xbcf3ad3d	-0.029745692
5	0x3e2e86f0	0.17043662
6	0x3e936ad1	0.28792432
7	0xbd5fdd2c	-0.054654285
8	0x3dc5b0e6	0.09652881
9	0x3e18181b	0.14852946
10	0x3e2cd92f	0.16879724
11	0x3d8e7800	0.06956482
12	0xbea3557d	-0.3190116
13	0xbdb36ad1	-0.08760608
14	0x3d714114	0.058899954
15	0xbdca7fb1	-0.098876365
16	0x3e8bdee4	0.2731849
17	0xbe4bf9fa	-0.19919577
18	0x3e869acf	0.26289985
19	0x3dbf39c3	0.09337189
20	0x3bbcea8c	0.005765265
21	0xbe3991fa	-0.18122092
22	0x3e6fb817	0.23410068
23	0x3e23e209	0.16004194
24	0xbc6694b0	-0.014073536
25	0x3e254672	0.16140154
26	0xbcd42c18	-0.025899932
27	0x3e9730bd	0.29529372
28	0xbe525d8d	-0.205435
29	0xba42660c	-0.0007415719
30	0x3e2e9f37	0.17052923
31	0x3e66b392	0.22529438
32	0x3e2fa793	0.17153768
33	0x3b20050c	0.002441707
34	0x3daf415e	0.0855739
35	0xbded9bc2	-0.11601974
36	0x3e062a9c	0.13102192
37	0x3e27be39	0.16381158
38	0xbd92c244	-0.071659595
39	0x3e5353f6	0.20637497
40	0x3cf0592e	0.0293394
41	0xbd66335b	-0.05620132
42	0xbe71808d	-0.23584194
43	0xbda4fc77	-0.08055966
44	0x3bdca0ab	0.0067330203
45	0xbe0e9a86	-0.13926134
46	0x3e3fe2bd	0.18738838
47	0xbe6cc3f6	-0.23121628
48	0x3e48c3dd	0.19605966
49	0x3d8e4a0e	0.069477186
50	0xbddac594	-0.10682216
51	0x3e8026d0	0.25029612
52	0xbe90c658	-0.28276324
53	0x3e02ec11	0.12785365
54	0xbdbdba7a	-0.09264083
55	0xbe010a56	-0.12601599
56	0x3e02c4c7	0.12770377
57	0x3e3dceb9	0.1853589
58	0x3e12c1c0	0.14331722
59	0xbcd34f1d	-0.02579456
60	0x3e7d09b5	0.24710734
61	0x3c92b7f7	0.017909987
62	0xbe03dcd4	-0.12877208
63	0xbdf043e5	-0.117317
64	0x3c7c5af7	0.015402547
65	0xbe1bba1f	-0.15207718
66	0x3dbe3289	0.092869826
67	0xbe75148c	-0.2393362
68	0x3e517e58	0.20458353
69	0xbc8c296b	-0.017109593
70	0xbe679d99	-0.22618712
71	0x3e6599e3	0.22421984
72	0xbbbe01f4	-0.0057985727
73	0x3e21cdb5	0.15801127
74	0xbde1740a	-0.11008461
75	0x3e0d986d	0.13827677
76	0xbe5b01d8	-0.21387422
77	0x3da4d9b6	0.080493376
78	0x3e2565f3	0.16152172
79	0xbe02433c	-0.1272096
80	0xbdf20eb2	-0.11819209
81	0xbe602406	-0.21888742
82	0x3c76d1f7	0.015064708
83	0x3e0717fb	0.13192742
84	0xbe4ec2a2	-0.20191434
85	0xbdda95a1	-0.10673071
86	0x3d97f2d2	0.07419361
87	0xbd580fef	-0.05274957
88	0xbd15fa45	-0.03661563
89	0x3e869c08	0.26290917
90	0x3e7bc043	0.24585061
91	0xbe80a9bb	-0.25129494
92	0x3dadd765	0.08488349
93	0x3e432d21	0.19060184
94	0xbe9c739b	-0.3055695
95	0xbe09b162	-0.13446572
96	0xbcc2e390	-0.02379015
97	0x3dab972b	0.083784424
98	0x3df3ca08	0.11903769
99	0xbd9e5ae5	-0.077321805
100	0x3e161d8c	0.14659709
101	0xbe6a9b2a	-0.22910753
102	0xbdcca627	-0.099926285
103	0xbce555b6	-0.027994972
104	0xbd7945d1	-0.060857598
105	0x3e400a3b	0.18753903
106	0x3e611253	0.21979646
107	0x3e4b0642	0.19826606
108	0x3e7fabc0	0.24967861
109	0xbe0e029d	-0.13868184
110	0x3d6f3dae	0.05840843
111	0x3d43ca6a	0.04780046
112	0xbd8f23d4	-0.069892555
113	0xbdf9c8ee	-0.121965274
114	0x3d25fb4d	0.040522862
115	0xbe752144	-0.23938471
116	0xbcd8fd8a	-0.026488084
117	0x3d883813	0.0665132
118	0x3e4e7e97	0.20165478
119	0xbe43154b	-0.19051091
120	0x3df9403f	0.12170457
121	0x3d950c55	0.07277743
122	0xbe0234a6	-0.12715396
123	0x3dc2f920	0.09520173
124	0xbe2606d7	-0.16213547
125	0xbd0741df	-0.033021804
126	0x3cdfe0f3	0.027328944
127	0xbe35166f	-0.17684339
128	0x3d64737d	0.0557742
129	0x3dfea063	0.12432935
130	0x3e22f09a	0.15912095
131	0xbe3e3bdc	-0.18577522
132	0xbe693504	-0.2277413
133	0x3d9bf087	0.07614236
134	0x3c2147aa	0.009843746
135	0xbc4d8495	-0.012543817
136	0x3de8881e	0.11354087
137	0x3dd38620	0.10328317
138	0x3d266f9e	0.04063379
139	0xbd88f4dd	-0.06687329
140	0x3e5ac618	0.2136463
141	0xbe15d3c9	-0.14631571
142	0x3d03cc6b	0.03217737
143	0x3df44f1e	0.11929153
144	0x38b3f958	8.581829e-05
145	0x3d84b2fa	0.064794496
146	0xbe493cb1	-0.19652058
147	0xbdd9165c	-0.10599968
148	0x3dedf424	0.11618832
149	0xbe83126a	-0.25599986
150	0xbe23452d	-0.15944357
151	0xbe52d705	-0.20589836
152	0xbdea7c9d	-0.11449549
153	0xbd6e7337	-0.058215346
154	0xbe66d91d	-0.2254376
155	0xbe2c282f	-0.16812204
156	0x3e68a357	0.22718559
157	0xbea1beb2	-0.315908
158	0xbe576636	-0.21035084
159	0xbe196b3d	-0.14982314
160	0x3e33cf41	0.1755953
161	0xbd0ab0a9	-0.033859883
162	0x3e09d259	0.13459148
163	0x3e18fec4	0.14940935
164	0x3e58e288	0.21180165
165	0xbe8b731c	-0.2723626
166	0xbe2b373f	-0.16720293
167	0x3ccae307	0.024766458
168	0x3e433934	0.1906479
169	0x3e2f34ce	0.17109987
170	0xbe44fe83	-0.19237714
171	0xbc628c5e	-0.013827411
172	0x3e16ffb1	0.14745976
173	0x3e1978d8	0.14987504
174	0x3e1a0ccc	0.15043944
175	0x3e80d723	0.25164136
176	0xbdd93e19	-0.10607547
177	0x3e220687	0.15822802
178	0xbe549b17	-0.20762287
179	0x3dfec1ae	0.12439285
180	0xbd06c686	-0.03290417
181	0x3d85222b	0.06500658
182	0x3e355d1e	0.17711303
183	0x3d5279e0	0.05138576
184	0x3e575d8f	0.21031784
185	0xbdca8981	-0.09889508
186	0x3e835fd3	0.25659046
187	0xbd5764a5	-0.052586216
188	0x3e607f8e	0.21923658
189	0xbe1de317	-0.15418659
190	0xbdf008dd	-0.117204405
191	0xbea1484a	-0.31500465
192	0xbe61722e	-0.22016212
193	0x3e9842a1	0.29738334
194	0xbe0276e2	-0.12740663
195	0xbe1c3b5e	-0.15257022
196	0xbdb5995f	-0.08867144
197	0xbdf73da7	-0.12072306
198	0x3e434489	0.19069113
199	0xbd5c1658	-0.053732246
200	0x3d1c3753	0.0381387
201	0x3d2dd935	0.042443473
202	0xbc8c9710	-0.017161876
203	0xbde2d31c	-0.11075422
204	0x3cfd2bfb	0.03090476
205	0x3c7cdd92	0.015433686
206	0x3cad1f07	0.021132959
207	0x3e62dc99	0.22154464
208	0x3ddd4ad2	0.108052865
209	0x3e2205ed	0.15822573
210	0xbe1ad451	-0.15120055
211	0xbe45a97d	-0.19302936
212	0x3dc02208	0.09381491
213	0x3e9898a5	0.2980396
214	0xbd641f75	-0.055694062
215	0xbdaccd5c	-0.08437607
216	0x3d7eef8b	0.062240165
217	0x3da9bc0c	0.0828782
218	0xbe321ff1	-0.17394997
219	0xbe6bfd66	-0.23045883
220	0x3e1113f2	0.14167765
221	0xbda1df6e	-0.07903944
222	0x3e71a711	0.23598887
223	0x3d360644	0.04443957
224	0x3e69623c	0.2279138
225	0xbdb78dd5	-0.08962599
226	0xbcb8092e	-0.022465315
227	0x3e8dc5f5	0.27690092
228	0x3e805c18	0.25070262
229	0xbe222534	-0.15834504
230	0x3e2c24f3	0.1681097
231	0x3e56b1ad	0.20966215
232	0x3e74c805	0.23904426
233	0x3e0080d1	0.1254914
234	0xbd499af5	-0.049220044
235	0xbbed73cd	-0.0072464705
236	0xbe0b3ed2	-0.13598183
237	0xbe65d70e	-0.22445318
238	0x3d1bf645	0.038076658
239	0x3deaf9c4	0.1147342
240	0x3dd3fa0d	0.10350428
241	0xbe0e5c56	-0.13902411
242	0x3e26f24f	0.16303371
243	0x3e41f8fc	0.18942636
244	0xbe44fa48	-0.192361
245	0x3e4eaa3d	0.20182128
246	0xbe48a3d1	-0.19593741
247	0xbc9968a8	-0.018726662
248	0xbdc6d3b9	-0.09708352
249	0xbde8076f	-0.11329543
250	0x3e73e6e9	0.23818554
251	0x3db0290a	0.086015776
252	0xbe0014bf	-0.12507914
253	0x3d6f874c	0.05847864
254	0x3e1af2fa	0.1513175
255	0xbe73dfc3	-0.23815827

lstm.bias_ih_l0 f4 [68]
0	0xbd203de5	-0.039121527
1	0xbdda7c85	-0.106682815
2	0x3d31f17f	0.0434432
3	0x3e33c2c5	0.17554767
4	0xbdb53eb7	-0.088498525
5	0xbe91edc6	-0.2850172
6	0xbe3cb3cf	-0.18427967
7	0x3e1d5017	0.15362583
8	0xbd6192be	-0.055071585
9	0x3d6ebb18	0.058283895
10	0x3ca3a41f	0.01997572
11	0x3e3f0d50	0.18657422
12	0x3e51d5de	0.2049174
13	0x3db0ba2f	0.08629262
14	0x3d11cea8	0.035597473
15	0x3d62454e	0.055241875
16	0x3e3d1967	0.18466721
17	0x3e666e4d	0.22503014
18	0x3e1ee901	0.15518571
19	0x3e0e38a8	0.138888
20	0x3db5f40d	0.088844396
21	0xbdc0c9e6	-0.09413509
22	0xbe0d286a	-0.13784948
23	0xbe49f8f7	-0.19723879
24	0x3db7dea8	0.08978015
25	0x3dad01f0	0.08447635
26	0x3e414fa2	0.18878034
27	0x3e642711	0.22280528
28	0x3cbdb04c	0.023155354
29	0x3e98ea53	0.29866275
30	0x3e432350	0.1905644
31	0xbd81792e	-0.06321941
32	0x3d300da3	0.042981755
33	0xbe35c18f	-0.17749618
34	0xbe11d570	-0.14241576
35	0x3e089f89	0.13342108
36	0x3e614bb8	0.2200154
37	0x3e3cd563	0.18440776
38	0xbe98d9c1	-0.29853633
39	0x3d270cef	0.04078382
40	0xbe05277c	-0.13003343
41	0xbdf1378c	-0.11778173
42	0xbde47f4e	-0.11157094
43	0x3e7f2f06	0.24920282
44	0x3e09003c	0.13378996
45	0x3e14d7cc	0.14535445
46	0xbe18cdba	-0.14922228
47	0xbe1afdc2	-0.15135863
48	0x3e4f035b	0.20216124
49	0xbda72e68	-0.08163148
50	0x3da622aa	0.081120804
51	0x3dffe622	0.12495066
52	0x3e8c20c5	0.2736875
53	0xbcc20777	-0.0236852
54	0xbdf26eb2	-0.1183752
55	0x3e54742a	0.20747438
56	0x3d8e63f5	0.06952659
57	0xbdfd536e	-0.123694286
58	0xbe0a7a93	-0.13523321
59	0xbe6267c1	-0.22109891
60	0x3e6539e9	0.22385372
61	0xbe2d6d10	-0.16936135
62	0xbe036cc4	-0.1283446
63	0xbe13bb5a	-0.14426938
64	0x3d3ac2f2	0.04559607
65	0x3d0923d8	0.03348145
66	0x3dc62443	0.09674885
67	0x3e8c443e	0.27395815

lstm.bias_hh_l0 f4 [68]
0	0x3e3aef9a	0.18255463
1	0x3cbc277c	0.022968046
2	0xbcc53160	-0.024071395
3	0x3e25492b	0.16141193
4	0xbe246301	-0.16053392
5	0xbdf03b23	-0.117300294
6	0xbe58d344	-0.21174341
7	0x3d6a66f7	0.0572271
8	0xbe277ef1	-0.16357018
9	0xbd1dbefe	-0.038512222
10	0x3e4551d9	0.19269504
11	0x3e57f14e	0.21088144
12	0x3e8370d4	0.2567202
13	0xbc82d4a1	-0.01597053
14	0x3e3a84fe	0.18214795
15	0xbc6ece83	-0.014575603
16	0x3e837108	0.25672174
17	0x3dd63605	0.10459522
18	0x3e377c88	0.17918599
19	0xbd396283	-0.045259964
20	0x3d73355b	0.059377056
21	0xbde213c8	-0.11038929
22	0xbe265f69	-0.16247334
23	0x3e50ec45	0.2040263
24	0x3da16e8c	0.07882413
25	0x3e4368c3	0.19082932
26	0x3c2f8ab3	0.010714221
27	0x3d3ec820	0.046577573
28	0x3e70be33	0.23510055
29	0x3dc10d9e	0.094264254
30	0xbe35de76	-0.17760643
31	0xbe13500c	-0.14386004
32	0x3d169ae3	0.036768805
33	0x3d388e16	0.04505738
34	0xbdd9ba22	-0.10631205
35	0xbd422b1f	-0.047404405
36	0xbcc64dba	-0.024206985
37	0xbd617fa0	-0.055053353
38	0xbe9a65f5	-0.30155912
39	0xbd346903	-0.04404546
40	0x3d3bb35e	0.045825355
41	0xbdd32c1d	-0.10311148
42	0xbdc822c2	-0.097722545
43	0x3de2870e	0.11060916
44	0x3e67cd46	0.226369
45	0xbdba9961	-0.09111286
46	0xbd87edf4	-0.06637183
47	0x3e3dbe7d	0.18529697
48	0xbdfcee20	-0.12350106
49	0xbe64af44	-0.22332484
50	0x3d523a15	0.051324923
51	0xbe1f9de7	-0.15587579
52	0x3deb26f5	0.1148204
53	0x3de42705	0.11140255
54	0x3e34ec18	0.17668188
55	0xbde5e2b9	-0.112248845
56	0x3e08bd0a	0.13353363
57	0x3e294e23	0.16533713
58	0x3c3d84ca	0.011567304
59	0x3e551935	0.20810397
60	0x3cd5d5b0	0.02610287
61	0x3e3adcba	0.18248263
62	0x3e95d50f	0.29264113
63	0xbdda9e4b	-0.10674723
64	0x3d4e5a11	0.050378863
65	0x3e444916	0.19168505
66	0x3dc5ebb9	0.09664101
67	0xbd68128c	-0.056658313

lstm.weight_ih_l1 f4 [68, 17]
0	0xbe8475a0	-0.2587099
1	0x3dffa585	0.12482742
2	0x3be1798b	0.006880944
3	0xbe4096ca	-0.18807521
4	0x3e363160	0.17792273
5	0x3e5386b5	0.20656855
6	0xbd838050	-0.06420958
7	0xbdc21600	-0.094768524
8	0xbe3f1516	-0.18660387
9	0x3e26004d	0.16211052
10	0xbd547677	-0.05187079
11	0xbe3cbacf	-0.18430637
12	0x3e6556c7	0.22396384
13	0xbc845b16	-0.016156714
14	0x3e4353ce	0.19074938
15	0xbda6e719	-0.08149547
16	0x3e5d833f	0.21632098
17	0xbe52b67e	-0.20577428
18	0xbce5551f	-0.02799469
19	0xbc4099b2	-0.011755394
20	0xbe608fb1	-0.21929814
21	0x3d80eb39	0.06294865
22	0x3d8ab762	0.06773259
23	0x3ca4e0cf	0.020126728
24	0xbd391b49	-0.045192037
25	0xbde67b0f	-0.1125394
26	0x3e389149	0.18024172
27	0xbd2e4432	-0.042545505
28	0x3e0b31d7	0.13593231
29	0xbd5e5fd2	-0.0542906
30	0xbe2e7d79	-0.17040052
31	0x3e0ba591	0.13637377
32	0x3e3561be	0.17713067
33	0xbd48fd0b	-0.049069446
34	0xbe9e4551	-0.3091226
35	0x3e844a4c	0.25837934
36	0x3b509dad	0.0031832263
37	0x3dce0761	0.10060001
38	0xbe3ba7aa	-0.18325678
39	0x3e878b67	0.26473543
40	0x3d00588f	0.031334456
41	0x3e54ed88	0.20793736
42	0xbd4f8460	-0.050663352
43	0xbe2419d3	-0.16025476
44	0xbe2a0d65	-0.16606672
45	0xbd049312	-0.03236682
46	0xbe1d1ed1	-0.15343787
47	0xbe5f3787	-0.21798526
48	0x3d3ed4e0	0.046589732
49	0xbd96d9d7	-0.073657684
50	0x3b302676	0.0026878393
51	0xbe919869	-0.28436592
52	0xbd0105d1	-0.031499688
53	0xbdf20d41	-0.11818934
54	0xbce1314e	-0.02748933
55	0xbe3170a6	-0.17328128
56	0x3d1b2061	0.037872676
57	0x3c2309e3	0.009951088
58	0xbe7d896b	-0.24759452
59	0x3dd55556	0.10416667
60	0xbd53995c	-0.051659927
61	0x3e535331	0.20637204
62	0x3da051da	0.07828112
63	0x3d42015c	0.047364578
64	0xbe65240f	-0.22377037
65	0xbd4c9b81	-0.049952988
66	0xbe64b344	-0.2233401
67	0xbdb38349	-0.08765275
68	0xbe73c138	-0.23804176
69	0x3d39b3bc	0.045337424
70	0x3e14d4f0	0.14534354
71	0xbe3ff029	-0.18743958
72	0xbe4bd15c	-0.19904083
73	0x3e504ca4	0.20341736
74	0xbdb3b10d	-0.08774004
75	0x3c1a36df	0.009412496
76	0xbe75b537	-0.23994909
77	0x3e19af83	0.15008359
78	0x3e5a4c5f	0.21318196
79	0x3e493f41	0.19653036
80	0x3cdb1364	0.026742645
81	0x3d152bd4	0.03641875
82	0xbe173c15	-0.14769013
83	0xbcdb3b38	-0.026761636
84	0xbdd56055	-0.104187645
85	0xbdf6eccb	-0.120568834
86	0xbde2491f	-0.11049103
87	0x3e60f1a8	0.21967185
88	0x3da9edd5	0.08297316
89	0x3e017501	0.1264229
90	0xbdb21e67	-0.08697205
91	0xbe14c488	-0.14528096
92	0x3e076b7c	0.13224596
93	0x3e3345df	0.17507122
94	0x3dcf04fd	0.10108373
95	0xbbdf4aee	-0.0068143522
96	0xbd9d12a3	-0.0766957
97	0x3d75258f	0.05985027
98	0xbe540556	-0.2070516
99	0xbe3a8f37	-0.18218695
100	0x3c34ebd8	0.011042558
101	0x3e62f7fb	0.2216491
102	0xbddd084d	-0.10792599
103	0x3e252832	0.16128615
104	0x3e764541	0.24049856
105	0xbd73bda2	-0.05950702
106	0x3d195fb8	0.0374448
107	0x3e019cb0	0.12657428
108	0xbddf2e99	-0.1089756
109	0x3dc234d0	0.094827294
110	0xbe55f495	-0.20894082
111	0xbdb48710	-0.08814824
112	0x3e6d289c	0.23160022
113	0x3d79c538	0.060979098
114	0xbdbc1065	-0.091828145
115	0x3e1542f2	0.14576319
116	0xbde3d652	-0.11124863
117	0x3d4bc86e	0.04975169
118	0x3e2aa441	0.1666422
119	0xbd80b526	-0.06284551
120	0xbe09ee23	-0.13469748
121	0x3e2fe276	0.17176232
122	0x3e8b7de4	0.27244484
123	0xbd320706	-0.04346373
124	0x3e854a27	0.26033136
125	0xbcad143b	-0.02112781
126	0xbe7f6b40	-0.24943256
127	0x3ca2e6f4	0.019885518
128	0x3dc719cd	0.09721718
129	0x3d7f7973	0.062371682
130	0x3e59f6cf	0.21285556
131	0xbeaa6706	-0.33281726
132	0xb9a47a13	-0.0003137147
133	0x3dc7620d	0.097354986
134	0x3e002b7a	0.12516585
135	0xbc8d8756	-0.017276447
136	0x3c654dff	0.0139956465
137	0x3d748072	0.059692807
138	0xbde3b5a9	-0.11118633
139	0xbd89e190	-0.06732476
140	0x3dfdfb18	0.12401408
141	0x3e1d2c1f	0.15348862
142	0xbdee8b65	-0.11647681
143	0x3e808ce5	0.25107494
144	0xbac63c3e	-0.0015124155
145	0x3e978527	0.29593775
146	0x3e14c6ea	0.14529005
147	0x3e462625	0.19350488
148	0xbe1ee440	-0.15516758
149	0xbe493422	-0.19648793
150	0xbdf12aec	-0.11775765
151	0xbe337988	-0.17526829
152	0xbd98bed7	-0.07458275
153	0xbe48dd2f	-0.19615625
154	0xbdcce069	-0.1000374
155	0xbd311368	-0.043231398
156	0x3e002143	0.12512688
157	0x3d8a0f41	0.06741191
158	0xbe511253	-0.20417146
159	0x3d96741a	0.07346363
160	0x3e9169ec	0.28401124
161	0xb94cf364	-0.00019545626
162	0x3db1a909	0.08674819
163	0x3e229b48	0.15879548
164	0x3e04f1ce	0.12982866
165	0x3da69b04	0.08135036
166	0x3dc8e80b	0.09809884
167	0xbea7107a	-0.32629758
168	0x3cc18008	0.02362062
169	0xbd6b5907	-0.05745795
170	0xbd5136b7	-0.05107757
171	0xbe45eff4	-0.19329816
172	0xbdd5336c	-0.104101986
173	0x3db54bb8	0.08852333
174	0xbe8d659b	-0.2761658
175	0xbc81d9a9	-0.015850859
176	0xbcd3ca05	-0.025853166
177	0xbd42d088	-0.047562152
178	0xbe575ec7	-0.21032248
179	0x3e91071e	0.28325742
180	0xbde3eb5f	-0.11128878
181	0x3e81da7b	0.25362
182	0xbe2899de	-0.16464946
183	0xbe9060f1	-0.2819896
184	0xbd88efbc	-0.06686351
185	0x3e12bcac	0.14329785
186	0xbe3552e8	-0.17707407
187	0x3dd5c015	0.10437027
188	0x3e7c2f1c	0.24627346
189	0x3e5ccc67	0.21562348
190	0x3e278f6e	0.16363308
191	0x3d48de3d	0.049040068
192	0xbdfc42f3	-0.12317457
193	0xbdac1b69	-0.084036656
194	0xbe2e167d	-0.17000766
195	0xbe53703f	-0.20648287
196	0xbe7e480e	-0.24832174
197	0x3e0c6ec5	0.1371413
198	0xbe1065c5	-0.14101322
199	0xbdf7e528	-0.12104255
200	0x3c25af34	0.010112572
201	0x3dab0978	0.083514154
202	0x3d016a70	0.031595647
203	0x3e5faeec	0.21844071
204	0x3a622fb2	0.0008628323
205	0x3e82436e	0.2544207
206	0x3e782065	0.24231108
207	0x3e0925a8	0.13393271
208	0xbd2e7eb2	-0.042601295
209	0x3e9a44e1	0.30130675
210	0xbd4e1192	-0.050309725
211	0xbcc87ac1	-0.024472596
212	0xbda1ff7b	-0.07910057
213	0xbd995ff9	-0.074890085
214	0x3d93782e	0.07200657
215	0x3e202c7f	0.15641974
216	0x3e0fb3db	0.14033453
217	0x3d1cadf8	0.038251847
218	0x3da183bd	0.07886455
219	0x3d05264b	0.032507222
220	0x3dd5f243	0.104465984
221	0x3e6e4183	0.23267178
222	0xbe5ff057	-0.21869026
223	0x3e51a446	0.20472822
224	0xbc2a9787	-0.0104121035
225	0x3db13465	0.086525716
226	0x3dd1ade7	0.10238247
227	0xbd4899b6	-0.048974715
228	0x3e442a38	0.1915673
229	0x3e1084d4	0.1411317
230	0x3e3b4c22	0.18290761
231	0xbe104ead	-0.14092512
232	0x3c127dfd	0.008941171
233	0xbd988902	-0.07448007
234	0xbe517520	-0.20454836
235	0xbe425dcd	-0.18981095
236	0x3deb3a06	0.114856765
237	0xbe062e2f	-0.13103555
238	0x3e0eadb5	0.13933451
239	0xbe02a197	-0.12756954
240	0x3d8612f0	0.06546581
241	0x3e16108e	0.14654753
242	0xbd656b1e	-0.056010358
243	0x3e51895e	0.20462558
244	0xbe193ec1	-0.14965345
245	0xbd2d7ec0	-0.042357206
246	0xbca5ec66	-0.020254325
247	0x3dc70060	0.097168684
248	0xbdce6c96	-0.10079305
249	0xbe935535	-0.28775945
250	0x3d855591	0.06510461
251	0xbd55c8e1	-0.052193526
252	0x3df77980	0.12083721
253	0x3e469d16	0.19395861
254	0x3e392d93	0.18083791
255	0xbea3b029	-0.31970337

lstm.weight_hh_l1 f4 [68, 17]
0	0xbd88b024	-0.06674221
1	0xbd0ad6aa	-0.033896126
2	0x3e175ccb	0.14781491
3	0xbd76884a	-0.06018857
4	0xbdea0261	-0.11426235
5	0xbe1974d3	-0.14985971
6	0x3e3ac81b	0.18240397
7	0xbdcbcdc5	-0.09951357
8	0x3e864eef	0.26232097
9	0xbe4e465a	-0.20144024
10	0x3dd0a0c6	0.10186915
11	0xbe1d53e0	-0.15364027
12	0x3c8ea7c3	0.01741398
13	0xbd270f2d	-0.040785957
14	0x3e0bfc32	0.13670424
15	0xbe07befe	-0.13256451
16	0xbd4bafa6	-0.04972806
17	0xbe206ab5	-0.15665706
18	0xbe4ff68d	-0.20308895
19	0xbe7335ca	-0.23750988
20	0xbe2d31b1	-0.16913487
21	0xbc78c418	-0.015183471
22	0xbd899252	-0.067173615
23	0x3d6d1804	0.05788423
24	0x3e4d9406	0.20075998
25	0x3db23649	0.0870176
26	0x3e329216	0.1743854
27	0x3d96d929	0.07365639
28	0xbe8432fd	-0.2582015
29	0xbe8f8d68	-0.28037572
30	0xbd8b3009	-0.06796271
31	0x3bd010c8	0.0063496567
32	0x3e0eab85	0.13932617
33	0x3c3d5758	0.011556469
34	0xbe0ff6ef	-0.14059041
35	0x3e19d8af	0.15024064
36	0xbe8cdb9f	-0.27511308
37	0x3db95407	0.0904923
38	0xbdb1c9c0	-0.08681059
39	0xbe42403a	-0.18969813
40	0x3e538726	0.20657024
41	0x3d37632b	0.04477231
42	0xbd0f6559	-0.035008762
43	0x3de7c100	0.11316109
44	0x3df94f1b	0.12173291
45	0xbd74e9c5	-0.059793252
46	0xbbac71a3	-0.00526257
47	0xbe3fd93f	-0.18735217
48	0x3da3c81a	0.07997151
49	0x3dfe4a44	0.12416509
50	0xbc90243a	-0.0175954
51	0xbc981992	-0.01856688
52	0xbe8c507f	-0.27405164
53	0xbe91b15b	-0.28455624
54	0x3e606786	0.21914491
55	0xbdb57345	-0.088598765
56	0x3ccb074e	0.024783757
57	0xbe266a5c	-0.1625151
58	0x3e8ae8c4	0.2713071
59	0x3e705290	0.23468995
60	0xbcff478c	-0.031162046
61	0xbe3499f1	-0.17636849
62	0xbdfa4c86	-0.12221627
63	0xbda4c293	-0.080449246
64	0xbe7b2cb6	-0.24528775
65	0x3da028a6	0.07820253
66	0xbe3d13c5	-0.18464573
67	0x3e68a031	0.22717358
68	0x3d08c585	0.033391494
69	0x3e0f7adc	0.14011711
70	0xbe053415	-0.13008149
71	0xbdd6d360	-0.10489535
72	0xbe193c7b	-0.14964478
73	0x3cd01e3a	0.025405038
74	0x3e0436db	0.1291155
75	0x3d0310f4	0.03199859
76	0x3e7364dc	0.23768944
77	0x3e5a3cd2	0.21312264
78	0xbd757d41	-0.059933905
79	0x3e0e0987	0.13870822
80	0x3e64eac8	0.22355187
81	0xbe2bc4bd	-0.16774268
82	0xbc72eff9	-0.014827722
83	0x3e48ab8e	0.19596693
84	0x3d950a69	0.07277376
85	0xbe176165	-0.14783247
86	0xbd986443	-0.074409984
87	0x3dd79db2	0.10528125
88	0x3d7d2452	0.061802216
89	0x3e8b8c70	0.27255583
90	0xbd886806	-0.06660466
91	0xbbe05db7	-0.006847109
92	0x3e0dbe98	0.13842237
93	0x3e2de7d9	0.16982974
94	0xbd7f6c63	-0.062359225
95	0xbd0085f0	-0.031377733
96	0xbdc04551	-0.09388221
97	0x3de10d11	0.1098882
98	0xbc2b7af7	-0.010466329
99	0xbd26cbfd	-0.040721882
100	0x3dedd93c	0.116137
101	0xbe06798f	-0.13132308
102	0xbe4e42a6	-0.20142612
103	0xbe4f98d4	-0.20273143
104	0xbe290b0d	-0.16508122
105	0x3dc03e96	0.09386937
106	0x3e638a8d	0.22220822
107	0xbe61d7f1	-0.22055031
108	0xbcbafc0e	-0.022825267
109	0x3e4d89d1	0.20072104
110	0x3e42db0e	0.19028875
111	0xbb4b5048	-0.0031023193
112	0xbd991fa9	-0.07476742
113	0xbe80fb0c	-0.25191534
114	0xbdb24870	-0.087052226
115	0xbd8135b0	-0.06309068
116	0xbe1d6390	-0.15370011
117	0x3ddc79f5	0.10765449
118	0x3e7a9f9c	0.24474949
119	0xbd5bcf4c	-0.05366449
120	0xbda5b051	-0.0809027
121	0x3d7c934b	0.061663907
122	0xbe34acba	-0.17644015
123	0x3ad6900e	0.0016369836
124	0x3d84e51f	0.06489014
125	0xbc5b8e75	-0.013400664
126	0x3d261e9c	0.040556535
127	0x3e99848e	0.29983944
128	0xbdd6ae01	-0.10482407
129	0x3e20030b	0.15626161
130	0x3d6dabf8	0.05802533
131	0xbd472286	-0.04861691
132	0xbcbc00f5	-0.022949675
133	0xbda5fd28	-0.08104926
134	0xbe34e5fb	-0.17665856
135	0xbdf2aff1	-0.118499644
136	0xbdf1c3e6	-0.11804943
137	0x3d59cf21	0.05317605
138	0x3e916895	0.28400102
139	0x3e7fc5e5	0.24977835
140	0xbdd2a659	-0.102856345
141	0xbe5d6a92	-0.21622685
142	0x3d6ebd0f	0.05828577
143	0x3e85c09f	0.2612352
144	0x3e1583fb	0.14601128
145	0x3d65afef	0.056075986
146	0x3d8cd03c	0.06875655
147	0x3e66c929	0.22537674
148	0x3e052f2b	0.13006274
149	0xbe467d54	-0.19383746
150	0xbe398e0b	-0.18120591
151	0xbd906bf3	-0.0705184
152	0x3db8f486	0.09031014
153	0xbda49e4a	-0.08038004
154	0x3dd76398	0.10517043
155	0xbe096831	-0.13418652
156	0x3c89a0f3	0.01680038
157	0x3e005f6d	0.12536402
158	0xbe46c1a6	-0.19409809
159	0xbe58d419	-0.21174659
160	0xbe5c0ad6	-0.21488509
161	0xbdd51c15	-0.10405747
162	0xbe77d919	-0.2420391
163	0x3d028878	0.031868428
164	0x3e150979	0.14554395
165	0x3db2c659	0.08729238
166	0xba289de9	-0.0006432222
167	0x3e21a54c	0.15785712
168	0x3bef2c3c	0.0072989743
169	0x3e1c08b7	0.152377
170	0x3d3996e7	0.045309927
171	0x3d8d80df	0.06909346
172	0xbdb751ce	-0.0895115
173	0x3d8e07b4	0.06935063
174	0xbe2905c3	-0.16506104
175	0xbd040ad1	-0.032236878
176	0x3dbc69e2	0.09199883
177	0x3e21d6be	0.15804574
178	0xbd1e1528	-0.038594395
179	0x3e8d0c35	0.27548376
180	0xbe3d1d51	-0.18468215
181	0x3dacbceb	0.08434471
182	0x3e9fa8e1	0.31183532
183	0xbe835933	-0.2565399
184	0x3e198f57	0.14996086
185	0x3e1dc8c2	0.15408614
186	0xbd9a24a8	-0.07526523
187	0xbd3d5cc9	-0.046231065
188	0x3e2a05b1	0.16603734
189	0x3d53d820	0.051719785
190	0xbd1eb98f	-0.03875118
191	0xbdd04522	-0.10169436
192	0x3d82c69a	0.063855365
193	0xbe64ca37	-0.22342764
194	0xbca63776	-0.020290118
195	0xbd78c0ce	-0.060730748
196	0xbe20af86	-0.15691957
197	0x3d951597	0.072795086
198	0xbde74cc5	-0.112939395
199	0xbe17900f	-0.14801048
200	0xbe3f0827	-0.18655454
201	0xbe0703ae	-0.13184997
202	0x3b857da0	0.0040738136
203	0x3daaec29	0.08345825
204	0x3e1caa0f	0.15299247
205	0xbd78f26c	-0.060778067
206	0xbe3c5a2c	-0.18393773
207	0x3c99c264	0.01876945
208	0x3cdf5724	0.027263232
209	0x3dd157d5	0.10221831
210	0x3e036eb3	0.12835197
211	0x3e16c1f8	0.1472243
212	0x3e2f5465	0.17122038
213	0x3c4b0649	0.012391635
214	0x3d4199ce	0.04726582
215	0xbe8e3fc8	-0.27783036
216	0xbde054c4	-0.10953668
217	0xbe8a80ea	-0.2705148
218	0x3d4aa6aa	0.04947535
219	0xbd168599	-0.036748502
220	0x3ea3af30	0.31969595
221	0x3e776a60	0.24161673
222	0x3cdd6e3c	0.027030103
223	0xbe47e008	-0.19519055
224	0x3e2c56e5	0.16830023
225	0xbe97ce4e	-0.29649585
226	0xbdc08cfe	-0.09401892
227	0xbe5d9508	-0.21638882
228	0xbdd869ed	-0.10567079
229	0xbde1f044	-0.11032155
230	0xbe1f2234	-0.15540391
231	0x3e649f8e	0.2232649
232	0x3e4240af	0.18969987
233	0x3e4ef1ed	0.20209475
234	0x3d858710	0.06519902
235	0x3e02a0c4	0.1275664
236	0xbea43636	-0.3207261
237	0x3d652604	0.055944458
238	0x3e20af72	0.15691927
239	0xbe1ed54d	-0.15511055
240	0xbe865e52	-0.26243836
241	0xbe27c7cf	-0.16384815
242	0xbdea61b8	-0.114444196
243	0x3d6ff061	0.058578853
244	0xbd0a575f	-0.03377473
245	0xbd7fe455	-0.062473614
246	0x3ce771bd	0.028252477
247	0x3d42b7b9	0.047538493
248	0xbe874419	-0.26419142
249	0xbe72197e	-0.23642537
250	0xbe0f5a0b	-0.13999192
251	0x3e0a06cb	0.13479154
252	0xbcfec01f	-0.03109747
253	0xbe362e63	-0.17791133
254	0xbc92f34d	-0.01793828
255	0x3e82d952	0.25556427

lstm.bias_ih_l1 f4 [68]
0	0xbe0d36a7	-0.1379038
1	0xbe2d361f	-0.16915177
2	0xbd8b556c	-0.06803402
3	0x3c84fdc9	0.016234295
4	0x3d94f98b	0.07274159
5	0xbd3ee5b1	-0.04660577
6	0x3e2e1f27	0.17004071
7	0xbcbfed9c	-0.02342873
8	0xbc68f662	-0.0142188985
9	0x3c502b97	0.012705705
10	0x3ce7278a	0.028217096
11	0x3e2a51da	0.16632786
12	0x3c4c8962	0.0124839265
13	0x3db39546	0.08768706
14	0x3e4542a4	0.19263703
15	0x3e730481	0.23732187
16	0x3cfd1dd9	0.030898022
17	0xbde1198b	-0.109912
18	0x3e6c6ae0	0.23087645
19	0xbd313718	-0.043265432
20	0x3e01e3ea	0.12684599
21	0x3e46e9b4	0.19425088
22	0xbbe3edea	-0.006955852
23	0x3e11932f	0.14216302
24	0x3dbea794	0.09309307
25	0xbd108363	-0.03528155
26	0xbe04543b	-0.12922756
27	0xbc570fce	-0.013126327
28	0x3e71f15b	0.23627226
29	0xbcbe27ce	-0.02321234
30	0xbe1c2325	-0.15247782
31	0xbe3b11ac	-0.1826846
32	0xbcb069cd	-0.021534825
33	0x3dac24aa	0.084054306
34	0x3d654f08	0.055983573
35	0xbd9ee9b1	-0.07759417
36	0x3d898862	0.06715466
37	0xbd43d1cb	-0.047807496
38	0xbdcbbb91	-0.09947885
39	0xbe1f69c2	-0.15567687
40	0x3db98063	0.09057691
41	0xbcae5dd2	-0.021284971
42	0x3e965914	0.29364836
43	0x3e7c2ee9	0.2462727
44	0xbe72d1a2	-0.23712781
45	0xbe8f9617	-0.28044197
46	0xbe25aab8	-0.16178405
47	0xbe791703	-0.24325185
48	0xbe302aa5	-0.17203768
49	0xbe582c2e	-0.21110603
50	0x3dd97315	0.10617653
51	0x3d451451	0.04811508
52	0xbcc4dbba	-0.024030555
53	0x3e43a3ab	0.19105403
54	0xbd2fdd30	-0.04293555
55	0x3e1c165f	0.15242909
56	0xbe6e549a	-0.2327446
57	0x3e97dfa3	0.2966281
58	0x3e48c4c2	0.19606307
59	0x3e0a22da	0.13489857
60	0xbd30c6a1	-0.043158177
61	0xbdea51f5	-0.11441413
62	0x3db9f8a4	0.090806276
63	0x3d89247f	0.06696414
64	0x3bf457e5	0.007456767
65	0xbe5d82d3	-0.21631937
66	0x3e61f434	0.22065812
67	0x3e554c4b	0.20829885

lstm.bias_hh_l1 f4 [68]
0	0xbdc06ec2	-0.093961254
1	0xbe41638c	-0.1888563
2	0xbd303ed8	-0.043028682
3	0x3e88b2d2	0.2669893
4	0x3e2e7c30	0.17039561
5	0xbe498868	-0.19680941
6	0x3e12691a	0.14297906
7	0xbdbfe520	-0.09369874
8	0x3d3f870d	0.046759654
9	0xbe34331e	-0.17597625
10	0x3e410f53	0.18853502
11	0x3b6bc267	0.0035974027
12	0x3d31aa9e	0.043375604
13	0xbce77ebd	-0.028258676
14	0xbe57f96b	-0.21091239
15	0xbd8e9e1b	-0.0696375
16	0xbd5b20cd	-0.05349808
17	0x3c8b53ca	0.017007727
18	0xbbc1d11c	-0.0059148204
19	0x3e8c1185	0.27357116
20	0x3e8a5b2c	0.27022684
21	0x3dccb07b	0.099945985
22	0x3d4ca88a	0.04996542
23	0xbda9a00f	-0.08282482
24	0x3debd176	0.11514561
25	0x3d4ad811	0.049522463
26	0x3e09cd4e	0.13457224
27	0x3e6cecdd	0.23137231
28	0xbd2ff94f	-0.04296237
29	0xbdba378e	-0.090926275
30	0x3e009086	0.12555131
31	0x3e55df2e	0.20885918
32	0x3e52e505	0.20595177
33	0x3e8dc042	0.27685744
34	0xbe7a5c46	-0.24449262
35	0xbdaf4f72	-0.08560075
36	0xbe4198db	-0.18905966
37	0x3dc54e75	0.09634105
38	0x3dae0ad7	0.08498161
39	0xbdd5346a	-0.10410388
40	0xbddd7377	-0.10813039
41	0x3e823cb7	0.25436947
42	0x3e9fb628	0.31193662
43	0xbdce5451	-0.10074676
44	0x3d9e489a	0.077286914
45	0x3dc8c76c	0.09803662
46	0x3e6a9273	0.22907428
47	0xbdb89f75	-0.09014789
48	0xbe45fbfd	-0.19334407
49	0x3e246ed6	0.16057906
50	0x3d4067f6	0.046974145
51	0x3e12a7a1	0.14321758
52	0x3e49128e	0.19635984
53	0xbdd67a40	-0.10472536
54	0xbd9e9dbb	-0.077449284
55	0x3e29b484	0.16572767
56	0xbe09dfe0	-0.13464308
57	0x3e442bd7	0.19157349
58	0x3e91b375	0.28457227
59	0xbd311a5a	-0.04323802
60	0x3daf4c4d	0.08559475
61	0x3c2448da	0.010027135
62	0xbe23233d	-0.15931411
63	0x3e161f47	0.14660369
64	0x3e596715	0.21230729
65	0xbe23eea7	-0.16009007
66	0x3e3bc4fc	0.18336862
67	0x3e824afb	0.2544783

linear.model.0.weight f4 [2, 17]
0	0xbe696ee7	-0.22796212
1	0x3e4f3131	0.20233609
2	0xbe16d28c	-0.14728755
3	0x3e060fa8	0.1309191
4	0xbd11ce97	-0.03559741
5	0x3e326e79	0.17424954
6	0x3e5d8037	0.21630941
7	0xbe914be6	-0.28378218
8	0x3d557112	0.052109785
9	0x3e0ee52f	0.13954614
10	0xbe91617b	-0.28394684
11	0x3caf3742	0.021388654
12	0x3e374ecc	0.17901152
13	0xbe85f250	-0.26161432
14	0x3c96d8d1	0.018413933
15	0xbeb87374	-0.36025584
16	0x3e642811	0.22280909
17	0x3dcb541d	0.09928153
18	0xbdb104ed	-0.08643518
19	0xbe22beff	-0.15893172
20	0xbe32a66e	-0.174463
21	0x3e2eb555	0.1706136
22	0xbe327e0b	-0.17430894
23	0x3ea5f741	0.32415202
24	0xbc08f9f2	-0.008360373
25	0xbdbcb2ef	-0.092138164
26	0xbdef2e6e	-0.11678778
27	0x3db7e8de	0.08979963
28	0x3e4c7352	0.19965866
29	0xbe45864e	-0.19289514
30	0x3e4d449b	0.20045702
31	0xbdc3ce44	-0.095608264
32	0xbdf386a4	-0.11890915
33	0x3e3abad0	0.18235326

linear.model.0.bias f4 [2]
0	0xbd779068	-0.06044045
1	0x3dc45cdd	0.09588025
