examples/2_streamflow_isotope_simulation/results/20241125_101506_612553/loss_c60a7_00004_4_batch_size=6,hidden_size=8,learning_rate=0.0020,n_epochs=167,num_layers=2_2024-11-25_10-15-11/checkpoint_000015/model.pt (torch, 7324 bytes, 10 tensors)

lstm.weight_ih_l0 f4 [32, 4]
0	0x3f022907	0.5084385
1	0xbd23f764	-0.040030852
2	0x3e26d3e2	0.16291764
3	0x3e98fd93	0.29880962
4	0x3f55f378	0.8357463
5	0x3d07f40c	0.033191726
6	0xbe30236c	-0.17201012
7	0xbd903c1d	-0.07042716
8	0xbef8daed	-0.48604527
9	0x3e1cc113	0.15308027
10	0x3e7843e6	0.24244651
11	0xbd4dd825	-0.05025496
12	0x3f299079	0.6623607
13	0x3d012c64	0.031536475
14	0xbd4323cc	-0.04764156
15	0x3db46b75	0.08809558
16	0x3ec5b4ab	0.386144
17	0x3cb8dbf3	0.022565817
18	0xbea76104	-0.32691205
19	0x3e804fe4	0.25060952
20	0x3cd7e742	0.02635539
21	0x3e2a879a	0.1665329
22	0xbeb9a41e	-0.36258024
23	0xbefa5d34	-0.48899233
24	0x3f26d3b3	0.6516678
25	0x3eacdd9c	0.33762825
26	0xbd33ded1	-0.043913666
27	0xbe5da27a	-0.21644011
28	0x3f3f6873	0.7476875
29	0x3e1e2717	0.15444599
30	0x3ef77f35	0.4833924
31	0xbe074e46	-0.13213453
32	0x3d883915	0.066515125
33	0xbdb83cbd	-0.0899596
34	0x3ea2b7c8	0.3178084
35	0xbe4cce07	-0.20000468
36	0x3f2c71dc	0.67361236
37	0xbd973737	-0.07383578
38	0x3cae51d7	0.021279259
39	0x3cc26ecf	0.023734478
40	0xbdc06b2a	-0.0939544
41	0xbb0dbb0b	-0.002162638
42	0xbc2b64b1	-0.010461018
43	0xbe961c3d	-0.2931842
44	0x3eb2d256	0.349261
45	0x3e4787f8	0.19485462
46	0x3e0e9225	0.13922937
47	0xbea16f70	-0.31530333
48	0x3ef41d7d	0.47678748
49	0x3e805375	0.25063673
50	0xbe117c62	-0.14207605
51	0x395366ac	0.00020160776
52	0x3e8997dd	0.26873675
53	0xbe0fe806	-0.14053354
54	0xbf02f9bd	-0.5116232
55	0xbdeadbbc	-0.11467692
56	0x3f70c1e5	0.9404586
57	0x3e716afe	0.2357597
58	0x3e243c24	0.16038567
59	0x3e612d1d	0.21989866
60	0x3e9e6b70	0.30941343
61	0xbcb7cada	-0.022435594
62	0x3e7d77ed	0.2475278
63	0xbea9de13	-0.33177242
64	0x3f283489	0.6570516
65	0x3e74418e	0.23853132
66	0xbca2acf8	-0.019857869
67	0xbeb27fc0	-0.3486309
68	0x3e78fe81	0.24315836
69	0x3e645c20	0.22300768
70	0x3eaca775	0.3372151
71	0xbdded05d	-0.10879586
72	0x3ee98726	0.45610923
73	0x3e033f2f	0.12817071
74	0x3dcacf2b	0.099027954
75	0x3e43a2cc	0.19105071
76	0xbeb0aef1	-0.3450847
77	0x3f0098dd	0.5023325
78	0x3e4787a1	0.19485332
79	0x3dd33985	0.10313705
80	0xbeee1b4e	-0.46505207
81	0x3e43272f	0.19057916
82	0xbebb8577	-0.36625263
83	0x3d3f69a9	0.046731625
84	0x3ee9b94c	0.45649183
85	0x3e51fce0	0.2050662
86	0xbd35731e	-0.044299237
87	0x3e74bdad	0.2390048
88	0xbd6a7a90	-0.05724579
89	0x3e970b8f	0.29501006
90	0x3eb5d8ad	0.35516873
91	0x3e9f88d4	0.3115908
92	0xbee25713	-0.44207057
93	0x3eda2bf5	0.42611662
94	0x3e6940fa	0.22778693
95	0xbe6ce9a5	-0.23136003
96	0x3ec6b523	0.3881007
97	0x3d3788ce	0.0448082
98	0xbdf6fa8e	-0.12059508
99	0x3f0591d7	0.5217566
100	0x3f660051	0.8984423
101	0xbe182b55	-0.1486028
102	0xbec08c7c	-0.3760718
103	0xbd4cbf9b	-0.049987417
104	0xbec47be4	-0.3837577
105	0x3e76c05f	0.24096821
106	0xbd9ef752	-0.07762016
107	0xbeabf253	-0.33583316
108	0x3f29c9fe	0.6632384
109	0xbdf291a2	-0.118441835
110	0x3f35fa58	0.7108512
111	0xbec063fd	-0.37576285
112	0x3f33b485	0.70197326
113	0x3e5cb020	0.21551561
114	0x3dd1acd0	0.102380395
115	0x3e3504dc	0.17677635
116	0xbce86377	-0.028367741
117	0xbea2aea1	-0.31773856
118	0xbf2612df	-0.64872545
119	0xbef5f264	-0.48036492
120	0x3f696c34	0.9118073
121	0xbe5f36b1	-0.21798207
122	0x3e720ae9	0.23636974
123	0x3d0c1574	0.034200147
124	0x3f09ae13	0.5378124
125	0xbe1ac092	-0.15112522
126	0x3f1c3c3b	0.61029404
127	0x3dc64737	0.09681552

lstm.weight_hh_l0 f4 [32, 8]
0	0x3e3744ab	0.17897289
1	0x3e6c09f7	0.23050676
2	0xbe9183a1	-0.28420737
3	0xbbe15b14	-0.0068773124
4	0xbf52dabf	-0.8236503
5	0xbe0929ff	-0.13394926
6	0x3d2cef3f	0.04222035
7	0x3e516e35	0.20452197
8	0x3ee94fbe	0.4556865
9	0x3da4166e	0.080120906
10	0xbe877e31	-0.26463464
11	0x3dbc7458	0.09201878
12	0xbeab988d	-0.33514825
13	0xbe24d4ee	-0.16096851
14	0x3de7c948	0.11317688
15	0xbd1a9993	-0.037744116
16	0xbda26373	-0.07929125
17	0x3dc5864e	0.09644757
18	0xbe85f4ec	-0.26163423
19	0xbe29a6c7	-0.16567527
20	0x3d3264e9	0.043553267
21	0xbefb5072	-0.49084812
22	0x3de67948	0.11253601
23	0x3e453209	0.19257368
24	0x3e4904a3	0.19630675
25	0x3ed1be49	0.4096549
26	0xbdc35124	-0.09536961
27	0xbe2529bb	-0.161292
28	0xbe5dd7ce	-0.21664354
29	0x3e2d422d	0.16919775
30	0x3e5cf1ce	0.21576616
31	0x3e2456b7	0.16048704
32	0xbce0c2ac	-0.027436577
33	0xbe838126	-0.2568447
34	0xbf059be6	-0.5219101
35	0x3e3ae763	0.1825233
36	0xbebd526c	-0.36976945
37	0x3dd58a1c	0.10426733
38	0xbe545495	-0.2073539
39	0x3ea4d467	0.321933
40	0x3ea6f17a	0.32606107
41	0xbe5d86d8	-0.2163347
42	0xbef3196b	-0.4748033
43	0x3e64a3ba	0.22328082
44	0xbd9249c7	-0.07142978
45	0x3e54a851	0.20767333
46	0x3d8ae285	0.067814864
47	0xbe006948	-0.12540162
48	0x3dd5a607	0.10432058
49	0xbd1a489c	-0.037666902
50	0x3ea4e7b7	0.32208034
51	0xbd254b1e	-0.04035484
52	0xbd388536	-0.045048915
53	0xbeb22fcf	-0.348021
54	0xbde05f3e	-0.10955666
55	0x3e38496d	0.1799676
56	0x3f1ba038	0.6079135
57	0x3e99a073	0.30005226
58	0x3eac8fa6	0.33703345
59	0xbe0a75ef	-0.1352155
60	0x3d819ce8	0.063287556
61	0x3db33045	0.08749441
62	0xbe1752ca	-0.14777675
63	0xbe9145ee	-0.28373665
64	0x3e829b41	0.25509074
65	0x3ebab0bf	0.36462972
66	0xbc8fdcff	-0.017561434
67	0x3e740b84	0.23832518
68	0x3e8d09cb	0.27546534
69	0x3ebee49b	0.37283787
70	0x3dbdaadc	0.092611045
71	0x3f1798c8	0.592175
72	0x3f0a69b6	0.5406755
73	0xbe46e7de	-0.19424388
74	0x3e8942bb	0.26808724
75	0xbdce162f	-0.10062825
76	0x3bdb0ca8	0.0066848584
77	0x3d804bba	0.06264444
78	0xbd4401db	-0.047853332
79	0x3e23d645	0.15999706
80	0x3e226772	0.15859774
81	0xbdef26f0	-0.116773486
82	0xbefacf3a	-0.48986226
83	0x3e87b606	0.2650606
84	0xbe83bf15	-0.25731722
85	0xbc238658	-0.0099807605
86	0x3ed8730b	0.4227527
87	0x3e99ce1b	0.30040058
88	0x3d9ca83a	0.07649274
89	0xbe6892a7	-0.22712193
90	0xbe3d12a4	-0.18464142
91	0xbc22e244	-0.009941641
92	0xbf053989	-0.52040917
93	0xbc966f2b	-0.018363556
94	0xbf19151f	-0.59797853
95	0xbecf907f	-0.4053993
96	0xbe8841fd	-0.26612845
97	0xbe16ae0c	-0.14714831
98	0xbe3e1ff9	-0.18566884
99	0xbe6d072d	-0.23147269
100	0xbe555ebc	-0.2083692
101	0xbe24363e	-0.16036317
102	0xbf402e9d	-0.75071126
103	0x3e679d47	0.2261859
104	0x3e91cc8d	0.28476372
105	0xbe6b7fb7	-0.22997938
106	0x3c7a76cf	0.015287115
107	0xbe373878	-0.17892635
108	0xbe13d4b2	-0.14436606
109	0xbb39ba98	-0.0028339978
110	0x3c8b048a	0.016969938
111	0x3ed1b3d3	0.40957507
112	0x3d2b78c0	0.041863203
113	0x3e9e73c8	0.3094771
114	0xbec4bd41	-0.3842564
115	0xbf10b540	-0.56526566
116	0xbec0d778	-0.3766439
117	0x3dc103d5	0.09424559
118	0x3bffc04f	0.0078049074
119	0xbe28369b	-0.1642708
120	0x3ede641b	0.4343575
121	0xbc9114ec	-0.017710172
122	0x3ed10c3f	0.40829656
123	0xbd1ac1a5	-0.03778233
124	0x3d33114d	0.04371767
125	0x3e0d5d1f	0.13805054
126	0xbe68987b	-0.22714417
127	0x3de6780b	0.11253365
128	0xbe5c89a1	-0.21536876
129	0x3e0297dd	0.12753244
130	0x3ee7af2f	0.45250842
131	0xbd69d3f8	-0.057086915
132	0xbe200529	-0.15626968
133	0x3e2eb05f	0.17059468
134	0xbe986fc1	-0.2977276
135	0x3dd2d9fa	0.10295482
136	0x3eac548f	0.33658263
137	0xbd428dfd	-0.04749869
138	0x3e722a93	0.23649053
139	0x3edc6bf0	0.430511
140	0xbd8af358	-0.067846954
141	0x3dbc72cc	0.09201583
142	0x3eb7f3fe	0.3592834
143	0x3d20321e	0.039110295
144	0x3dc0c0a3	0.094117425
145	0xbef12f53	-0.47106418
146	0x3cf1eca8	0.029531792
147	0x3c8bb8d1	0.0170559
148	0x3e2d0b7a	0.16898909
149	0x3e969ec6	0.2941801
150	0xbee44817	-0.4458625
151	0xbd9927cd	-0.074782945
152	0x3ed6c53f	0.41947362
153	0xbcbf6978	-0.023365721
154	0xbe8291b4	-0.25501788
155	0xbe687bf8	-0.2270354
156	0x3e87ea0f	0.2654576
157	0x3e3668a2	0.17813352
158	0x3aa43138	0.0012526875
159	0xbe672a72	-0.22574785
160	0xbdae64a2	-0.08515288
161	0x3ea4a6e3	0.32158574
162	0xbd7c2518	-0.061558813
163	0xbca8f30c	-0.020623706
164	0xbd1b0263	-0.037844073
165	0x3d80f55f	0.06296801
166	0x3d3dec28	0.046367794
167	0xbe9fade7	-0.31187364
168	0xbeb6fb90	-0.35738802
169	0x3eca7040	0.39538765
170	0x3e32b47e	0.17451665
171	0x3ccb5079	0.024818646
172	0x3e3b1d1f	0.18272828
173	0x3ed942ab	0.42433676
174	0xbc8b72b4	-0.017022468
175	0xbe2d7da2	-0.16942456
176	0xbcd584bc	-0.02606427
177	0x3ecb0df7	0.39659092
178	0xbe99de1d	-0.3005227
179	0x3e00b762	0.12569955
180	0xbdb02fd5	-0.08602873
181	0x3d5516e3	0.05202378
182	0x3dbe89a0	0.09303594
183	0x3e6d5ccb	0.23179929
184	0x3d2aa224	0.041658536
185	0x3d465888	0.048424274
186	0xbd828917	-0.06373804
187	0x3e96df8b	0.29467425
188	0x3dd1d4c8	0.10245663
189	0x3ec01745	0.37517753
190	0xbde7e53e	-0.11323021
191	0xbb3308d8	-0.0027318504
192	0xbcd70f54	-0.026252426
193	0x3f218558	0.6309409
194	0xbf27f088	-0.65601397
195	0x3dc9b208	0.0984841
196	0xbe786867	-0.24258576
197	0xbebeb988	-0.37250924
198	0x3df0f70c	0.117658705
199	0x3da329b7	0.07966941
200	0x3f078748	0.529408
201	0x3e1fac5a	0.1559309
202	0xbd16c4fa	-0.036808945
203	0x3ea76a6b	0.32698378
204	0xbebca173	-0.36841926
205	0x3e0ebbe6	0.13938865
206	0x3efe9f51	0.49730924
207	0x3ebefa69	0.37300423
208	0x3ed9facb	0.42574152
209	0xbe226e71	-0.15862443
210	0xbdcabd87	-0.09899431
211	0xbdd08721	-0.10182024
212	0x3ea997ae	0.33123535
213	0xbecf9795	-0.40545335
214	0x3d23e604	0.040014282
215	0xbdf62132	-0.1201805
216	0x3f54704a	0.8298384
217	0xbb16f4f3	-0.0023034185
218	0xbbcf8656	-0.0063331528
219	0x3e0e119b	0.13873903
220	0xbe8a1fa3	-0.26977262
221	0x3e7dc27d	0.24781223
222	0xbd97fe6c	-0.07421574
223	0x3e4e85f0	0.2016828
224	0x3f0535f6	0.5203546
225	0xbe897302	-0.26845556
226	0xbef8e996	-0.48615712
227	0x3e497060	0.19671774
228	0xbeb1a714	-0.34697783
229	0xbe957254	-0.29188788
230	0xbc91b0d2	-0.01778451
231	0xbe308327	-0.1723753
232	0x3f0147a7	0.5049996
233	0x3e274214	0.163338
234	0xbe13de11	-0.1444018
235	0x3e974500	0.2954483
236	0xbe74a791	-0.23892047
237	0xbe95cb2a	-0.29256564
238	0x3f0c37c9	0.5477262
239	0x3eee76c7	0.46574995
240	0x3ee3492b	0.4439176
241	0x3ed4c96a	0.41559917
242	0x3eb02855	0.3440577
243	0xbdfc16f4	-0.123090655
244	0xbf0c7ecc	-0.54880977
245	0x3e86e3d0	0.26345682
246	0xbe07b3f4	-0.1325224
247	0xbbb7c6c9	-0.005608414
248	0x3dcab44c	0.0989767
249	0x3f4f3b6f	0.80950063
250	0x3ec2aa26	0.38020438
251	0x3d24472a	0.04010693
252	0xbec5a8de	-0.38605398
253	0x3e9e54d5	0.30924097
254	0xbceffa24	-0.029294081
255	0xbe517486	-0.20454606

lstm.bias_ih_l0 f4 [32]
0	0x3ec7f99d	0.39057627
1	0x3ebbd288	0.3668406
2	0x3e1e8350	0.15479779
3	0xbdfb4849	-0.12269647
4	0x3e75fdc6	0.24022588
5	0x3e4a479a	0.19753876
6	0xbd280808	-0.041023284
7	0x3d992d28	0.07479316
8	0x3d06a2c0	0.032870054
9	0xbdabc5e3	-0.08387353
10	0x3eced7e0	0.40399075
11	0x3e571313	0.2100337
12	0xbd377309	-0.04478744
13	0xbe217a14	-0.15769225
14	0xbd4dcc3c	-0.0502436
15	0xbe7b53e1	-0.24543716
16	0xbcf70377	-0.03015302
17	0x3e8c85f2	0.27445942
18	0xbed6d4c0	-0.4195919
19	0xbe852d58	-0.26011157
20	0xbeaf3bb5	-0.3422524
21	0xbe425a4c	-0.18979758
22	0xbde9825a	-0.11401816
23	0x3dcf6c34	0.1012806
24	0x3df84bfd	0.121238686
25	0xbe8d626a	-0.27614146
26	0x3ecfb0af	0.40564486
27	0xbe6a02ef	-0.22852682
28	0x3d72d1d3	0.059282135
29	0x3d6ec5cf	0.058294114
30	0x3e292f05	0.16521843
31	0xbb42dd1c	-0.0029733842

lstm.bias_hh_l0 f4 [32]
0	0x3ef6b0c1	0.48181728
1	0x3d979e8e	0.07403289
2	0x3e9ff80c	0.31243932
3	0xbe9a04cd	-0.30081788
4	0xbdbabeae	-0.091184005
5	0x3ec71d2f	0.38889453
6	0x3eabd6d6	0.33562344
7	0xbe736d8b	-0.23772256
8	0xbd42193c	-0.047387347
9	0xbca16535	-0.01970158
10	0x3e0c7225	0.13715418
11	0xbd83c5da	-0.064342216
12	0x3b6fbdd4	0.0036581652
13	0x3e939b4a	0.28829414
14	0x3d81c292	0.063359395
15	0xbe9a4afb	-0.3013533
16	0x3e2910f5	0.16510375
17	0xbebbb90a	-0.3666461
18	0xbed3a528	-0.41336942
19	0x3e178af9	0.14799108
20	0x3e4ab18e	0.19794294
21	0x3d18cecb	0.03730659
22	0x3e0840c8	0.13305962
23	0x3e15b3eb	0.14619415
24	0x3f019f45	0.5063365
25	0x3ed1fd45	0.41013542
26	0xbd5665fa	-0.052343346
27	0xbe73699d	-0.23770757
28	0x3e350697	0.17678295
29	0xbe51bb6f	-0.20481656
30	0xbe660a95	-0.22464974
31	0x3e724aa2	0.23661283

lstm.weight_ih_l1 f4 [32, 8]
0	0x3e485a63	0.1956573
1	0x3df1830b	0.117925726
2	0x3e46e54e	0.1942341
3	0x3e76d47b	0.24104492
4	0x3e180642	0.14846137
5	0xbee43084	-0.44568264
6	0xbe1a90dd	-0.15094323
7	0x3ea93832	0.33050686
8	0x3e78abe6	0.24284324
9	0x3d1ef4e8	0.03880778
10	0xbf391e05	-0.7231143
11	0xbf4146ed	-0.7549885
12	0xbec6008c	-0.38672292
13	0xbe4fd3d9	-0.20295657
14	0x3ee81b3e	0.45333284
15	0xbf5ea168	-0.86965036
16	0x3e08d223	0.13361411
17	0x3f02d161	0.51100737
18	0x3e458e1a	0.19292489
19	0xbf15713b	-0.583759
20	0xbea56b2d	-0.3230833
21	0x3efc7169	0.49305275
22	0x3e9ba7fb	0.30401596
23	0xbf0895ba	-0.53353465
24	0xbdc4fda3	-0.0961869
25	0xbeb8fbae	-0.36129516
26	0xbc9c4485	-0.019075641
27	0xbe964553	-0.29349765
28	0xbe9845f6	-0.29740876
29	0x3e581f14	0.21105605
30	0x3c09f816	0.008420965
31	0xbec214e6	-0.3790657
32	0x3dad050a	0.08448227
33	0x3efc8bd8	0.49325442
34	0xbe87886b	-0.26471266
35	0x3ea0346a	0.3128999
36	0xbefceba8	-0.4939854
37	0x3eca4fcb	0.39514002
38	0xbdf3a3ad	-0.11896453
39	0x3bf7d930	0.0075637326
40	0x3efafa04	0.49018872
41	0xba6fd099	-0.000914821
42	0x3da32add	0.0796716
43	0xbe40f20e	-0.18842337
44	0xbde0c91a	-0.10975857
45	0x3e8a4303	0.2700425
46	0x3e36aa9c	0.1783852
47	0x3dbd1df6	0.0923423
48	0x3e98b8e3	0.29828557
49	0x3e451c4d	0.19249077
50	0x3d89a6ab	0.067212425
51	0xbe119fe1	-0.14221145
52	0xbe59b85f	-0.21261738
53	0x3dba43c3	0.09094956
54	0x3cbfc1f1	0.023407908
55	0x3ea134ee	0.31485695
56	0x3efec75b	0.4976147
57	0xbddd5692	-0.108075276
58	0xbdf113f3	-0.11771383
59	0xbdb88762	-0.09010197
60	0xbe45020d	-0.19239064
61	0xbe2ef7d8	-0.17086732
62	0x3e515e9e	0.2044625
63	0x3e34b141	0.17645742
64	0xbd89a8f6	-0.0672168
65	0x3e15c5fa	0.14626303
66	0xbe9e5a07	-0.3092806
67	0x3d8d1b52	0.068899766
68	0xbe95e94e	-0.2927956
69	0xbf0586ba	-0.521587
70	0xbede9d4a	-0.43479377
71	0x3e9a8beb	0.30184874
72	0x3ea647ce	0.32476658
73	0xbd13d1f2	-0.03608889
74	0x3c6360d8	0.01387807
75	0x3e7d6ff2	0.24749735
76	0xbe410a43	-0.18851571
77	0x3e51038d	0.20411511
78	0x3c9a6bb6	0.018850189
79	0xbd78ef4f	-0.060775097
80	0x3e471d5d	0.19444795
81	0x3e28f333	0.16499023
82	0x3ea25ba1	0.31710532
83	0xbf056844	-0.5211222
84	0xbf05e9fe	-0.5231017
85	0x3e358a2e	0.17728493
86	0xbd09259e	-0.03348314
87	0xbf0f1255	-0.5588735
88	0xbe78d9a8	-0.2430178
89	0xbe4c8167	-0.19971238
90	0xbe175567	-0.14778672
91	0xbe542b68	-0.20719683
92	0xbcfa88ad	-0.03058275
93	0xbca83955	-0.02053515
94	0xbe8547c7	-0.26031324
95	0xbee68864	-0.45025933
96	0xbcc077ba	-0.02349459
97	0x3f0d20f7	0.55128425
98	0xbd421656	-0.047384582
99	0x3eff1038	0.4981706
100	0xbda11f59	-0.07867307
101	0xbe26c651	-0.16286589
102	0x3e42c749	0.19021334
103	0x3e17904c	0.14801139
104	0xbe25bb2b	-0.1618468
105	0x3e6fed57	0.23430382
106	0xbe473796	-0.19454798
107	0x3e921ab3	0.28535995
108	0xbeac86dc	-0.3369664
109	0x3e8acbfc	0.27108753
110	0xbd081636	-0.033224307
111	0x3e97dbe1	0.29659942
112	0x3edf0bbb	0.43563637
113	0x3ec3128b	0.38100085
114	0xbe120245	-0.14258678
115	0x3e06912a	0.13141313
116	0xbec78a1e	-0.38972563
117	0xbe496940	-0.19669056
118	0xbd9c662b	-0.076366745
119	0xbd9e9889	-0.077439375
120	0xbceca9b4	-0.028889515
121	0xbee7cf6c	-0.45275438
122	0xbf0da2a1	-0.55326277
123	0x3ebbda02	0.36689764
124	0x3db2a4ca	0.08722837
125	0x3de3523b	0.110996686
126	0xbe04ebe3	-0.12980609
127	0x3ed66ba8	0.4187901
128	0x3e36ab7c	0.17838854
129	0xbdfcd4f4	-0.12345305
130	0x3e8ea3d7	0.27859375
131	0x3e820bcb	0.25399622
132	0xbe065d54	-0.1312154
133	0x3e9d5e84	0.30736172
134	0x3ee61a4b	0.44941935
135	0xbe98a6dd	-0.29814807
136	0xbf0d278c	-0.5513847
137	0xbebd644e	-0.3699059
138	0xbe1b9493	-0.15193395
139	0x3ef14379	0.4712179
140	0x3ecdec9f	0.4021959
141	0xbf058e38	-0.52170134
142	0x3d092ad2	0.033488102
143	0x3eb2ecc3	0.3494626
144	0xbdfadf14	-0.1224958
145	0xbe089425	-0.13337763
146	0x3e8e7fac	0.2783178
147	0x3f217e78	0.630836
148	0x3ea44520	0.32083988
149	0x3df130c5	0.1177688
150	0xbe2e1d9b	-0.17003481
151	0x3ed9f431	0.42569116
152	0x3da78545	0.08179716
153	0xbe5aebe0	-0.21379042
154	0x3e433f6d	0.19067164
155	0xbd893020	-0.06698632
156	0xbf3c5896	-0.7357267
157	0xbdf56056	-0.11981265
158	0x3e2cd083	0.16876416
159	0xbde91dc5	-0.11382631
160	0x3ebc2483	0.36746606
161	0xbdb4e51a	-0.0883276
162	0xbbef3789	-0.0073003215
163	0x3f1cd6df	0.6126537
164	0x3ea46e27	0.3211529
165	0x3d598d9a	0.053113557
166	0x3db48b44	0.08815625
167	0x3f0f01e6	0.5586227
168	0x3e57b519	0.21065177
169	0x3d9142a9	0.070927925
170	0x3e20b4ca	0.15693966
171	0x3df9b4a1	0.12192655
172	0xbe1bad1b	-0.15202753
173	0x3d599154	0.05311711
174	0x3eb07d82	0.34470755
175	0xbdc683e8	-0.09693128
176	0xbef4f2d1	-0.47841504
177	0xbe39fd63	-0.18163066
178	0xbc48d4ac	-0.012257736
179	0x3e3429af	0.17594026
180	0xbdc18702	-0.09449579
181	0xbe84dd72	-0.259502
182	0xbeca94ac	-0.39566553
183	0xbe832434	-0.25613558
184	0xbdbaa6a9	-0.09113819
185	0xbe8a655b	-0.27030453
186	0x3e4cf713	0.20016126
187	0xbe9fd6f1	-0.31218675
188	0x3ec0ed66	0.3768112
189	0xbeac907f	-0.33703992
190	0xbe0d657c	-0.13808244
191	0xbd258d80	-0.040418148
192	0xbeaeddf1	-0.34153703
193	0xbe8497a3	-0.2589694
194	0xbef6623d	-0.48121825
195	0x3eaf21da	0.34205514
196	0x3e958056	0.29199475
197	0x3c2844aa	0.010270277
198	0xbeae1ee4	-0.34007943
199	0xbd6ec0a6	-0.058289193
200	0x3f130e1b	0.574434
201	0xbe048a9c	-0.129435
202	0xbdebb51e	-0.11509155
203	0xbf2462d3	-0.64213294
204	0xbf155f38	-0.5834842
205	0xbeb10d8e	-0.34580654
206	0x3eccb160	0.39979076
207	0xbf7ba813	-0.98303336
208	0x3ee77b21	0.45211127
209	0x3e3b2eba	0.18279544
210	0xbc5d4ae0	-0.013506621
211	0xbf50f90b	-0.8163001
212	0xbf4e6677	-0.806251
213	0x3ed7f60c	0.42179906
214	0x3d01a93d	0.03165554
215	0xbea89b93	-0.32931194
216	0x3f0495ab	0.51790875
217	0xbea67cdf	-0.32517144
218	0x3e28819e	0.16455695
219	0xbe11aee2	-0.14226869
220	0xbf1d0576	-0.6133646
221	0xbe26402e	-0.1623542
222	0xbe513968	-0.20432055
223	0xbe1848cb	-0.14871518
224	0x3e5cf465	0.21577604
225	0x3efdda1f	0.49580476
226	0xbd9ea431	-0.07746161
227	0x3e83b9e1	0.25727752
228	0xbda4c177	-0.08044713
229	0x3ec971ba	0.3934458
230	0x3e320723	0.17385535
231	0x3e92dccc	0.2868408
232	0x3e946fc5	0.28991523
233	0x3ef248b6	0.473211
234	0x3e1fec69	0.15617527
235	0x3e0f90ec	0.14020127
236	0xbeb0e0b4	-0.34546435
237	0xbd16021e	-0.036623113
238	0x3ecf26ed	0.40459386
239	0x3e2c9088	0.1685201
240	0x3f14ad3a	0.5807682
241	0x3f065db2	0.5248672
242	0xbd66a231	-0.05630702
243	0x3dd06c28	0.10176879
244	0xbe814f0f	-0.2525563
245	0xbecaaa00	-0.39582825
246	0x3e5c812f	0.21533655
247	0xbe0f375a	-0.13985959
248	0x3e092e13	0.13396482
249	0xbe287f4c	-0.1645481
250	0xbe8c2057	-0.27368423
251	0xbea4b227	-0.3216717
252	0x3e16d3db	0.14729254
253	0xbe834624	-0.2563945
254	0x3d5e5e5a	0.0542892
255	0x3d817f2e	0.06323086

lstm.weight_hh_l1 f4 [32, 8]
0	0xbe90e5bb	-0.2830027
1	0xbde906d8	-0.113782585
2	0x3db6ff8a	0.08935459
3	0x3db597af	0.08866822
4	0x3eff7a2c	0.49897897
5	0xbe86354a	-0.2621253
6	0x3e8effc9	0.27929524
7	0xbe27a64c	-0.16372031
8	0xbf195aee	-0.5990437
9	0x3de2bda7	0.110713296
10	0xbf466b0a	-0.7750708
11	0x3f291575	0.66048366
12	0x3f0af05d	0.54273015
13	0x3eea522f	0.45765826
14	0xbec29c9d	-0.3801011
15	0x3e0d795e	0.13815829
16	0xbe1c2d53	-0.15251665
17	0x3dea429d	0.11438487
18	0xbe79fe45	-0.24413402
19	0x3ea86aa5	0.32893863
20	0xbe12845a	-0.143083
21	0xbe17c74a	-0.14822116
22	0xbd20fa21	-0.03930104
23	0x3e780146	0.24219236
24	0xbc4a185e	-0.012334911
25	0x3c18302a	0.009288827
26	0xbe0bd77c	-0.1365642
27	0x3ec7b5ec	0.39005983
28	0x3d932e94	0.071866184
29	0x3e7f0ea7	0.24907933
30	0x3c93b391	0.01802996
31	0xbe415cbb	-0.1888303
32	0xbdfaba16	-0.12242524
33	0xbe884b10	-0.26619768
34	0xbeb1c0f3	-0.3471752
35	0xbe1831c5	-0.14862736
36	0xbd2e5362	-0.04255999
37	0xbd62fe0e	-0.055418067
38	0xbee84beb	-0.4537042
39	0xbef9f98f	-0.4882321
40	0xbe57529c	-0.21027607
41	0xbe68c8ec	-0.22732896
42	0xbdff8818	-0.1247713
43	0xbe4cd63b	-0.20003597
44	0xbc82efb1	-0.015983434
45	0x3ea0da15	0.31416383
46	0xbea27f8d	-0.3173794
47	0xbeb4e75a	-0.35332757
48	0xbe829d15	-0.2551047
49	0xbe8790ea	-0.26477748
50	0x3e11e2ee	0.14246723
51	0x3e1fc340	0.15601826
52	0x3e243315	0.16035111
53	0x3ee95d16	0.4557883
54	0xbe9e96eb	-0.30974516
55	0xbe282d42	-0.16423514
56	0xbeaa2b1e	-0.3323602
57	0xbeaf68a7	-0.3425953
58	0xbdc87dcf	-0.09789621
59	0xbe3bcd90	-0.18340135
60	0xbcc4bc14	-0.024015464
61	0x3ea6f1a6	0.32606238
62	0xbe8af512	-0.271401
63	0x3ebf84d3	0.37406024
64	0xbee3a38a	-0.44460708
65	0xbe9c4dba	-0.3052805
66	0x3d56c371	0.05243248
67	0x3e83eebf	0.25768086
68	0xbd8c4840	-0.06849718
69	0xbed5661e	-0.41679472
70	0x3e814adf	0.25252435
71	0x3d2c1ef8	0.04202172
72	0x3e72a1cf	0.23694538
73	0x3e8aa0f5	0.27075925
74	0x3e0d6267	0.13807069
75	0x3d662272	0.056185193
76	0xbea1b08a	-0.3158
77	0xbec854f2	-0.39127308
78	0x3e24fb98	0.161116
79	0x3dd9f813	0.106430195
80	0xbefb4acc	-0.49080503
81	0xbbb888a8	-0.005631525
82	0xbe902881	-0.28155902
83	0x3e04c27f	0.1296482
84	0xbd0078c4	-0.03136517
85	0xbe996a46	-0.29963893
86	0xbdd93e4a	-0.10607584
87	0x3ece291c	0.4026574
88	0xbe2a1fbc	-0.16613668
89	0xbc57d7cb	-0.013174008
90	0x3db5b11d	0.08871672
91	0x3ec562d0	0.3855195
92	0x3dd2795f	0.10277056
93	0x3dbe0f8a	0.092803076
94	0x3ecdf069	0.4022248
95	0x3ee2276c	0.44170702
96	0xbdcfa431	-0.10138739
97	0x3deead32	0.11654128
98	0xbe44e990	-0.19229722
99	0xbd6f9c14	-0.058498457
100	0x3eb4995c	0.35273254
101	0x3e925cf0	0.2858653
102	0xbda2d94d	-0.07951603
103	0x3d859466	0.065224454
104	0xbd8780df	-0.06616377
105	0x3ca2a15b	0.01985233
106	0xbee6a231	-0.45045617
107	0x3e6848e0	0.2268405
108	0x3f1460d7	0.57960266
109	0xbc19dc67	-0.009390927
110	0xbe0fdc7e	-0.14048955
111	0x3e31aba8	0.17350638
112	0xbe8b7f35	-0.2724549
113	0xbede9b31	-0.43477777
114	0x3e01ecaf	0.12687944
115	0x3db76946	0.08955626
116	0x3ece7a0a	0.40327483
117	0xbd3889ea	-0.0450534
118	0xbe01b3d5	-0.12666257
119	0x3ea5716e	0.32313102
120	0xbeb9161d	-0.36149684
121	0xbebbe34c	-0.3669685
122	0x3d6185b2	0.055059142
123	0x3eb4650b	0.3523334
124	0x3e0543c6	0.13014135
125	0x3e8617a6	0.26189917
126	0xbc9cad57	-0.019125624
127	0x3ed54b4a	0.41659003
128	0x3e4d6da8	0.20061362
129	0xbd10df8e	-0.03536945
130	0xbd9881ea	-0.07446654
131	0xbe862715	-0.26201692
132	0xbd624399	-0.055240247
133	0x3ec1d52a	0.37857944
134	0x3ddae498	0.10688132
135	0xbe902fc2	-0.28161436
136	0xbe0e3d1f	-0.13890503
137	0xbecd20d6	-0.40064114
138	0x3e4a83f4	0.19776899
139	0xbdd94241	-0.1060834
140	0x3d8b289c	0.06794855
141	0x3d7a40f8	0.061097115
142	0xbc99d666	-0.018778991
143	0xbe974343	-0.29543504
144	0x3e68f3a7	0.22749196
145	0xbe13fcf2	-0.1445196
146	0x3e5c5c61	0.21519615
147	0x3e64425a	0.22290936
148	0x3ddbf2b3	0.107396506
149	0x3eaa92be	0.3331508
150	0x3d4a0a42	0.04932619
151	0x3d44358d	0.047902633
152	0xbe855f46	-0.2604925
153	0xbeab0c11	-0.33407643
154	0xbe71f965	-0.23630293
155	0xbd61d887	-0.055138137
156	0xbea9d3e0	-0.3316946
157	0x3cc7fdb4	0.024412967
158	0x3ed7e772	0.42168766
159	0xbe8222d3	-0.25417194
160	0x3ed6cc20	0.4195261
161	0x3f080014	0.5312512
162	0x3c85c6cf	0.01633015
163	0xbe11b656	-0.14229712
164	0x3da9d122	0.08291842
165	0xbe76994b	-0.24081914
166	0xbe0747cd	-0.13210984
167	0x3e187d49	0.14891542
168	0xbd98326e	-0.07431494
169	0x3e82d21d	0.2555093
170	0x3c838473	0.016054368
171	0x3e5f73d3	0.21821527
172	0xbe93e828	-0.2888806
173	0x3f12a19b	0.5727784
174	0xbe1b4d22	-0.15166143
175	0xbef93c50	-0.48678827
176	0xbe195be2	-0.14976457
177	0xbea8743a	-0.32901174
178	0xbeba2038	-0.36352706
179	0x3ebb7e2a	0.36619693
180	0xbdc7fb9e	-0.09764789
181	0xbe580840	-0.21096897
182	0x3dfb6498	0.12275046
183	0xbe04bec9	-0.12963404
184	0xbef7f63a	-0.48430043
185	0x3c317f11	0.010833518
186	0xbdf80e70	-0.12112129
187	0xbe424eca	-0.18975368
188	0x3e3b6432	0.1829994
189	0xbe0de73f	-0.13857745
190	0x3f098c8f	0.537301
191	0x3e69a4f8	0.22816837
192	0xbc3759b6	-0.011190822
193	0xbec695ef	-0.38786265
194	0xbec33176	-0.38123673
195	0x3e4c09be	0.19925591
196	0x3bafc6f2	0.0053642923
197	0x3d9b47b3	0.07582035
198	0x3eae9a59	0.34102133
199	0xbdae74bc	-0.08518359
200	0xbd38ce53	-0.04511864
201	0xbe5a14c7	-0.21296988
202	0xbf0a895d	-0.5411585
203	0x3ed4f70f	0.4159474
204	0x3f2bd996	0.67128885
205	0x3f18c1bc	0.59670615
206	0xbebf9520	-0.3741846
207	0x3ee745eb	0.4517053
208	0x3d68d7a2	0.05684627
209	0xbe9a49c0	-0.30134392
210	0x3de3ae19	0.11117191
211	0x3e576132	0.21033171
212	0x3e2e53d9	0.17024173
213	0x3e83a451	0.257113
214	0xbc865c34	-0.016401388
215	0xbe050e90	-0.12993836
216	0xbe8cbf91	-0.27489904
217	0xbf131c6c	-0.57465243
218	0xbe8a0ad5	-0.2696139
219	0x3ef6fa53	0.48237857
220	0xbe81b886	-0.25336093
221	0xbe7a1fe4	-0.24426228
222	0x3e975627	0.29557917
223	0xbd6aa2e3	-0.057284247
224	0x3ea1a094	0.31567824
225	0x3e323e05	0.17406471
226	0x3e7d00ef	0.24707387
227	0x3e9f1f71	0.31078675
228	0x3ee2ab34	0.44271243
229	0x3e69c794	0.2283004
230	0xbe0e78b1	-0.13913228
231	0xbe2d2760	-0.16909552
232	0xbd8ef87f	-0.069809906
233	0xbec9f7b9	-0.3944681
234	0xbd74eca7	-0.059796
235	0x3e280964	0.16409832
236	0x3f1d492a	0.61439764
237	0x3dc0e515	0.09418694
238	0xbe3ec986	-0.18631563
239	0xbe741f5f	-0.23840092
240	0xbedec5f8	-0.43510413
241	0xbf13636f	-0.575736
242	0x3df20cb9	0.11818833
243	0xbc259bd2	-0.010107951
244	0x3ed77f3d	0.42089263
245	0x3c2b630b	0.010460625
246	0xbecca357	-0.39968368
247	0x3e9476c5	0.28996864
248	0xbe40a42f	-0.18812631
249	0xbe9da8ce	-0.3079285
250	0xbe1ef212	-0.1552203
251	0x3efa3fd4	0.48876822
252	0x3e59cbbf	0.21269129
253	0x3e61bf29	0.22045578
254	0x3d9cbcb8	0.07653183
255	0xbd1b439c	-0.037906274

lstm.bias_ih_l1 f4 [32]
0	0x3ec17763	0.37786397
1	0x3f1cca54	0.6124623
2	0x3d8450fd	0.0646076
3	0x3ea9c78a	0.3316005
4	0x3dc6a10c	0.09698686
5	0x3ee940a4	0.4555713
6	0x3d8b8190	0.068118215
7	0xbe2f4db9	-0.17119493
8	0xbdb8d157	-0.090243034
9	0x3d697724	0.056998387
10	0xbdb6c1e6	-0.08923702
11	0x3e9861f6	0.29762238
12	0xbd24171e	-0.04006111
13	0x3ee8631c	0.45388114
14	0xbe033fe2	-0.12817338
15	0x3dab202c	0.08355746
16	0x3e84b00d	0.25915566
17	0xbe7a93c0	-0.24470425
18	0xbea0e678	-0.31425834
19	0x3e8b4c32	0.2720657
20	0x3dfa873e	0.12232827
21	0x3d48cf89	0.049026046
22	0x3dc5273f	0.09626626
23	0x3e8394c3	0.25699434
24	0x3eef790d	0.46772042
25	0x3f20ee94	0.6286404
26	0x3da44150	0.0802027
27	0xbdd3371c	-0.10313246
28	0x3ed481bc	0.4150523
29	0x3d980f2e	0.0742477
30	0x3d2fe471	0.042942468
31	0x3f059488	0.52179766

lstm.bias_hh_l1 f4 [32]
0	0x3e2af134	0.16693574
1	0x3ec389dc	0.38191116
2	0x3e7adaea	0.24497572
3	0x3e72e222	0.23719075
4	0x3dfa7bbb	0.12230631
5	0x3e1ded2e	0.15422508
6	0x3ecc0a92	0.39851815
7	0x3e6bd407	0.23030101
8	0xbe24943d	-0.16072173
9	0xbe0e8fea	-0.13922086
10	0x3d288730	0.04114455
11	0xbbe0cd72	-0.0068604285
12	0xbe4793f9	-0.19490041
13	0x3d943b6c	0.07237896
14	0x3e4bf4a3	0.1991754
15	0x3da1dd04	0.079034835
16	0xbeae50de	-0.34046072
17	0x3e8b9a19	0.27266005
18	0xbda97463	-0.08274152
19	0x3e59687c	0.21231264
20	0x3e5bbf98	0.21459806
21	0x3e000351	0.12501265
22	0xbe6cc7bf	-0.23123072
23	0xbdef5f41	-0.1168809
24	0x3e5c30cf	0.21502994
25	0x3e93d784	0.28875363
26	0x3da54804	0.080703765
27	0x3dc3c2da	0.09558649
28	0xbe2c7d6e	-0.16844723
29	0x3dbf4da0	0.09340978
30	0x3e60437e	0.21900746
31	0x3e42d44c	0.19026297

linear.model.0.weight f4 [2, 8]
0	0x3df6ce7f	0.12051105
1	0xbf5d5b0b	-0.86467046
2	0xbf35df02	-0.7104341
3	0x3eb66894	0.35626662
4	0xbe192ab4	-0.14957696
5	0x3e1ef1e9	0.15521969
6	0xbe30630b	-0.17225282
7	0x3d5372ac	0.05162303
8	0x3e5b62c4	0.21424395
9	0xbda37937	-0.07982104
10	0x3c9ba532	0.01899967
11	0xbe8a3262	-0.26991564
12	0x3eb315c8	0.34977555
13	0x3f02b2a8	0.5105386
14	0xbf2095ea	-0.6272875
15	0xbebb06f9	-0.36528757

linear.model.0.bias f4 [2]
0	0xbe619e49	-0.22033037
1	0x3e52ce34	0.20586473
