examples/2_streamflow_isotope_simulation/results/20241125_101506_612553/loss_c60a7_00002_2_batch_size=8,hidden_size=11,learning_rate=0.0020,n_epochs=182,num_layers=1_2024-11-25_10-15-11/checkpoint_000018/model.pt (torch, 5556 bytes, 6 tensors)

lstm.weight_ih_l0 f4 [44, 4]
000000 76 e6 90 be 89 e2 08 be d0 80 42 3e 55 d6 f5 3c
       -0.28300828 -0.13367666 0.1899445 0.030009428
000010 13 5d 29 3f 14 55 61 bd 72 35 a5 be 30 da 19 3d
       0.66157645 -0.055012777 -0.32267338 0.037561595
000020 80 f9 77 3e ef 77 79 bd 71 8d b3 be 6d 0d c6 3e
       0.2421627 -0.060905393 -0.3506885 0.38682118
000030 df d0 eb 3e 1f fb 70 3e 2d 21 e1 3e 87 f6 36 3e
       0.46057793 0.23533295 0.43970624 0.1786748
000040 2a 46 54 3e 85 26 12 be 4e ac 02 3e bf f9 65 be
       0.2072989 -0.14272507 0.12761042 -0.22458552
000050 13 ab f7 3d 0d b6 78 be 2a 2f a7 3e dd 2c a9 3b
       0.12093177 -0.24288197 0.3265317 0.005162819
000060 80 d9 ad 3e 19 70 dd 3e a5 19 fd 3e 71 a7 d8 3d
       0.33955002 0.43249586 0.49433628 0.10578812
000070 bd 73 85 3b 54 2f 8c bd b5 60 40 bd 68 9d 10 3e
       0.004072635 -0.068449646 -0.046967227 0.14122546
000080 c5 cd 21 3e 4e 45 7d bd 4d 2d 9b 3e 83 62 18 3d
       0.15801151 -0.061833672 0.30308 0.037203323
000090 92 0a d1 3e b2 16 c1 3d d6 20 61 be 51 f5 ef bd
       0.40828377 0.09428157 -0.21985182 -0.11716712
0000a0 df ab 76 bd 11 14 87 bd 54 d7 13 be 99 cd 9d 3d
       -0.060222503 -0.06595624 -0.1443761 0.0770523
0000b0 eb 41 88 3e 27 bf cf be 9e 45 d2 bc 7c 84 2c bd
       0.2661279 -0.40575525 -0.025667962 -0.042118534
0000c0 c2 7f 6c 3e ac 1c 9e 3e 43 89 98 be b6 bd 19 be
       0.2309561 0.3088125 -0.29792222 -0.15013775
0000d0 bd a7 4e be 30 d9 45 3d 28 79 aa be c8 0e ac 3d
       -0.20181175 0.04830283 -0.3329556 0.08401257
0000e0 0a 37 81 be ff 88 ae 3c 7c d6 7f 3e 35 e0 9c 3e
       -0.25237304 0.02130556 0.24984163 0.30639806
0000f0 19 94 a8 3e d7 bb 17 be e6 d1 b5 3d 2d 2f 25 3e
       0.3292549 -0.14817749 0.088779256 0.16131277
000100 7b a1 12 3d 13 a9 76 bd d4 35 9e be e0 10 7d be
       0.03579853 -0.060219835 -0.30900443 -0.24713469
000110 ad 70 c3 3e ad 06 dc 3c ec cc 0f 3f fa ae ea bb
       0.38171902 0.026858652 0.5617206 -0.007161972
000120 90 f3 c9 bb 3a 20 1d bd 45 34 b4 3e 9c db 45 bd
       -0.006163068 -0.03836081 0.35196128 -0.04830514
000130 82 95 9d 3e 8b 48 ca 3e 46 9a 96 bd 9e f2 a1 bd
       0.30778128 0.3950847 -0.07353644 -0.07907604
000140 90 a5 09 3f 7a da ca 3c ca 0d ee 3d 19 d5 7d bd
       0.53768253 0.02476238 0.11623724 -0.061970804
000150 b4 0e 2b 3e 0e 99 86 3e 34 5a a0 3e d8 25 c1 3e
       0.16704828 0.26288646 0.3131882 0.37724185
000160 18 eb 4f be 82 fe 60 be 39 0e 61 3e ac c6 00 3e
       -0.20304525 -0.21972087 0.21978082 0.12575787
000170 8a d6 bc be 98 e1 3f 3e de 50 c5 3d b8 97 06 be
       -0.3688243 0.18738401 0.09634565 -0.13143814
000180 8f 2e ce 3e a3 4f 36 3e f7 c0 a5 3e 85 d1 44 bd
       0.40269896 0.17803816 0.32373783 -0.048051376
000190 b9 66 f9 3e 47 c9 76 be be a4 aa be 94 80 80 bd
       0.48711184 -0.24100219 -0.33328813 -0.06274524
0001a0 14 7e d9 be dd 84 84 be 79 ea 7b be fe d7 21 3b
       -0.42479002 -0.25882617 -0.24601163 0.0024695392
0001b0 77 38 34 bd 0e 56 b2 3e f8 1b 76 bd c6 fa c1 3d
       -0.04399916 0.3483128 -0.060085267 0.09471659
0001c0 ef 17 ff bc 1a c6 d7 3c b8 63 28 be 1c 0b 2b be
       -0.031139342 0.02633958 -0.1644429 -0.16703457
0001d0 49 c9 89 3d 8b 40 46 be c9 0b 94 bd 49 cd 71 be
       0.06727845 -0.19360559 -0.0722881 -0.23613466
0001e0 d4 59 d8 bc 61 49 78 be a6 e0 cd be c7 86 a6 3d
       -0.02641002 -0.24246742 -0.40210456 0.081311755
0001f0 99 f0 40 be 80 bb ae 3d 1c bf 94 be 9b 29 b3 be
       -0.1884178 0.085318565 -0.29052055 -0.3499268
000200 42 24 2e bd 36 28 de bd 6b 5a 08 be f8 96 12 3c
       -0.042515047 -0.108475134 -0.13315742 0.008947127
000210 76 8e 83 be 24 c4 5a be 43 40 da bc ff e4 24 be
       -0.25694627 -0.21363884 -0.02664197 -0.1610298
000220 46 96 be 3e a6 b3 1c be 4e e0 80 3e d3 52 00 3c
       0.37224025 -0.15302905 0.2517113 0.007832247
000230 e3 0d 08 3f ca 32 07 3c e9 e2 b0 be 7d 5b 6f bd
       0.5314619 0.008251855 -0.3454812 -0.05843686
000240 24 c0 ad 3e 38 c6 0c 3e 83 34 03 3f c3 3e a2 3e
       0.33935654 0.1374749 0.51252 0.31688508
000250 92 64 46 3e 1b 6e 58 be fb 03 84 be c3 75 17 3d
       0.19374302 -0.21135752 -0.25784287 0.03697754
000260 cd 2e 5c 3c 21 e3 32 3e f7 a9 e6 bc 4f 27 5a bd
       0.013438893 0.17469455 -0.028157217 -0.053260144
000270 13 57 4d 3e b9 63 1b be 11 19 fa bd 9e 80 3c 3e
       0.20052747 -0.1517476 -0.12211812 0.18408439
000280 7c a1 b1 be 7d cf 1d 3f f4 e3 37 3e ee 2b ee be
       -0.34693515 0.61644727 0.17958051 -0.4651789
000290 e9 af 9e 3e 81 53 c1 3c 71 d7 0d 3e 16 e5 07 bd
       0.30993584 0.023599388 0.13851716 -0.033177458
0002a0 c5 4c 2d 3f 2c a1 55 3e 98 14 c8 bd 72 4b e7 3d
       0.67695266 0.20862263 -0.09769553 0.11293687
0002b0 09 f5 d7 3e bb 7c d2 3d c0 84 20 be fb b2 94 3d
       0.42179134 0.10277697 -0.1567564 0.072607

lstm.weight_hh_l0 f4 [44, 11]
000000 b4 eb 84 3e 4c 68 18 be 0d ba 93 3e 69 71 80 be
       0.25961077 -0.14883536 0.28852883 -0.25086525
000010 8f 90 b6 bd 21 7a 39 be f2 d8 b6 3d b8 84 35 3d
       -0.08914291 -0.18112995 0.08928098 0.044316024
000020 ac 17 64 3e ce 2a 23 bb 6e 62 86 bd 94 59 45 be
       0.22274655 -0.002489734 -0.06561743 -0.19272453
000030 a9 8f 1f be 55 8e 63 bc 87 67 a2 3e 13 cc 3b 3e
       -0.15582146 -0.013888915 0.3171961 0.18339567
000040 c0 2c 7c 3e 42 9f ad bd 9b ec 64 3e 41 4a 96 be
       0.24626446 -0.08477642 0.22355883 -0.29353526
000050 81 65 c8 3d 1a f5 5c be ae f2 f5 3e 1a b0 c7 bd
       0.09784985 -0.21577874 0.48036712 -0.097503856
000060 1e c0 b5 3b ea 00 41 be d1 f3 82 3e 30 58 b4 3d
       0.005546584 -0.18848005 0.25576642 0.08805883
000070 df 60 cc be 06 a8 5c 3e b1 20 3f 3d d3 b7 79 3d
       -0.39917657 0.21548471 0.046662036 0.060966324
000080 69 6d 76 be 2f 3b 49 3e 9a 42 da be 41 fe ec 3d
       -0.24065174 0.19651483 -0.42628938 0.115719326
000090 3a 74 0b 3e 5b 91 c4 be c7 0f bf 3e a2 fe bf be
       0.13618556 -0.38392147 0.37316725 -0.37498957
0000a0 3f 6f 10 3d ff 4d ef be 44 9e 5f be 69 b1 4a 3d
       0.035262343 -0.46739194 -0.21837717 0.049485598
0000b0 f1 86 f0 bd 10 4a a9 bd 2d 44 f8 3c ae 35 c7 be
       -0.11744488 -0.082660794 0.030305946 -0.38908142
0000c0 e0 68 9b 3e 7c 8e 30 3e f0 6c 36 3d 0e 4d 15 3e
       0.3035345 0.17241853 0.044537485 0.14580175
0000d0 76 70 cc bd 36 be 88 be 6a 0f af be 77 8c 81 bd
       -0.09982388 -0.2670762 -0.34191447 -0.0632562
0000e0 9f c5 04 3e 38 fe 04 3e 32 08 9a be d4 1c 43 3e
       0.12966011 0.12987602 -0.30084378 0.19053966
0000f0 b7 67 43 3e b9 5c 10 3e 39 3a 89 3e ce b8 ba be
       0.19082533 0.14097871 0.26802233 -0.3646912
000100 fd 75 44 3e 01 5a ac 3d 7f 5a 24 3d e9 fb e1 3e
       0.19185634 0.084156044 0.040125366 0.44137505
000110 f7 0c 1b 3e df ba 03 3d c2 9a 05 3e 02 29 83 3e
       0.15141664 0.032160636 0.13047317 0.25617224
000120 7d 4b 8a be 17 9f b5 bc 02 7f 05 be b8 db 93 be
       -0.27010718 -0.022170587 -0.13036731 -0.2887857
000130 e5 67 4f 3e ea a2 7c be 14 de af be 91 e8 6a be
       0.20254476 -0.24671522 -0.3434912 -0.2294028
000140 cb 43 7e bd 41 ca cb be 94 11 3b bd b6 00 22 3e
       -0.06207637 -0.39802745 -0.04567106 0.15820584
000150 e3 b9 ac 3d 78 58 0b bd 56 6c a0 be 1a d2 9d be
       0.084338926 -0.034019917 -0.31332654 -0.30824357
000160 75 0c be 3e 99 e9 b3 3d 17 41 02 3e d2 fa 1b be
       0.3711888 0.087847896 0.12720142 -0.15232399
000170 05 00 80 3e 1b c1 80 be e8 2c 52 3e f7 4f 07 be
       0.25000015 -0.25147328 0.20524943 -0.13214098
000180 2f 98 bd bc 4e 60 b6 3e 6f 2d 31 be 2d bb ab bd
       -0.023143856 0.3562035 -0.17302488 -0.0838531
000190 60 fb 94 bb 3a b9 f2 3e 75 49 04 3e 9c 33 86 3d
       -0.004546568 0.47406942 0.12918647 0.065528125
0001a0 6f 58 43 be bc 22 e0 3d c5 fa 4c be c5 57 7b 3e
       -0.19076703 0.10944125 -0.20017536 0.245452
0001b0 90 8e 1f 3e ff 34 26 3e 0c 98 93 3e 65 e2 1f be
       0.15581727 0.16231154 0.2882694 -0.15613706
0001c0 b7 f8 5e bd 86 9a f0 3b ec e8 99 3e 77 2f 47 3e
       -0.05443641 0.0073426394 0.30060518 0.194517
0001d0 0f 4f 3e be e2 b5 7f 3e 90 68 6a 3e d2 d3 84 3c
       -0.18584846 0.24971727 0.2289145 0.016214285
0001e0 a5 4f ce bd 68 e5 ac 3c ea 70 d4 be aa d3 07 be
       -0.10073785 0.021105483 -0.41492397 -0.13264337
0001f0 ac f7 84 be 5e b9 24 3e 1d e6 60 be c6 50 59 be
       -0.2597021 0.16086337 -0.21962781 -0.21222219
000200 05 83 36 3e 50 1f e8 3e b3 47 9d 3e b7 b5 5b be
       0.17823417 0.4533639 0.30718765 -0.21456037
000210 99 db 14 be dc 4c ee bd 17 c2 36 3e ad ae 5a 3e
       -0.14536895 -0.116357535 0.17847477 0.21355696
000220 93 2c 8e 3e c2 5d e9 3e ae be c3 3e 31 2a 04 be
       0.27768382 0.45579344 0.38231415 -0.1290672
000230 cd 68 b7 bd 96 dd 3e 3e 13 cc 4f be 17 d2 36 be
       -0.08955536 0.18639216 -0.20292692 -0.1785358
000240 a3 05 e6 bd cd 74 37 be c1 4b 6a 3e cc a9 6d 3e
       -0.11231544 -0.1791565 0.2288046 0.23209304
000250 30 c0 7a bd 30 91 81 be 3f 1d cf bd 93 bc b4 bc
       -0.06121844 -0.25306082 -0.10113 -0.022062575
000260 9c ad 21 3e d5 c6 a7 bd 14 14 46 3e 4b a9 ed ba
       0.15788883 -0.08192221 0.19343597 -0.0018132118
000270 c4 4c 4d 3e 7d af 5d bd 28 2e 85 3e c2 8a 49 be
       0.20048815 -0.054122437 0.26011777 -0.19681838
000280 a1 b7 3c 3e 9d 73 6c be e7 8b 13 3e a3 fd 1f be
       0.18429424 -0.23090978 0.14408837 -0.15624098
000290 45 c0 64 be 6e 09 db 3e 12 67 ba bd 4d 53 ac 3e
       -0.2233897 0.42780632 -0.0910169 0.33657303
0002a0 c5 16 c5 bc 6a cf dc 3b 7c 8d 50 be 2a f2 bb be
       -0.024058709 0.006738593 -0.20366472 -0.36708194
0002b0 7b 7b b1 bb 01 a8 19 3e c1 db 1f 3e 24 94 9d be
       -0.0054163313 0.15005495 0.15611173 -0.30777085
0002c0 c4 f7 b7 3b 33 d2 95 be ca 02 c2 be ab 18 a4 be
       0.0056142528 -0.29261932 -0.37892753 -0.3205007
0002d0 b0 4f 9b bc 95 aa 89 3d 3d 7c 82 3d 5b 28 c7 3e
       -0.018958896 0.06721989 0.06371353 0.38897976
0002e0 94 85 56 3e cf 27 b8 bd 62 51 9c be 7e 0a 83 3e
       0.20949394 -0.08991968 -0.3053084 0.25593942
0002f0 4f 54 96 3e 6b 6c d0 3e 51 56 e6 bc 47 a9 5c 3e
       0.29361197 0.40707716 -0.02811733 0.21548949
000300 22 ef 66 be cf 69 57 be 5c 99 5e be 48 4e 1d 3d
       -0.2255216 -0.21036457 -0.2173819 0.038404733
000310 a7 00 3d be a5 54 c4 bc b5 5f 02 bd f3 a8 89 be
       -0.1845728 -0.023966143 -0.031829555 -0.2688671
000320 21 06 5c be 82 ae 18 3e 7a 85 09 3e 86 7b ff 3e
       -0.21486713 0.1491032 0.13429824 0.49898928
000330 4c 3d 02 be 06 18 bc bd 3c d5 da be b4 7d 9b be
       -0.12718695 -0.091842696 -0.4274081 -0.3036934
000340 ec ed 47 3d 15 7a 05 3e 34 ff 38 be 69 1a 03 3e
       0.048810884 0.13034852 -0.18066102 0.12803043
000350 40 1a fe be 23 3d 7b 3e e2 aa a0 be 1d 90 03 be
       -0.49629402 0.2453504 -0.31380373 -0.12847944
000360 1a c7 61 3e 2f b9 5c be 31 98 17 3e 87 a7 1e bd
       0.22048607 -0.21555017 0.1480415 -0.038733985
000370 5f a5 58 be b0 af 73 3d 50 c8 24 3e a6 71 9b bd
       -0.21156834 0.05949372 0.16092038 -0.07590036
000380 87 1c 9d 3d 48 26 80 3e 85 34 a7 be 30 98 c7 3e
       0.07671457 0.25029206 -0.32657257 0.38983297
000390 00 db b2 be 67 e3 31 bd 1c 95 88 be dc fd dc 3e
       -0.3493271 -0.04342976 -0.2667626 0.4316243
0003a0 56 58 4a bd 78 c9 74 be 8c a4 52 be ca 5b 7e 3e
       -0.04940065 -0.23904979 -0.20570582 0.24839702
0003b0 20 6b 81 bd 06 19 8f be b5 58 fb 3e 8e 2f ab be
       -0.063192606 -0.2794878 0.49091116 -0.3343472
0003c0 3f 01 b7 3d e3 8f 2b be f8 ed a2 3d 11 ef 9c 3d
       0.089357845 -0.16754107 0.07955545 0.07662786
0003d0 24 76 9a 3e d4 25 96 b8 a3 3d e9 bc 01 8c 44 be
       0.3016826 -7.1596034e-05 -0.028471773 -0.19194032
0003e0 10 6d ce 3d 50 e1 78 3e 45 e4 b9 3e 61 33 99 3e
       0.10079396 0.243047 0.36306968 0.29922011
0003f0 3d 0f 3a 3c ef 58 af 3d e9 d4 0e 3e e6 cb 4f 3e
       0.011356172 0.085618846 0.13948406 0.20292625

lstm.bias_ih_l0 f4 [44]
000000 25 c0 1c 3e 98 f2 76 3e 16 91 df 3e a0 fa c9 bd
       0.15307672 0.2411598 0.4366538 -0.09862256
000010 97 2d 88 3e 00 bb 8f bd 03 f2 8c bd 74 9d 88 3e
       0.26597282 -0.07018089 -0.068820976 0.26682627
000020 b3 d1 4c be 22 eb c1 3e 11 4d 0f 3f 6f 68 69 3e
       -0.20001869 0.37874705 0.5597697 0.22793745
000030 e2 fc 64 3e 8c f1 00 3e b1 64 cd 3c 30 e1 31 3d
       0.22362092 0.12592143 0.025072427 0.043427646
000040 d8 e8 69 3e 55 22 f4 3d e0 91 34 bb fe 2a 9e 3e
       0.22842729 0.11920611 -0.0027552769 0.30892175
000050 bd 35 dc bd 70 bf 07 3f 14 41 12 3e 85 da eb 3d
       -0.10752437 0.53026485 0.14282638 0.11516289
000060 64 7d 6a 3d f5 1c 8b bc 73 a6 3a 3e 62 bc b3 bd
       0.057248488 -0.016981581 0.18227558 -0.087761655
000070 5f 8b 37 be 0e d1 1d 3e 46 56 e2 3b ac 12 32 be
       -0.1792426 0.1541178 0.0069072573 -0.17389935
000080 99 03 d6 be 49 ba 67 bd 81 00 a1 3e e0 2d 30 3e
       -0.4179962 -0.05657414 0.31445697 0.17205
000090 a3 6d 58 bd 82 ae ed 3e 4c 9a 4e 3e 46 85 c9 3d
       -0.052838933 0.464222 0.20176047 0.09839873
0000a0 89 43 4f bd a2 67 db 3a bc b9 af bd 32 f1 17 be
       -0.050601516 0.0016739259 -0.08580348 -0.14838102

lstm.bias_hh_l0 f4 [44]
000000 d2 92 26 be 54 53 6e 3e b0 8e c4 3e bd 7d 38 3d
       -0.16266945 0.23273975 0.38390112 0.04504179
000010 2e 8d 88 3d b4 42 2c be 88 65 36 3e f4 5d 02 be
       0.06667553 -0.1682232 0.17812169 -0.12731153
000020 a4 51 18 bd e6 6e 96 3e a5 84 a3 bc 00 c0 28 3e
       -0.037187234 0.29381484 -0.01996071 0.16479492
000030 4c 94 db 3d d8 31 da bd 46 98 8b 3e 50 ad c3 3e
       0.10721645 -0.10654038 0.27264613 0.38218164
000040 e1 1b e9 3e c7 5a aa 3c b8 31 76 3d 7f e2 05 3f
       0.45529082 0.02079524 0.06010601 0.5229873
000050 08 7f 9a 3e 18 3d ab 3e 36 54 7f 3e 76 e2 6f bd
       0.30175042 0.33445048 0.24934468 -0.05856558
000060 83 2b cb bc 62 fc 87 be 47 31 ff 3d 7e 4f bd bb
       -0.024801021 -0.2655974 0.12460571 -0.0057772985
000070 9c 6c d2 be 70 56 2a 3e 5f 64 e0 3c 75 bd 1d be
       -0.41098487 0.16634536 0.02739161 -0.15404303
000080 a4 08 9e be 7e 60 8b 3e 48 5b c8 3e d1 08 bc 3e
       -0.30865967 0.27222055 0.39132142 0.36725476
000090 b5 a2 55 3d 07 09 9f bd 82 59 31 bc c3 03 07 3f
       0.052157123 -0.07765394 -0.010824563 0.52740115
0000a0 27 d9 8f be eb 0a c2 3e 47 26 18 3e 11 07 1e 3d
       -0.28095362 0.37898955 0.14858352 0.038580958

linear.model.0.weight f4 [2, 11]
000000 bb b7 e4 bd 43 d6 ee be 71 40 36 3f 70 8d 34 3f
       -0.11167856 -0.46647844 0.7119208 0.70528316
000010 4c 86 8b be d3 46 7a be 21 57 d6 be 82 27 64 be
       -0.27250898 -0.2444108 -0.4186335 -0.22280696
000020 5d 77 29 3e 03 6d ae be 64 78 d3 be 0a 1e 62 be
       0.1654944 -0.34067544 -0.41302788 -0.22081771
000030 a0 41 51 be ea e8 43 be ea c0 94 be 18 33 c0 be
       -0.2043519 -0.19131818 -0.29053432 -0.3753898
000040 b7 ac 71 3e a7 8a 71 bd d9 5e 51 3e 01 09 92 be
       0.23601042 -0.05897012 0.20446338 -0.28522494
000050 55 d0 d4 be a4 21 18 be
       -0.41565195 -0.14856583

linear.model.0.bias f4 [2]
000000 5c d4 1a be 21 78 2b be
       -0.15120071 -0.16745044
