examples/2_streamflow_isotope_simulation/results/20241125_101506_612553/loss_c60a7_00001_1_batch_size=6,hidden_size=16,learning_rate=0.0010,n_epochs=279,num_layers=1_2024-11-25_10-15-11/checkpoint_000007/model.pt (torch, 8116 bytes, 6 tensors)

lstm.weight_ih_l0 f4 [64, 4]
00000000: 08a9 a93d b696 303d 4d1a 303d 5500 703e
00000010: 77db bfbd 9a22 e43c 366c 40be 6786 95bc
00000020: 20be adbd 2eff 07bd 5a35 89bd af90 ae3d
00000030: a32a a03d 4a28 efbc bd32 123e 5d9f c4bc
00000040: 6bc5 4dbe 4621 19be 6423 e93d 9e30 e83d
00000050: 5547 3d3d 6a32 323c 19e5 8fbe 0719 febd
00000060: 7153 e9bd d0f3 8abe b706 03bd cdba 5b3e
00000070: 3109 c23d bc9b 8d3d af80 3b3e 2c97 413e
00000080: b39f 0b3e 1ffa 00be 4d13 2bbd e44e 053d
00000090: 9a12 203e 5048 743e f30c 1b3e 3e91 e43d
000000a0: ba86 4a3e a00d 153e 4701 333d d149 12be
000000b0: 5bf9 013e cf1f 0f3e 8d61 3bbd 3c59 eabd
000000c0: 7a84 823d 6bb3 09bd e514 ebbc 2194 00be
000000d0: 92b4 543e f096 043d db3d 9cbd 2381 7e3e
000000e0: 42c8 0b3e d8dd 4d3e 975e 33be 6c40 553b
000000f0: 8bca a03d 170f 10bd 1c11 173e 44c3 e83b
00000100: 7084 0438 f96f 323e dc59 b43d 0706 39be
00000110: 9b00 bfbd 118b 73be f350 84be eef3 873e
00000120: c495 3b3d c631 91be b3ec 563e aec4 e4bd
00000130: ed61 733e 1de5 663e 7581 6f3e 7756 513e
00000140: 1cb2 29bd 3494 863d 40a1 883e e040 193d
00000150: 41e1 043c f2df c63d 74db 8f3d 3681 0cbe
00000160: ef3c 773d 5bdc 12be 40a7 53bd 042a 563e
00000170: 32aa 913e 1a06 3a3e 1bf1 173e 59b5 1a3e
00000180: db03 523e ad95 753e a2f4 183e 8ce2 3c3e
00000190: fe45 1a3e 2769 883e eeb3 653d 2fd4 863e
000001a0: 5e64 293e f650 02be 389e 67be ca34 443e
000001b0: d478 78bd 69c2 9bbd 6544 3d3e d7b3 19be
000001c0: bbc8 95bc 8816 b13d 9eb6 5bbe a67f e03c
000001d0: 2951 323e e605 b03c 13f4 2ebd a32e 533d
000001e0: 50cf 753e 0561 fd3c 6ac1 fa3d a4e7 afbd
000001f0: 66d6 d0bd 2b77 8c3c 0f3b 19be 3032 41bd
00000200: 830e 47be 73b3 a33d 5a58 283e 664e ebbd
00000210: ae91 51bd 2e76 76be 6bac 71be 3585 b73d
00000220: 560f 8a3e 8b6d 07be 6e98 43bd dda5 1a3e
00000230: dc2c 3a3e 2d6c 4b3d f434 243e 746e be3d
00000240: f908 f2bd 759d 05be 1315 d3bd 0851 623e
00000250: b169 debc 5256 2abe e5e5 493e 1101 cfbc
00000260: f6d6 6abe 0ada e73d 4dc0 25bd 27bf 323e
00000270: 625a 78bd 8728 82be 20a1 38be 3f75 413d
00000280: a183 f4bc 80db 5f3e 9b5e 9d3c 7b5c 173e
00000290: 4014 db3d 6350 433e 69f5 c4bd 661f 06be
000002a0: 96ae 24be be7a 8f3e 39e1 eb3d fce8 7b3d
000002b0: 6841 94be ab19 ea3d 318a 9a3d 8495 803e
000002c0: e90b 253e e4fd 253e c33e d6bd 9cd6 0f3d
000002d0: 36d6 53be 694c 0ebe b750 a0be d4e4 c03d
000002e0: be5c 23be 351a 943e 1817 01be 1e68 19bd
000002f0: fd17 763d bce7 183e 1042 ef3d a49e 9dbc
00000300: 03e8 cc3d f208 703d 3fbe 47bd 828c 24bd
00000310: 1007 093c 0984 6abe e520 d6bd 21d5 39be
00000320: 908f 44bd 4d81 18be adae 71be 3cac d13b
00000330: 4292 a83e fe50 d3bd 27e2 3cbe 6c78 e03c
00000340: ca1c 31be 9bf9 86bc eca6 8d3e 1c92 9ebd
00000350: 1c1a 2abe aa0c 4c3e 0f98 3b3e 60d6 66be
00000360: d87b 123e e6ca 523d 2736 0d3e 51a8 5f3e
00000370: 5c61 19be a998 e2bd 94a0 1a3e 93c5 97bd
00000380: 79a4 0d3e 6d74 703e b0ed 403d b46d a63d
00000390: b583 983e d077 21be e1ed 8fbd 43c9 f3bd
000003a0: 040b 93bd b3a5 53be a4be 1ebe e442 a93d
000003b0: e0a0 593e d005 00be 66b4 3e3e 57e5 813e
000003c0: 5df7 e6bd 7a49 29be 4d3d 353e 96e7 7dbe
000003d0: b863 e6bd bc84 81be 705c 9c3b d916 4ebd
000003e0: 8ce6 3d3e 6e03 003e d933 293e ebc6 253e
000003f0: 1794 953d 6eb3 95bd 2f3a 72be 5506 7abd
0.08284193 0.04311248 0.042993832 0.23437627 -0.093680315 0.02784853 -0.18791279 -0.018252565
-0.08483529 -0.033202343 -0.06699629 0.0852369 0.07820632 -0.029194016 0.14277168 -0.024001772
-0.2009484 -0.14954099 0.11383703 0.11337398 0.046210606 0.010876277 -0.28104475 -0.12407117
-0.11392868 -0.2713914 -0.031988826 0.21457978 0.09474409 0.069144696 0.18310808 0.18905324
0.13635139 -0.12595414 -0.041766454 0.03254594 0.15632096 0.2385571 0.15141658 0.11160515
0.19777957 0.14555979 0.04370239 -0.14285971 0.12692778 0.13976978 -0.04574733 -0.11442801
0.06372924 -0.033618372 -0.028696487 -0.12556507 0.20772007 0.032370508 -0.076289855 0.24853949
0.13650611 0.20104158 -0.17516552 0.003253962 0.07851132 -0.03517064 0.1475262 0.0071033556
3.1594594e-05 0.17425527 0.08806202 -0.18068705 -0.09326287 -0.23783518 -0.2584301 0.2655329
0.045797125 -0.28358287 0.20988731 -0.11170326 0.23767824 0.22548337 0.23389228 0.2044314
-0.041429624 0.06571236 0.26685524 0.037415385 0.008110345 0.09710683 0.07024279 -0.13721165
0.060360845 -0.14341871 -0.051673174 0.20914465 0.2845016 0.1816639 0.14838068 0.15108241
0.20509283 0.23982878 0.1493707 0.18445796 0.15065762 0.26642725 0.056079797 0.26333758
0.16542193 -0.12726197 -0.2261895 0.19160762 -0.060662106 -0.0760544 0.18483122 -0.1501001
-0.018284192 0.086468756 -0.21456382 0.027404618 0.17413773 0.021487188 -0.042713236 0.051558148
0.24004865 0.030930052 0.12243922 -0.08589104 -0.10197143 0.017146667 -0.14963935 -0.047167003
-0.1943913 0.079932116 0.16439953 -0.11489563 -0.05116432 -0.2406852 -0.23600928 0.08960954
0.26964825 -0.13225381 -0.04775279 0.15102334 0.18181175 0.04966371 0.16035825 0.09298411
-0.11818118 -0.13048346 -0.10306754 0.22101223 -0.027150007 -0.16634491 0.19716604 -0.025269063
-0.22933564 0.113208845 -0.040466595 0.17455731 -0.06063307 -0.25421545 -0.18030214 0.047230955
-0.029847922 0.21861076 0.01921015 0.14781372 0.10697222 0.19073634 -0.09617121 -0.13097915
-0.16082224 0.28023332 0.11517567 0.061501488 -0.2895615 0.11430677 0.07545889 0.2511407
0.16117825 0.16210133 -0.104611896 0.035116777 -0.20687184 -0.13896336 -0.3131158 0.094186455
-0.15953347 0.28926244 -0.12606466 -0.03745281 0.06008147 0.1493215 0.11682522 -0.019240685
0.1000519 0.05860228 -0.048765417 -0.04017306 0.0083635 -0.2290193 -0.10455493 -0.18147708
-0.047988474 -0.14893074 -0.2360179 0.0063987058 0.32924086 -0.103181824 -0.18445645 0.027401172
-0.17296138 -0.016476443 0.27666414 -0.07742712 -0.16611522 0.19926706 0.18319725 -0.22542715
0.14305055 0.05146303 0.13790189 0.21841551 -0.14978546 -0.11064274 0.15100318 -0.07410731
0.13832273 0.23481913 0.047101676 0.08126393 0.29787984 -0.15768361 -0.07027794 -0.11903622
-0.071798354 -0.20668678 -0.15502411 0.082647115 0.21252775 -0.12502217 0.18623504 0.25370285
-0.112776496 -0.16531935 0.17699166 -0.24795374 -0.112494886 -0.2529658 0.0047717616 -0.050314758
0.18544978 0.12501308 0.16523685 0.16189162 0.073036365 -0.07309614 -0.23655008 -0.061041195

lstm.weight_hh_l0 f4 [64, 16]
00000000: fd1c 183e a19c a7bd d87b 49be 5715 ab3d
00000010: 57bb e0bd 629e 5a3e cc5d fcbd 84ff e33d
00000020: c99a af3c cc4f fabc 1bc6 4f3d 5abd 25be
00000030: 8ae7 55be 62ba b4bd 5117 c9bd 3f38 aebd
00000040: 97c9 603d d5c3 e4bd 95b6 a53d d9c3 babc
00000050: 04d2 2ebd a9f7 8dbe d1b8 333e 45e9 03be
00000060: 0b3a a33c 91be 9c3e 89ec 07be 0abe fc3d
00000070: 0e33 5d3e f677 073e e919 813d 9675 5d3e
00000080: 5e50 88be 56b6 cd3d 9172 e9bd 8bf7 153e
00000090: 369b cdbd d393 b73d 753f 5cbe 77ab a1bc
000000a0: 4ef0 353e 39c6 943d 3042 1fbe 46d3 59be
000000b0: cb59 71bd 4ecb 08be f051 97be eb65 dc3d
000000c0: ff47 bdbb 5940 c3bd 18e6 a9bd e0ae 07bd
000000d0: 3634 49be 559e 7dbe 1be8 9b3d 6f0c cfbd
000000e0: ba53 7b3e 07c9 513e 054e 033e 60cb c53d
000000f0: 7c70 bc3d 9211 6a3d 2a0b 013e 83a1 53bd
00000100: 6099 ac3d 075a 54be 88df 303e e855 c3bd
00000110: 538d 723d 4932 f93d ced9 c23d b90b 91be
00000120: fc7e 763e 9218 9d3e 4ee9 0bbe b126 aebd
00000130: 654f a03a c365 3b3e 64ca 99bd 9df5 6b3e
00000140: 9f78 0bbe ae07 d8bd 172b a63d 5203 23bd
00000150: d7c9 0f3e 3716 e53d aaba f9bd b3c3 553e
00000160: 25e1 4ebe 9052 04be e55b 93be c8d9 9ebe
00000170: cfc4 8dbd 4cc2 303e af4a 0c3e eecd 2d3d
00000180: 4f3c 8fbe 8c40 493e ce33 a53e 510b a1bd
00000190: 6f26 45bd 99fb 9dbe 7fc3 883d 98c3 82bc
000001a0: f71a 3a3b 2f12 603e 7dbf 6ebe f1b3 aa3d
000001b0: bec8 8b3e 0491 343e 024c 62be 403b e0bd
000001c0: 1ede 5dbe 39e5 dabd 6053 773c f73c 273e
000001d0: bf0e f03d 2071 d4bd c1cd 84be e52a 453e
000001e0: 5b67 39bd ee80 00be 2cf0 34be f9b3 7dbe
000001f0: 2436 603d 23e2 38bd 5a50 fbbc 534e c9bc
00000200: eb29 2d3e d1fb 40be 383a ad3a e2b5 7b3d
00000210: 9c40 b13d abe6 913d ceeb 1a3d 29b8 e93d
00000220: f0ac 553e f5fd 7a3e d71b 233e 14ce 28be
00000230: 516f eabd 0e37 1e3b f45d 26be 5fc6 c33d
00000240: 898b 943d 21e5 e0bd 10e4 873e 0820 ea3d
00000250: e1d7 9abe f8d7 983d 4673 22be 1a51 34be
00000260: 212f fcbd 9a57 2f3d b072 b5bd bd1b a5be
00000270: 7776 1fbd e4cd 70be fe21 a0bd 29aa 8cba
00000280: c9ac 30be 96f8 d43d d628 9cbd 743f ebbd
00000290: f0c4 e23d 29c9 a23d b261 85bd addc 2c3e
000002a0: b763 6fbe 001d 9d3d 8795 de3c 0cbc 99be
000002b0: 49b5 26be 6370 12bd a8a4 89be 3f34 d0bd
000002c0: 4326 c93d dfd6 f4bd c645 7b3e 120c 473e
000002d0: 7911 f63c 411f 42be 513d adbd fcc1 223e
000002e0: d158 2cbe 82a9 bfbd 54f4 e93d d23d 0e3e
000002f0: a4df 1dbe dbce 013d b61d 2dbb 8aa9 b73d
00000300: cddb 7dbc 2cbe d83d 8557 643e 779a 273e
00000310: 4eb4 2ebe 8a63 b5bd 46b6 313e c68f 59bd
00000320: a14d c1bc 0852 9a3d 1a38 143d d8cd b6bd
00000330: 4c56 13be 9930 c83c 475c 42be 1c97 f73d
00000340: 2d7d 9b3d 1344 5e3e 5b34 353d b745 e6bd
00000350: 440c 3f3e de34 dcbd 380b 6dbe aa8d 023e
00000360: 4879 8c3e d983 7e3d 424e 6dbe e6d7 0bbe
00000370: ea16 a23d 5240 40bc 139e dfbd 8e98 59be
00000380: 7045 0bbd 68e9 1c3e de2c c2bd 475f a0bd
00000390: 52fd 483d ffb7 95bd 1267 b0bc 7294 fa3c
000003a0: 73a9 9c3d 057e c03d 11ff 51be a182 dbbd
000003b0: 270e 993d 32c4 d23d 5e08 433d f629 b8bd
000003c0: b282 4b3d 2fd4 a93d 68d1 51b9 9bdf 75be
000003d0: c545 31bd d931 073e ad2f f1bd f5c2 04be
000003e0: d069 1bbe 1898 87be 72bc db3a 7d91 813e
000003f0: e0a9 27be 15d1 bebd 1888 773e 0b2d 34be
0.14854808 -0.081841715 -0.19676149 0.083536796 -0.10973232 0.21349481 -0.12322578 0.1113272
0.021436112 -0.030555628 0.050726037 -0.16185513 -0.20889106 -0.08824612 -0.098189004 -0.08506822
0.05487975 -0.111701645 0.080914654 -0.022798466 -0.042680755 -0.27728012 0.1755097 -0.12881954
0.019925138 0.3061414 -0.13273825 0.123409346 0.21601507 0.13229355 0.0630377 0.21626887
-0.26623815 0.100445434 -0.11398805 0.14645211 -0.1003937 0.08963742 -0.21508582 -0.019735081
0.1776745 0.072643705 -0.15552592 -0.21272 -0.058923524 -0.13358805 -0.295547 0.10761627
-0.005776405 -0.09533758 -0.0829584 -0.03312576 -0.19648823 -0.2476743 0.0761263 -0.101097934
0.24543658 0.20486842 0.12822731 0.09657931 0.09201142 0.057145663 0.12601915 -0.0516677
0.084276915 -0.20737468 0.1727277 -0.0953787 0.05921681 0.12167794 0.09514199 -0.28329256
0.24071878 0.30682808 -0.13663217 -0.085034736 0.0012230693 0.18300538 -0.07509306 0.23042913
-0.13620232 -0.1054834 0.081136875 -0.03979809 0.1404184 0.11185878 -0.121938065 0.20875435
-0.20203073 -0.1292212 -0.28781047 -0.3102553 -0.06922304 0.17261618 0.13700365 0.042432718
-0.279757 0.19653529 0.32266086 -0.078634866 -0.048132356 -0.30856016 0.06677913 -0.015962407
0.002839742 0.21881936 -0.23315234 0.08335102 0.27301592 0.17633444 -0.22099307 -0.10948801
-0.21666762 -0.10688252 0.015095562 0.1633185 0.117215626 -0.103731394 -0.25938228 0.19254644
-0.045264583 -0.12549183 -0.17669743 -0.24775685 0.054739133 -0.045137536 -0.030677963 -0.02457348
0.16910522 -0.1884606 0.0013216203 0.061452754 0.086549014 0.071240745 0.037822537 0.11412079
0.20866752 0.2451094 0.15928589 -0.16484863 -0.11447013 0.0024141702 -0.16246778 0.09559321
0.07253177 -0.10981203 0.26541185 0.11431891 -0.30242828 0.07463068 -0.15864286 -0.17609063
-0.123136766 0.042808153 -0.088597655 -0.32247725 -0.038931336 -0.23516041 -0.078189835 -0.0010731864
-0.17253412 0.103989765 -0.07624976 -0.11486712 0.11072719 0.079485245 -0.065127745 0.16881056
-0.23377882 0.07671547 0.02717091 -0.3002628 -0.16280092 -0.03575171 -0.26883435 -0.10166215
0.09821751 -0.11955046 0.24538335 0.19438198 0.030037628 -0.18957235 -0.08458961 0.15894312
-0.16830756 -0.09358503 0.11423555 0.1389077 -0.15417343 0.031691413 -0.0026415414 0.08967884
-0.015494299 0.105831474 0.22299011 0.16367517 -0.17060968 -0.08856876 0.17354688 -0.05311563
-0.023596587 0.075351775 0.036186315 -0.0892598 -0.14388388 0.024437236 -0.18980514 0.12089369
0.07592235 0.21705656 0.044239383 -0.11243766 0.18657023 -0.10752271 -0.23148811 0.12749353
0.2743628 0.06213746 -0.23174384 -0.13656577 0.07914527 -0.011734085 -0.10918822 -0.21249601
-0.034001768 0.15323412 -0.09481214 -0.07830673 0.04906971 -0.07310485 -0.021533523 0.030588362
0.076495074 0.09399036 -0.20507456 -0.10718275 0.074734025 0.102913275 0.0476154 -0.089923784
0.049685188 0.08292424 -0.00020009803 -0.2401108 -0.043279428 0.13202609 -0.117766716 -0.12964995
-0.15177083 -0.26483226 0.0016764535 0.2530631 -0.16373396 -0.09317223 0.2417301 -0.17595308

lstm.bias_ih_l0 f4 [64]
00000000: 0bb4 4abe 4269 7c3e 2965 28bc e98b e3bc
00000010: 467f 443e a2a4 013e 6f6d 8c3d 3aae 25be
00000020: 7ca8 aa3e 05be bdbc 139b ff3d 75ea 1b3e
00000030: 9cb1 e53a e9c3 0fbe 1127 823e 706f 153e
00000040: 2334 4e3e dcc1 243d 43e0 883e 4dd5 433e
00000050: 3920 793e 4e9e 043e c919 4f3e 7bb6 103e
00000060: efc7 2b3d e565 6cbd 63f5 3d3e 5b07 debd
00000070: 6449 273e 8ec1 72bd ae37 8d3e 3da2 223e
00000080: 3979 c1bd 6c8a cbbd 17ca 463e 92d7 643d
00000090: f8c0 22bd 2651 37be 705e 463e c21c 0dbe
000000a0: d5bc 833c 2397 b4bd 80ec 6fbe 2930 71be
000000b0: 35e1 b33d a75a e1bd 969d 4fbe 4e84 973b
000000c0: eab1 d53d e2b4 633e 4d2a 1cbd cd8e babc
000000d0: 1542 95bd 4b90 42be 337b 9b3e a868 9dbd
000000e0: 84cc 733e 81db 16bd 8b13 44bd 0c87 a93e
000000f0: 9ca4 46be 8c42 9d3c d954 e23d ef0a 15be
-0.19795243 0.24649528 -0.010278025 -0.027776675 0.19189176 0.12660459 0.0685681 -0.16179743
0.33331668 -0.023161897 0.1248075 0.15226157 0.0017524245 -0.14039578 0.2542043 0.14593291
0.20137076 0.04022394 0.26733598 0.19124337 0.24328698 0.12951013 0.2022468 0.14132111
0.04193872 -0.05771436 0.18550639 -0.10841247 0.1633659 -0.05926662 0.27581543 0.15882201
-0.094469495 -0.09938511 0.19413029 0.055869646 -0.03973481 -0.1790205 0.19371963 -0.13780501
0.016081253 -0.088178895 -0.23430061 -0.23553528 0.08783189 -0.11003619 -0.20274958 0.0046239262
0.10434325 0.2223697 -0.03812628 -0.02277317 -0.07287995 -0.19000356 0.3036743 -0.07685977
0.23808485 -0.03683043 -0.0478702 0.33110845 -0.19398731 0.019196771 0.1105134 -0.14554952

lstm.bias_hh_l0 f4 [64]
00000000: 58fa b03b adbc ba3d 6fdd 9cbd a17d 633d
00000010: d14f e73d 4266 3a3e ff1a 11be 809e b8bd
00000020: d49d 5c3e 6127 bdbd 15da 5fbc 0e75 96bd
00000030: 8090 1ebe 3670 923e 709d ecbd 689e 4abc
00000040: d452 feb9 2aeb 733e 18a7 8f3e 5bcc 633d
00000050: 46d2 343e 2407 763e 3893 663e 00d3 a23e
00000060: 9114 8d3e c6f5 933e 18b9 893d ffa0 9d3d
00000070: 0c7f 3f3e 6246 983e ff81 963e b305 ea3d
00000080: 8b92 0bbe 9712 9abc d9a3 253e 7a27 66bd
00000090: bac3 33be 2f8f a5bd e414 5abe 8662 8f3d
000000a0: e87e 34bd e0a1 883e 7046 14bd a240 aabd
000000b0: 7bd1 693e 69db 4abd e470 44be e6d1 e8bd
000000c0: bf6b 463e 61f3 2cbd 3a7e 8c3e c676 6cbd
000000d0: 2f12 3cbe 63bf abbd a997 143e 6cb9 aabc
000000e0: 0c55 8539 1bc2 f2bd a211 583e 56e4 b03d
000000f0: 6c9f 5dbe 3bc8 74bd 9508 4a3e 1873 333e
0.005400937 0.09118018 -0.076594226 0.05553973 0.11294521 0.18203071 -0.14170454 -0.090146065
0.21544582 -0.092360266 -0.013662835 -0.07346545 -0.1548481 0.28601235 -0.11553466 -0.012366869
-0.00048508367 0.23820177 0.2805717 0.05561481 0.17658338 0.24026161 0.22517097 0.31801605
0.27554753 0.28898448 0.06724757 0.07696723 0.18700808 0.29741198 0.29396054 0.11426868
-0.1363012 -0.018807692 0.16175784 -0.05618999 -0.17555133 -0.08083951 -0.21297032 0.07001214
-0.04406634 0.26686 -0.036199987 -0.08313109 0.22833817 -0.049525652 -0.1918369 -0.1136816
0.1937704 -0.04222429 0.27440053 -0.05773046 -0.18366311 -0.083861135 0.14510979 -0.02084037
0.00025431102 -0.11853429 0.21100476 0.086373016 -0.21642846 -0.059761267 0.19729836 0.17524374

linear.model.0.weight f4 [2, 16]
00000000: d755 4bbe e16e c4bc 52b4 333e 31a9 603e
00000010: 87b6 663d 2178 7bbd 3ab1 4bbe 45c9 fbbd
00000020: 0834 17be 2df1 833e 42aa bfbd bc08 fbbd
00000030: 54cc 053e db2a 9fbe c63b c1bd a51c 203e
00000040: eeff 9fbd 48bc 92be a73b a0bd 72e6 8a3d
00000050: df4b 07be e9aa a23c f962 5c3e 8e1f 8dbe
00000060: ed13 ee3d 8031 cc3d 82fa 353d 405d b63d
00000070: 6966 aebd 32b2 9fbe 5225 ca3d e538 2cbe
-0.19856964 -0.023978652 0.17549255 0.21939541 0.056326415 -0.06139386 -0.19891825 -0.122942485
-0.14765942 0.2576994 -0.09358646 -0.12257525 0.13066226 -0.31087384 -0.09435229 0.15635927
-0.078124866 -0.28659272 -0.07823878 0.06782235 -0.13212536 0.019856887 0.2152213 -0.27563137
0.11624894 0.09970379 0.044428356 0.08904505 -0.08515627 -0.3119064 0.098703995 -0.16818579

linear.model.0.bias f4 [2]
00000000: 1467 42be 7c80 cc3d
-0.18984634 0.09985444
