examples/2_streamflow_isotope_simulation/results/20241125_101506_612553/loss_c60a7_00002_2_batch_size=8,hidden_size=11,learning_rate=0.0020,n_epochs=182,num_layers=1_2024-11-25_10-15-11/checkpoint_000001/model.pt (torch, 5556 bytes, 6 tensors)

lstm.weight_ih_l0 f4 [44, 4]
0	0xbe2d350e	-0.1691477
1	0xbdcb5aff	-0.099294655
2	0x3e70a49d	0.23500295
3	0x3dd26c56	0.1027457
4	0x3e950497	0.29105064
5	0xbdac9bd4	-0.08428159
6	0xbe6901d3	-0.22754602
7	0x3e164242	0.14673713
8	0xbe3db3e0	-0.18525648
9	0x3e54b587	0.20772372
10	0xbe795eda	-0.24352589
11	0x3e66bb62	0.22532418
12	0xbc90215a	-0.017594028
13	0x3e9197f6	0.2843625
14	0x3e96b9d7	0.2943866
15	0x3e0a3ce4	0.1349979
16	0x3c99bc81	0.018766643
17	0xbe90bbed	-0.28268376
18	0x3dede941	0.11616755
19	0xbdf1bd7b	-0.11803719
20	0xbd04e48a	-0.032444514
21	0xbe8d775b	-0.27630123
22	0x3e8b984c	0.2726463
23	0x3e22e071	0.1590593
24	0x3d8a24b9	0.067452855
25	0x3ddccd56	0.10781352
26	0x3e03bd04	0.12865072
27	0x3e236dfd	0.15959926
28	0x3e094808	0.13406384
29	0xbe81a1e5	-0.25318828
30	0xbe34bca8	-0.17650092
31	0x3e615e90	0.22008729
32	0x3d9775ec	0.07395539
33	0xbd7ba637	-0.06143781
34	0x3e952786	0.29131716
35	0x3e24b6c6	0.16085348
36	0xbc9e1121	-0.019295277
37	0x3e17bc62	0.14817956
38	0xbe45e12d	-0.19324179
39	0x3d782746	0.06058433
40	0xbe892a0e	-0.26789898
41	0xbe1876ad	-0.14889021
42	0xbe8e0778	-0.27740073
43	0xbd9b3be9	-0.07579786
44	0x3e8cc614	0.27494872
45	0xbe937f1a	-0.28807908
46	0x3e1a052d	0.15041037
47	0xbce0f60d	-0.027461076
48	0xbd4ee512	-0.050511427
49	0x3e25337c	0.16132921
50	0xbe80e1b8	-0.2517221
51	0xbde6899d	-0.112567164
52	0xbdd76678	-0.10517591
53	0x3e2c76fd	0.16842265
54	0xbe30e9e6	-0.17276725
55	0x3bf25214	0.0073950384
56	0xbdcdcd02	-0.10048868
57	0xbdeb6f71	-0.11495865
58	0x3dfa2194	0.12213436
59	0x3e986bc5	0.29769722
60	0xbc61ccfc	-0.013781782
61	0xbe7f99ae	-0.24960968
62	0x3e591d0a	0.21202484
63	0x3e499528	0.19685805
64	0xbdb9fbb2	-0.0908121
65	0xbdd10c65	-0.10207442
66	0xbe8b0cd2	-0.2715822
67	0xbe3ed35d	-0.18635316
68	0x3df1b928	0.11802894
69	0xbe817708	-0.25286126
70	0x3e8618cc	0.26190794
71	0x3d760173	0.060059976
72	0x3e53348d	0.20625515
73	0xbe838033	-0.25683746
74	0x3e398094	0.18115455
75	0x3d96a4f3	0.0735568
76	0x3e6e8fc3	0.23297028
77	0x3e877038	0.26452804
78	0xbd8aae4d	-0.067715265
79	0xbe55ecd5	-0.20891126
80	0x3e1f398a	0.15549293
81	0x3c908923	0.017643517
82	0x3dea07eb	0.114272915
83	0x3dce827a	0.1008348
84	0xbde1613e	-0.110048756
85	0x3e18e254	0.14930087
86	0x3e305a80	0.17222023
87	0x3e640b49	0.2226993
88	0xbe938e72	-0.28819615
89	0xbe21cf84	-0.15801817
90	0x3e8549c7	0.2603285
91	0x3e114453	0.1418622
92	0xbdc849f4	-0.097797304
93	0x3e6f18bd	0.2334928
94	0x3e1a1bdc	0.1504969
95	0xbdf95869	-0.12175066
96	0x3dbc7b49	0.09203202
97	0x3e14f604	0.14546973
98	0x3e6dd4bb	0.23225681
99	0xbca26f13	-0.019828355
100	0x3dd2af23	0.10287311
101	0xbe06084e	-0.13089105
102	0xbe8a69a6	-0.27033728
103	0xbdeb2346	-0.11481337
104	0xbe80f8bb	-0.25189766
105	0xbe8dfefc	-0.277336
106	0xbe458172	-0.1928766
107	0xbdc0b806	-0.094101
108	0x3e224a4a	0.15848652
109	0x3e90846a	0.28226024
110	0xbde6b815	-0.112655796
111	0x3dceac09	0.10091407
112	0x3e3073cd	0.17231674
113	0x3e147797	0.14498745
114	0xbd2e9b89	-0.0426288
115	0xbe06c22b	-0.13160007
116	0x3e53ba85	0.2067662
117	0xbe571d2d	-0.21007223
118	0xbe37aecf	-0.17937778
119	0xbe61a308	-0.22034848
120	0x3e77e895	0.24209817
121	0xbe465aa4	-0.19370514
122	0xbe99a51c	-0.3000878
123	0x3d941fa6	0.07232599
124	0x3c7f1102	0.01556802
125	0x3d3018df	0.04299247
126	0xbe78944a	-0.24275318
127	0xbe8e7937	-0.27826855
128	0x3e6d4789	0.2317182
129	0x3c9e9a05	0.019360552
130	0xbc4eef37	-0.012630275
131	0x3dfc0c68	0.12307054
132	0xbe9456cd	-0.28972474
133	0xbe36e906	-0.17862329
134	0x3d97de4a	0.07415445
135	0xbda36382	-0.07977964
136	0xbd7dc872	-0.061958738
137	0xbe90130f	-0.2813954
138	0x3de376ad	0.1110662
139	0xbdc00fca	-0.093780115
140	0x3e271acd	0.16318817
141	0x3e1535f0	0.14571357
142	0xbe710012	-0.23535183
143	0xbe79e568	-0.24403918
144	0xbe009e08	-0.12560284
145	0x3d8ebc24	0.06969479
146	0x3e905d5e	0.28196234
147	0x3e8abacd	0.27095643
148	0xbe202a38	-0.15641105
149	0xbe7dfdee	-0.24803898
150	0xbe9767b7	-0.29571316
151	0x3e1c856b	0.1528527
152	0xbe8cd2f0	-0.27504683
153	0x3da1ad40	0.07894373
154	0xbe0ddaa9	-0.13852943
155	0x3e2dc455	0.16969426
156	0xbe808083	-0.25098047
157	0x3dd3fe18	0.10351199
158	0xbda3af57	-0.07992428
159	0x3e4a4a2f	0.19754861
160	0xbe196ca9	-0.14982857
161	0x3e93e37b	0.2888449
162	0x3d3a9360	0.045550704
163	0xbe8a8761	-0.2705641
164	0x3c831956	0.016003292
165	0xbdc29284	-0.09500602
166	0x3dde90bd	0.108674504
167	0x3d040c4f	0.0322383
168	0x3e74f07e	0.23919865
169	0x3e8c1987	0.27363226
170	0xbd9b97bc	-0.075973004
171	0x3e978b05	0.2959825
172	0xbdc1683e	-0.09443711
173	0x3e750d5c	0.23930877
174	0xbe4211a9	-0.1895205
175	0x3e6ac421	0.2292638

lstm.weight_hh_l0 f4 [44, 11]
0	0x3e19fd20	0.15037966
1	0xbd9c62db	-0.07636043
2	0x3e2b3b85	0.16721924
3	0xbe6f4947	-0.23367797
4	0xbe695811	-0.22787501
5	0x3bdbbca1	0.006705836
6	0x3e3536c3	0.17696671
7	0xbdf9f215	-0.122043766
8	0x3d92c60c	0.07166681
9	0xbda1d1ed	-0.07901368
10	0xbce04223	-0.027375286
11	0xbdd7512a	-0.10513528
12	0xbe3569c0	-0.17716122
13	0xbb12777d	-0.0022349053
14	0x3e788ec8	0.24273217
15	0x3e33078b	0.17483346
16	0x3df1a371	0.11798752
17	0xbe02445f	-0.12721394
18	0x3e4e3b7f	0.20139883
19	0xbe7daf36	-0.24773869
20	0x3ccb1122	0.024788443
21	0xbe6a0d8e	-0.22856733
22	0x3e370d3e	0.17876145
23	0x3e5feb50	0.21867108
24	0x3ca5b31c	0.020227008
25	0xbdb6dc06	-0.08928685
26	0x3db6ba85	0.089222945
27	0x3dc26dd9	0.09493608
28	0xbda8dd93	-0.08245387
29	0xbdba2a72	-0.09090127
30	0x3c3c9996	0.011511227
31	0x3e883f84	0.2661096
32	0x3ddc5da6	0.107600495
33	0x3dab4bc8	0.083640635
34	0xbe805f1d	-0.25072566
35	0x3e9775a7	0.2958195
36	0x3e5ed1b5	0.21759684
37	0xbe96ebf2	-0.29476887
38	0x3e553c51	0.2082379
39	0xbe6ef8d5	-0.2333711
40	0xbe6d05b2	-0.23146704
41	0xbe9044c0	-0.28177452
42	0xbc677fca	-0.014129588
43	0x3e62b96f	0.2214105
44	0xbe889b0f	-0.266808
45	0x3d5326f2	0.051550813
46	0xbe5fd140	-0.21857166
47	0xbe5ec5da	-0.21755162
48	0x3e994b22	0.29940134
49	0x3e981aa4	0.29707825
50	0x3e6b6694	0.22988349
51	0xbc9dffb5	-0.01928697
52	0xbdaa8482	-0.08326055
53	0xbd9e30ef	-0.07724177
54	0xbe2f4a0b	-0.17118089
55	0xbdfe56fa	-0.12418933
56	0x3e3a7660	0.18209219
57	0xbc30d7c9	-0.010793635
58	0xbe598175	-0.2124079
59	0x3e38ff21	0.18066074
60	0x3e497ab3	0.19675712
61	0x3e7cbac3	0.24680619
62	0x3dd2172a	0.102583244
63	0xbe991409	-0.29898098
64	0x3e52e49c	0.2059502
65	0x3e58ebd5	0.21183713
66	0x3cbabe73	0.022795891
67	0x3e8737c4	0.26409733
68	0xbd9d5a53	-0.076832436
69	0x3ddada72	0.106861964
70	0x3e498739	0.1968049
71	0x3e7f749d	0.24946828
72	0xbe4a0eeb	-0.19732253
73	0x3d88b90a	0.066759184
74	0xbe31855b	-0.17336027
75	0xbe96be11	-0.29441884
76	0x3e6f10c8	0.23346245
77	0xbe53cc5a	-0.20683423
78	0xbe5a9435	-0.21345599
79	0xbe6c60d8	-0.23083818
80	0x3d1d8947	0.038460996
81	0xbe43cf60	-0.19122076
82	0xbe90164a	-0.28142005
83	0x3e79da9b	0.24399798
84	0xbd639527	-0.055562165
85	0x3e47898b	0.19486062
86	0xbe347858	-0.17624032
87	0xbe4b74ce	-0.19868776
88	0x3e513dd6	0.20433745
89	0x3d11dd9f	0.035611745
90	0x3d20dce9	0.039273176
91	0xbda8f93e	-0.08250664
92	0x3e0c8d9e	0.13725898
93	0xbd9e60b7	-0.07733291
94	0x3e88eeb4	0.26744616
95	0xbdda05bc	-0.10645625
96	0xbd6abdea	-0.057310022
97	0x3e937bfa	0.28805524
98	0xbe3a0e5a	-0.18169537
99	0xbe4f5de7	-0.20250665
100	0x3dc3880a	0.09547432
101	0x3e817182	0.25281912
102	0x3dcfc302	0.10144617
103	0x3d823d63	0.06359365
104	0xbe284f7d	-0.16436572
105	0x3e2108fa	0.1572608
106	0xbe9a1c0b	-0.3009952
107	0x3e8d2c9f	0.27573106
108	0x3e5e6fec	0.21722382
109	0x3e6b806f	0.22998212
110	0xbcd15e53	-0.025557673
111	0x3cbf0e53	0.02332226
112	0xbdc98b0c	-0.09840974
113	0x3e0f21a3	0.13977675
114	0x3e901d79	0.28147486
115	0x3e44475c	0.19167846
116	0x3d813bd0	0.063102365
117	0x3d8cba59	0.068714805
118	0x3e7e3c0c	0.24827594
119	0x3e2eb7ae	0.17062256
120	0x3e0094e7	0.12556802
121	0xbe0f593f	-0.13998888
122	0xbe973ae1	-0.2953711
123	0xbdc52eff	-0.096281044
124	0xbe69544f	-0.22786067
125	0xbd2fdd24	-0.042935506
126	0xbcbd64b0	-0.0231193
127	0xbd8f1093	-0.06985583
128	0xbcff7876	-0.03118537
129	0x3e865a52	0.26240784
130	0x3e50c4b5	0.20387538
131	0xbdceeadd	-0.1010339
132	0xbb279e2e	-0.002557646
133	0xbe5a119c	-0.2129578
134	0x3e9bb78f	0.30413482
135	0x3e6a36b9	0.22872438
136	0x3e8b4e8f	0.27208373
137	0x3e78c941	0.24295522
138	0x3e99831d	0.29982844
139	0xbdf0562c	-0.11735186
140	0xbbc5a63a	-0.0060317786
141	0x3db94181	0.09045697
142	0xbe83a5bb	-0.2571238
143	0xbea0633c	-0.3132571
144	0xbd7414f6	-0.059590302
145	0xbe2dfc49	-0.1699077
146	0x3e4ce3a5	0.20008714
147	0x3dc82b2d	0.0977386
148	0xbd27498b	-0.04084162
149	0xbe3ac0fb	-0.18237679
150	0xbde37da8	-0.111079514
151	0xbdc821d2	-0.09772076
152	0x3d8a8221	0.06763101
153	0x3badd8a5	0.005305367
154	0x3dd16a3f	0.10225343
155	0x3db46016	0.088073894
156	0x3dbde661	0.09272457
157	0xbc0994bc	-0.008397277
158	0x3e8a0752	0.2695871
159	0xbe9527bc	-0.29131877
160	0x3e950bb5	0.29110494
161	0xbe9ba296	-0.3039748
162	0x3e467db0	0.19383883
163	0xbcf95420	-0.030435622
164	0xbdcdc8a6	-0.10048036
165	0x3e8f4a63	0.2798644
166	0x3c42b0b7	0.011882952
167	0x3e8701f1	0.2636867
168	0x3e32d21e	0.17462966
169	0xbd58c5cc	-0.05292301
170	0xbdb9d8b0	-0.09074533
171	0xbe405fbc	-0.1878652
172	0xbe1e5a7e	-0.15464208
173	0x3e09fc98	0.13475263
174	0x3e8cfbaa	0.27535754
175	0xbe0263e7	-0.12733422
176	0xbe1b75bb	-0.1518163
177	0xbe0ab2a6	-0.13544711
178	0xbe8f25a5	-0.27958408
179	0xbe0ce186	-0.13757905
180	0xbe2e4ac4	-0.17020708
181	0x3ddef6b6	0.108869
182	0x3e878805	0.26470962
183	0x3e3e9e9b	0.1861519
184	0x3e3dc3d1	0.1853173
185	0xbd87cea6	-0.06631212
186	0xbd66810c	-0.056275412
187	0x3e64a48a	0.22328392
188	0x3df464d3	0.11933293
189	0x3e75fee0	0.24023008
190	0x3d3aac52	0.045574494
191	0x3e7c170a	0.24618164
192	0xbe5d762e	-0.21627113
193	0xbe19294e	-0.14957163
194	0xbe29f075	-0.16595633
195	0x3cf44cfd	0.029821867
196	0xbe5e06b1	-0.2168224
197	0x3b9153a4	0.0044350196
198	0xbd7c7c4f	-0.061641987
199	0xbe491e90	-0.19640565
200	0xbe086e76	-0.13323388
201	0x3e9eb1fb	0.30995163
202	0x3e900f90	0.28136873
203	0x3e8fbb0d	0.28072396
204	0xbcb8559d	-0.022501761
205	0xbe6d711e	-0.23187682
206	0xbe4897f7	-0.1958922
207	0xbe2da564	-0.16957623
208	0x3e423369	0.18964924
209	0xbd90e294	-0.07074466
210	0xbdfd7e2e	-0.123775825
211	0x3e89c1d6	0.26905698
212	0xbe9aecd7	-0.3025882
213	0x3e1031f2	0.14081553
214	0xbe585dc1	-0.21129514
215	0x3d9e9743	0.07743695
216	0x3ded580f	0.115890615
217	0xbe3c22f4	-0.18372709
218	0x3e5eef80	0.2177105
219	0x3e13610b	0.14392488
220	0xbe7a0982	-0.2441769
221	0x3da387a7	0.07984858
222	0x3dab45d9	0.08362932
223	0xbd352c01	-0.04423142
224	0x3e192362	0.14954904
225	0x3e0e35d9	0.13887729
226	0xbe9316ad	-0.28728238
227	0x3e8a8522	0.27054697
228	0xbe7169eb	-0.23575561
229	0x3c8e2003	0.017349249
230	0xbe4a8bef	-0.19779943
231	0x3e4ac5f4	0.19802076
232	0x3db8b728	0.09019309
233	0xbe04aaee	-0.1295583
234	0xbd3e2b92	-0.04642827
235	0x3e8c4ee4	0.2740394
236	0xbe1249b4	-0.14285928
237	0xbd7a7921	-0.061150674
238	0x3e82f219	0.2557533
239	0xbe6fe051	-0.23425414
240	0x3e7f10b7	0.2490872
241	0x3d4509b5	0.04810496
242	0xbd59f1cd	-0.053209115
243	0x3d9fd892	0.078049794
244	0x3e80e19c	0.25172126
245	0xbd26e083	-0.040741455
246	0xbe313938	-0.17306983
247	0x3d4e17c1	0.050315622
248	0x3e2e4112	0.1701701
249	0x3e7c32b2	0.24628714
250	0x3e3b121e	0.1826863
251	0x3e20bf9f	0.15698098
252	0x3c81bc37	0.015836818
253	0x3e169589	0.1470548
254	0x3e622f45	0.22088344
255	0x3e576be4	0.21037251

lstm.bias_ih_l0 f4 [44]
0	0x3db8b5ee	0.09019075
1	0x3e860fb0	0.26183844
2	0x3e26b6e1	0.162807
3	0xbe800fd0	-0.25012064
4	0x3de4ff5f	0.11181521
5	0xbe2934b3	-0.1652401
6	0xbe0b265f	-0.13588856
7	0x3e5ad094	0.21368629
8	0xbe854813	-0.2603155
9	0x3e9610e2	0.29309756
10	0x3e9bd0a6	0.30432624
11	0x3dc12429	0.09430725
12	0x3e8e2138	0.2775972
13	0x3d79ff70	0.06103462
14	0xbdb23caa	-0.08702977
15	0xbe006512	-0.12538555
16	0x3cc95872	0.024578307
17	0x3d45ffe2	0.048339732
18	0xbdadcd5c	-0.08486435
19	0x3dd4e075	0.10394374
20	0xbe370a8e	-0.1787512
21	0x3e9fdb5b	0.31222042
22	0x3dac1303	0.08402064
23	0x3e2f92e9	0.17145886
24	0x3cab96dd	0.02094596
25	0xbceab7f2	-0.028652165
26	0x3d9a224e	0.07526074
27	0xbd347c85	-0.044064064
28	0xbd99a2cd	-0.07501755
29	0x3e0d8e05	0.13823707
30	0xbc484f63	-0.0122259585
31	0xbe397bb0	-0.1811359
32	0xbe6bf46e	-0.23042461
33	0xbde9c768	-0.11414987
34	0x3e48ca09	0.1960832
35	0xbd6f6aef	-0.05845159
36	0xbe83e72c	-0.25762308
37	0x3e89ce79	0.2691534
38	0x3d6851d9	0.05671868
39	0xbe0d981b	-0.13827555
40	0xbd39f56d	-0.045400072
41	0xbe4298d5	-0.19003613
42	0xbe63f5c3	-0.2226172
43	0xbe830043	-0.25586137

lstm.bias_hh_l0 f4 [44]
0	0xbe66f7f8	-0.2255553
1	0x3e81c00e	0.2534184
2	0x3de1641a	0.11005421
3	0xbdda05ca	-0.106456354
4	0xbdb329bf	-0.08748197
5	0xbe86ccf5	-0.26328245
6	0x3de3705c	0.11105415
7	0xbe38c84a	-0.18045154
8	0xbdc7a5af	-0.097483985
9	0x3e552945	0.20816524
10	0xbe8d01be	-0.27540392
11	0x3cff4d14	0.031164683
12	0x3e250fb4	0.16119272
13	0xbe2f8a9f	-0.17142724
14	0x3e2465a8	0.16054404
15	0x3e5a7d29	0.21336807
16	0x3e80bcf7	0.2514417
17	0xbd4d1749	-0.050071035
18	0xbcb43fb9	-0.022003042
19	0x3ea2d21f	0.31800935
20	0x3e6c0e64	0.23052365
21	0x3dee6670	0.11640632
22	0x3e431ca2	0.19053891
23	0xbb14be82	-0.002269656
24	0xbd7a47ba	-0.06110356
25	0xbe8df612	-0.277268
26	0x3c901abf	0.017590879
27	0x3d1b525b	0.037920337
28	0xbe9d0fa1	-0.30675986
29	0x3e1a1367	0.15046464
30	0x3c074e3c	0.008258399
31	0xbe252679	-0.16127957
32	0xbdf7fd2e	-0.12108837
33	0x3e5bcbdc	0.21464485
34	0x3e8bbfcb	0.27294764
35	0x3e0c0912	0.13675335
36	0xbe1c4a48	-0.15262711
37	0xbe8ba24a	-0.27272254
38	0xbe1f9b74	-0.15586644
39	0x3e94da34	0.29072726
40	0xbe8d2f61	-0.2757521
41	0x3e3fc63d	0.18727966
42	0x3c40d614	0.01176979
43	0xbd8d1b2f	-0.068899505

linear.model.0.weight f4 [2, 11]
0	0x3d978192	0.073977605
1	0xbd66f41e	-0.056385152
2	0x3e75a744	0.23989588
3	0x3e878fb8	0.26476836
4	0x3c323fcb	0.010879467
5	0xbe805553	-0.25065097
6	0xbe2cd8e9	-0.1687962
7	0xbe4699ef	-0.19394659
8	0xbd9baa01	-0.07600785
9	0xb9e7eb74	-0.0004423518
10	0xbe35f361	-0.17768623
11	0xbe290dc3	-0.16509156
12	0xbe27907c	-0.1636371
13	0xbe34d8d6	-0.17660841
14	0xbe87fca9	-0.26559952
15	0xbe523e93	-0.20531683
16	0xba98984a	-0.0011642065
17	0xbca7159b	-0.020396044
18	0x3dcf5eb9	0.10125489
19	0xbdac6fe5	-0.0841978
20	0xbe8453eb	-0.25845274
21	0xbd3bb6ae	-0.045828514

linear.model.0.bias f4 [2]
0	0xbe8bd6d3	-0.27312335
1	0xbe5088f3	-0.20364742
