examples/2_streamflow_isotope_simulation/results/20241125_101506_612553/loss_c60a7_00003_3_batch_size=4,hidden_size=8,learning_rate=0.0100,n_epochs=205,num_layers=2_2024-11-25_10-15-11/checkpoint_000005/model.pt (torch, 7324 bytes, 10 tensors)

lstm.weight_ih_l0 f4 [32, 4]
00000000: 15a2 0bbd ded1 493d d0dd 15be 3055 f9bd
00000010: 1e28 b93e 0f0a bdbe 22fc c33d b794 ac3e
00000020: b326 e13e bd02 a83e c56e 80be 6574 1dbe
00000030: f07c 783e 0d57 a03d 4aab 13be 125b 7c3d
00000040: 10a6 b63e aac0 e73d aa04 b0bd 2024 dc3e
00000050: 5f55 6fbd b5f2 b93d a82a 23be 965d 8fbe
00000060: 2ff5 6fbe 7dc4 c83e c974 21be 4b55 943e
00000070: 0655 5a3c f822 d03e 9ccd 453d 5a77 75bd
00000080: 3335 f43d add9 133e 630e aa3e c43d 8e3e
00000090: edf5 be3e a170 16be dc33 13bd 9acf 1ebe
000000a0: 1408 3abe 5508 59be 5cc4 2a3e 0198 6b3d
000000b0: df29 0a3f ca74 8ebd 3b35 913e bf3c 25be
000000c0: 091e 693e c3b6 b23e 5528 08bd 1332 65be
000000d0: 411b 94bb 98cd c7be f884 f0be 2134 5cbd
000000e0: 02db 56bd d4d1 41be b948 c93e b800 6a3e
000000f0: e978 8e3e e929 ae3e e788 79be 84c6 5fbe
00000100: 9d0e 95bd ab23 ddbe 2477 3abe 831e ac3e
00000110: 616b 1abf 4a93 89bd aaa8 8abe 9c35 0abc
00000120: c51d 113f ef3b 19bd 6055 913e 4e26 6bbe
00000130: 4606 2e3d 1c18 4f39 feb9 b83e d015 943d
00000140: 190a 893e 3d56 eebe 5840 ffbd 4cac 48be
00000150: 344f 29bf 6187 2e3e 769f 96be 2b7a c8be
00000160: d43d f8be d75e babe cc79 80bc 3906 a1be
00000170: 7c36 b83e 5026 8a3e 8409 b63d 4ec5 b63e
00000180: b4f1 d13e c07d 9c3e 4801 5dbe 9f0b bebc
00000190: d57c c53e 8d0f 343d e44a 4fbe efcc 47be
000001a0: c66f 1c3e f188 64be 3c11 123e 7e70 863e
000001b0: 3357 c53e 458e 0cbd 8a5a df3d f4bb 0a3d
000001c0: a7f2 553d a9e7 0fbe ff58 083e 74c8 243e
000001d0: 2c54 be3e 46d8 2ebe 249f bfbe ba1b 253e
000001e0: c9bb ea3e deed a4bd e031 a73e aea4 b63d
000001f0: a63d 2d3f fe4e acbd 9027 6b3d 58e1 f9bd
-0.03409012 0.04927241 -0.14635396 -0.12174451 0.3616342 -0.36921737 0.09569575 0.3370721
0.43974838 0.3281459 -0.2508451 -0.15376432 0.2426641 0.078291036 -0.1442081 0.06161029
0.3567357 0.11316045 -0.085946396 0.4299631 -0.058431026 0.09079496 -0.15934241 -0.28001088
-0.23433374 0.3921241 -0.15767206 0.28971323 0.013325935 0.4065168 0.048291788 -0.059928276
0.119242094 0.14438505 0.332141 0.27781498 0.37297 -0.14691402 -0.03593813 -0.15508881
-0.18167144 -0.21194585 0.16676468 0.05751801 0.5397014 -0.069558695 0.28360924 -0.16136454
0.22765364 0.3490506 -0.03324159 -0.22382383 -0.0045198505 -0.39024043 -0.46976447 -0.05376065
-0.052454956 -0.189277 0.39313295 0.22851837 0.27826622 0.3401635 -0.2436863 -0.21853071
-0.07278178 -0.43191275 -0.18209511 0.3361703 -0.603201 -0.06717546 -0.27081805 -0.008435633
0.5668605 -0.037410673 0.28385448 -0.22963831 0.04248645 0.0001975004 0.360794 0.07230723
0.26765516 -0.4655017 -0.124634445 -0.19596976 -0.6613648 0.1704383 -0.29418534 -0.39155707
-0.4848467 -0.36400482 -0.015683077 -0.3145006 0.35979068 0.26982355 0.08888534 0.35697407
0.41004717 0.3056469 -0.2158252 -0.0231989 0.38571802 0.043960143 -0.20243412 -0.1951177
0.15277013 -0.22317864 0.14264387 0.262577 0.3854309 -0.034315366 0.10905941 0.033870652
0.052233364 -0.14053215 0.133152 0.16092092 0.37173593 -0.1707469 -0.37426102 0.16123858
0.45846394 -0.08053182 0.3265524 0.08918129 0.67672193 -0.08413504 0.057410777 -0.12201184

lstm.weight_hh_l0 f4 [32, 8]
00000000: 2ab7 363e f91e febe f406 66bd 4fbf 8b3b
00000010: f7a7 373d 630e a5be 38db 653e 4790 be3e
00000020: 2388 0abe 3124 80be 8712 9d3e f77a 43be
00000030: 554f cabd 6846 98be 7a4c eebc f264 0f3f
00000040: 91e3 9e3e 1af8 3d3d 99ca 97be c68f 533e
00000050: 6aa2 d23d 3615 6d3e 80b1 f6bd 4acb a93e
00000060: dd38 093e a9c1 7c3d ce88 d63e e93b 083e
00000070: 6861 803e 9b64 a13e 7d0f a8be 834f e43e
00000080: 8d7b bcbc 6088 edbb fe2e 0cbe d5cb ad3e
00000090: 7945 7b3d 9121 e7bc 9d83 4b3e a2a8 1f3d
000000a0: 4b10 b0be 79cd cabe 596a e33d df08 ce3e
000000b0: 2b5c 97bd 0212 51bd 9139 0dbf 5a17 0dbd
000000c0: c3f5 44be d6e9 193e 0634 92bd 7254 e5bd
000000d0: 4efe 533e cfa4 78bd 5f8e a3bc 5c5a 51be
000000e0: 142b 05be eb01 aabe e571 683e 94d0 99bb
000000f0: 6860 523e 570b 2d3e 1180 8cbd 4495 063e
00000100: 5290 c1be ce03 b5bc c309 b93d c423 013e
00000110: b445 243e 194a 1abe 10ee 1cbe f82f 2e3e
00000120: 40ad 833d cac3 f3be abb5 09bd 2824 a9be
00000130: a183 97bc 3397 723e 98bd 533e 4815 433e
00000140: 3815 9cbe 4e38 28be dd3a c03e 6604 3fbd
00000150: a7b3 0ebe 9756 bc3e 07e6 bcbe 842d c03e
00000160: b72b 41be 833c 10be 9ab4 fb3e acb8 0c3e
00000170: 82c8 d03d 69e5 acbe 4f9a 363e 9fd1 c33d
00000180: 1d30 7e3e f5d1 ca3d 04a2 243e 9d8c 7bbe
00000190: fc66 debb 9c6b 7fbd 5279 51be 6821 d43e
000001a0: a931 80be d722 f23c 2af7 9a3e 511e a6be
000001b0: 1f9b a9be ea80 8abe aaf7 18be 41aa 2cbe
000001c0: 8500 00bf 5b4f 913d 9b90 7f3d dbcc 9d3e
000001d0: d937 d4bd 3c9f d7bd fb1d 86be 0b45 813e
000001e0: 5e9a 9bbe 535f 0f3d 5f2a 5ebd 8a8f adba
000001f0: 71ec a2be 9e1a 6ebe c6ac e0be 4f9a bf3d
00000200: aeca 783d f7c5 233e 64ef 12be 0b6c b3be
00000210: f991 5b3d bffd 703c 55a5 773e a4c7 95bd
00000220: a4b2 073e f92f 1abd 5584 bc3d 1210 843e
00000230: 95e4 babe 6fb1 bb3e a873 03bf 3756 5abd
00000240: 4080 503e 9028 883e 01a3 23be ddc2 563e
00000250: 8108 1a3e 4cad 9fbe ae33 adbe 8dcc ab3e
00000260: 7022 03bf 6ca0 ae3e 5256 ef3e b3b2 043f
00000270: 3f35 593e 5037 31be 21ff 7fbe 3b86 b83e
00000280: 5c22 9eba 424b 6a3d 76f4 483e c43a 01bf
00000290: 857b 183e 2137 453e 5dff 3abe 4be2 75be
000002a0: b637 963e 92ff 67be 74c8 90bd 390d 9a3e
000002b0: bb31 723e 5fb3 11be 3b2b 7b3e 8c94 06be
000002c0: e42b e4bd e4d1 febe 9524 e4be a187 fbbe
000002d0: 506a 84bc ff09 0e3e 53ef c53d 248c a63e
000002e0: 7299 16be 0979 2dbd 2094 913e b0c6 babd
000002f0: 61d5 ff3d 2779 96be 7969 313e 37b7 cebd
00000300: f81f 86bc ab78 3abe 260b 00bd 850e 9dbd
00000310: 4409 57be 2303 98bc 00fd 67be cf2e be3e
00000320: 702c eebd a1db 10bf e90d e53d 291d 003e
00000330: c3c4 6a3c 7225 4dbe d321 b3be ad3d ce3e
00000340: 70da f73d b6ff 0c3d becb df3e 421e 843e
00000350: 9932 febe 3d52 9abd 9702 46be 767f c93e
00000360: 0b24 cdbc 951e 49be d2b0 9b3e 987f b33e
00000370: 6692 a7be 5335 c03d 3ab3 d8be b38c e23e
00000380: 12c9 d2be 59f3 003d c0b0 403d 794c d73e
00000390: 1651 0f3e 13be d9be fe6a babe 3ec3 893e
000003a0: 118d c63d 0838 aa3d 2ce8 c93d 3070 813e
000003b0: 9b40 9dbe c94e d33e 5084 d9bd 6e75 3a3e
000003c0: caaf ccbe cdc4 c7bd 4d57 9d3e 0be8 cb3e
000003d0: b6ed 653e f98e 233e 8a45 cfbe e5fc 2ebe
000003e0: 8d70 183e 6fef 13bf e364 e1bb 00f3 7cbe
000003f0: 1fc2 23be 0d3f fbbe 8ebf 683e e2fc 3fbe
0.17843309 -0.49633005 -0.056158975 0.004264749 0.044837918 -0.3223754 0.22446907 0.3721945
-0.13528495 -0.25027612 0.30678198 -0.19089876 -0.09878413 -0.29741216 -0.029089201 0.56013405
0.31032994 0.046379186 -0.29646757 0.20660314 0.10284884 0.23152623 -0.12045574 0.3316291
0.13400598 0.061708126 0.4190125 0.13304104 0.25074315 0.31522068 -0.32824317 0.44591913
-0.023008132 -0.007248923 -0.13689801 0.33944574 0.06134555 -0.028214248 0.19874425 0.03897918
-0.3438743 -0.39609888 0.111042686 0.40241143 -0.073906265 -0.051042564 -0.55165964 -0.034446098
-0.19234376 0.15030608 -0.07138829 -0.11197747 0.20702478 -0.06070405 -0.019965349 -0.20444626
-0.13004714 -0.33204588 0.22699697 -0.004694054 0.20544589 0.16898857 -0.06860364 0.13142878
-0.3780542 -0.02209654 0.09035065 0.126113 0.16042215 -0.15067329 -0.15325189 0.17010486
0.06429529 -0.47610313 -0.033620518 -0.33035398 -0.018495383 0.2369049 0.20677793 0.19051087
-0.3048494 -0.16427729 0.3754491 -0.046635054 -0.1393572 0.36784813 -0.36894247 0.37534726
-0.18864332 -0.14085583 0.49161226 0.13742322 0.10194494 -0.33768776 0.17832302 0.095614664
0.24823041 0.099033274 0.16077429 -0.24565358 -0.006787179 -0.062358484 -0.20456436 0.41431737
-0.25037888 0.029557629 0.30266696 -0.32445005 -0.3312616 -0.2705148 -0.14938226 -0.16861822
-0.5000079 0.07095214 0.062393766 0.30820355 -0.103622146 -0.105284184 -0.26194748 0.25247988
-0.3039121 0.035003018 -0.054239627 -0.001324163 -0.31821015 -0.23252341 -0.43881816 0.09355604
0.060740165 0.15993486 -0.14349133 -0.35043368 0.053606007 0.014708935 0.24184163 -0.07313469
0.1325174 -0.037643407 0.09204928 0.2579351 -0.3650252 0.3665881 -0.5134835 -0.053304877
0.20361423 0.26593447 -0.1598015 0.20972772 0.15042306 -0.31186903 -0.3382849 0.33554497
-0.5122442 0.34106767 0.46745545 0.51835173 0.21211718 -0.17306256 -0.24999668 0.3603991
-0.0012064683 0.057200678 0.19624504 -0.50480294 0.14890869 0.19259311 -0.18261476 -0.24012105
0.2933938 -0.22656086 -0.070694834 0.30088213 0.23651783 -0.14228581 0.2452821 -0.13142604
-0.11141184 -0.4976951 -0.4455916 -0.49126914 -0.016163975 0.13871 0.09664788 0.32528794
-0.14706972 -0.042351756 0.28433323 -0.09119928 0.12491871 -0.29389307 0.17325391 -0.10093539
-0.016372666 -0.18210094 -0.031260632 -0.07668785 -0.20999628 -0.018556183 -0.22655106 0.37145087
-0.116295695 -0.5658513 0.11184294 0.12511124 0.014329138 -0.20033816 -0.34986743 0.4028143
0.121022105 0.034423552 0.4371013 0.25804335 -0.49647978 -0.07535217 -0.19336925 0.39355057
-0.0250416 -0.19640572 0.3040834 0.35058284 -0.3272888 0.09385171 -0.4232424 0.4424797
-0.4116903 0.031482074 0.047043562 0.42050532 0.13995776 -0.42527828 -0.36409754 0.2690677
0.09694875 0.08311468 0.098587364 0.25280905 -0.30713353 0.41271046 -0.1062094 0.18208858
-0.39977866 -0.09754334 0.30730668 0.39825472 0.22453961 0.15972508 -0.40482742 -0.17088659
0.14886685 -0.5778722 -0.0068784817 -0.24702072 -0.1599202 -0.4907154 0.22729322 -0.18748811

lstm.bias_ih_l0 f4 [32]
00000000: 3ac0 483e 69d3 d63d 17b4 ba3e 1bb6 883e
00000010: 8b70 3e3d 0814 8c3e 57c0 8a3e fd32 693e
00000020: 100d 5439 509e c83c 54a6 ca3e 99fe 643d
00000030: 3071 853e d365 ccbc c2e9 c93d dcf6 29be
00000040: ec9c 3dbe 82c0 7bbe b4df e6bd 6fbd 2fbd
00000050: 2ae9 38be b513 a93d b50d 6cbe 5b9a 23be
00000060: e702 cb3e c7b2 b53e 233d 90bd c6e7 51be
00000070: f09d 3a3d 88fa fa3e 327e 8b3e 21d9 c5bd
0.19604579 0.10489542 0.36465523 0.26701435 0.046494048 0.27359033 0.2709987 0.22773357
0.00020222762 0.024489552 0.39580023 0.055906866 0.26062918 -0.024950897 0.09859039 -0.16598076
-0.18516892 -0.24585155 -0.11273137 -0.042905267 -0.18057695 0.08255712 -0.23052104 -0.1597685
0.39650652 0.3548796 -0.07042911 -0.20498571 0.045560777 0.49019265 0.27244717 -0.09660555

lstm.bias_hh_l0 f4 [32]
00000000: f00b 2fbe db56 f93e 786b 7cbe b8e9 b73e
00000010: b5f6 9a3e 90b0 e33e 5b1e 86bd 8f97 523e
00000020: f277 9b3e ba31 ea3e 0d76 1fbe 9e90 163e
00000030: 8726 72bd 6736 bf3d 8ffc d13e f4c6 3cbe
00000040: 91b0 d23e 5972 62be 939e 48bd 1526 0a3e
00000050: a714 91be dc01 9e3e a203 5bbe f4c7 a43e
00000060: 8bd5 4fbe 9795 e03e 5505 eb3d 492a c33e
00000070: b973 a3bc e6c7 673e 8843 3bbe b2da 1d3e
-0.17094398 0.48699078 -0.24650371 0.359205 0.30266348 0.44470644 -0.065487586 0.20565628
0.3036495 0.45741063 -0.15572377 0.14703605 -0.059118774 0.09336548 0.41013 -0.1843527
0.41150334 -0.22113933 -0.048979353 0.1349109 -0.2833607 0.30860794 -0.21388105 0.32183802
-0.20296304 0.43864128 0.114756264 0.381182 -0.019952642 0.22634849 -0.1828748 0.15415457

lstm.weight_ih_l1 f4 [32, 8]
00000000: 80b6 353e 0b30 2bbf 2bc6 cf3e 3d8f cdbc
00000010: c76a 213e aeda 9ebe 7229 9cbd f2ee 3abd
00000020: 81fb cdbe 0132 abbe ab07 5d3e f65d 473d
00000030: cdb4 fdbd ca6d 8e3d 9084 22be 5ad5 75bc
00000040: 4734 84bd c4ee fb3d 82f8 63be 19c4 5c3d
00000050: 9bfb 39be 080c b13d 016e 6ebe 00cd 41bd
00000060: 3263 aabe 332a 06bf 51c2 a33e 927e 25be
00000070: 6d63 fa3d a6b2 87be 32e3 cdbd c0bf cb3e
00000080: 36af f9bd 5ee6 f7bd 0bbd d53e 0f9f 0dbe
00000090: 4afe 573d 9fb8 78bc 3308 cbbd c23f 3a3e
000000a0: 5e84 543e 7d04 48be 6458 d03c 9830 0cbe
000000b0: 1f99 073e 0a66 f33d 16bf d5bd da1b c2be
000000c0: 3bc8 1d3e cb33 2fbf 16a2 063f 62bf abbc
000000d0: 9334 e8be da85 233d 7728 dfbc 3a99 8ebc
000000e0: c811 94bd 6474 ccbe a7c1 203e 413c 9abc
000000f0: 23cf 1cbe c7f4 cebe 4856 c0be bd35 d83e
00000100: 47ae 9cbe 5ac1 01be 702f cd3d ce22 e3bd
00000110: 952b 343e e0e5 17bd a8f1 83bc c0f2 cb39
00000120: 6fcd ed3d 3db2 233e 257d 9a3e c8af 14be
00000130: 009e efbd 0d16 2cbe d99d 70bd 3fb8 023f
00000140: 3fbe 5dbe 75a5 8dbe 63db f6bd 997b 873e
00000150: ef29 8b3e 5a23 07be 17a2 68be f09b d43e
00000160: cc15 84be 0e1d d13d 772f b83e 1c4d 963e
00000170: 5675 e73c ed6e c4be 69cc 89be a1e3 a43d
00000180: 02d2 8fbe ae02 c9be 0c08 c13e 7251 2c3d
00000190: cc25 3a3d 7c4b 71be d61e 653d 0d28 843e
000001a0: 514d 643e 6c19 a03e 1054 95be cb1d ea3c
000001b0: 0612 3d3a 4c24 c33e 48be ea3e 92e9 72be
000001c0: 68a7 0c3d 4fc5 debd 3050 493e 4120 483e
000001d0: 929c 583d a72a 17be bedd 523e 22ed e53e
000001e0: a179 333e df34 11bf b069 8a3e 3669 363e
000001f0: 2230 9c3e b6d2 f23c 01b8 163d 5097 6d3d
00000200: ba4e fdbe a9be 3b3e b60a 00be ac64 023f
00000210: b1e0 b2be 1beb 9cbe 01d7 a6be d5e1 24be
00000220: f0bb 1bbe 3329 2bbe a83b d03d caa8 bf3e
00000230: 7657 743d 15cf 95be ab38 bdbe 3761 d73d
00000240: 09ab e9be 1e46 ad3e 3371 bf3e f535 773e
00000250: a74d debe 4ed7 26be 3ffe c33d 007a 9c3e
00000260: 18fd b53e 7b87 943d d119 883d d23d d4be
00000270: 0ea0 cd3e e026 5f3e a254 e93e 97c5 1ebd
00000280: 6316 37be 4c64 b0be 0ace d23c f9fd 55be
00000290: 9ec0 c8be 714f 87bd c21e 0ebe 17e0 9c3e
000002a0: 505b 28be b7d2 f9bd 40f7 5abe b7fe eabd
000002b0: 14da 523e 6e96 da3e b9ca d23d 98c3 98bd
000002c0: 90a6 29be c480 89be 11ff 013f 157b 0dbe
000002d0: 6ce3 c33e c80c 27bf 69c7 523e 31c5 c53e
000002e0: 9894 5dbe 013e c43e 4246 7bbe 607b cb3a
000002f0: 32bf 463e 6e7d e43e 6f6e 9a3e 45c9 47be
00000300: 0bbf 26be 222a b7bd 3d3b 083d 6a38 363e
00000310: 9bde 2ebe 891b a8be fdfb 82be a6e3 b63e
00000320: 0417 17bd abe5 603d 8161 193f 428b c83e
00000330: 772a c5be 7409 9cbe 1f18 83bd 7b41 d43e
00000340: e356 88bd c60f d5be 3ecf 693e df41 d6bd
00000350: 62e7 ccbd a486 4c3d a7c9 5d3d 0de0 78be
00000360: 9a7a abbd 7ba1 15bf 13e1 103f 5477 8d3e
00000370: 448e adbe 2dc5 1cbe a06d ccbe 33ed cebc
00000380: 1e7e fdbe 444b d3bd cf78 84bb 2168 3ebc
00000390: b89f f3bb ca81 08bd 29f6 16be f967 bf3e
000003a0: 2a60 b33d 45f8 e83e fb61 143d 1817 8b3d
000003b0: 1e25 c53e 1007 e53e a34f 433e 77fa 10bf
000003c0: fa43 c93e 74ff 15bf b97c 323d cd12 a3be
000003d0: a2a7 fa3c 4e61 74be 4ed0 a7be 68a4 ad3e
000003e0: 4b74 953b aca5 10bf 0964 923e 2970 753c
000003f0: aa19 4ebd 496a 0cbf 05a6 82bc 0ba6 273e
0.177454 -0.6687018 0.40580878 -0.025092715 0.15763389 -0.31026214 -0.076250926 -0.045638032
-0.40230945 -0.33436587 0.21584956 0.048673593 -0.12388001 0.06954534 -0.15870881 -0.01500448
-0.064552836 0.123014 -0.22262767 0.05389795 -0.18162386 0.08644873 -0.2328415 -0.047314644
-0.33278805 -0.5240814 0.3198419 -0.16161564 0.12225995 -0.26503485 -0.100531 0.3979473
-0.12191622 -0.12104486 0.4174579 -0.13830207 0.052732743 -0.015180736 -0.09913673 0.18188384
0.20753619 -0.19532962 0.025432773 -0.13690412 0.13242005 0.11884697 -0.104368374 -0.37911874
0.15408413 -0.68438405 0.52591074 -0.020965282 -0.4535261 0.039922573 -0.027240975 -0.017407048
-0.07229954 -0.3993255 0.15698873 -0.01882756 -0.15313391 -0.40421125 -0.37565827 0.422285
-0.30601713 -0.12671414 0.100188136 -0.11090623 0.1759475 -0.03708446 -0.016106442 0.0003890004
0.11611449 0.15985961 0.30173603 -0.1452018 -0.11700058 -0.16805287 -0.058744285 0.5106239
-0.21654604 -0.27665296 -0.120535634 0.26461485 0.2718043 -0.1319708 -0.22718082 0.4152522
-0.2579788 0.1021062 0.35973713 0.29355705 0.028254192 -0.3836588 -0.26913765 0.08051229
-0.2808991 -0.39259857 0.37701452 0.04206986 0.045446202 -0.23563951 0.05593761 0.25811806
0.22295119 0.31269395 -0.29165697 0.02857866 0.00072124635 0.3811363 0.45848298 -0.23721913
0.03433934 -0.108774774 0.19659495 0.19543554 0.052883692 -0.14762364 0.205924 0.4490748
0.17526866 -0.567213 0.27033758 0.17813572 0.30505472 0.02964149 0.036796574 0.05800563
-0.49474126 0.1833445 -0.12504086 0.50934863 -0.3493705 -0.3064812 -0.3258591 -0.16101773
-0.15208411 -0.16714935 0.101676285 0.37433463 0.05965372 -0.29259554 -0.36957297 0.10516589
-0.45638302 0.33842558 0.37391052 0.24141677 -0.4341862 -0.1629307 0.09569978 0.3056183
0.35544658 0.07252403 0.06645549 -0.41453415 0.40161175 0.21792173 0.45572382 -0.038762655
-0.17879634 -0.3445152 0.025733013 -0.20897664 -0.39209455 -0.06606949 -0.1387892 0.30639717
-0.16441083 -0.12198394 -0.21383381 -0.11474364 0.20591003 0.42692894 0.102925725 -0.074591815
-0.16567445 -0.26856053 0.50779825 -0.13816483 0.38259447 -0.6525388 0.20583881 0.38627008
-0.21638715 0.38328555 -0.2453852 0.001552444 0.19408873 0.44626945 0.3016238 -0.19510372
-0.16283815 -0.08943583 0.03325962 0.17794958 -0.17077105 -0.32833508 -0.25582877 0.35720557
-0.036887184 0.05490653 0.59914404 0.39168745 -0.3850896 -0.30475962 -0.06401085 0.41456208
-0.06657197 -0.41613597 0.22832963 -0.10461783 -0.1000507 0.04993309 0.05414739 -0.24304219
-0.08372994 -0.58449525 0.56593436 0.27630103 -0.33897603 -0.15309592 -0.39927387 -0.02525959
-0.49510282 -0.1031709 -0.004042722 -0.011621506 -0.0074348114 -0.0333269 -0.1474234 0.37384012
0.08758576 0.45501915 0.036226254 0.06791514 0.3850488 0.4473195 0.19073348 -0.5663218
0.39309675 -0.58592916 0.043575976 -0.3185028 0.030597512 -0.23865244 -0.3277611 0.33914495
0.0045609823 -0.56502795 0.28591946 0.014980354 -0.050317444 -0.5484968 -0.015948305 0.16371934

lstm.weight_hh_l1 f4 [32, 8]
00000000: 3da1 8f3e 8ef7 913e 0591 f93d 6881 17bd
00000010: 1cce b6bd 8284 3c3e 1e56 ff3e a81c 443d
00000020: 882e dc3e 689b 4d3e 2d50 263e a195 4e3e
00000030: 0450 383e add2 903e bf69 7dbe 4d86 94be
00000040: 8a33 4fbd 86a7 dfbd 280b 82be 31a4 163e
00000050: 2787 323d 7f44 e9bb 0bde 903e 2ad9 933e
00000060: fbf3 043e 066a 3fbe 316b 0e3e a16a f63c
00000070: 1364 983d b35a 3bbe b608 ffbd 05ab c93d
00000080: cb58 8c3d 83dd 7e3e 0fa8 ee3c c44a b1be
00000090: 5e34 6ebe 920e 8cbe d66f 0fbe d161 17be
000000a0: 056c 3ebe 020b 8f3e 322e 7cbe ecfb b93e
000000b0: b4de 903c f841 2a3e 5d92 3abd 091d a03e
000000c0: e8aa d6bd cce7 d83e c07b c3bd 2c73 073e
000000d0: 6ce1 1bbc 03f8 593e dce0 0abd baca 70be
000000e0: 4628 c5bc 0053 2ebe 9997 4abe 9281 c1be
000000f0: b2b1 0e3e 3623 a03d 3309 5f3e 1d09 723d
00000100: cdbd c63d ce9e 903c f5df 823d be88 d1be
00000110: 27aa d33e c51d f23e 5cc1 a83e 2e37 01be
00000120: 9891 d5bd bfc1 25be a4a9 8cbe 47cb a93d
00000130: 2965 7c3e 339d ea3d d5a8 86bd 26ba 60be
00000140: 8eab 4a3e 766a c93d 33b2 b1bd c4af 4cbe
00000150: 51a3 413e 1744 8a3d 2a4b debd 09bc b53d
00000160: c9d0 ef3e 39bb 103e c913 78be 8e39 4abe
00000170: 4e6c b6bc c999 d63e 346d 063f dea2 323e
00000180: 3761 143e 89c7 65bb 3223 e63d 8a42 a53d
00000190: 26c1 753e fabd 16bd 1af1 8cbd 0265 babd
000001a0: 1296 fcbd ca78 aebe 6f78 2c3d c190 77be
000001b0: 824b aabe 5e62 35be 3b70 1abe 22b4 483e
000001c0: bbf4 aebe 4d01 753e 9e30 21be cd77 9fbb
000001d0: 795a 503d 70dd 6a3e 4774 073e 5752 243e
000001e0: ece8 c13e 95c8 7fbd 1be6 b7be ae0b a6bd
000001f0: f05c 8abe a392 38bd 93b5 a43e ea93 b03d
00000200: 2799 f83d 1746 623d 8307 963d 8b5d 76be
00000210: 71b8 7bbe 5941 183e 16de 8dbc 8401 2f3e
00000220: f2fd 253d 0a30 25bd 8293 1f3e 50c2 7a3d
00000230: 92a1 dd3c 32e6 453e f90d a43e d70a 293e
00000240: b6de 86bd e919 803e ce8f d83d f72c 73be
00000250: 1c34 bd3d 4196 503e 19b1 473e 091b 813c
00000260: bbf7 6ebe 0eef 49be 9194 6cbd da2c 47be
00000270: b710 8abe 3282 953e 5e07 083e 16eb 883e
00000280: 8dba 69bd 1d79 813e 3f37 b5be b0e7 bfbe
00000290: 3637 62bd 87c4 87be 6153 963e 81f5 c6be
000002a0: 13f9 b43c 1a53 0f3e 82af 933e 8227 0dbe
000002b0: ea3d 983e 4cde 823d 64cd 9a3d 0978 74be
000002c0: ba2c 9fbe 016b 66be d109 a2be da85 40be
000002d0: 27ba 0bbe 5062 01be 8fae 753d 3747 59bd
000002e0: e944 2abe 253c 0b3c 5d34 cb3e b98f 013e
000002f0: 616f 91be 9273 c3be c38d cebc 32e9 353d
00000300: b3db 8fbe 6aa0 84bd b789 07be c0bb 1d3e
00000310: 8a43 5cbc 6ce2 d83d 0f73 933e 57f1 79be
00000320: 3905 613e 8d93 93be 32aa b73d d802 443e
00000330: 524b 983e 2e30 a73e da7b 68be 85ab 61bd
00000340: ab49 acbe 734c 8d3e e7d4 9b3e dc9a cbbe
00000350: 279e d73e 6851 963e 5c0a be3d 5ab8 24be
00000360: 0eaa 5c3c 3493 813e b80e 8a3d df8d 76be
00000370: 3712 22be 7169 7e3e 7207 123e 646c b7be
00000380: 00df bd3e c6e4 453d 0529 883e b6ff bebe
00000390: 54c4 673e 2c85 bb3e 054a f23e 08d3 b73c
000003a0: 1b34 c0be db9e a7be 9441 083e 4816 4c3d
000003b0: ea01 95bd 0b2c 143d ad57 6c3e cf65 a03e
000003c0: 1e46 79bc 6a63 a23e cd1e 8abe 9635 8abe
000003d0: 6311 893e 0f67 7ebd d442 adbc af3a 37be
000003e0: fa7b a53e 9515 0b3d 26c2 76be d701 64be
000003f0: dc82 753e c815 05be 3919 0c3f a4b9 b23d
0.28052703 0.28509182 0.121858634 -0.036988646 -0.08926031 0.18409923 0.4987039 0.04787889
0.4300425 0.20078814 0.16241522 0.20174266 0.17999274 0.28285733 -0.2474737 -0.29008713
-0.05058626 -0.109206244 -0.25399137 0.14711072 0.043585923 -0.007118761 0.28294405 0.2887662
0.12983696 -0.18692788 0.13908078 0.030080141 0.07440963 -0.18296318 -0.12452833 0.098470725
0.068528734 0.24889188 0.029132871 -0.34627354 -0.23262164 -0.27354866 -0.14007506 -0.14783408
-0.18595894 0.27938086 -0.24626997 0.36325014 0.017684318 0.16626728 -0.04554974 0.31272152
-0.104818165 0.42364347 -0.09545088 0.13227528 -0.009514194 0.21286015 -0.03390585 -0.23514834
-0.024067055 -0.1702385 -0.19784392 -0.37794167 0.13934973 0.07819216 0.21780853 0.059090722
0.097041704 0.017653849 0.06390373 -0.40924639 0.41340753 0.47288337 0.32960021 -0.12618706
-0.104281604 -0.1618719 -0.27473176 0.08290725 0.24647965 0.114557646 -0.06575171 -0.2194601
0.19792005 0.09834759 -0.08676567 -0.19988924 0.18909957 0.06751268 -0.1085418 0.088737555
0.46838978 0.1413392 -0.24226297 -0.19748518 -0.02226844 0.41914204 0.5251038 0.17444941
0.1449021 -0.003506156 0.11237182 0.08069332 0.23999462 -0.03680227 -0.06881924 -0.09101297
-0.12333311 -0.3407653 0.042107042 -0.24176313 -0.33260733 -0.17713305 -0.15081875 0.19599965
-0.3417109 0.23926277 -0.15741202 -0.0048665763 0.05086753 0.22936034 0.1322795 0.16047035
0.37873018 -0.06244715 -0.35917744 -0.081076965 -0.2702403 -0.04506172 0.3216978 0.08621962
0.121385865 0.055242624 0.073256515 -0.24059121 -0.24582078 0.14868678 -0.017317813 0.17090422
0.040525384 -0.040329017 0.15583614 0.061220467 0.027054582 0.19326094 0.3204191 0.16508041
-0.065854475 0.25019768 0.105743036 -0.23747621 0.09238455 0.20369817 0.19501151 0.015759962
-0.23336689 -0.19720098 -0.05775887 -0.19450703 -0.26965877 0.29200894 0.1328406 0.26741856
-0.057062674 0.25287715 -0.35393712 -0.3748145 -0.055228435 -0.26517126 0.29360488 -0.3885918
0.022091424 0.13996544 0.2884484 -0.13784602 0.29734737 0.06390056 0.075587064 -0.23873915
-0.3108881 -0.22501756 -0.31648114 -0.1880106 -0.1364523 -0.1263516 0.059980925 -0.05304643
-0.1662785 0.008498226 0.39688388 0.12652482 -0.28405288 -0.3817411 -0.025214082 0.044411846
-0.28097305 -0.06475909 -0.13236128 0.15403652 -0.013443837 0.105900615 0.2879872 -0.2440847
0.21974649 -0.2882351 0.08968009 0.1914171 0.29744965 0.32653946 -0.22703496 -0.055095214
-0.33649954 0.2759739 0.3043587 -0.39766586 0.42112848 0.29358983 0.0927932 -0.1608595
0.013468279 0.2530762 0.06741089 -0.24077557 -0.15827261 0.2484491 0.14260653 -0.35824883
0.37084198 0.04831388 0.26593795 -0.37304467 0.22633487 0.3662504 0.47322097 0.022439495
-0.37539753 -0.32738385 0.13306266 0.049825937 -0.07275756 0.036174815 0.2308032 0.31327674
-0.015214471 0.31716472 -0.26976624 -0.26994008 0.26771078 -0.062110003 -0.02115003 -0.1789348
0.3232115 0.03395613 -0.24097499 -0.22266327 0.239757 -0.1299659 0.54725987 0.087268144

lstm.bias_ih_l1 f4 [32]
00000000: 808a ac3e 7b49 01bb 3fa3 c03e 6d6c 8ebc
00000010: 7937 9bbe a34b cebe da19 213f ebd9 873c
00000020: 7a2c 273e 01ff a0bd 7b95 cc3e b309 22be
00000030: cf71 56be 787e ee3d 35eb 48bd c90b ed3d
00000040: ef77 d3be dee7 753e 72f4 8cbe 4279 9cbd
00000050: 51f7 ae3d 5df1 6b3e 4f53 f73c ff78 8dbe
00000060: 03b3 27be 725c 993e 5e74 7bbe 8059 323e
00000070: ecd6 c43e 6bc3 5a3e deee c33e 4368 e5bb
0.33699417 -0.0019727636 0.37624547 -0.017385686 -0.3031576 -0.4029208 0.6293007 0.016583404
0.1632556 -0.07861138 0.39957795 -0.15824012 -0.20941852 0.11645216 -0.049052436 0.115745135
-0.4130244 0.24014232 -0.27530247 -0.076403156 0.085432656 0.23041292 0.030191092 -0.27631375
-0.16376881 0.29953343 -0.2455611 0.17416954 0.38445222 0.21363609 0.3826818 -0.0070009544

lstm.bias_hh_l1 f4 [32]
00000000: cc10 ee3e 047d 0cb8 272b 1e3c b3e3 97be
00000010: c276 243e 2ee6 35bc 6e8e a33e b750 6a3e
00000020: a067 d03d c96e 66be 62f1 893e 9e82 5abe
00000030: 75a5 9dbe 422f dc3d 8913 27be e6b1 34be
00000040: 799f 1a3e fc03 923e ecdb 4dbe c2a3 92bd
00000050: b5c9 da3d 81c4 24be bb6f 813e de7b 763e
00000060: a618 fb3e d46c 283e 6860 2ebe 34e6 06be
00000070: 7d93 023c 8eac ac3d f5bf 203e 843e 6ebe
0.4649719 -3.349503e-05 0.009653843 -0.29665908 0.16060928 -0.011102242 0.31944603 0.22882353
0.10176015 -0.22503199 0.26941973 -0.21338889 -0.30790296 0.10751201 -0.16316046 -0.17645988
0.15099896 0.28518665 -0.20103425 -0.071601406 0.10683004 -0.16090585 0.25280556 0.24070689
0.49042243 0.16447765 -0.17028964 -0.13173753 0.007969734 0.0843135 0.15698226 -0.23266035

linear.model.0.weight f4 [2, 8]
00000000: 1c70 aabe 2914 c13d 7862 10be dc6d b7bd
00000010: 8c97 083e a7c5 39be f200 c83e fe3e c7be
00000020: db1b 973e 7a52 413e 9cbb b03e 49c6 ccbe
00000030: f872 5f3e e05b 7ebe 9199 ea3c 4d24 95be
-0.33288658 0.09427673 -0.14100063 -0.08956501 0.1333906 -0.18141805 0.3906322 -0.38915247
0.2951344 0.18879119 0.34518135 -0.3999503 0.21821201 -0.24839735 0.02863768 -0.29129258

linear.model.0.bias f4 [2]
00000000: 5895 42be 725d 88be
-0.19002283 -0.26633793
