examples/2_streamflow_isotope_simulation/results/20241125_101506_612553/loss_c60a7_00000_0_batch_size=4,hidden_size=21,learning_rate=0.0050,n_epochs=225,num_layers=1_2024-11-25_10-15-11/checkpoint_000011/model.pt (torch, 11764 bytes, 6 tensors)

lstm.weight_ih_l0 f4 [84, 4]
000000 d9 34 80 3e 2e ca 35 be c4 ca c3 3d 83 0d da bd
       0.2504032 -0.17752907 0.09560159 -0.106471084
000010 4c 23 52 3e c6 f8 8e 3e b5 32 c6 3e d0 c2 a5 3d
       0.20521277 0.27924174 0.3871056 0.08093798
000020 a5 e6 ee 3e f0 8b f4 bd 71 3a a8 3e 53 80 21 be
       0.46660343 -0.119407535 0.32857087 -0.15771608
000030 58 75 94 3e 74 de 84 bd 1d 47 f0 3d ef 5a e6 3d
       0.28995776 -0.06487742 0.11732314 0.11247813
000040 72 02 24 bc fc ab f8 3d 44 c7 a8 be 30 59 59 be
       -0.010010349 0.121421784 -0.32964528 -0.21225429
000050 03 1f 2b be d7 ff 2a be 7e ba ce bd 9b 4e f5 bd
       -0.16711049 -0.16699158 -0.10094164 -0.119778834
000060 c4 e4 42 3e ae 54 2e be 1a 1c ee 3d 9d 10 f4 bd
       0.1903258 -0.1702449 0.11626454 -0.11917231
000070 32 a6 8a 3e 91 65 a7 be 53 c7 60 bd 60 73 6a be
       0.27079922 -0.32694677 -0.05487759 -0.22895575
000080 51 ef 57 3e a9 79 6b bb 7c 66 b1 3e 9b 6b 13 3e
       0.21087386 -0.003593067 0.34648502 0.14396517
000090 07 80 cb 3e 90 4a 41 be 52 ba 8e 3c 59 5e e7 3d
       0.39746115 -0.188761 0.017422829 0.11297292
0000a0 1b f6 d6 3e a3 15 59 bd 5c 5e 59 be f1 2e 8a be
       0.4198464 -0.05299915 -0.21227401 -0.26988938
0000b0 31 2f 85 3e 6b d0 c3 3c cd 35 50 3d 2d 1a 50 bd
       0.26012567 0.023903092 0.05083256 -0.050806213
0000c0 00 48 02 3f a7 e5 cf 3d 85 3f 29 3d 94 56 bc bd
       0.50891113 0.101512246 0.041320343 -0.09196201
0000d0 17 a8 bb bc 7f b2 c2 bd 77 f0 d3 bc 50 d6 36 be
       -0.0229073 -0.09506702 -0.025871499 -0.17855191
0000e0 60 a4 80 3e 8c b2 8e 3d 34 91 1c 3c c8 50 c3 be
       0.25125408 0.06967649 0.0095561035 -0.3814757
0000f0 1f 44 2d 3c 61 b5 fb bd 46 52 1f 3e f9 34 84 be
       0.010575323 -0.12290455 0.15558729 -0.25821665
000100 c9 08 d7 3e d9 5c a2 3d 79 ed 45 be 1b dc 2a 3e
       0.4199889 0.079278655 -0.1932887 0.16685526
000110 fd 72 35 3e 36 d0 dc 3d 28 51 9d 3d 80 38 fb bd
       0.17719646 0.107819006 0.07681495 -0.12266636
000120 90 5f fd 3e 3c ef 81 3e 87 e3 1b 3e 28 25 a7 3d
       0.4948697 0.25377834 0.15223514 0.08161384
000130 9d 83 7c 3e e1 7c 5a 3e 76 bf 96 3d 39 2b 9f be
       0.24659581 0.213367 0.07360737 -0.31087664
000140 96 95 b9 3e 3e 3c 67 be a5 fa 0a 3e a6 97 dc bc
       0.36246938 -0.22581574 0.13572176 -0.02692778
000150 9b f3 fb 3d ea 46 51 bd da aa 10 be 8d c3 a0 be
       0.123023234 -0.05109302 -0.14127675 -0.31399193
000160 28 aa dd 3d 8c bb 92 3d c1 ef d1 3d b9 0e 12 3e
       0.1082347 0.07164678 0.102508076 0.14263429
000170 e7 4b 8f 3d 1c 7d 0c 3d df c6 ec 3d 02 39 43 3d
       0.06996899 0.034299 0.11561369 0.04766179
000180 e0 c6 25 3e 12 2e f4 3d e2 81 13 3e 09 3b 53 3d
       0.16189146 0.1192285 0.14405015 0.051569972
000190 77 47 25 3e e6 54 7f be 85 8c 54 be 8b d0 b3 be
       0.16140543 -0.2493473 -0.20756729 -0.35120043
0001a0 b9 cb a7 be a7 94 90 3e d1 2d 9d 3e da 53 20 be
       -0.32772616 0.28238413 0.30699018 -0.15656987
0001b0 35 56 95 3e 4e 5f b8 bc 8e f3 86 3d 8c ea ec bd
       0.29167333 -0.022506382 0.06589423 -0.11568174
0001c0 e0 49 f2 3e c0 af f0 bb 66 53 0f 3d 8c 92 88 be
       0.47321987 -0.00734517 0.034991644 -0.26674306
0001d0 ea 8d c1 bc e1 ed 5c bd 4f 52 cb 3b 9c c2 74 3e
       -0.02362724 -0.053937797 0.0062048803 0.23902363
0001e0 42 70 be 3b 9c a8 1c 3e c3 bb 0a 3e 84 23 1e be
       0.005811722 0.15298694 0.13548188 -0.15443236
0001f0 36 71 68 3e 65 ff 05 be 59 a6 a8 be 70 12 73 be
       0.22699437 -0.13085707 -0.32939413 -0.23737502
000200 6d 22 2f 3e 9f 8b ce 3c ea db 14 bd d0 ac 4f bc
       0.17102976 0.02521306 -0.03634254 -0.012675479
000210 a0 55 fa 3d 59 e6 5a 3e 3c 4c ff 3d 4d 37 1a be
       0.12223363 0.21376933 0.124657124 -0.15060158
000220 0a ff 46 be c3 b8 a9 3e 23 0f 81 bd 1b 71 5d 3e
       -0.19433227 0.33148775 -0.06301715 0.21625178
000230 86 8f b8 3d 01 a4 3e 3e 8c d9 04 bd 22 d6 7c be
       0.0901175 0.1861725 -0.03243403 -0.2469106
000240 f4 f1 8f 3d 99 8d 04 3e 57 ca 56 3d bb 66 bf 3d
       0.07028571 0.1294464 0.05243906 0.09345766
000250 1f e0 22 3e 83 76 22 3d 19 02 04 be 98 45 30 3d
       0.15905808 0.039663803 -0.12891425 0.04303512
000260 44 31 8f be 99 4d 88 3e fa bd 2f be 6b 20 32 3e
       -0.27967274 0.26621702 -0.17162314 0.17395179
000270 ad 48 d2 3e e9 1b 93 3e 58 f3 e1 bd f6 81 48 3e
       0.41071072 0.2873223 -0.11032742 0.19580826
000280 75 8f db bc 80 0b d4 bb 26 c5 f9 3c 1f e1 fd 3d
       -0.026801804 -0.0064710975 0.030489516 0.12396454
000290 5a c6 c1 3e d3 3b 1e 3d f2 74 15 be cf 86 17 bc
       0.37846643 0.03863127 -0.14595392 -0.0092484495
0002a0 06 f6 83 3e 54 85 4b be 3a 5b 35 3c 2f 6c e2 bb
       0.25773638 -0.1987508 0.011069113 -0.006909869
0002b0 b9 95 f9 3e 87 5f 31 bd 1e b9 b8 bb c1 dc a4 bd
       0.48747042 -0.043303993 -0.005637302 -0.08049918
0002c0 df bb 3b be ec 1f 8d 3e dd 3a 99 bd 12 36 2a be
       -0.18333386 0.27563417 -0.074819304 -0.16622189
0002d0 ea 60 87 be 72 11 57 3e 28 f5 cf 3d 21 dd 90 3d
       -0.26441127 0.21002749 0.10154182 0.07073427
0002e0 4e fa 98 3d 72 aa 0d 3e 98 9d f8 3d 82 13 76 3e
       0.07469617 0.13834551 0.121394336 0.24030879
0002f0 b5 90 34 3c 0b c3 81 be a2 ff 2b 3e d2 ec 96 3e
       0.011020829 -0.25344118 0.16796735 0.29477555
000300 a7 ca b2 bc 3e 86 80 be 59 dc a2 bd 4e 46 a7 3d
       -0.021825148 -0.2510242 -0.07952184 0.081677064
000310 0b ca e9 3d 8f b4 6b bd 90 a5 44 be 9c e8 fa bd
       0.1141549 -0.05754524 -0.19203782 -0.12251398
000320 a1 bc a7 be 6b 46 48 be 42 de fe 3d ef fc 88 3d
       -0.327611 -0.19558112 0.12444736 0.06688868
000330 d5 e3 b2 be 90 55 23 be 5a a7 42 be 17 48 3d 3e
       -0.34939447 -0.15950608 -0.19009152 0.18484531
000340 d5 b1 8c 3e 12 b8 78 bd a7 74 86 3e 24 4b 9f 3e
       0.27479425 -0.060722418 0.26260874 0.31112015
000350 8c 48 5e 3e 23 a9 98 3e 70 04 2b 3e 5b 95 00 3e
       0.21707362 0.2981654 0.16700912 0.12556975
000360 50 62 29 be 59 a8 d8 3e 19 61 8f 3c c3 c4 f7 39
       -0.1654141 0.4231594 0.017502354 0.0004725811
000370 53 bc ff bd b4 f6 17 3e e6 5c 68 bd c9 dc 7a be
       -0.12487092 0.14840204 -0.05672922 -0.24498285
000380 e1 01 c2 bc fd 99 3d 3d 9e ed cd 3d 20 25 60 3e
       -0.023682537 0.046289433 0.100550875 0.21889162
000390 b0 85 fe bd 84 bf 8c b9 1b 5e 01 be 16 ec 33 3e
       -0.124278426 -0.0002684557 -0.12633555 0.17570528
0003a0 f1 01 51 3e c1 fb 13 3e 52 1c 92 3e 57 8e 8e be
       0.20410897 0.14451505 0.28537232 -0.27842972
0003b0 8d eb c9 be 5c a6 c6 bd 3e 38 d1 bd 15 44 aa 3d
       -0.39437523 -0.09699699 -0.102158055 0.08313767
0003c0 14 b7 dd 3c 3f 24 86 be c4 6a 92 be 4d cd 82 bd
       0.027064838 -0.2619953 -0.2859708 -0.06386814
0003d0 ef 8e 89 3e b3 cc 59 be 9a 34 b7 3d ff 57 1d 3e
       0.26866862 -0.21269493 0.0894558 0.15365599
0003e0 66 46 35 3e 74 49 86 3e 37 d6 2e 3e 81 97 9f 3c
       0.17702636 0.26227915 0.17073904 0.019481422
0003f0 30 38 75 3e 92 2e 0e be 3e 0e 67 bb 99 23 ee 3c
       0.23947215 -0.13884953 -0.0035256292 0.029069709

lstm.weight_hh_l0 f4 [84, 21]
000000 b2 bb 37 3d 36 0d 16 3f d0 f7 8c bd 5a d7 5b be
       0.044856735 0.5861391 -0.06883204 -0.21468869
000010 14 59 55 be 97 b0 16 3e 04 a7 55 3e ba 02 b3 3e
       -0.20834762 0.14715801 0.20864493 0.34963018
000020 a1 bf c6 3d 2a 48 97 be f2 42 79 bb 10 dd 16 3e
       0.09704519 -0.29547244 -0.0038034287 0.14732766
000030 95 06 0b 3d 33 ce b8 bc fe f9 f7 3d 68 c6 9b be
       0.033941824 -0.022559261 0.12108229 -0.3042481
000040 b9 95 8b 3d df 6d 53 3d 39 f1 4a 3e 67 0e 53 be
       0.06815667 0.051618453 0.19818582 -0.20610963
000050 88 bd 6d be c4 d1 51 3d 00 e2 bc bd 94 43 97 bd
       -0.23216832 0.05122544 -0.092227936 -0.073859364
000060 33 37 3d 3e 52 e9 ac 3e b9 06 66 be 19 e9 aa be
       0.18478088 0.3377176 -0.22463502 -0.33380964
000070 5c 27 43 3e 6c 45 2c bd 86 65 97 be 11 5e bc 3d
       0.19057983 -0.042058393 -0.29569644 0.09197629
000080 bc 2a a2 bd fd 51 e1 3d 92 1d b6 bd ec 38 13 3d
       -0.07918307 0.11001966 -0.08892359 0.035942957
000090 f9 15 a6 3b d7 1a 9e 3e 8c 36 0d 3c 6a 06 3d be
       0.0050685373 0.30879852 0.008618962 -0.18459478
0000a0 06 77 59 3c 39 53 8f 3e 21 bd d5 3d d8 f6 84 bd
       0.013273006 0.2799318 0.10436464 -0.06492394
0000b0 d7 60 1d be 60 5b 25 be 30 da ee bd 13 96 be bd
       -0.15368973 -0.16148138 -0.1166271 -0.09305968
0000c0 95 2e 9c be 24 7d 26 be 92 c5 21 bc f9 d7 da be
       -0.3050429 -0.16258675 -0.009873765 -0.427429
0000d0 ae f3 8e 3e 93 ae d8 bc 99 91 5f 3d 07 06 85 bd
       0.27920288 -0.026450431 0.054582212 -0.0649529
0000e0 5c 37 86 3e 3c b1 7f bd 2e 29 0e 3e a6 2e 04 be
       0.2621411 -0.062424883 0.13882896 -0.1290842
0000f0 39 b7 6e 3d 31 3e 06 3e dc 56 04 3e fa 82 45 3e
       0.058280203 0.13109662 0.12923759 0.19288245
000100 e2 39 66 3e 4a e7 06 be 02 e0 bf 3d 9a 27 c1 3d
       0.22483018 -0.13174167 0.09368898 0.094313815
000110 b9 97 ab bd 09 25 fc bd a2 7b 0e bd 10 40 15 be
       -0.08378548 -0.123117514 -0.034785874 -0.14575219
000120 14 aa 56 be f7 0a 96 bc f2 90 e6 bd cd 93 e5 3d
       -0.20963317 -0.018315775 -0.11258115 0.112098314
000130 1b 44 82 bd de 9a 28 3e 26 56 b1 be 12 89 8c 3d
       -0.06360646 0.16465327 -0.3463604 0.068620816
000140 0a 70 1c bc d0 d3 a8 3d 1a 94 15 be d1 7c 38 3e
       -0.009548197 0.08243525 -0.14607278 0.18016364
000150 a5 67 b7 3e 12 80 27 3e bb bd a2 bd 29 ca 96 bd
       0.35821262 0.16357449 -0.079463445 -0.07362778
000160 ad a1 cc bd 3e 83 89 3e 21 9c df bd 6a 41 76 3e
       -0.09991775 0.26857942 -0.10918451 0.24048391
000170 18 c6 b8 3d 19 3d 0b 3c bb e1 a0 bc c9 bc 2f be
       0.090221584 0.008498454 -0.019638887 -0.1716186
000180 2d 76 04 be db ae 2e 3e f0 47 37 bd e1 df 85 bd
       -0.12935705 0.1705889 -0.04474634 -0.06536842
000190 d1 11 24 3c cb f4 59 be 9a 28 37 3e 39 e1 b6 3d
       0.010014013 -0.21284787 0.17886582 0.089296766
0001a0 30 50 3b 3d cb a9 81 3e bd 5b db 3d c9 ee 77 bd
       0.04573077 0.25324854 0.10710857 -0.060530458
0001b0 0f 9e 04 3e 38 f1 97 be e4 b5 35 bd f0 0b 60 be
       0.1295092 -0.29676223 -0.044362918 -0.21879554
0001c0 6d c5 ec bc c8 bb 4c 3e a0 e8 a9 be 2d f1 43 be
       -0.028902734 0.19993508 -0.3318529 -0.1913497
0001d0 a1 85 de bb ab 28 42 bd b4 6c 74 bc 2c 26 32 be
       -0.006790832 -0.047402065 -0.014918495 -0.17397374
0001e0 bb 8c 03 3e 2c 56 84 3e a4 c0 4b be 71 4c df bd
       0.12846653 0.25846994 -0.19897705 -0.10903252
0001f0 21 fc 55 be 89 48 7a bd 7f f2 1d 3e be a6 08 3e
       -0.20896961 -0.06110433 0.15424536 0.13344857
000200 89 39 cf 3b 0d a6 a7 3d 79 ab 10 be be d4 2b be
       0.0063239974 0.081859685 -0.14127912 -0.16780373
000210 bc 6d d9 3d 79 c8 a5 3d f2 cb 64 3d 4d 43 60 be
       0.10616633 0.08094878 0.05585856 -0.21900673
000220 87 a7 4f bd c7 7f 12 be 1c c1 c0 bc 52 b7 99 3d
       -0.050696876 -0.14306556 -0.023529582 0.07505669
000230 14 3d ff 3b a4 54 46 be 8f 61 88 3d c7 b6 ca bd
       0.0077892635 -0.19368225 0.06659233 -0.09898143
000240 1b 03 45 be 93 1b 3e 3e 56 4a 3d 3e 7c 53 41 bd
       -0.19239466 0.18565206 0.18485388 -0.047198758
000250 68 00 04 be d6 34 96 bd b0 da 89 be bd b0 71 be
       -0.1289078 -0.073342964 -0.26924658 -0.23602577
000260 f1 b5 c9 3d b6 7f b9 3d f1 75 0e 3e c1 86 01 be
       0.09849156 0.09057562 0.13912179 -0.12649061
000270 24 37 36 bc 56 1e 1b be cf 3c 4b be cb e1 2f be
       -0.011121545 -0.15148291 -0.19847415 -0.17175977
000280 75 2e 64 3e 78 fa 32 3e 26 30 01 3e 5d d6 8c 3e
       0.22283347 0.17478359 0.12616023 0.27507296
000290 3a 38 e2 3d 05 09 ec bd 7f bc a3 bc 9e e2 6d 3d
       0.110458806 -0.11525158 -0.019987343 0.058077447
0002a0 7d b0 22 3d d1 83 59 3e 68 c7 a7 bd 0f c0 97 3c
       0.039719094 0.2124169 -0.081923306 0.018524198
0002b0 67 e8 bd bd 3b b0 90 3c 9e 1a 27 bd 9d 03 58 3e
       -0.09272843 0.017662158 -0.04079687 0.21095128
0002c0 47 12 23 3e d3 7c ea bc 9a d9 dc 3e 00 49 23 3c
       0.15924941 -0.028623974 0.43134767 0.009966135
0002d0 80 d4 2e bd 52 6e 91 be d0 dd c8 3d b3 22 90 be
       -0.042683125 -0.2840448 0.098079324 -0.28151473
0002e0 22 6b 6b 3e 6f 93 a6 bd 81 3e 78 bd 12 43 6a bd
       0.22990087 -0.081335895 -0.060606483 -0.05719287
0002f0 2c d6 82 be 37 65 a2 3e 31 c7 5c 3d 72 58 67 bd
       -0.25554025 0.31717846 0.0539009 -0.056480832
000300 79 b0 86 bd 8a 27 5b bd ac 4a 59 3d 39 7c 4d be
       -0.06576628 -0.053504504 0.05304973 -0.20066918
000310 ea a8 ad 3e a6 72 b3 be 72 0e 49 be 54 66 0a 3e
       0.33917934 -0.35048407 -0.19634417 0.13515598
000320 f3 f1 58 bc ee 12 0a 3e b6 5f de bd 62 f3 82 be
       -0.013241279 0.13483784 -0.10858099 -0.2557631
000330 f9 af 7d be 99 bd 2c 3f d0 05 32 3e 24 9b cb bd
       -0.2477416 0.67476803 0.1738503 -0.099417
000340 47 b3 7f be 3d 15 e5 3d c0 a3 a6 3d 13 67 00 3e
       -0.24970733 0.111856915 0.081367016 0.1253932
000350 80 41 d1 bd 9a eb b1 bd 6a ed bb 3d 41 09 b2 be
       -0.10217571 -0.086875156 0.091761425 -0.34772685
000360 2f 69 48 be 02 99 ce 3e 97 32 8b bd 51 d0 08 3c
       -0.19571374 0.4035111 -0.067967586 0.008350448
000370 24 3e 04 be 34 da 46 3e 6d ee b0 3d e7 1b 62 be
       -0.1291433 0.19419175 0.08639226 -0.22080956
000380 87 86 8d be c4 ef 60 bd fb 19 87 3e 78 28 ea 3d
       -0.276417 -0.05491616 0.2638701 0.114335
000390 3e 87 f0 3d 67 ee 0f be 8e 43 95 be 3d 09 10 3e
       0.117445454 -0.14055787 -0.29153103 0.14066024
0003a0 40 38 85 3e a5 d9 00 be e9 3f c2 3d 12 d9 26 be
       0.26019478 -0.12583025 0.09484846 -0.16293743
0003b0 08 c2 87 3d 0c 30 4c 3d e7 84 69 3e 9e ab eb 3d
       0.066288054 0.04985051 0.22804604 0.11507343
0003c0 55 fe 00 be fb 08 50 3d 03 0a b0 bd 0a 7b 33 3e
       -0.1259702 0.050789814 -0.085956596 0.17527404
0003d0 5b 53 8f be d0 44 7d bd e4 3b 96 be 61 c4 25 3e
       -0.27993283 -0.061833203 -0.29342568 0.16188194
0003e0 96 c0 de bd 54 11 39 3e 2a 96 a3 bd 7d b9 15 be
       -0.108765766 0.18073016 -0.07987626 -0.1462154
0003f0 13 43 a6 bd 92 43 b9 3e 7a 1b 52 3e ac 09 0d be
       -0.08118262 0.36184365 0.20518294 -0.13773221

lstm.bias_ih_l0 f4 [84]
000000 8a 4f 85 3b 28 e2 d2 bc dd d2 0e be ca 3b 97 3e
       0.0040683197 -0.025742605 -0.13947625 0.29537803
000010 42 b5 71 be 2f 3e e4 3c 02 d6 23 3e 40 03 3a be
       -0.236043 0.027861683 0.15999606 -0.18165302
000020 29 46 7b 3e 2a 5c 82 3e 05 fd b4 3c e4 33 b2 bd
       0.24538483 0.2546094 0.022093305 -0.087013036
000030 46 4f 84 bd f6 26 20 bd 47 67 b2 3d 89 77 98 3d
       -0.06460433 -0.039099656 0.08711105 0.074446745
000040 74 43 3c bc 73 2f ba 3e 29 e3 9d bd 19 51 40 3e
       -0.011490691 0.36364326 -0.07709343 0.18780936
000050 27 d8 d4 3c c6 61 90 bd 1e 2b 5a 3e 90 b7 51 ba
       0.025981976 -0.07049899 0.2130551 -0.000800007
000060 2c a9 b0 bb 40 23 f1 bc 61 e3 0d 3e 17 7f e0 3b
       -0.0053912606 -0.029435754 0.1385627 0.006851088
000070 fb d1 15 3d e0 ae 5f 3e e5 cf ab 3c fb 49 1f 3e
       0.036577206 0.21844053 0.020973155 0.15555565
000080 81 09 22 3d 11 11 56 bd 7a f9 0e 3d f6 f6 02 be
       0.039559845 -0.05226237 0.03490589 -0.1278952
000090 0d 66 8d 3e 5c 3f 26 be 2f 03 23 3e 2a c0 5f 3d
       0.2761692 -0.16235107 0.15919183 0.05462662
0000a0 b0 4b 23 3e 54 be bd 3e d7 92 5a 3e 19 6a 20 3e
       0.15946841 0.3705927 0.21345077 0.15665473
0000b0 58 92 9d 3d 7e ca 19 be 27 82 8f 3c 30 eb 9e bd
       0.076939285 -0.15018651 0.017518116 -0.07759702
0000c0 3e 38 b2 bc 6a 11 a4 3e fe f1 12 bd 30 24 63 3e
       -0.021755334 0.32044536 -0.035875313 0.22181773
0000d0 3a 7c 50 3e 8b b4 d9 3a 52 e1 c0 bd bc 51 23 be
       0.20359889 0.0016609592 -0.094179764 -0.15949148
0000e0 8d bd 40 be 4e 04 ac 3d b4 19 bf 3a 7e a1 28 bd
       -0.18822308 0.083992586 0.0014579804 -0.041169636
0000f0 21 32 40 be 11 04 2e bd 3d 17 12 be 89 eb fc 3d
       -0.18769123 -0.042484347 -0.14266677 0.12349612
000100 da 7b 85 3d 4b b6 33 3e 0e 30 75 3e 59 01 5e bd
       0.065177634 0.17550008 0.23944113 -0.054200504
000110 8d 10 13 be ac 98 e9 3d 42 3f 01 be fb 84 16 3e
       -0.14361782 0.11406073 -0.12621787 0.14699166
000120 78 2e 27 3e 66 2c 19 3d 3f 32 01 3d c2 c5 14 be
       0.1632632 0.037395857 0.03154206 -0.14528564
000130 26 a6 8f bd cc 5c 5f 3b 4d 9c 07 3e 23 84 86 3e
       -0.07014112 0.003408241 0.13243218 0.26272687
000140 23 0a fc 3d 43 7f 33 3e f8 3e a0 3d c2 72 90 3e
       0.12306621 0.17529015 0.0782451 0.28212553

lstm.bias_hh_l0 f4 [84]
000000 82 df 13 3c 77 8a b3 bd 43 8c 9d 3d 1c 45 3e 3e
       0.009025456 -0.087666444 0.076927684 0.1858105
000010 44 bd 96 bb de 5b 1d 3e 76 fe 22 3e 72 55 81 3d
       -0.004600199 0.15367076 0.15917382 0.063151255
000020 95 94 7d 3e 7c 4f 91 3e 47 e9 0a 3e 26 72 c3 bd
       0.24763711 0.28380954 0.1356555 -0.095432565
000030 83 a1 a7 3d 2e 58 9c bc d3 2a 90 3d bb 83 2b 3e
       0.08185103 -0.019085016 0.07039418 0.1674947
000040 1e eb 05 3e 5e d7 72 3e 5d 2c 4a 3e 85 f5 d5 3d
       0.13077971 0.23714969 0.19743486 0.1044722
000050 8c f9 2b 3e e4 1e ae 3d 74 fc f0 bc b6 88 78 3c
       0.16794413 0.08501986 -0.029417254 0.015169313
000060 05 ee 1c 3e cd 57 70 bb 21 31 28 3e 98 1f fe 3b
       0.15325172 -0.0036673427 0.16424991 0.007755231
000070 ac 76 9f 3d 3c 30 69 3e c1 51 3f 3d 94 2f a3 bc
       0.07786307 0.22772306 0.046708826 -0.019920148
000080 24 6e 36 3e f8 d1 32 3e 68 66 ab bd 9e 1f aa bd
       0.17815453 0.17462909 -0.08369142 -0.08306812
000090 52 c1 c7 3d a3 56 14 be c3 78 a3 3e bf e7 60 3d
       0.0975367 -0.14486174 0.3192807 0.05490851
0000a0 09 68 20 3e 32 80 a7 3b 8c b6 2b be 90 0d ca 3d
       0.15664686 0.0051117176 -0.16768855 0.09865868
0000b0 ef be 03 be 40 26 52 3d f9 fb e5 bd a3 7a 5a be
       -0.12865804 0.05130601 -0.112297006 -0.21335845
0000c0 59 a1 61 bc 68 25 7b bb 16 ef d4 bd cf ce 41 bc
       -0.013771378 -0.0038321856 -0.103971645 -0.011829092
0000d0 5c a0 27 be 9e 50 d2 3d 81 25 2b 3e 7b 7b 01 bd
       -0.16369766 0.10269283 0.16713525 -0.0316119
0000e0 94 61 56 be 2f 99 30 be 1a 11 db 3d 30 df 50 3e
       -0.2093566 -0.17245935 0.10696621 0.2039764
0000f0 1f f9 39 bd 25 44 22 be 4a 09 ee bd 32 cb aa 3e
       -0.045403596 -0.15846308 -0.116228655 0.3335815
000100 50 1a 44 bd 53 97 35 3e 6d 11 3c 3e b2 39 df 3c
       -0.047876656 0.17733507 0.18366022 0.027249191
000110 f5 30 53 be 11 76 0a 3e 9d 5e 2d be f6 1f 9b 3e
       -0.20624144 0.13521601 -0.16930623 0.30297822
000120 e1 6c 82 3e d2 d0 c8 3e 56 99 ac bd 42 f1 62 3e
       0.25473693 0.39221817 -0.08427684 0.22162345
000130 5b f2 6e bd db f0 d7 3c 68 49 16 3e 40 be 9c 3d
       -0.058336597 0.026359966 0.1467644 0.07653475
000140 a0 b8 4a 3e 9f f9 88 3e 50 9d c4 bd 34 c6 82 bd
       0.19796991 0.26752946 -0.096003175 -0.063854605

linear.model.0.weight f4 [2, 21]
000000 33 4d cf 3e 7d b8 b4 3e 9c 8e f0 be 2f db cb be
       0.40488586 0.35297003 -0.46983802 -0.3981566
000010 ef ef 75 3e 4f bd f3 3d 88 43 b6 bd b6 b5 8a 3e
       0.24017309 0.11901342 -0.08899599 0.2709176
000020 34 f1 04 bf 6b 75 f2 be e6 50 f2 3e ea fc b9 3e
       -0.51930547 -0.47355208 0.47327346 0.3632577
000030 fb f1 b9 be 78 d7 ba 3d e2 dc 94 bd 5d de 3d 3d
       -0.3631743 0.09123129 -0.072686926 0.04635464
000040 c1 2c e9 3e 1c 8e 96 be 1f 59 4f 3d b6 da 23 3e
       0.45541957 -0.29405296 0.050622102 0.160014
000050 32 42 49 bd 40 bb 85 be 64 46 a7 3e 55 54 a3 3a
       -0.049135394 -0.26119423 0.3267089 0.0012461046
000060 b2 01 9f bc 37 2a fe 3c e3 fd ca bc 9a c1 74 be
       -0.019409988 0.031025989 -0.024779266 -0.23901978
000070 73 5a de bd f7 16 00 bd 86 cb 87 be 6e fe ab 3e
       -0.108570956 -0.0312719 -0.26522464 0.33592552
000080 e4 9c 14 3e 68 7e 7e 3e bf 12 f4 bd 52 8c 8b 3e
       0.14512974 0.24852908 -0.11917638 0.27255493
000090 6f 9f d5 bd f2 d1 6c be c1 6c 71 bd 24 37 39 be
       -0.104308 -0.23126963 -0.058941606 -0.1808744
0000a0 63 5f 66 bd 34 e1 95 3e
       -0.05624331 0.2927338

linear.model.0.bias f4 [2]
000000 ac d2 c6 bc e6 2d a5 bc
       -0.024270378 -0.020163488
