examples/2_streamflow_isotope_simulation/results/20241125_101506_612553/loss_c60a7_00005_5_batch_size=8,hidden_size=17,learning_rate=0.0020,n_epochs=251,num_layers=2_2024-11-25_10-15-11/checkpoint_000007/model.pt (torch, 19740 bytes, 10 tensors)

lstm.weight_ih_l0 f4 [68, 4]
00000000: b2e2 5cbd e816 b03d 68d0 b73d 0c59 1bbe
00000010: 59cf 6c3d cb0b 36be 73bb 613d 35e5 9cbc
00000020: 3a79 883e 9dd2 debd b75f 38bd d178 ecbc
00000030: a924 56be 88b9 333e 2702 52be 7bf2 3ebe
00000040: e585 af3e eabd 1c3e 007b 0cbe 8115 173c
00000050: 447b 9cbe 28df 0fbb ecb1 d53d 665f f13c
00000060: 3101 3c3c e212 473e 0161 4d3c f7e8 3cbe
00000070: 7ab6 ad3e cfa3 803d 3553 34be a65d 583e
00000080: 3f08 b4bd c902 24be 0718 8cbe 37bc 1c3e
00000090: 7a5d 833d 711c d0bd c238 e13d ebcc 573c
000000a0: 86d9 8c3e de49 8d3c 7532 113e ef0f 163e
000000b0: 0e86 533e 77db 75bd 5e56 aaba a40c 93bd
000000c0: df14 09be b0de 543e 0c24 58be d93b 45be
000000d0: 3303 7e3e 87f6 85be d972 1cbe 7f3a 903e
000000e0: 4f5c b73e 7948 7b3d 2e41 4b3c d026 b1bd
000000f0: bf6d 2f3e 9a4d 3b39 a626 b7bd f9b0 273e
00000100: df93 ac3e be3c 10be 88bc cdbd bbae 3abb
00000110: 5a9a 7a3c a1a9 983e 3deb a1bd eb95 35be
00000120: 62ea ae3e 7645 8b3e e0fa 8e3e 22ab e63d
00000130: 7457 483e 5449 253e 1ab9 5a3e b1a7 653e
00000140: 5d66 873e 9b15 b2bd 4736 90be a602 76be
00000150: 4226 b73e 1323 083e 5a5f 683d a312 34be
00000160: 9502 9fbe 120e c03d 9581 21be d41d 9f3d
00000170: 7859 3a3e 8671 873e 6c3b b73c d5b3 7d3d
00000180: ecfd 66bc f215 cd3a 31ae f03c f19c 6b3e
00000190: a1f5 923c f5f2 513e a2d2 013d de5d a3be
000001a0: 32aa 7e3e 3c92 9dbe f850 04bd f23d 493c
000001b0: 542e a83e 5de0 f0bd b2c0 8f3e 6e73 8a3d
000001c0: 4d56 bb3c ab5b 243d ae39 ea3d aee6 7fbb
000001d0: 0ca4 5bbe 1ee5 66be 8f72 0abd fee0 62be
000001e0: e32b 58bd 78a4 4abe 26ed f1bc 6118 2dbe
000001f0: fcf6 0abd d0ac 323d dc92 043e bea4 4abe
00000200: 7fc7 a3be 5c0c 20bd 476a 97be 9048 5cbd
00000210: fbf1 4f3e 392f 52bd 645c 28bd bf6b 633e
00000220: 9c99 c3be d39b 41be 2603 66be ca4a 6f3e
00000230: a428 7b3e f1d5 323e 81ba 073e e4cd a6bd
00000240: 877d 053e b4c5 ec3d 8d77 663e 18b1 cb3a
00000250: 0af1 81be e11c 38be 1799 8d3d e0ac f03d
00000260: 2f1d 53bc 0037 403e 5f70 b93d 6f56 113e
00000270: 186e d5bd f430 92bd 004a 033e ecf6 61be
00000280: 10da bd3e 294a 0cbe 3c65 103d 5433 693d
00000290: cd13 a23e 956c aebd 8d2f 713e 043b cb3d
000002a0: cd99 63bd 39a7 8bbc 16b6 5a3e c020 abbd
000002b0: 2206 1fbd 6422 8fbe 4ba1 fbbd 3121 f1bd
000002c0: 32da 843e 3e73 65b9 6452 4e3d 5ddd 883d
000002d0: ab13 13be 9957 11be ec1f 75be 74cf b63d
000002e0: 973e d03e 4e17 cc3d 1a9f a23d df6a 9e3c
000002f0: bfed c0be e638 a8bd 40ef e0bb 88d9 413e
00000300: 14a4 a3be 278a b23d e8f7 4c3d 77a9 343e
00000310: 1157 8a3e a993 b03d 96d6 c5bd a217 0dbe
00000320: a76b 1bbe 785f 373e 3bb3 743d 7345 18be
00000330: 0752 b23e 35e8 573e cd53 a13d fd46 663e
00000340: cc43 163e 186a 37bd af3a ba3d 0d83 003e
00000350: 92e0 e2bd ea3d ebbc 30d5 953e daa9 7f3e
00000360: 9831 30be 45e3 3cbe 893f cdbd 26d6 093e
00000370: 8061 cf3e afda 86ba 98de 1ebe a968 29be
00000380: 90f5 a9be f2fd 91bd 7ad7 c83d 390a 53be
00000390: 2621 2a3e 0567 a73e 9549 8e3e 5ac6 683c
000003a0: ea9d 573e 00d6 0ebe 9378 cc3d 1606 193e
000003b0: adb0 a93d 8a35 273d d660 5cbe 1569 25be
000003c0: 24e3 643e 476c 51be 942e 423c 8d94 abbb
000003d0: ee0e c03d 6f91 693a 1614 cf3d 4039 cfbd
000003e0: 02cf 3b3d ee7e 1a3e 4118 09be daf4 68bd
000003f0: 30ab eb3c 9a0f 9cbe 95eb 80bb d772 8cbd
-0.05392713 0.08598119 0.08975297 -0.15170687 0.05781493 -0.17777936 0.055110406 -0.019152263
0.2665499 -0.10880015 -0.045013156 -0.028866204 -0.20912422 0.17551243 -0.20508634 -0.18647186
0.3428184 0.15306821 -0.13718796 0.0092214355 -0.30562794 -0.002195308 0.104343265 0.029464435
0.011474893 0.19440797 0.012535335 -0.18448244 0.3392828 0.06281244 -0.17609866 0.21129474
-0.08790635 -0.16016687 -0.2736208 0.15306173 0.064143136 -0.10161675 0.10997154 0.013171415
0.27509707 0.017247137 0.14179404 0.14654516 0.20656607 -0.06002375 -0.001299571 -0.071801454
-0.13386868 0.20788074 -0.21107501 -0.19261111 0.24805908 -0.26164648 -0.15278186 0.2816963
0.35812613 0.061348412 0.012405677 -0.08649981 0.17131709 0.00017862619 -0.089429185 0.16376103
0.33706567 -0.14085671 -0.10045725 -0.0028485495 0.015295589 0.29816917 -0.07906196 -0.1773297
0.34163195 0.27201432 0.27925777 0.1126311 0.1956461 0.16141254 0.21359673 0.2242725
0.26445284 -0.08695527 -0.2816641 -0.24024448 0.35771376 0.1329463 0.05673156 -0.17585234
-0.31056657 0.09377684 -0.15772088 0.07769361 0.18198192 0.264538 0.022367202 0.06193908
-0.014098626 0.0015646799 0.029379936 0.23009087 0.01793939 0.20502837 0.031695016 -0.31907552
0.24869612 -0.3077563 -0.03230378 0.012282835 0.32847846 -0.11761544 0.28076702 0.06760298
0.0228683 0.040126484 0.11436783 -0.0039047408 -0.21449298 -0.22548339 -0.033800658 -0.2215614
-0.05277623 -0.19789302 -0.029532026 -0.16903831 -0.03392695 0.043621838 0.12946647 -0.19789407
-0.3198814 -0.039074287 -0.2957327 -0.05378014 0.20307152 -0.051314566 -0.041103736 0.2220907
-0.38203132 -0.18907098 -0.22462139 0.23368374 0.24527222 0.17464425 0.1325474 -0.08144739
0.13036166 0.115611464 0.22506543 0.0015540449 -0.2537921 -0.17979766 0.06913965 0.11751723
-0.012885376 0.18770981 0.09054636 0.14193128 -0.10421389 -0.07138243 0.12821198 -0.2206685
0.3708043 -0.13700165 0.035252795 0.056933716 0.31655732 -0.08516804 0.23553295 0.09923366
-0.055566598 -0.017047511 0.21358523 -0.08355856 -0.038824208 -0.27955925 -0.122866236 -0.11773909
0.2594772 -0.00021882073 0.050371543 0.06682847 -0.14362971 -0.14193572 -0.23937958 0.08926287
0.40672752 0.099653825 0.079405025 0.01933807 -0.37681386 -0.082139775 -0.0068644583 0.18930638
-0.3196112 0.08717757 0.05004111 0.1764277 0.2701955 0.08621914 -0.0966007 -0.13778546
-0.15177785 0.17907512 0.05974124 -0.14870243 0.34828207 0.21084674 0.07877312 0.22488017
0.146743 -0.044778913 0.09093224 0.12549992 -0.1107799 -0.028716046 0.29264212 0.24967137
-0.17206419 -0.18446071 -0.10021884 0.13460597 0.40504074 -0.0010288561 -0.155146 -0.16543831
-0.33195162 -0.07128514 0.09806724 -0.20609368 0.16614208 0.32695785 0.27790514 0.014207447
0.21056333 -0.13948822 0.09983935 0.14943728 0.08285651 0.040822543 -0.21521315 -0.16153367
0.22352272 -0.20451461 0.011851925 -0.0052362145 0.093778476 0.0008909916 0.10111253 -0.101183414
0.045851715 0.15087482 -0.13388158 -0.056874134 0.028768152 -0.30480653 -0.0039343336 -0.068578415

lstm.weight_hh_l0 f4 [68, 17]
00000000: 5ae3 1e3d 398c 803e da53 863e 981a d9bd
00000010: 30d6 67bd 3f3a 243e a7e4 a13e fcc0 0abd
00000020: 4eb8 973d d652 493e 492e 2a3e 0cc6 d13d
00000030: 1cff afbe e9d3 1fbe 2a53 1e3d a583 bbbd
00000040: f515 813e 5df2 49be ae28 863e ade0 a13d
00000050: e735 73bc 7f9d 3abe 64bb 6c3e 2792 5d3e
00000060: 657d 7a3c 1ef0 383e 69d5 14bd 58bd 933e
00000070: badd 54be 2b99 e63c 00eb dc3d ed1e 493e
00000080: 58b8 563e 9afb 1abc 0b03 ac3d 6ddf ddbd
00000090: 8aae 073e a783 223e d460 a1bd d9d5 4f3e
000000a0: 9570 823d 9e46 3cbd fc49 73be 977a b0bd
000000b0: 91d6 5f3c 2ba9 0cbe ae36 493e ce15 8cbe
000000c0: 45f2 3d3e 85b1 a93d a6a3 ebbd 8b1d 5b3e
000000d0: 73d1 82be 35d4 013e 2b60 dabd 2e55 fcbd
000000e0: aa4e 323e ff3c 6d3e 834d 1e3e 8c9d 8dbb
000000f0: 5c02 753e 042a 883c 75a7 1abe 089d d2bd
00000100: 47e9 73bc abec 2dbe 641c e63d 81ff 54be
00000110: 852f 4a3e 2d5f 1abc 68d0 68be e5f4 663e
00000120: eccb 04bb dfb3 443e 5145 f1bd 163c f43d
00000130: 0c37 50be 004a a23d dfcb 1b3e 81ac 06be
00000140: 9748 f3bd 0326 65be 697d 073d a638 0a3e
00000150: 6153 3bbe aba4 ecbd 74a9 ad3d 4773 37bd
00000160: 8047 0cbd 6f63 853e 17ac 833e 3a8e 7bbe
00000170: 0a47 a03d a7df 473e 6aba a3be f63c 01be
00000180: 429b 16bd 27e4 a23d 163a 003e 86bf 8dbd
00000190: 9c4b 1a3e cad9 5fbe bf38 3abe 3057 403d
000001a0: e08c c13c 863a 693e 3790 043e 4301 853e
000001b0: 8a6f 6b3e 8ac2 16be a206 ccbb 353b e73d
000001c0: d467 4f3c fc07 37be 0c79 a9bc 08e9 a0be
000001d0: 3de7 513d 82c4 21bc 06ae 8c3e ad64 61be
000001e0: 2200 2b3e 47de 033e 7b9a 8abd 48d0 b93c
000001f0: 25e0 13be 6fc8 383c e763 143d 0860 79be
00000200: 0c5d f13d 4135 3e3e 779c 593e 4aa3 75be
00000210: 1d0e 99be f6d9 c13d 1d8b 28bd df86 92bc
00000220: b87f d73d 8b04 fb3d 4bb2 a03c 2869 7fbd
00000230: 4547 403e 1d70 0cbe b75e 933d be12 033e
00000240: 8f5e 85bb 868d 9d3d b324 47be 9e61 ccbd
00000250: 8b5e e13d a5cb 9fbe 63db 5cbe 3b91 35be
00000260: 457c 03be 8de3 78bd cfe3 62be 3e5c 31be
00000270: 313b 6a3e e6a1 a1be 701e 3dbe 0944 0cbe
00000280: c571 4d3e 1bba b2bc 0095 0c3e af39 113e
00000290: 5994 573e a5dd 8abe 8d67 43be 6e55 203b
000002a0: 0ebe 4b3e c4c2 283e f1e2 3bbe 14a7 c1bc
000002b0: e02f 0a3e 12bb 3b3e 9d48 013e 8579 723e
000002c0: 3a97 8dbd c036 2c3e a61f 6dbe c633 1e3e
000002d0: 528b 20bd 9432 bb3d f176 1f3e 6adc 283c
000002e0: 4dc8 423e 2f94 c5bd dc81 763e d774 42bd
000002f0: cd5d 633e ce2a 2ebe a166 f1bd 6923 a0be
00000300: 1ba1 5cbe 4703 a73e 98aa d3bd 0e91 03be
00000310: f538 bfbd a9f1 08be 894b 453e 504c 2ebd
00000320: 667a ad3b ba7c 8c3c e0ce 7f3c dc2b febd
00000330: d9d7 9ebb 48af 2f3d 4b20 153d 3538 5a3e
00000340: 1fc8 cc3d 5518 4a3e 580d 2fbe 0352 3cbe
00000350: 7856 d13d 02dd 9a3e 894a 41bd 0c77 dfbd
00000360: 088d 883d eea9 643d 99cc 1fbe 9068 6abe
00000370: bde5 3e3e e1e7 a2bd cce2 843e 9093 9c3d
00000380: d4d8 8a3e 6e21 f3bd 1534 1fbc 20c9 a23e
00000390: edad 8e3e 845d 45be cbd0 4c3e 08c8 7b3e
000003a0: bb9e 8c3e 9d99 bb3d b56d 80bd 9f5d 613c
000003b0: 5931 2abe 409a 82be 2922 db3c a823 0d3e
000003c0: b982 e93d 108c ffbd fb72 083e 5bab 443e
000003d0: 90ab 12be 897f 783e da86 52be 2f79 6fbb
000003e0: 0491 9abd 4d7c d9bd d51d 763e 3ec0 b53c
000003f0: 042d 11be de94 943d cf02 0a3e f6f3 8abe
0.038791038 0.2510698 0.2623585 -0.106007755 -0.05660075 0.16037844 0.3161976 -0.03387545
0.074082 0.19660506 0.16619219 0.102428526 -0.3437432 -0.15608181 0.03865353 -0.091559686
0.25212064 -0.1972136 0.2620291 0.07904182 -0.014844394 -0.18224142 0.23118359 0.21637784
0.015288685 0.18060347 -0.036336336 0.28855395 -0.20787707 0.028149208 0.1078701 0.19640703
0.20968759 -0.009459401 0.08399018 -0.10833631 0.13250175 0.15870534 -0.078797966 0.2029642
0.063691296 -0.045965783 -0.23758692 -0.08617132 0.013661996 -0.13736407 0.19649765 -0.27360386
0.1854945 0.08285812 -0.11505823 0.21397988 -0.25550422 0.12678607 -0.10662874 -0.12320934
0.1741282 0.231678 0.15459256 -0.0043217596 0.23926681 0.016621597 -0.15102942 -0.102838576
-0.014887161 -0.16984813 0.11235884 -0.20800592 0.1974469 -0.009422106 -0.2273575 0.22554357
-0.0020263148 0.1920924 -0.11780799 0.11925523 -0.20333499 0.07924271 0.1521449 -0.13151743
-0.1187908 -0.22377782 0.033078585 0.13498172 -0.18293525 -0.115548454 0.08479586 -0.04478767
-0.034247875 0.26052424 0.25717232 -0.24565974 0.078260496 0.1951891 -0.3197816 -0.12620911
-0.03676916 0.07953673 0.12522158 -0.06921296 0.15067905 -0.21860424 -0.1818571 0.04695815
0.023626745 0.22776231 0.12945639 0.25977525 0.22991768 -0.14722648 -0.0062263766 0.1129059
0.012659032 -0.1787414 -0.020687602 -0.3142779 0.051245917 -0.009873511 0.2747652 -0.22011061
0.1669927 0.12877761 -0.06767746 0.022682324 -0.14440973 0.011278256 0.036228087 -0.2435304
0.117853254 0.18575002 0.21251093 -0.23988071 -0.2989358 0.09465401 -0.041148294 -0.017886577
0.10522407 0.12256726 0.019616267 -0.062356144 0.18777187 -0.13714643 0.071958 0.12800118
-0.00407011 0.07693009 -0.19447593 -0.099795565 0.11004361 -0.31210056 -0.21568064 -0.17731182
-0.12840374 -0.060763884 -0.22157215 -0.17320344 0.22874142 -0.3156883 -0.18468642 -0.13697828
0.20062931 -0.021817258 0.13728714 0.14182161 0.21052684 -0.27122226 -0.1908247 0.0024464983
0.19896719 0.16480547 -0.1834829 -0.02363924 0.13494825 0.1833308 0.12625356 0.23679169
-0.0691361 0.1681776 -0.23156604 0.15449437 -0.039195366 0.091405064 0.15572716 0.010306457
0.19021721 -0.096474044 0.24072975 -0.04747471 0.22203751 -0.17008516 -0.11787153 -0.31277016
-0.21545832 0.32619688 -0.103352726 -0.12848303 -0.093370356 -0.13373436 0.19267096 -0.042553246
0.005294132 0.017149318 0.015613288 -0.12410709 -0.0048475084 0.04289177 0.03640775 0.21310504
0.099991076 0.19735844 -0.17094934 -0.1839066 0.10221571 0.3024674 -0.047190223 -0.10911378
0.066675246 0.05582612 -0.15605392 -0.2289145 0.18642326 -0.07954384 0.25954282 0.07645333
0.27118552 -0.118716106 -0.009717007 0.3179407 0.2786707 -0.19273955 0.20001523 0.24588025
0.27464852 0.09160159 -0.06270925 0.013755231 -0.16620387 -0.25508308 0.026749687 0.13783133
0.114018865 -0.12477887 0.13325112 0.19205992 -0.14323258 0.24267401 -0.20559254 -0.0036540737
-0.07547191 -0.106194116 0.24034818 0.022186395 -0.14177328 0.07254957 0.13477634 -0.27139252

lstm.bias_ih_l0 f4 [68]
00000000: 91b8 13bd 57c1 f8bd 2683 2c3d 4fc2 283e
00000010: 08e6 bebd c560 90be da7f cebd 9351 5c3e
00000020: efc0 71bd 0c46 593d bb78 b93c 6be1 293e
00000030: 6bb1 583e 2a58 ea3d d37e 2f3d 67b0 a43d
00000040: 5a53 313e d64d 553e 84e7 0d3e 2412 123e
00000050: ff3c a63d 49a6 c9bd 84d7 0abe 2652 3ebe
00000060: cce2 923d dfd4 9d3d 433a 403e a122 563e
00000070: ff36 983c 23b5 943e 7a4f 2b3e 28fc a9bd
00000080: 8103 2a3c afa1 45be e9ef 0ebe c8ff 023e
00000090: 5151 663e 436d 343e c623 96be a5d2 253d
000000a0: cc17 0abe bb7e efbd 763b e7bd c9cb 7b3e
000000b0: 481b 0b3e cb3f 0d3e 1818 15be f66e 0abe
000000c0: 5ce4 533e 15e0 abbd 3c3a b93d 6bca 013e
000000d0: 3eca 8c3e 82c7 90bc c031 fabd d249 4e3e
000000e0: 37d3 923d 778b 3bbd bc36 89bd 3013 62be
000000f0: 0633 603e 703e 1cbe 86f1 10be 2206 0cbe
00000100: 6d61 8a3d 6a49 3f3d 2bd5 063e 6547 843e
-0.036064688 -0.12146252 0.04211726 0.16480373 -0.09321219 -0.2819883 -0.100829795 0.21515493
-0.059021886 0.053045318 0.022640577 0.16589896 0.2116143 0.11442597 0.04284556 0.080414586
0.17316952 0.20830473 0.13857847 0.14264733 0.08117103 -0.098461695 -0.13558775 -0.18586025
0.07172164 0.077066176 0.18772225 0.20911647 0.018580912 0.29044446 0.16729537 -0.08300048
0.010376812 -0.19299959 -0.13958706 0.12792885 0.22491957 0.17619805 -0.29324168 0.04048409
-0.1348564 -0.11694094 -0.11290638 0.24589457 0.13584626 0.13793866 -0.14559972 -0.1351889
0.20692581 -0.0839235 0.090443105 0.12674873 0.2749805 -0.017673258 -0.1221652 0.20145348
0.07169192 -0.0457873 -0.06699893 -0.22077632 0.21894464 -0.15258193 -0.14154634 -0.13674214
0.06756864 0.046700872 0.13167255 0.2583572

lstm.bias_hh_l0 f4 [68]
00000000: ef10 3e3e 6328 063c 130e d0bc b548 1a3e
00000010: ad36 29be 2207 eabd 635f 03be 7236 f33d
00000020: 7e8a 2bbe 0a34 33bd 6f0c 483e 69c5 423e
00000030: 98de 863e 9046 473c 0af1 413e 719f 2d3c
00000040: 001c 7b3e 16f5 b33d 0b7b 263e 94fc 29bd
00000050: 43c7 533d 2bf0 eabd 830e 24be 1693 5c3e
00000060: 60e5 783d 39d2 3b3e d834 1e3c 6ab6 063d
00000070: 060f 6c3e e638 b03d 4cb2 4dbe 8791 27be
00000080: 0771 883b 291b f23c 14ef d3bd 2caa 58bd
00000090: 0321 9ebc 1390 81bd faaf 97be 4da3 35bd
000000a0: 18f2 273d 4c73 d1bd eade cabd 91c0 db3d
000000b0: 52e8 693e 69c9 c9bd b182 80bd 494d 4e3e
000000c0: 1f2c f3bd 1a08 67be 3a69 783d 8dc6 1dbe
000000d0: dfcc ed3d 0377 f03d 910a 313e 6f37 f2bd
000000e0: aaf4 0a3e fe14 793e 026f a33d c66d 553e
000000f0: 909e ad3c 5a0b 4c3e af12 8f3e db33 cbbd
00000100: fc2c 943d 78d2 513e e6b8 063e a9fc 93bd
0.18561147 0.00818834 -0.025397336 0.15066798 -0.16524763 -0.11427142 -0.12829356 0.11875619
-0.1675205 -0.0437508 0.19535993 0.19020618 0.263417 0.0121628195 0.18939605 0.010597096
0.245224 0.08786981 0.16257875 -0.041500643 0.051703703 -0.1147159 -0.16021161 0.21540484
0.060765624 0.18341912 0.009656154 0.032888807 0.23052606 0.086046025 -0.20087546 -0.16364108
0.0041638645 0.029553967 -0.10348335 -0.052896664 -0.01930285 -0.06326308 -0.29626447 -0.04434519
0.041002363 -0.10227069 -0.09905799 0.107300885 0.2284253 -0.09852869 -0.062749274 0.2014667
-0.1187365 -0.22561684 0.060647227 -0.15407772 0.11611342 0.1174145 0.17289187 -0.11826979
0.13569894 0.24324414 0.079801574 0.20842656 0.021193773 0.19926205 0.27943942 -0.09922
0.072351426 0.20490444 0.1315647 -0.072259255

lstm.weight_ih_l1 f4 [68, 17]
00000000: 0d40 97be 7671 2b3e 9f4c 083d c860 3fbe
00000010: 289f e43d ddfc 6b3e c81a b2bb cd37 e9bc
00000020: a9b3 5bbe dec0 4b3e e342 3bbc 30dd 3fbe
00000030: deed 773e 076a babd 12ed 253e 77a1 2ebd
00000040: 202c 3f3e a3c8 65be ec58 07bc b817 e23b
00000050: 958d 34be 3ef9 8e3d 7f81 d93d ec5a c8bc
00000060: ae3a b5bd ef2f fbbd 8902 433e 5512 e2bc
00000070: 2513 103e 0e21 e6bd fd96 16be e3ff 353e
00000080: 0e15 163e a485 b2bc bb98 a7be 1d62 8c3e
00000090: 3b21 913b c720 b33d 266d 61be e8d6 853e
000000a0: 1548 b63d 9549 833e 6f41 8cbd da9b 16be
000000b0: 1c28 1ebe 0345 2cbd afd6 f6bd cd0a 97be
000000c0: 953c bb3c ff7d 05bd 8692 453b d953 98be
000000d0: e399 92bc a34a edbd b813 44bd 8ecf 2bbe
000000e0: eae1 323d e721 db3c 946f 6dbe 5b00 fb3d
000000f0: f307 90bd 18ff 583e 820e 7f3d b51f 883d
00000100: 0c01 80be a337 6fbd 5588 41be 8608 aabd
00000110: a7d3 82be a075 793d 7f64 1d3e 6971 46be
00000120: 6103 5dbe c513 5c3e 31d5 6cbd 873e a23c
00000130: 4b87 76be 90db 183e 85c1 663e a51b 433e
00000140: 2458 dd3c de15 3abb 07d8 28be 928e a1bb
00000150: 7790 cdbd c723 19be c854 acbd 6090 713e
00000160: e31c 8e3d c173 9b3d 8946 92bd 65c8 c9bd
00000170: 98d2 2f3e b801 2b3e 6a4e e73d b8b5 bb3c
00000180: 5798 b1bd 1603 b53d 6ebb 8fbe cdc3 4cbe
00000190: f830 533d 3e2a 583e a37b 05be 6b88 393e
000001a0: dbd1 643e f772 7ebd 3286 dd3c 6192 183e
000001b0: a18f a5bd 8016 b23d 2b6a 54be 920c b4bd
000001c0: 7864 683e 2b19 663d fdd0 babd 193a d93d
000001d0: 8d30 13be d161 983d 0c51 313e bafc debd
000001e0: 881e c1bd 6c06 633e 23b7 9a3e d3ab b2bd
000001f0: 8ec9 a43e 1dde 65bd 9258 91be f3eb cfbc
00000200: 9ec2 083e 1ec5 073e 3b99 663e 5858 bdbe
00000210: 9da7 7fbd 9bce e33d 9f10 e63d 1802 9abc
00000220: 59f3 b9bc c31f bf3d 1c9d b9bd de1f 94bd
00000230: 9b1d db3d 5f19 363e 5744 bbbd ec22 953e
00000240: 8fd2 7bba 50d9 993e f71b 2c3e 686e 3d3e
00000250: face 19be ab79 74be 2299 12be 26d3 20be
00000260: f389 99bd c69e 84be 6040 43bd fc6f 883c
00000270: 55cd d53d e40b 903c d15b 3cbe bb08 1f3e
00000280: da73 bc3e d567 d2bb b3dd c93d 5ba7 683e
00000290: 8104 ef3d fe0f dd3d a6b5 a63c 9060 c8be
000002a0: b7ee 813d 87da c6bd 0a70 fbbd 7377 00be
000002b0: af07 ebbc 6676 f93d c1fe b7be e398 9dbd
000002c0: 4499 823d bbc3 113d ecc8 8fbe b857 b53e
000002d0: 84ee 06bd 7acb 8d3e edd6 17be 5da8 b7be
000002e0: 5bbe 19be c477 373e 7669 77be 999f 753d
000002f0: 54f3 913e d4b7 693e b644 253e 3081 d83c
00000300: ff69 a9bd 8faa 14bd f1dc 31be 7539 59be
00000310: a962 7abe 9770 343e 955b 14be 8f37 fcbd
00000320: 23e4 2fbd 0a6c 073d cdb2 723d c1b3 623e
00000330: 8f97 30bd d4d8 933e 69fd 893e 0a4e f13d
00000340: 0f2f 81bd 1903 af3e 9c05 6e3a fe7d eb3c
00000350: 305a 8cbd 422a 9abd b83b dc3d 39c8 0d3e
00000360: b42d 1f3e 0e7d 84bc dd22 3b3d fcef 8b3d
00000370: 7548 d53d adf1 3f3e fb7f 32be 6bf7 703e
00000380: 80b3 d5bc dd25 753d a618 f33d 410c 923c
00000390: 35f7 853e e271 153e e118 423e 894d ccbd
000003a0: c8a7 93bb 4aec 68bd b7b6 87be 4ad7 80be
000003b0: bcbd 193e 1584 1cbe fe6e ea3d a025 d7bd
000003c0: 9890 9f3d 3b81 fa3d 9ad1 a5bd 38a9 593e
000003d0: b756 e0bd 00f2 00bd 5447 d5bc 5a11 a93d
000003e0: 3259 a8bd 7d64 9cbe 413b ce3d d04d d8bd
000003f0: 0499 ff3d 8a5a 5b3e 4378 483e 9e1c bebe
-0.29541054 0.167425 0.033276197 -0.18689263 0.11163169 0.23045678 -0.0054353215 -0.02846899
-0.21455254 0.19897792 -0.011429521 -0.1873672 0.24211833 -0.09102254 0.16203716 -0.042634454
0.18669176 -0.22439818 -0.008260947 0.0068998 -0.17632134 0.06981133 0.106204025 -0.024457417
-0.08849083 -0.12265002 0.19043936 -0.027596632 0.14069803 -0.112367734 -0.14706035 0.17773394
0.14656469 -0.02179224 -0.32733712 0.27418604 0.00442901 0.08746486 -0.22014293 0.26140523
0.08900467 0.25642076 -0.06848418 -0.1470789 -0.15444988 -0.042058002 -0.120526664 -0.29500428
0.022856036 -0.032590862 0.003014715 -0.2975147 -0.017895645 -0.115865014 -0.047870368 -0.16778395
0.04367248 0.026749564 -0.23187095 0.12255927 -0.07032766 0.2119106 0.062269695 0.06646673
-0.250008 -0.05840267 -0.18899663 -0.08302407 -0.25552103 0.06090319 0.15370367 -0.193792
-0.2158332 0.21491916 -0.057820503 0.019805206 -0.24075048 0.14927506 0.2253476 0.19053514
0.027019568 -0.0028394382 -0.16488658 -0.004930326 -0.1003732 -0.14955054 -0.08414608 0.23590231
0.069391035 0.07590438 -0.0714236 -0.09852675 0.17170179 0.16699874 0.11294253 0.022913799
-0.08671635 0.08838479 -0.28072685 -0.19996567 0.051560372 0.21109864 -0.13035445 0.18118446
0.22345679 -0.062121358 0.027041528 0.14899589 -0.08084036 0.08695698 -0.20743625 -0.0879146
0.22694576 0.056176346 -0.091218926 0.106067844 -0.1437399 0.07440532 0.17316073 -0.108880475
-0.094296515 0.22170419 0.30217847 -0.08724179 0.32185024 -0.056120027 -0.28387886 -0.025381064
0.1335549 0.13258788 0.2251939 -0.36981463 -0.062415708 0.11123391 0.11233639 -0.018799827
-0.022699045 0.0933223 -0.09063169 -0.07232641 0.10699006 0.17783116 -0.09143894 0.29128206
-0.0009606266 0.3004861 0.16807543 0.18499148 -0.15020362 -0.23874538 -0.14316228 -0.15705547
-0.07497015 -0.25902385 -0.047668815 0.01665496 0.104395546 0.017583795 -0.183944 0.15530674
0.36807138 -0.006421069 0.09856739 0.22720091 0.11670781 0.10794066 0.020350289 -0.3913617
0.06344359 -0.097096495 -0.12277229 -0.12545566 -0.028690187 0.12180786 -0.3593655 -0.076951765
0.06376889 0.035587054 -0.2808298 0.35418487 -0.03294231 0.27694303 -0.14828081 -0.35870638
-0.15014021 0.1791678 -0.24161324 0.059966657 0.28505957 0.22824031 0.16139492 0.026428789
-0.0827217 -0.03629547 -0.17369439 -0.21213324 -0.24451698 0.17621075 -0.14488061 -0.123152845
-0.042942178 0.03306202 0.05925255 0.22138883 -0.043113288 0.28876364 0.2695115 0.11782463
-0.06307804 0.3418205 0.00090798154 0.028746601 -0.068531394 -0.07527591 0.10753578 0.1384591
0.15544778 -0.016172912 0.045687545 0.06832883 0.10414211 0.18744536 -0.17431633 0.23531882
-0.026086569 0.059850562 0.11869936 0.017828109 0.26165166 0.14594224 0.18954803 -0.09975726
-0.004506085 -0.056865968 -0.26506588 -0.25164253 0.15013784 -0.1528476 0.11446951 -0.10505223
0.07791251 0.1223168 -0.08096619 0.21255958 -0.109540395 -0.03148079 -0.026034988 0.08255263
-0.08220138 -0.30545416 0.100698955 -0.105617166 0.12480357 0.21421257 0.19577126 -0.37131208

lstm.weight_hh_l1 f4 [68, 17]
00000000: b2e2 7fbd fed6 7bbd 07bd f23d 04ac 84bd
00000010: 9739 d5bd c00e 22be a995 473e 960a a9bd
00000020: 5843 9c3e a8d0 1fbe 2c6d 2f3d 161b 27be
00000030: 285a dd3c 8bfd c9bd e23e e23d 32d7 52be
00000040: c174 dbbc dcd9 0bbe 37ca 6dbe 23f6 85be
00000050: 2db9 29be 2ed4 8cbc 09ae aabd 03e2 7a3d
00000060: ac40 733e 7b14 f23d 182d 553e 7db6 663d
00000070: 84b1 92be 129f 92be 0f64 e7bd 24cc 84bc
00000080: bd39 b63d 259a 043d 0c8b 07be 9ed1 0f3e
00000090: 6baa 92be c646 af3d fbd0 a2bd aedb 4dbe
000000a0: de4c 603e b1a2 443d 6110 dabc f883 f63d
000000b0: 5216 ba3d 614b 5bbd 1f8e 22bc 439d 50be
000000c0: c3a4 8d3d 104d ab3d df80 47bc 68d2 acbc
000000d0: ab7b 89be 3395 97be ae0f 593e 0e5e 9fbd
000000e0: ce67 b43c 4ebc 13be dfab 7c3e 9d6e 5f3e
000000f0: 5afc 2ebd 2258 54be f161 e0bd fe4c bcbd
00000100: 33cc 73be 4b81 923d df20 58be 15f8 723e
00000110: 1e29 c43c e85d 0d3e 85ed 11be 9424 d6bd
00000120: 1dcf 17be 73f2 c43c 5d9f 093e 7dbd ca3c
00000130: 6cb5 763e 19f8 5f3e 18ae d2bd c9b3 0c3e
00000140: 3862 683e ccfb 35be 90ec b1bc c0cb 163e
00000150: 4a49 a23d 7e99 15be 58bd b3bd 6100 ab3d
00000160: aedd 703d 06bf 8e3e af28 98bd 6c91 c33b
00000170: 9e40 083e 64e5 473e 10ff f4bc 0635 b0bd
00000180: 13d0 c8bd 6d86 e83d 8edf 6dbd d5ef 6cbd
00000190: dbe7 2d3d 6b3c e7bd 4f0e 5fbe 77ad 36be
000001a0: fcb9 2cbe bb32 ce3d a63e 5b3e e6b5 5bbe
000001b0: 47ad a5bc 152b 403e 3b8c 3f3e b46c 7d39
000001c0: 0f86 f2bd e0ca 82be f223 adbd cd1b 8dbd
000001d0: f9d2 13be 5649 973d c0db 7a3e c67b e7bc
000001e0: 6a4e 19be 263e ff3b ffe1 39be 4d89 533b
000001f0: 8c1e 313d 0f26 94bc d71f 9b3d 9f97 ad3e
00000200: 6894 8fbd b3d4 b93d c111 1a3d d604 03bd
00000210: fb86 85bd 4f00 07be c3b4 81be 2e12 c2bd
00000220: d583 b8bd 14eb 593d 3759 893e 8584 823e
00000230: 0b84 e9bd e55e 64be 4b72 683d 819d 853e
00000240: 0842 193e 1cce 813d d3bd 1f3d 1bfe 5c3e
00000250: fc58 073e 4d00 50be 64f9 3dbe 3a17 b4bd
00000260: c47a d03d 949a 9dbd 8af7 ab3d ebc5 25be
00000270: 62e8 d13c d2f8 eb3d 2b28 46be fff9 5cbe
00000280: 0ad2 5abe 5afd b2bd db10 66be 05ae 87bc
00000290: 12b1 0c3e 9b8d cd3d 186c b3bc 20fb 0f3e
000002a0: c431 28bd 042f 2b3e 6eb0 f53d 93bc 8abc
000002b0: 57ca 1bbe 5ba4 193d 8b93 14be 8027 c1bd
000002c0: 3575 ac3d d11c 743e 6478 023d 96dc a33e
000002d0: 87e6 58be ed2c 6e3d 2ce3 a93e 12e5 a0be
000002e0: 0b22 9f3d bd4b c03d f572 14bd 4247 3abd
000002f0: 2956 263e 0ad6 c83c 5c49 1fbd ca6e d5bd
00000300: 2d28 753d d1a1 5fbe 7fad f1bc 0ed5 70bd
00000310: 5bb1 19be 0c45 983c 6750 e9bd a29b 16be
00000320: d268 49be e147 10be 4bb0 2bbd feef c13d
00000330: 7143 203e 0db5 69bd f14f 51be f7f2 9b3c
00000340: 6cac d33c 41ef c03d 4e27 0c3e a051 0a3e
00000350: 9516 303e f58d 973c a4d0 82b9 dd9f 8fbe
00000360: 8774 e3bd 2b45 8fbe ed10 133d 0298 adbd
00000370: 3a39 ac3e fa77 8b3e 8c51 e63c 9b0b 61be
00000380: 2ce7 293e 3565 9abe b9fb d3bd c61a 58be
00000390: 2cd7 e5bd c24e dfbd 4ae8 1bbe c2c6 3f3e
000003a0: 651e 403e f13c 4e3e 8015 6c3d 9fb6 df3d
000003b0: bee6 b1be f850 9a3d 4ecc 303e ac94 32be
000003c0: 16be 91be 4acd 38be 2ac5 c4bd b13f 253d
000003d0: 3c8d 28bc 0018 76bd 5b7d 1c3d 1641 663d
000003e0: 8375 9abe c985 5bbe ecdf 21be 0003 ed3d
000003f0: 9db1 54bd dc15 6bbe 468d ef3a 559d a83e
-0.062472053 -0.06148433 0.1185246 -0.06478122 -0.10411375 -0.15825939 0.19490685 -0.08253972
0.3052013 -0.1560694 0.042828724 -0.16318926 0.027020529 -0.098628126 0.1104715 -0.20589903
-0.026789071 -0.13657326 -0.2322167 -0.2616435 -0.16574545 -0.017191019 -0.08333976 0.061250698
0.23755139 0.118203126 0.20817983 0.056326378 -0.2865106 -0.28636986 -0.112983815 -0.016210623
0.088977315 0.032373566 -0.13236636 0.14044806 -0.28645644 0.08558421 -0.07950016 -0.20103332
0.21904323 0.048006717 -0.026619138 0.1203689 0.090862885 -0.053538684 -0.00992158 -0.2037249
0.069161914 0.08364308 -0.012176721 -0.021096423 -0.26852164 -0.29606017 0.21197388 -0.077816114
0.022022154 -0.14427301 0.24674939 0.2181954 -0.04272113 -0.20736745 -0.10956181 -0.091943726
-0.23808365 0.07153567 -0.2110629 0.23727448 0.023945387 0.13805354 -0.14250763 -0.104561955
-0.14825101 0.02404139 0.13439699 0.024748558 0.24092644 0.21871985 -0.10287112 0.13740458
0.22693717 -0.17771834 -0.021719247 0.14726162 0.07924135 -0.14609334 -0.08776349 0.08349682
0.05880516 0.27880114 -0.07429635 0.0059682634 0.133059 0.195211 -0.02990678 -0.086038634
-0.09805312 0.11353765 -0.058074526 -0.05784591 0.042457443 -0.11290821 -0.21782802 -0.17839609
-0.16867822 0.1006827 0.21410617 -0.21456107 -0.020224227 0.18766434 0.18705837 0.00024168455
-0.11841976 -0.25545406 -0.08454122 -0.06890068 -0.14435948 0.073870346 0.2449789 -0.028257262
-0.14971319 0.007789391 -0.18152617 0.0032277883 0.043242022 -0.018084554 0.07574432 0.3390474
-0.07010728 0.09073772 0.037614588 -0.031987034 -0.06519886 -0.13183711 -0.25333223 -0.09476124
-0.0900952 0.053202704 0.26825878 0.2549173 -0.11402138 -0.22301824 0.056749623 0.26096728
0.14966595 0.0633814 0.03899939 0.21581309 0.13217539 -0.20312615 -0.18552166 -0.087934926
0.10179666 -0.07695499 0.08396824 -0.16188781 0.025623504 0.11522068 -0.1935126 -0.21579741
-0.21369186 -0.08739729 -0.22467367 -0.016562471 0.13739422 0.10036775 -0.021902129 0.1406064
-0.041063085 0.16717154 0.11996542 -0.016935622 -0.15213905 0.037510257 -0.14509408 -0.09431362
0.08420793 0.23839118 0.031853095 0.3200423 -0.21181689 0.058148313 0.3318113 -0.31424767
0.07770165 0.09389446 -0.036242444 -0.045478113 0.16243805 0.024516124 -0.03888832 -0.10421522
0.059852768 -0.21839072 -0.029501675 -0.058796935 -0.15009062 0.018587612 -0.11392289 -0.14707807
-0.19668892 -0.1408992 -0.041916173 0.09469603 0.15650727 -0.05705743 -0.20440651 0.019036753
0.025839053 0.09420634 0.13686869 0.135077 0.17196114 0.018500308 -0.00024950982 -0.28051654
-0.1110621 -0.27982458 0.035904814 -0.08476259 0.3363741 0.27239972 0.028115056 -0.21977083
0.16592091 -0.3015534 -0.10350747 -0.21103963 -0.112226814 -0.10903694 -0.1522533 0.18728164
0.18761595 0.20140435 0.05763769 0.10923504 -0.34746355 0.07534975 0.17265436 -0.17439526
-0.28465337 -0.18047062 -0.096079186 0.040343944 -0.010287579 -0.060081482 0.038205486 0.056214415
-0.3016778 -0.21437754 -0.15808076 0.11572838 -0.051927198 -0.22957557 0.0018276356 0.32932535

lstm.bias_ih_l1 f4 [68]
00000000: 552d dabd 6e36 17be 7a0b 74bd 0511 df3b
00000010: 126f 9f3d 8d0d 02bd d47c 293e 235b a03c
00000020: d89f 32bc 73ff f93c d832 cc3d 4d6c 2c3e
00000030: a7a1 753c a5bc b73d 55d9 513e 5feb 8d3e
00000040: 90eb 4f3d 83fc 06be 89a2 713e 464c 29bd
00000050: ee91 1c3e b684 643e e803 24bc 0e17 0f3e
00000060: 6a19 aa3d ece0 f2bc 0b84 f8bd fc52 f6bb
00000070: ef9f 793e 826c bbbc 0cac 1abe 7154 27be
00000080: 7532 4abd 3215 9c3d eafd 6b3d c6cf a5bd
00000090: 3e77 7d3d 7577 73bd 6925 c1bd 9fe3 16be
000000a0: 4f50 b63d 95f0 c3bc 85b0 973e 12f0 863e
000000b0: 6e48 75be 9787 8abe 1caf 26be 7032 75be
000000c0: ed4b 39be 62dd 56be a867 f33d a8b0 af3d
000000d0: 9cc0 39ba 2afd 553e 7efb 09bd 3089 2c3e
000000e0: c884 5ebe b96a 9d3e 7b67 743e 6888 0c3e
000000f0: 0de5 d9bc ca16 34bd b7cd cb3d 0a3a 933d
00000100: 8e0e 173c e7fe 48be 2f1a 873e bc5c 773e
-0.10653178 -0.14766857 -0.059581257 0.006807449 0.07784857 -0.031751204 0.16551524 0.019574707
-0.0109023675 0.030517315 0.09970635 0.16838188 0.014992154 0.08971528 0.20493062 0.27718636
0.05076176 -0.13182263 0.23597158 -0.041332506 0.15290043 0.2231625 -0.010010697 0.13973638
0.083056286 -0.029648267 -0.1213456 -0.0075172167 0.24377416 -0.022878889 -0.15104693 -0.16340806
-0.049364526 0.0762123 0.0576152 -0.0809627 0.061881296 -0.059440095 -0.094309635 -0.14735268
0.089020364 -0.02391843 0.2962686 0.26355034 -0.23953411 -0.27056572 -0.16277736 -0.23945022
-0.1809537 -0.20982888 0.11885005 0.085786164 -0.0007085891 0.20897356 -0.033687107 0.16849208
-0.2173034 0.30745485 0.238676 0.1372391 -0.026598478 -0.043967046 0.09951346 0.071888044
0.009219779 -0.19628488 0.26387164 0.24156469

lstm.bias_hh_l1 f4 [68]
00000000: c92e 80bd db63 2bbe 7c9f 0dbd 37df 833e
00000010: f4b6 333e 5f52 3abe c7c6 0d3e dfa5 4fbd
00000020: ad1c 4d3d eaf5 21be e821 853e bb2f b93b
00000030: aef0 3b3d 42e1 d6bc ba62 4bbe 74e6 f3bc
00000040: 2ac4 09bd a7a8 a0bb 22de 56ba de0e 8d3e
00000050: 2cb2 973e 42f3 033e 4f25 403d 5198 aebd
00000060: 4c43 d73d 00eb 613d 83df 113e 44ab 723e
00000070: f33e 11bd ba88 b9bd a007 023e 699c 693e
00000080: a265 363e 64bc 893e 8cb0 78be 8735 b6bd
00000090: 3eff 46be a07b ad3d ffa0 b83d 2628 c4bd
000000a0: 8ba3 e0bd 8be3 803e 990d a13e e0f1 aabd
000000b0: 055b 993d 7101 dd3d 0f8e 693e 48d6 b0bd
000000c0: 451d 4fbe a2bd 253e 2251 743d de3a 393e
000000d0: 46f4 603e 41c7 b1bd e3ac 8bbd 5527 3a3e
000000e0: 1d20 f4bd 0042 4f3e d284 a73e 2484 27bd
000000f0: 5b36 d13d aacf a43d b538 1abe 092a 1b3e
00000100: 3d35 5b3e bb6a 0fbe 2505 683e 3553 933e
-0.062589236 -0.1673731 -0.034575924 0.25756237 0.1755026 -0.18195485 0.13845359 -0.050695296
0.050076175 -0.15816465 0.2600243 0.005651442 0.045883827 -0.026230458 -0.1986188 -0.029772975
-0.033634342 -0.0049029174 -0.00081965525 0.27550405 0.29628122 0.12885764 0.04691058 -0.08525146
0.10510883 0.055155754 0.14245419 0.23698145 -0.035460424 -0.09059282 0.12698221 0.22813572
0.17812207 0.26901543 -0.24286097 -0.08896928 -0.19433305 0.08470845 0.090150826 -0.0957797
-0.10968693 0.25173602 0.31455687 -0.08346915 0.07488064 0.107912906 0.22808097 -0.08634621
-0.20226009 0.1618562 0.059647687 0.18088862 0.21968183 -0.08680583 -0.06820085 0.18179066
-0.119201876 0.20240021 0.3271852 -0.040897503 0.102154456 0.08047421 -0.15060695 0.15152754
0.21407028 -0.14005558 0.22658212 0.2877442

linear.model.0.weight f4 [2, 17]
00000000: c2b7 8dbe 3ef4 7f3e aa8b 56be 8e2e 0c3e
00000010: d8d3 4cbd 6099 4f3e d348 683e eb3b adbe
00000020: cb45 9b3d 0cf6 383e 5b77 b9be 470f 213d
00000030: b1ad 603e ac45 97be 540c 47bc e28f e0be
00000040: f812 933e ebc6 003e 0590 dbbd aee3 36be
00000050: 6f11 42be 337d 403e 63b5 49be 0664 ab3e
00000060: ea46 303b c834 afbd cc63 f1bd ff07 ec3d
00000070: f888 513e fc75 50be a136 4e3e 7d29 f9bd
00000080: 1452 05be 6244 4d3e
-0.2767926 0.24995515 -0.20951715 0.13689634 -0.050006717 0.20273352 0.2268403 -0.33834776
0.07581671 0.1806261 -0.36223873 0.03932121 0.21941258 -0.29545343 -0.012148935 -0.43859774
0.2872541 0.12575881 -0.10720829 -0.1786029 -0.18951963 0.1879776 -0.196981 0.3347475
0.0026897737 -0.08554989 -0.11786613 0.11524963 0.20462406 -0.20357507 0.20138027 -0.121661164
-0.13019592 0.20045617

linear.model.0.bias f4 [2]
00000000: 41f8 39bd 5d9f d43d
-0.04540277 0.10381959
