examples/2_streamflow_isotope_simulation/results/20241125_101506_612553/loss_c60a7_00005_5_batch_size=8,hidden_size=17,learning_rate=0.0020,n_epochs=251,num_layers=2_2024-11-25_10-15-11/checkpoint_000008/model.pt (torch, 19740 bytes, 10 tensors)

lstm.weight_ih_l0 f4 [68, 4]
00000000: 1617 dabc 9d51 a73d e450 a63d 509f 1ebe
00000010: 79da ae3d fd99 37be 95d6 5a3d dd88 16bd
00000020: ee2a 923e 2c0a e1bd 1099 3fbd f46c e1bc
00000030: 8f49 4dbe 0ad0 353e dc48 4bbe b3e8 47be
00000040: 5f35 ba3e 9b5d 253e ebc3 01be 1098 b83b
00000050: 9404 a4be 1eec 453c dbe7 fc3d d8cb db3c
00000060: 4026 2c3d 5dba 5e3e 0005 103d ccdd 22be
00000070: 8e20 b43e 246f a03d d9d4 3dbe eb5f 643e
00000080: afc7 98bd f75c 2ebe fece 91be cc20 083e
00000090: 6cb9 ae3d 7fc7 d9bd 87c7 f83d 451b 3a3c
000000a0: 6a76 9c3e f629 843c 2007 093e b1fd 203e
000000b0: 8b7a 673e 3768 77bd 0407 b83a ebd9 abbd
000000c0: 9b39 01be 3e2e 653e b061 43be f2f5 4abe
000000d0: 611d 863e 9f97 8abe 1ef2 20be 72ed 913e
000000e0: f4ff c03e a503 833d fb20 ab3c e46e b9bd
000000f0: d47e 4a3e 7624 34bb 39e0 b9bd 460e 253e
00000100: fd52 b33e 41e5 0cbe d13e c6bd bef4 9fbc
00000110: 7ca3 b83c e399 993e ca96 aebd 5c29 46be
00000120: 5c8c b43e abb8 8b3e fec2 8c3e 2f47 bd3d
00000130: 866f 553e fd67 263e a73b 593e 9536 683e
00000140: cbe6 893e bd0b c0bd 257d 95be 8688 7ebe
00000150: 5b90 bf3e 7b76 0c3e aff7 783d d9e2 37be
00000160: 2226 a9be cce3 dc3d 8fb1 0bbe 5100 973d
00000170: 03cc 183e 961d 923e b551 a83c 96dd 6b3d
00000180: fed1 06bc 6aaf dc3c 2f45 f03c 72ed 613e
00000190: c6aa fa3c 5d41 4a3e 0595 b33c e26b adbe
000001a0: 9401 833e 743e a4be d6c5 10bd ebc3 263c
000001b0: ab9f b53e 541a e9bd 51f1 8c3e ccfb 883d
000001c0: f2d3 1a3d 8af6 2d3d 6528 df3d 6ce6 56bc
000001d0: f5e5 6dbe 6a53 5bbe 8f19 00bd b285 6abe
000001e0: 7613 42bd 7089 3cbe 773b 94bc 17e9 34be
000001f0: 9e6a 4abd 4a48 393d a048 063e 512d 55be
00000200: a543 aebe 9e10 1ebd 3ed7 9cbe 5df9 93bd
00000210: 1ee5 5a3e cda3 33bd 7440 30bd d647 513e
00000220: 776a c9be e675 3fbe 575b 5bbe d9a2 6a3e
00000230: 9251 873e fa02 2f3e d52b fe3d 2ea5 a2bd
00000240: a555 143e 6e73 ed3d 20fb 5c3e f933 163c
00000250: 44f2 86be 5661 39be 8beb a53d 473c dd3d
00000260: 3f02 0bbd d76b 3c3e 82c3 ae3d 6bef 0f3e
00000270: 8fc8 00be 7084 84bd 356b 0a3e 7207 64be
00000280: 17bd ce3e 9587 12be aa5d ec3c 31f9 643d
00000290: f909 a73e 0427 a2bd 37e9 703e 8ace ea3d
000002a0: 4512 9bbd 633a 3fbc a886 5c3e 4b3c 78bd
000002b0: e741 dabc cdba 92be 16fc ecbd 813b ebbd
000002c0: 480a 913e d11a cdbb 79e9 303d d0d6 b23d
000002d0: 0d27 23be d983 14be a7ab 6dbe f2e6 ae3d
000002e0: 1551 da3e 37d9 c53d 927b 8e3d d985 d33c
000002f0: 7e8e c3be 8380 c0bd ce5a 8cbc 38b0 3e3e
00000300: 9f6d afbe bed6 ae3d 1783 2b3d a13d 2d3e
00000310: 3663 963e 417e c13d 0b56 a8bd b8b0 f6bd
00000320: 5307 1fbe 0d1a 3e3e 306b 413d 4b9e 19be
00000330: e890 c13e 904e 563e 14c3 933d 635e 603e
00000340: 07ff 313e 97e3 23bd 23d8 bd3d cc72 e23d
00000350: 9e05 a7bd 1da8 bbbc c7e6 953e a7bd 803e
00000360: d28b 29be 3493 45be 844c e3bd 55c6 013e
00000370: 7b7a de3e 3a48 693b 88ba 16be 89b0 2dbe
00000380: 07a5 b3be 38ea 67bd d5cc f03d 0ae1 55be
00000390: 4f73 4c3e eb83 b23e d5cf 983e a3e8 163d
000003a0: 917a 703e e7d3 fbbd 7b55 d13d 1a60 293e
000003b0: fcb4 ac3d 6a4f fd3c 1c7f 6abe f220 38be
000003c0: f1ab 743e 9981 4fbe 9c77 b23c 8ac4 25bc
000003d0: 2d19 063e 4561 993a fb31 c73d 633f c0bd
000003e0: 11bd 7a3d 6343 1d3e 2b70 0abe 38b4 8cbd
000003f0: d402 003d 0bfc 98be dbcd 4ebb 0c92 95bd
-0.026622336 0.081698634 0.081208974 -0.1549046 0.08537764 -0.17929836 0.053427298 -0.036751617
0.28548378 -0.10988268 -0.04677683 -0.027517773 -0.20047592 0.17755142 -0.19852012 -0.19522361
0.36368844 0.16148989 -0.12672393 0.0056333616 -0.32034743 0.0120802205 0.123489104 0.026830599
0.042028666 0.2175078 0.03516102 -0.15904921 0.35181087 0.078336984 -0.18538226 0.22302215
-0.074599616 -0.17027651 -0.28478235 0.13293761 0.0853146 -0.10633754 0.12147432 0.011359041
0.30559093 0.01613329 0.13381624 0.15721776 0.2260534 -0.06040212 0.0014040177 -0.08391174
-0.12619631 0.22380921 -0.19080234 -0.19820383 0.2619429 -0.27068803 -0.1571736 0.2850147
0.37695277 0.063971795 0.02088975 -0.09054354 0.19774944 -0.0027487553 -0.0907597 0.16118726
0.35024253 -0.13759328 -0.0967995 -0.019525882 0.022538893 0.3000022 -0.085248545 -0.19351715
0.35263336 0.27289328 0.27492517 0.09242093 0.20843324 0.16250606 0.21214162 0.22677071
0.26933894 -0.09377239 -0.2919704 -0.24856767 0.37414822 0.13717072 0.060783084 -0.1795763
-0.33036906 0.10785636 -0.13641952 0.07373107 0.14921574 0.28538197 0.020546773 0.057584368
-0.008228777 0.026939113 0.029329864 0.22063234 0.03059901 0.19751497 0.021921644 -0.3387137
0.25587142 -0.32078898 -0.03534492 0.010178546 0.3547338 -0.11381975 0.2752786 0.066886514
0.037799783 0.042471446 0.108963765 -0.01311646 -0.23232253 -0.21418539 -0.031274375 -0.22902563
-0.04738184 -0.18411803 -0.018094761 -0.17667042 -0.049418084 0.045234956 0.13113642 -0.20818068
-0.34035984 -0.038590066 -0.30632967 -0.07225297 0.21376464 -0.043857384 -0.043030217 0.2043756
-0.3933904 -0.18697318 -0.21421562 0.22913684 0.2642942 0.17090979 0.12410704 -0.07941662
0.14485796 0.11594282 0.21580172 0.009167665 -0.2635671 -0.18103537 0.08101567 0.108025126
-0.03393769 0.18400513 0.08533384 0.14056174 -0.12576507 -0.06470573 0.13517459 -0.22268465
0.4037864 -0.14309533 0.028853256 0.05590171 0.32624796 -0.07917598 0.23526464 0.114651754
-0.07571844 -0.011671635 0.21535742 -0.060604375 -0.026642753 -0.28658143 -0.11571519 -0.11485959
0.28328156 -0.0062593003 0.043191407 0.087323785 -0.15932865 -0.14503421 -0.23210011 0.08540143
0.42639986 0.09660571 0.06957163 0.02582066 -0.3819465 -0.09399512 -0.017133143 0.1862191
-0.34263322 0.085370526 0.041873064 0.16918041 0.29372567 0.09447909 -0.082195364 -0.12045425
-0.15530138 0.18564625 0.047221363 -0.1500179 0.37805867 0.20928407 0.072149426 0.21911006
0.17382441 -0.04001197 0.092697404 0.11057052 -0.08155368 -0.022907311 0.29277632 0.25144693
-0.16557243 -0.19294435 -0.110985786 0.12673314 0.4345282 0.003559603 -0.14719594 -0.16961874
-0.35086843 -0.056619853 0.117578186 -0.20886627 0.19965862 0.3486627 0.29846063 0.036842953
0.23484255 -0.122962765 0.10221382 0.16540566 0.084329575 0.030921657 -0.22900051 -0.17981318
0.23893715 -0.20264281 0.02178555 -0.010117659 0.13095541 0.0011701962 0.0972633 -0.0938709
0.061215464 0.15357737 -0.13519351 -0.068703115 0.031252697 -0.29879794 -0.0031555805 -0.07303247

lstm.weight_hh_l0 f4 [68, 17]
00000000: 504e 263d 37ff 7b3e 0df2 843e ffec c4bd
00000010: 0bf7 85bd 6a21 233e 408b a83e 18fa b9bc
00000020: 5dae 863d 12ea 583e 4ca4 293e 4ac9 e53d
00000030: d8d6 b2be 5277 36be 5da5 053d 6c74 bbbd
00000040: b822 7d3e 051c 4ebe b952 873e 3b8f 9e3d
00000050: de9d d3bc 5b7d 3ebe b8a3 713e 4a47 743e
00000060: fd54 f23c 124b 3e3e 224f 24bd 7622 943e
00000070: 7c8a 5bbe dce1 263d 07a7 af3d fa56 423e
00000080: a54b 623e aa42 fcbb 37da aa3d 96e0 d9bd
00000090: c10e 093e af2f 233e 3c81 a7bd 560f 503e
000000a0: ce4f 983d 61f9 33bd 0b28 76be 60be afbd
000000b0: 401c 853c c262 0cbe 786b 493e 4152 90be
000000c0: 6acd 3b3e 983f ad3d 9471 edbd f6a6 4a3e
000000d0: 9825 7abe a603 073e 6352 e0bd dab4 02be
000000e0: 593e 3e3e a624 843e f405 2f3e c168 87ba
000000f0: 6d51 753e 23aa c63c 93b2 21be 0c50 c9bd
00000100: 3bd2 10bd 560d 3abe 1e25 f33d e2e8 50be
00000110: 3b39 443e d8eb 29bb d1c5 62be 72a0 683e
00000120: ff76 15bb af2b 533e 3c54 05be afde df3d
00000130: d945 50be dcec a13d 1b12 1e3e 4f54 08be
00000140: 49a5 f6bd 5e28 64be d714 4a3d 1f15 073e
00000150: 138e 30be bf98 03be 5cea c73d d72c fdbc
00000160: ee8b 07bd bcef 7e3e bf0c 8c3e 8507 7bbe
00000170: 7ba6 933d b896 443e fa62 a2be 18a1 e7bd
00000180: 1cec 54bd 3677 903d 7a09 f23d 84d3 6bbd
00000190: 4fea 153e 3a30 52be 70f1 5abe 566b 993d
000001a0: a7c7 643d c0cf 773e 28a1 c43d 48ad 913e
000001b0: 7572 533e 03aa 0dbe 32cd 09bd a185 103e
000001c0: 36f5 353d d75d 50be d30d 33bd a94a aebe
000001d0: 7487 a43d 9cd7 1dbd 1961 9b3e 6dd1 6cbe
000001e0: 9b73 3d3e 9dd8 153e 0817 6dbd 7429 fd3a
000001f0: 6839 0abe e1af 143d 560d 1e3d fd0e 86be
00000200: acc4 073e cb48 533e d3c9 613e 441b 7ebe
00000210: acc3 a3be 24ad c33d 4bbf 4fbd 59c5 77bc
00000220: 407a c03d 91f6 0a3e ba0e 853c 8543 88bd
00000230: 9ada 343e c65b 05be 0eec cc3d fe00 0f3e
00000240: 1aeb b6bb bbf9 a33d cc8e 41be f8c3 d2bd
00000250: ed65 e83d f85d aebe a29f 76be b45d 27be
00000260: 7e25 07be f00f 86bd ba50 5cbe 8406 2cbe
00000270: aada 6d3e 8798 a3be f923 34be 605b 06be
00000280: 0b0e 593e aac6 bdbc 8e3c 103e 5f4d 163e
00000290: 54f3 573e 49aa 8bbe 44a6 4dbe cf27 013a
000002a0: e31b 4a3e 9e39 263e 4dc9 37be a93c ecbc
000002b0: df75 073e 262e 473e 0c02 f93d 50a6 6d3e
000002c0: e056 77bd 92e7 2a3e aecb 78be cc57 253e
000002d0: a10c 27bd 5955 cc3d 582e 143e 4429 463c
000002e0: 87bb 403e aa70 d8bd f391 753e 7354 49bd
000002f0: 924c 673e 7d98 2fbe 53ba efbd 4301 a3be
00000300: 11c7 59be 783d af3e ee88 bbbd 42d8 01be
00000310: 115f bdbd 7966 08be 6dec 443e 0e1e 1dbd
00000320: bb69 4bbc 6549 0c3c e5ff c83c 9771 03be
00000330: 56bf c4bc dc00 763d 5c50 3f3d 3c24 583e
00000340: 3b76 bc3d be14 573e 90fa 31be 6fb4 26be
00000350: b5f1 cf3d 4232 9d3e b705 1dbd 5ef1 f4bd
00000360: e99f 8c3d 9d03 0b3d d9c0 1dbe 5986 69be
00000370: a72e 463e fad9 b0bd 07d3 8d3e 2cc1 b23d
00000380: ba1d 8c3e 8459 fbbd edcc 463b 7f02 ac3e
00000390: 38b4 8e3e 5c1c 4abe cfb9 4d3e b6ea 853e
000003a0: f824 8c3e 41c8 be3d 7f5b 85bd 6238 903c
000003b0: 15db 26be 441e 83be 3c60 6d3c c3a7 1f3e
000003c0: e781 fa3d d2a8 03be 4f61 fc3d 2597 4f3e
000003d0: 36e8 fbbd c2c2 823e 1f80 53be 9971 d2bb
000003e0: a65f 81bd 97b3 f3bd 95ff 7d3e 441b 0c3a
000003f0: 1861 14be a8c8 a43d 5ba4 0b3e b140 94be
0.04060203 0.24609075 0.2596592 -0.09615516 -0.0654126 0.15930715 0.3291874 -0.022702262
0.06576226 0.2118304 0.1656658 0.112200335 -0.34929538 -0.17818955 0.032628406 -0.09153065
0.24720275 -0.20127876 0.264303 0.07742163 -0.025832113 -0.18602507 0.2359761 0.2385532
0.029581541 0.18583325 -0.04011453 0.28932542 -0.21439546 0.04074274 0.0857678 0.18978491
0.22099169 -0.0076983767 0.083424024 -0.106385395 0.13384534 0.15936159 -0.081789464 0.2031835
0.074370965 -0.043938998 -0.24038713 -0.08581233 0.016248822 -0.13709548 0.19669902 -0.28187755
0.18340078 0.08459395 -0.11593929 0.19790253 -0.24428403 0.13184986 -0.10953214 -0.12764302
0.18578471 0.2580921 0.17092115 -0.0010330902 0.23956843 0.02425105 -0.15790777 -0.09829721
-0.03535674 -0.1816915 0.11872314 -0.20401338 0.19162457 -0.0025927927 -0.22145773 0.22717455
-0.0022806523 0.20622133 -0.13020414 0.109311454 -0.20339145 0.079065055 0.15436594 -0.13313411
-0.120432444 -0.22281024 0.04933628 0.13191651 -0.17241697 -0.12851237 0.097614974 -0.03090517
-0.03309243 0.24896139 0.27353474 -0.24514587 0.07209488 0.1919812 -0.31716138 -0.11310023
-0.051982984 0.07053988 0.11818214 -0.057574764 0.14640163 -0.2052621 -0.21381164 0.07491176
0.055854466 0.24200344 0.096010506 0.28452516 0.2064913 -0.13834386 -0.033642955 0.14113475
0.044423304 -0.20348297 -0.043714356 -0.34041336 0.08033648 -0.0385357 0.30347517 -0.23126765
0.18501131 0.14633413 -0.057883292 0.0019314722 -0.13498461 0.036300544 0.038586937 -0.2618331
0.13258618 0.20633237 0.22049646 -0.24815089 -0.31985223 0.09554508 -0.05071954 -0.015122735
0.09398317 0.1357062 0.016242374 -0.06653503 0.17661515 -0.1302329 0.10005961 0.13965222
-0.0055822255 0.08006617 -0.18902129 -0.10291284 0.11347566 -0.34056067 -0.24084333 -0.16344339
-0.13197896 -0.065460086 -0.2151517 -0.1679936 0.23227945 -0.31952307 -0.17591847 -0.13120794
0.21196763 -0.02316602 0.140856 0.14677952 0.21088916 -0.27278355 -0.20082957 0.00049268914
0.197372 0.16232917 -0.17947884 -0.028837519 0.13228558 0.19451198 0.121585935 0.23207974
-0.060385585 0.166899 -0.24296448 0.16146773 -0.04078353 0.09977216 0.14470804 0.012094799
0.18821536 -0.10568364 0.23981456 -0.049152803 0.22587803 -0.17148013 -0.117054604 -0.318369
-0.21267344 0.34226584 -0.09156977 -0.12680152 -0.09246648 -0.1332034 0.19230814 -0.03835874
-0.012415345 0.0085624205 0.024536083 -0.128363 -0.024017017 0.060059413 0.046707496 0.21107572
0.09202238 0.21004006 -0.17380738 -0.16279767 0.10153524 0.30702406 -0.03833553 -0.119601
0.06866438 0.033938993 -0.15405597 -0.22805156 0.19353734 -0.08635326 0.27700064 0.08728251
0.2736643 -0.12272933 0.0030334548 0.33595654 0.2787187 -0.1973738 0.20090412 0.26155633
0.27371955 0.09315539 -0.06511592 0.01760501 -0.1629451 -0.25609028 0.014488276 0.1559134
0.12231808 -0.12857369 0.12323248 0.20272501 -0.1230015 0.25539213 -0.20654343 -0.0064222333
-0.063170716 -0.118994884 0.24804528 0.0005344639 -0.14490163 0.08046085 0.13636915 -0.28955606

lstm.bias_ih_l0 f4 [68]
00000000: e237 0ebd 08c6 fdbd 235b 2e3d fcbd 273e
00000010: 179f bbbd f159 8bbe d268 8bbd 1b9c 6d3e
00000020: 4414 7bbd 44c4 633d 7934 cd3c 4f03 263e
00000030: 4c7e 5e3e 8d43 ed3d 6471 363d 8ef3 b53d
00000040: 657c 2f3e 0b56 4d3e b8f5 063e e5c0 133e
00000050: 6721 a23d 8e4e c8bd 6e55 02be 1b52 40be
00000060: fbc9 5c3d d6f0 953d 80ce 413e af51 503e
00000070: ce3f 823c 8732 933e 6e18 193e aa80 bcbd
00000080: 1287 9dbb 28a1 49be 4f67 0fbe 383b 023e
00000090: e984 683e c502 323e 28ec 97be c6ab 443d
000000a0: 4cc3 0abe d3a1 e3bd 3f58 e4bd 7d3a 7e3e
000000b0: 4921 0e3e 04ed 0b3e 5ba3 14be 3f95 09be
000000c0: 4d76 533e 1353 afbd 4890 bb3d b3d1 013e
000000d0: 6efa 8d3e 816c 6fbc 42b6 f6bd 00d7 4e3e
000000e0: ad4a a53d 543b 74bc acc3 44bd 723d 64be
000000f0: 7fc3 613e 3e15 13be 55c3 11be 3147 07be
00000100: 81d9 873d 31aa 533d 013c 143e 7d98 823e
-0.034721263 -0.12391287 0.042567383 0.16381067 -0.09161203 -0.27217057 -0.06807102 0.23204081
-0.061298624 0.055607095 0.025049435 0.162122 0.21727866 0.1158515 0.04454173 0.08884345
0.17137296 0.20052354 0.13179672 0.14429052 0.07916527 -0.09780608 -0.12727901 -0.18781321
0.05390356 0.073213264 0.1892643 0.2034366 0.015899565 0.28749487 0.14950725 -0.09204228
-0.0048073614 -0.19690382 -0.14004253 0.12717903 0.22706951 0.17383869 -0.2967236 0.04801538
-0.13551062 -0.1111485 -0.11149644 0.24826999 0.13879885 0.13664633 -0.1451544 -0.13435839
0.20650597 -0.08560767 0.09158379 0.1267765 0.27730125 -0.014613272 -0.12046482 0.20199203
0.08070884 -0.014906723 -0.04803817 -0.22289065 0.22047232 -0.14363572 -0.1423467 -0.13210751
0.066332825 0.05167598 0.14476015 0.25506964

lstm.bias_hh_l0 f4 [68]
00000000: 1b71 3f3e cc05 bc3b 195e ccbc 6244 193e
00000010: 3593 27be d4eb d5bd bea7 c3bd c0e5 0a3e
00000020: 51df 2dbe d2b5 28bd e783 4a3e 4de7 3e3e
00000030: 09c5 893e aea1 5e3c aead 433e 4ddc 9b3c
00000040: 0b45 793e 8205 a43d 3f89 1f3e 9741 23bd
00000050: 1290 4b3d 7098 e9bd 6d8c 1bbe 2193 5a3e
00000060: c7e9 2f3d 34e0 373e b078 373c 3fe5 de3c
00000070: 1f50 693e 792e aa3d 58e9 5fbe c6d3 30be
00000080: 878e 34bc 651f d23c dedd d4bd 6ebc 5bbd
00000090: 4b84 8cbc 1065 86bd 5c78 99be 2cca 16bd
000000a0: 1a44 253d 6496 c5bd b3fb c7bd f99d e03d
000000b0: 53ee 6c3e f86e ccbd 7032 7fbd 0027 4f3e
000000c0: 4208 f4bd 97c1 68be 5015 7d3d 45bf 1dbe
000000d0: 9b8d f23d 52bb f63d 53c8 323e 131d f1bd
000000e0: 6530 143e 145a 8c3e e943 ca3d 8443 533e
000000f0: 5d22 ba3c 8c34 553e c7a9 8e3e fbb5 c1bd
00000100: 10a5 913d acea 563e bc1f 143e 42b8 9abd
0.1869549 0.0057379957 -0.024947213 0.14967492 -0.16364749 -0.10445371 -0.09553479 0.13564205
-0.1697972 -0.041189022 0.19776879 0.18642922 0.26908138 0.013588352 0.19109222 0.019025946
0.24342744 0.08008863 0.15579699 -0.039857473 0.049697943 -0.11406028 -0.15190287 0.21345188
0.042947557 0.1795662 0.011198208 0.027208922 0.2278447 0.08309645 -0.21866357 -0.17268285
-0.011020309 0.025649736 -0.1039388 -0.053646497 -0.017152926 -0.06562245 -0.2997464 -0.0368139
0.04034815 -0.09647825 -0.09764805 0.10967631 0.23137788 -0.09982103 -0.06230396 0.20229721
-0.119156376 -0.22730099 0.061787903 -0.15404995 0.11843415 0.12047447 0.1745923 -0.117731236
0.14471586 0.27412474 0.09876234 0.20631224 0.022721464 0.20820826 0.27863905 -0.09458538
0.07111561 0.20987958 0.1446523 -0.07554676

lstm.weight_ih_l1 f4 [68, 17]
00000000: 785d a2be 7e22 463e 2542 483d 9ba8 48be
00000010: d9ad ac3d 2621 7b3e 86c0 d43c 8e20 fb3a
00000020: a383 68be 13ff 593e 5ed0 423c e80d 4fbe
00000030: 8761 873e 247c f1bd 0516 143e daca c4bc
00000040: cde5 373e 700a 76be 1eb8 2d3c 0adf a23c
00000050: cc56 26be b55b 6b3d bc7a 003e 9453 13bd
00000060: 9713 c3bd 53ea 05be 01ff 493e c875 63bc
00000070: 4efb 103e 8566 02be 28ed 23be abd6 413e
00000080: 7ecf 183e be2f 53bc debb abbe 5acf 903e
00000090: 0636 cb3b 3fbc a43d 0f5e 72be cb41 863e
000000a0: 6121 f33d 6601 923e 932d a3bd 3cf1 0cbe
000000b0: 1a3f 18be 35e0 43bd 599b d9bd 20e4 a5be
000000c0: 1134 2e3c 1757 59bc fd3f 763b 7598 99be
000000d0: 649e 66bc dc5c edbd f382 5cbd 6f29 29be
000000e0: 4330 293d 6485 163d d7f7 67be e73c 003e
000000f0: 567c 9abd df9c 5a3e f075 713d d6f3 933d
00000100: d133 83be f68c 7ebd 4349 36be 2778 aabd
00000110: a94d 84be 30da 843d 1fc0 203e fdb6 46be
00000120: 0837 62be b821 5e3e c989 22bd 2ecc b43c
00000130: cc0d 7abe 3bbe 183e 829f 6a3e a165 423e
00000140: 1879 cf3c 5096 3bbc 35bf 2cbe 6a46 0139
00000150: 66a6 ccbd c065 2abe da61 87bd 5001 7d3e
00000160: be6a 7c3d c0f9 4c3d 82d2 78bd 441a 8dbd
00000170: b472 483e b460 233e 39c5 f93d 8767 2a3d
00000180: 0693 c6bd 16e3 d73d 33a0 9ebe 921c 57be
00000190: 919b 8a3d a626 583e 75ac 13be e879 453e
000001a0: cc64 693e 2046 81bd 0656 ae3c 4ddb 263e
000001b0: 423d 8fbd c996 ab3d b473 56be 4760 b4bd
000001c0: 9a02 703e d17b 573d ec74 b9bd fe96 b73d
000001d0: ad55 16be e225 ab3d 89ea 373e 2bd1 13be
000001e0: 59d8 7dbd 3d48 813e 62e5 9d3e 7cce e5bd
000001f0: bd6b b43e 3a09 2cbd 93d1 8abe 0560 2dbd
00000200: 1a06 173e 562f 2d3e b141 633e 105a c0be
00000210: d294 cabd 153e c93d e90b 003e 386f b8bc
00000220: 549c 1bbd 7d25 d63d 5552 9fbd 332b 93bd
00000230: fc71 ca3d cc69 3c3e 2091 b7bd d114 9c3e
00000240: ba20 8dbb 4779 9b3e 6cb9 383e 71c8 3a3e
00000250: 6f92 19be 1e39 81be afd0 17be 77db 1cbe
00000260: bc42 9bbd f351 91be 6459 d9bc 2807 323d
00000270: c4f7 cc3d 9269 91bb 0771 3fbe 111f 463e
00000280: cfbf cd3e 56c6 82bc 90ee e03d 0d1e 833e
00000290: 53c7 df3d f61e f23d 661d 18bc 1cd6 d8be
000002a0: 079f 993d e0f5 f0bd ae3b 16be 7d15 d2bd
000002b0: 9877 c5bb b56b eb3d 602a c4be 42f6 cbbd
000002c0: 75b7 c53d 7870 7c3d 7f2c 99be 49dc be3e
000002d0: eab8 04bc c3e7 873e 5919 ffbd fa59 c3be
000002e0: 61ee 39be f1d9 503e 876a 85be 31c3 2d3d
000002f0: d667 993e 530b 743e ddae 263e dc61 7f3c
00000300: 26df 8cbd b017 5bbc d4ed 32be 2f07 61be
00000310: ac80 77be d328 463e e38b 14be e728 00be
00000320: 1133 81bd 7e55 7b3c 41fb 893d 7b49 633e
00000330: fbf4 79bd e617 9b3e e21c 923e 9b35 ed3d
00000340: 294c 97bd 8235 b73e 4a1f cb3c 5dc7 483d
00000350: a5e6 8dbd 7abf 93bd b8b6 013e 6637 073e
00000360: 1056 223e 4230 0ebd 9214 0d3d fefd 9d3d
00000370: acaa d53d e78b 2f3e 20e8 24be b203 7f3e
00000380: 8f97 d6bc 5abb 3f3d b437 f63d 5d04 2a3d
00000390: 3284 923e c811 123e d1a3 483e a3a8 a7bd
000003a0: 86f5 f1bb 4a42 5dbd 5924 92be 3328 8dbe
000003b0: 11a1 223e 9547 2abe 1257 d93d 46de c4bd
000003c0: 8435 a83d 599e ea3d 5dc4 bbbd 973b 5d3e
000003d0: 2242 b8bd 0435 b6bc c792 05bd e162 a43d
000003e0: f15b 9bbd cb9d 9fbe 16ba e33d b079 02be
000003f0: 5845 fe3d 8346 623e e3af 4d3e 74e7 c7be
-0.31711936 0.19349095 0.048891205 -0.19595568 0.08431596 0.24524364 0.025970709 0.0019159482
-0.22706465 0.2128871 0.011890499 -0.20220149 0.26441595 -0.11791256 0.14461525 -0.024022508
0.17958756 -0.24027419 0.010602979 0.019881744 -0.16244048 0.057460506 0.1254682 -0.03596838
-0.09525221 -0.13077669 0.19726183 -0.013883062 0.14158365 -0.1273442 -0.16008437 0.18929546
0.14922902 -0.012889801 -0.3354177 0.28283197 0.0062015085 0.080437176 -0.23668693 0.2622207
0.11871601 0.28516692 -0.07967677 -0.13763899 -0.14867821 -0.047821242 -0.10625333 -0.32400608
0.010632531 -0.013265393 0.003757476 -0.29999128 -0.014075849 -0.11589977 -0.05383582 -0.16519712
0.04130579 0.036748305 -0.22653137 0.12523232 -0.075432464 0.21348904 0.058950365 0.072242424
-0.2562547 -0.06214615 -0.17801385 -0.083236985 -0.258405 0.064869285 0.15698288 -0.19405742
-0.22091305 0.2169255 -0.039682183 0.022070017 -0.24419326 0.14916317 0.2291241 0.18984081
0.025326297 -0.0114494115 -0.16869815 0.0001232863 -0.099926755 -0.16640377 -0.066104606 0.24707532
0.061625235 0.050042868 -0.06074763 -0.068897754 0.19575006 0.15954858 0.1219582 0.041602638
-0.09696011 0.1054136 -0.30981597 -0.21006992 0.06767953 0.21108493 -0.14421256 0.19284785
0.22792357 -0.063122034 0.021281254 0.16294594 -0.06994106 0.08378369 -0.20942575 -0.08807426
0.23438492 0.052608315 -0.09055504 0.08964346 -0.1468112 0.08356835 0.17960562 -0.1443526
-0.061973903 0.25250426 0.30839068 -0.112210244 0.35238448 -0.042000987 -0.27113017 -0.0423279
0.14748421 0.16912588 0.22193028 -0.37568712 -0.098916665 0.09826294 0.12504543 -0.02251397
-0.037990883 0.10456369 -0.077793755 -0.07185974 0.09885022 0.18399733 -0.08963227 0.30484632
-0.00430688 0.30365965 0.18039483 0.18240525 -0.14997266 -0.2523889 -0.148257 -0.15318094
-0.07581088 -0.28382835 -0.026531883 0.043463856 0.10008195 -0.004437634 -0.1869546 0.19347788
0.401854 -0.015963715 0.10983002 0.25608864 0.1092669 0.118223116 -0.009284353 -0.42350852
0.07501035 -0.11765647 -0.14671203 -0.10258005 -0.0060262196 0.11495153 -0.3831358 -0.09959079
0.09654132 0.061630696 -0.2991676 0.3727744 -0.008100728 0.26544008 -0.124560066 -0.38154584
-0.1815734 0.20395638 -0.26057836 0.042422477 0.29962033 0.23832445 0.16277643 0.015587296
-0.068785 -0.013372347 -0.17473537 -0.21975397 -0.24170178 0.1935151 -0.14506488 -0.12515603
-0.06308568 0.015340207 0.06737376 0.22196 -0.061024647 0.3029167 0.2853766 0.1158249
-0.07387573 0.3578301 0.024795193 0.049018253 -0.069287576 -0.07214256 0.12667358 0.13204727
0.15853143 -0.03471399 0.034443446 0.07714461 0.10432944 0.17143212 -0.16104174 0.24903753
-0.026195316 0.04680953 0.12022343 0.041508067 0.28616482 0.14264596 0.19593741 -0.08186462
-0.007384005 -0.054018296 -0.28543356 -0.27569732 0.15881754 -0.16628869 0.106123105 -0.09612708
0.08213332 0.11455984 -0.09168313 0.21604763 -0.08996989 -0.022242077 -0.03261068 0.08026672
-0.07585896 -0.31175074 0.111194775 -0.12741733 0.1241557 0.2209721 0.20086627 -0.39043772

lstm.weight_hh_l1 f4 [68, 17]
00000000: 4ba2 4dbd af7d a5bd 7473 c83d ffa3 9dbd
00000010: d86c b9bd 39bb 2ebe 1c46 573e a1fe 91bd
00000020: fc02 a53e bb2e 0bbe fc65 a13c af58 1bbe
00000030: 8b31 af3c 7a84 eebd 94d8 b53d 15a7 6abe
00000040: 2780 b9bb f959 05be 95ee 7dbe 234d 90be
00000050: 9dfc 2cbe ddfe 66bc 54dd bbbd 3950 8e3d
00000060: 9c20 7a3e ebed 083e 061e 6f3e 0511 b23c
00000070: a93e 95be 7266 93be 9742 0bbe 7c72 06bd
00000080: 91d2 6c3d f0f5 553d 66f2 04be 756f 0b3e
00000090: c771 94be c604 ac3d b37d 9ebd f8b6 52be
000000a0: 98af 623e 3cc3 593d 9785 a2bc 97e6 013e
000000b0: e186 a83d 2599 56bd 4103 11bc b746 59be
000000c0: a281 843d 948d 973d b129 30bc bc5b bbbc
000000d0: 33da 88be af89 99be fca2 573e 6f98 98bd
000000e0: c923 b33c a38d 0ebe c4fc 753e 9097 5b3e
000000f0: e09b 32bd 10e9 5dbe 2d8a dabd c516 c0bd
00000100: 09a9 72be 1dc1 8d3d ee82 5dbe f0e7 753e
00000110: be31 a33c 7c3d 0b3e fd47 16be c461 d4bd
00000120: 33d9 17be 0eea c33c 7e45 0a3e 05a6 cd3c
00000130: 0195 793e 39f2 643e 101b eabd ac93 0a3e
00000140: c902 6b3e 7291 3abe c9b7 ccbc a78b 0a3e
00000150: 3983 a63d 70c2 0cbe f45e d0bd 64a6 8a3d
00000160: d63b 483d 93ec 933e 945e adbd 0728 923c
00000170: e008 113e 4717 583e a397 25bc 8f6e e1bd
00000180: 68fa b6bd 3946 df3d 1001 9ebd b772 97bd
00000190: 3e19 873c 6082 c6bd c4e1 62be d32d 33be
000001a0: a649 33be 9bc3 cf3d b282 593e a4d7 5cbe
000001b0: 4021 a0bc c75b 3d3e 4bd1 403e 9a93 a73b
000001c0: 1869 0cbe e425 84be 6099 a9bd 76f7 94bd
000001d0: 7aff 15be 9a9d 773d 71fc 7e3e a4aa 77bc
000001e0: 15df 34be 7e9b c6bc 43cc 42be 5b43 063c
000001f0: f42e 053d 8f1f 7abc d07a ae3d c3f4 b53e
00000200: b589 42bd 2ac4 5c3d 4d9a 063d 2312 d4bc
00000210: 8e52 abbd c40e 25be 56aa 91be 5194 90bd
00000220: 2b4b 9abd 3b9b 3a3d 988f 843e e96f 833e
00000230: 931e f1bd cf4f 6bbe 478d 5f3d fa3c 883e
00000240: 3b94 1d3e e455 8c3d 6e8e f13c 4305 573e
00000250: 43d9 093e f769 55be c431 46be 36d2 c0bd
00000260: bf27 db3d c1e8 7bbd f432 663d 1f6f 32be
00000270: 77cb cf3c d9ed e93d bafd 4dbe bcba 5fbe
00000280: 25d1 4bbe 8bc8 98bd b62b 5dbe b375 a3bc
00000290: ccc7 063e a559 dd3d 355a 05bd 741d f53d
000002a0: 3f12 56bd 9e2c 303e 0b7e 0e3e 6ab1 27bd
000002b0: e1bd 2dbe d906 ab3c 98dd 05be b5ba e2bd
000002c0: 8ff5 b73d 7a7b 843e b0ad 473d e3a4 a73e
000002d0: 20e0 5abe db1a 853d 22fd a93e feee a5be
000002e0: 3cce 663d 00f3 ae3d fc30 b2bc e0c0 3cbd
000002f0: 0f9e 1f3e 8763 533c cadd 17bd 0e05 dbbd
00000300: d13d 6b3d 2885 5fbe 4ef2 eebc 2e37 61bd
00000310: eacb 12be 540b 4b3a f9d7 efbd af09 14be
00000320: 9db1 4fbe f098 16be 5be4 6bbd 877d cb3d
00000330: 76c3 283e 2e76 8abd 76af 5ebe d850 863c
00000340: b3fb e23c fade ad3d 3a54 0f3e 8ab6 0c3e
00000350: f578 343e 0f21 cc3c 7b95 84bc b0a0 90be
00000360: 549a e3bd ed51 92be a8e7 af3c b772 cdbd
00000370: b293 b13e d196 923e 110d a73c 0b92 6abe
00000380: 4ad4 293e 6d6b 9bbe c741 dcbd 765c 58be
00000390: 80a6 dcbd 7e23 d6bd 7b70 17be 9e4f 373e
000003a0: ef29 3c3e 2769 513e b3c9 543d 4ba4 c53d
000003b0: a17e b6be 18a6 a43d 4edd 343e 86e6 39be
000003c0: 219a 95be 3102 3fbe a950 b7bd 5068 0c3d
000003d0: 7243 60bb 8bd1 68bd b004 373d f189 873d
000003e0: 79b8 a1be 01a4 52be d431 25be 3472 d93d
000003f0: 96d2 74bd 2659 78be b349 0f3c 76e6 b43e
-0.050203603 -0.08080613 0.09787646 -0.076972954 -0.090539634 -0.17063607 0.21022838 -0.07128645
0.3222884 -0.13592045 0.01970195 -0.15170549 0.021385929 -0.11646362 0.088791996 -0.22915299
-0.005661029 -0.13022603 -0.24798043 -0.2818385 -0.1689324 -0.01409885 -0.09173074 0.06948895
0.24426502 0.13372009 0.23351297 0.021736631 -0.29149368 -0.28789097 -0.13599621 -0.032824025
0.057818 0.052236497 -0.12983093 0.13616736 -0.28993055 0.08399348 -0.07738819 -0.2057761
0.22137296 0.053164706 -0.019839091 0.1268562 0.08228851 -0.052392144 -0.008850873 -0.21218382
0.06470038 0.07400051 -0.0107521275 -0.02287089 -0.26728973 -0.29987857 0.21058267 -0.074509494
0.02186765 -0.13921218 0.24022204 0.21444535 -0.043605685 -0.21670938 -0.10670886 -0.09379343
-0.23697294 0.06921599 -0.21631977 0.24014258 0.01992118 0.13597673 -0.14675899 -0.1037021
-0.14828949 0.023915317 0.13503072 0.025103578 0.24373247 0.22358026 -0.11430943 0.13532895
0.22950281 -0.18219545 -0.02498998 0.13529836 0.081304975 -0.13746047 -0.10174361 0.06770018
0.04888519 0.2889143 -0.08465305 0.017841352 0.14163542 0.2110263 -0.010106954 -0.110074155
-0.0893448 0.10902066 -0.077150464 -0.07394927 0.016491529 -0.09692836 -0.22156435 -0.1749795
-0.17508563 0.10144731 0.21241263 -0.21566635 -0.019547105 0.18492042 0.18829839 0.005114031
-0.13711965 -0.25810158 -0.08281207 -0.07273762 -0.14648238 0.060453035 0.24900986 -0.0151163675
-0.17663224 -0.024244066 -0.19023232 0.00819477 0.03251548 -0.015266313 0.085195184 0.355383
-0.04749461 0.053898014 0.032861996 -0.025887555 -0.083653554 -0.16118914 -0.28450269 -0.07059539
-0.075338684 0.045558196 0.25890803 0.25671318 -0.1177341 -0.22979663 0.054578092 0.2660902
0.15388577 0.0685232 0.029486861 0.20998101 0.13461785 -0.20841204 -0.19354922 -0.094150946
0.1070094 -0.06150127 0.056200936 -0.17425202 0.025365574 0.11422319 -0.2011632 -0.21848577
-0.19904001 -0.074601255 -0.21598706 -0.019953584 0.13162154 0.10808114 -0.03255673 0.11968508
-0.052263495 0.1720452 0.13915269 -0.04094068 -0.16966964 0.020877289 -0.13072813 -0.11070768
0.089823835 0.25875455 0.048749626 0.32742986 -0.2137456 0.06499263 0.33200938 -0.324089
0.056349024 0.08542442 -0.021751873 -0.046082377 0.15587638 0.012902147 -0.03707675 -0.106943235
0.057432 -0.21828139 -0.029168274 -0.054984264 -0.143356 0.00077455235 -0.117111154 -0.14456819
-0.20282598 -0.14706779 -0.057590824 0.09936052 0.16480812 -0.06760822 -0.2174662 0.016395971
0.02770791 0.08489795 0.13996974 0.13741508 0.17624266 0.024918107 -0.01618456 -0.28247595
-0.1111342 -0.2857813 0.021472767 -0.10031646 0.34682995 0.2863069 0.020391973 -0.22907273
0.16584888 -0.30355397 -0.107547335 -0.21129021 -0.10773945 -0.10455988 -0.14789002 0.17901465
0.18375371 0.20450269 0.051950168 0.09650477 -0.35643485 0.08039492 0.17662546 -0.18154344
-0.29219154 -0.1865318 -0.089509316 0.034279168 -0.0034219888 -0.05684046 0.044682205 0.06618107
-0.31586054 -0.20570375 -0.16132289 0.10617486 -0.059771143 -0.24252757 0.008745599 0.35332078

lstm.bias_ih_l1 f4 [68]
00000000: d104 b9bd bc22 0bbe 1729 5fbd fdce 893b
00000010: e159 a53d 96a2 a6bc e34f 2a3e 4f1a 183d
00000020: 6005 d6bb 8907 393d 3eef f13d 594b 303e
00000030: f75c a73c 9ce3 c03d 3328 573e e123 943e
00000040: 2411 703d db6b 10be 442e 753e 1826 2bbd
00000050: de63 293e 2879 6f3e 89ba 00bc 8069 0e3e
00000060: 3b13 953d a317 cebc aa2c ecbd e71f a6bc
00000070: 690a 803e 5713 a1bc 1fdc 16be 7ccf 20be
00000080: d21e 6abd 7095 8d3d 51e2 673d 5ba6 a8bd
00000090: 8f2a 723d dfe5 7ebd 97c1 c1bd 2548 13be
000000a0: 6523 b43d ef77 c2bc 402d 993e a03e 8c3e
000000b0: df09 7abe d651 89be 24f0 25be 62b9 76be
000000c0: a6df 3bbe 8dca 58be ff92 fa3d d350 cf3d
000000d0: 9cde 7a3c 9ee6 5c3e 325a dcbc 0e11 353e
000000e0: 477f 53be 6679 a03e cb08 853e 97fc 103e
000000f0: 99c8 3fbc 20ba e2bc c1c9 da3d c28e 9d3d
00000100: 644b 4a3c 5dda 3fbe 054f 8d3e c062 823e
-0.09034122 -0.13587469 -0.054482546 0.004205583 0.08073784 -0.020341199 0.16632037 0.037134465
-0.0065314025 0.0451732 0.1181321 0.17216243 0.020430071 0.09418413 0.21011429 0.28933623
0.058610097 -0.14103644 0.2394343 -0.041784376 0.16542003 0.23386061 -0.007856973 0.13907433
0.072790585 -0.025157755 -0.115319565 -0.020278884 0.25007942 -0.019662542 -0.14732407 -0.15704149
-0.0571583 0.069132686 0.056612317 -0.08234855 0.05912262 -0.06223094 -0.094607525 -0.1438299
0.087958135 -0.02373883 0.29917336 0.2739153 -0.24417828 -0.26820248 -0.16204888 -0.24094155
-0.18347034 -0.21171017 0.122350685 0.10122838 0.015311863 0.21572348 -0.026898477 0.17682287
-0.20654021 0.3134262 0.2598327 0.14158855 -0.011705541 -0.027676642 0.10683013 0.076932445
0.012347076 -0.18735643 0.2759935 0.25465965

lstm.bias_hh_l1 f4 [68]
00000000: 860c 3ebd 2950 1fbe 337a f1bc 308a 823e
00000010: 59ac 363e 4ea3 2ebe d699 0e3e 22b9 07bd
00000020: f703 5f3d f6f3 12be 0291 8e3e b188 1a3c
00000030: c136 523d 6645 b2bc dc13 46be 3e5e 90bc
00000040: 2b3d d3bc da49 67bc 7c37 2d3b a5d3 8c3e
00000050: 251b 9e3e b4e7 0e3e a6f7 483d 6ff3 afbd
00000060: 1d3d c23d a54f 743d 350b 183e de99 653e
00000070: ded6 eebc 6ff2 b2bd 8dd7 053e 5e21 703e
00000080: 8a6a 2e3e 741c 863e 72b7 79be 1c0c b9bd
00000090: 68d2 49be 6cc4 a73d d104 b83d 30f1 bcbd
000000a0: 75d0 e2bd 17fb 803e 548a a23e a7b7 95bd
000000b0: 25d8 8f3d 71d8 e13d 074d 6a3e 2be4 b3bd
000000c0: feb0 51be 77d0 233e e853 813d f30a 493e
000000d0: ef5b 713e 5bf4 a3bd 608b 7bbd 33af 423e
000000e0: 1b15 debd 595f 553e e159 b23e 69b3 15bd
000000f0: 89b6 ef3d 872c c63d b0ba 12be 6254 203e
00000100: 0c69 5e3e 3146 06be d16e 743e 9607 9a3e
-0.046398662 -0.15557922 -0.029477214 0.25496054 0.17839183 -0.17054483 0.13925871 -0.03313554
0.05444714 -0.14350876 0.27845007 0.009432004 0.05132175 -0.021761607 -0.19343513 -0.017623063
-0.025786003 -0.014116729 0.0026430776 0.27505222 0.30880085 0.13955575 0.0490643 -0.08591353
0.09484313 0.059646267 0.14848025 0.22421977 -0.029155191 -0.08737647 0.13070507 0.23450229
0.17032829 0.26193583 -0.24386385 -0.09035513 -0.1970917 0.081917614 0.08985294 -0.0922569
-0.11074916 0.25191566 0.3174616 -0.073104195 0.07023648 0.11027611 0.22880946 -0.08783754
-0.20477673 0.15997492 0.06314832 0.19633083 0.23570226 -0.080055915 -0.061412215 0.19012146
-0.10843869 0.20837153 0.34834197 -0.036548052 0.11704738 0.09676462 -0.14329028 0.1565719
0.2171976 -0.13112713 0.23870398 0.30083913

linear.model.0.weight f4 [2, 17]
00000000: a074 9bbe 1cf6 883e ae67 6cbe 5b27 0f3e
00000010: b815 62bd bb79 683e b0c8 693e 7e66 b5be
00000020: a01e b93d d556 553e feb1 c6be 1312 303d
00000030: 6871 773e 5989 9fbe 456b ccbc a6b5 eebe
00000040: bf74 9e3e 6364 093e 8c67 e8bd 1c95 41be
00000050: b752 4bbe d730 4a3e 65cf 53be 0469 af3e
00000060: 2171 143b 4b44 aebd 4dd5 f1bd e2f0 f03d
00000070: 3f0f 593e e9f4 56be 4c4b 503e 7f95 09be
00000080: ca0c 0cbe 9599 583e
-0.30362415 0.26750267 -0.23086426 0.13979857 -0.055196494 0.22702686 0.22830462 -0.35429758
0.090390444 0.20833905 -0.38807672 0.042985987 0.24164355 -0.31159475 -0.024953494 -0.46622962
0.30948445 0.134172 -0.11347875 -0.18904537 -0.19855772 0.19745193 -0.20684583 0.34259808
0.0022650438 -0.085091196 -0.11808262 0.11764695 0.21197222 -0.20991863 0.20341223 -0.13435934
-0.13676754 0.21152337

linear.model.0.bias f4 [2]
00000000: 5a93 11bd 2d57 d83d
-0.035540916 0.105635025
