examples/2_streamflow_isotope_simulation/results/20241125_101506_612553/loss_c60a7_00002_2_batch_size=8,hidden_size=11,learning_rate=0.0020,n_epochs=182,num_layers=1_2024-11-25_10-15-11/checkpoint_000020/model.pt (torch, 5556 bytes, 6 tensors)

lstm.weight_ih_l0 f4 [44, 4]
-0.2891383 -0.12537406 0.19469756 0.02496456 0.6616271 -0.037086073 -0.32137156 0.03070198
0.2507907 -0.08419602 -0.37147883 0.38631287 0.4715329 0.22852692 0.4547086 0.18520726
0.20765588 -0.13107248 0.12273615 -0.22853254 0.13330097 -0.23907599 0.3211682 0.00025108038
0.32915622 0.45518455 0.52622944 0.10249278 -2.7033966e-06 -0.06440587 -0.04685907 0.14018212
0.16848592 -0.065645166 0.3096 0.024539117 0.41972226 0.08031368 -0.23599656 -0.1334772
-0.05169171 -0.06593149 -0.14113182 0.07762923 0.25920492 -0.41182637 -0.035187636 -0.043242775
0.22682084 0.3307326 -0.29776737 -0.15436836 -0.2111205 0.038640436 -0.3414787 0.08709489
-0.24299476 0.027539365 0.2578171 0.31872937 0.34563956 -0.14098921 0.07474956 0.15457973
0.024383545 -0.06577096 -0.32200328 -0.24941678 0.37196097 0.046346758 0.5879583 -0.0141002005
-0.03463102 -0.039411917 0.3538396 -0.059270572 0.2951792 0.40081176 -0.07463803 -0.08308429
0.54834795 0.022057153 0.10701089 -0.07892499 0.16663052 0.2659483 0.31388876 0.37751663
-0.19451566 -0.21672997 0.23075695 0.11947894 -0.36835083 0.19183144 0.09999358 -0.12029463
0.38507107 0.19301759 0.34004164 -0.050507516 0.4870448 -0.24994308 -0.34681833 -0.06899098
-0.41830555 -0.25922585 -0.24934699 0.008670194 -0.059580322 0.34482253 -0.06820051 0.10001012
-0.03257837 0.015983451 -0.1751757 -0.16440085 0.0820841 -0.21461342 -0.07752136 -0.23457302
-0.029092824 -0.23814125 -0.40159243 0.078477554 -0.17455141 0.08285164 -0.30609795 -0.35102317
-0.041163016 -0.108459435 -0.12731348 0.0044968165 -0.26300105 -0.21073955 -0.031366546 -0.16391388
0.37625343 -0.1261319 0.27900532 0.012064643 0.53301334 -0.0026269918 -0.36374068 -0.053044192
0.3629809 0.13440678 0.53003997 0.31307262 0.20519501 -0.21164417 -0.26429915 0.028090961
0.036640733 0.16550623 -0.04451622 -0.063346155 0.21177508 -0.15731516 -0.1284103 0.17243613
-0.35683817 0.64168346 0.18208636 -0.4793088 0.31615615 0.024508262 0.13518956 -0.041743614
0.68979317 0.19449173 -0.1130231 0.09684957 0.43443266 0.09026698 -0.1594748 0.06302419
00000000: ef09 94be 0f62 00be cc5e 473e 7a82 cc3c
00000010: 6560 293f 91e7 17bd d08a a4be b882 fb3c
00000020: a367 803e f76e acbd 7932 bebe cdca c53e
00000030: c36c f13e f602 6a3e 91cf e83e f9a6 3d3e
00000040: bea3 543e dd37 06be 175d fb3d 6f04 6abe
00000050: 0d80 083e 56d0 74be 2970 a43e 70a3 8339
00000060: 2a87 a83e f30d e93e f9b6 063f bce7 d13d
00000070: 006c 35b6 3ae7 83bd 4cef 3fbd e78b 0f3e
00000080: 9387 2c3e f970 86bd e483 9e3e 4206 c93c
00000090: d6e5 d63e 807b a43d 15a9 71be 3fae 08be
000000a0: b0ba 53bd 1707 87bd dc84 10be 13fc 9e3d
000000b0: 82b6 843e e8da d2be e920 10bd 561f 31bd
000000c0: b943 683e c955 a93e f774 98be bd12 1ebe
000000d0: f92f 58be 6f45 1e3d 4cd6 aebe ce5e b23d
000000e0: 9ed3 78be 3c9a e13c 9a00 843e 7f30 a33e
000000f0: abf7 b03e 7a5f 10be 4c16 993d 264a 1e3e
00000100: 00c0 c73c edb2 86bd 9ddd a4be 1d67 7fbe
00000110: ab71 be3e 19d6 3d3d 6f84 163f 8704 67bc
00000120: 42d9 0dbd 646e 21bd 772a b53e b3c5 72bd
00000130: ba21 973e 3337 cd3e d3db 98bd 1928 aabd
00000140: 8860 0c3f 34b1 b43c 8728 db3d 6da3 a1bd
00000150: 31a1 2a3e 602a 883e 07b6 a03e dc49 c13e
00000160: 1d2f 47be 76ee 5dbe 8d4b 6c3e 60b1 f43d
00000170: 7b98 bcbe 766f 443e 6fc9 cc3d 085d f6bd
00000180: 0928 c53e 67a6 453e f019 ae3e f8e0 4ebd
00000190: f05d f93e 14f1 7fbe 2c92 b1be 254b 8dbd
000001a0: 252c d6be 40b9 84be d154 7fbe 6e0d 0e3c
000001b0: 7f0a 74bd 948c b03e b6ac 8bbd 1bd2 cc3d
000001c0: e670 05bd baef 823c 4261 33be b258 28be
000001d0: b51b a83d 9fc3 5bbe 85c3 9ebd e933 70be
000001e0: 1354 eebc 4ddb 73be 869d cdbe d7b8 a03d
000001f0: 9bbd 32be 1fae a93d dfb8 9cbe 4fb9 b3be
00000200: 8d9a 28bd fb1f debd 775e 02be 085a 933b
00000210: 13a8 86be 1ccc 57be 357a 00bd 0ad9 27be
00000220: 4aa4 c03e b928 01be c9d9 8e3e c8aa 453c
00000230: 9073 083f 9c29 2cbb 383c babe de44 59bd
00000240: a2d8 b93e eea1 093e b3b0 073f 0e4b a03e
00000250: a41e 523e 40b9 58be 3852 87be 041f e63c
00000260: 9814 163d 777a 293e a456 36bd a1bb 81bd
00000270: 91db 583e 3a17 21be fd7d 03be 1993 303e
00000280: 7eb3 b6be 5e45 243f d974 3a3e f767 f5be
00000290: 38df a13e 8dc5 c83c 226f 0a3e 5afb 2abd
000002a0: 4996 303f d728 473e a878 e7bd 1159 c63d
000002b0: f56d de3e e5dd b83d 5d4d 23be d412 813d

lstm.weight_hh_l0 f4 [44, 11]
0.2645918 -0.14661875 0.30315775 -0.2546912 -0.09123636 -0.18802671 0.08553647 0.06353029
0.22264431 -0.0029738897 -0.066953056 -0.1988687 -0.1643781 -0.03049839 0.31309763 0.18314588
0.26537812 -0.086615466 0.24649864 -0.3029129 0.09332167 -0.22300506 0.48632243 -0.1153659
-0.0053262357 -0.17768964 0.26610112 0.09221745 -0.40950266 0.22952266 0.04984426 0.054440703
-0.25595722 0.19832195 -0.44051796 0.075605996 0.13197753 -0.3821249 0.3803351 -0.3781917
0.05568019 -0.47660667 -0.23249178 0.043023355 -0.105956905 -0.09317085 0.042017482 -0.39844686
0.30618235 0.15727921 0.032850172 0.16094874 -0.09242167 -0.2771768 -0.35327286 -0.056740966
0.12279247 0.12709373 -0.3040745 0.19705962 0.1852156 0.13701181 0.28253558 -0.36057407
0.19637135 0.08049988 0.04344534 0.45706728 0.1509523 0.017147431 0.13185348 0.25540414
-0.27403694 -0.012828959 -0.12958641 -0.281003 0.20267096 -0.22121978 -0.36053258 -0.23274767
-0.07135382 -0.38136768 -0.045762636 0.14412461 0.097604655 -0.03500688 -0.32388565 -0.32187104
0.37809712 0.09956126 0.13870858 -0.1513467 0.25181872 -0.26389518 0.20871057 -0.13862906
-0.020250894 0.36884362 -0.16270651 -0.0703517 -0.029383684 0.47820494 0.14046557 0.081005245
-0.20065185 0.105536304 -0.19012335 0.25890633 0.15450476 0.15277739 0.29146063 -0.15672581
-0.07180415 0.0054571917 0.30611944 0.19413324 -0.1879581 0.25546238 0.2312879 0.017372759
-0.10309716 0.02836084 -0.41805804 -0.13602266 -0.26318043 0.16552429 -0.22640546 -0.21618742
0.19525518 0.457416 0.31140426 -0.21834403 -0.1549244 -0.10714724 0.14057788 0.1830445
0.28825292 0.48469022 0.3875368 -0.10577961 -0.10277664 0.1933806 -0.20219377 -0.17337981
-0.116988726 -0.18720812 0.224616 0.24372242 -0.051969334 -0.2566613 -0.097016886 -0.022250704
0.16388272 -0.08932455 0.21254677 -0.01200564 0.17743908 -0.06015492 0.29142055 -0.20672831
0.17564775 -0.22806177 0.15528712 -0.1612003 -0.23378986 0.43375498 -0.09233055 0.33872533
-0.033621952 0.009217893 -0.20994647 -0.37151283 0.0062837075 0.15355736 0.15875207 -0.31233594
0.0126797585 -0.30701208 -0.3936249 -0.32525384 -0.006818211 0.064371035 0.05809718 0.39959323
0.21586902 -0.08372156 -0.3131169 0.25939268 0.3132436 0.39505294 -0.042986754 0.21943356
-0.22508653 -0.21092845 -0.20869786 0.038575184 -0.17443377 -0.021292023 0.00373757 -0.27518007
-0.23151092 0.13783386 0.16257969 0.5009005 -0.13797508 -0.080132455 -0.42921188 -0.30736047
0.038163986 0.1353365 -0.16981031 0.12644635 -0.5028895 0.25210628 -0.32042477 -0.12968309
0.21869047 -0.21145503 0.15737362 -0.036775593 -0.20477365 0.0608489 0.14424102 -0.07783104
0.08458887 0.25233692 -0.32455534 0.3972957 -0.34875214 -0.03700593 -0.2667911 0.43383175
-0.04676213 -0.270983 -0.21171802 0.256256 -0.054202236 -0.28080162 0.500861 -0.33631107
0.09126947 -0.16969043 0.08400843 0.091494516 0.32134032 0.002111963 -0.036460362 -0.20827931
0.10200417 0.22976588 0.3635502 0.30628696 0.016953276 0.0811208 0.1393564 0.22447851
00000000: 9478 873e 3a23 16be 7e37 9b3e e366 82be
00000010: 21da babd 138a 40be bf2d af3d 2b1c 823d
00000020: dffc 633e 97e5 42bb af1e 89bd 3da4 4bbe
00000030: bc52 28be c2d7 f9bc 554e a03e 988a 3b3e
00000040: a4df 873e 7363 b1bd 246a 7c3e 6617 9bbe
00000050: 6f1f bf3d 705b 64be 41ff f83e f544 ecbd
00000060: b487 aebb 46f4 35be 683e 883e 81dc bc3d
00000070: 55aa d1be fd07 6b3e 7f29 4c3d 37fd 5e3d
00000080: d30c 83be e914 4b3e 928b e1be 51d7 9a3d
00000090: 1e25 073e e0a5 c3be 48bb c23e 58a2 c1be
000000a0: e910 643d ca05 f4be 5312 6ebe 4239 303d
000000b0: efff d8bd 5cd0 bebd 861a 2c3d 3a01 ccbe
000000c0: efc3 9c3e cd0d 213e e78d 063d bfcf 243e
000000d0: 9347 bdbd 1eea 8dbe 2ee0 b4be 3769 68bd
000000e0: 9e7a fb3d dc24 023e a7af 9bbe ffc9 493e
000000f0: 29a9 3d3e d34c 0c3e 81a8 903e 2a9d b8be
00000100: 9215 493e 1fdd a43d bef3 313d b904 ea3e
00000110: 3d93 1a3e c578 8c3c 9904 073e 55c4 823e
00000120: 924e 8cbe 8e30 52bc 4db2 04be a0df 8fbe
00000130: fa88 4f3e 7087 62be ba97 b8be 6855 6ebe
00000140: f421 92bd a042 c3be 9a71 3bbd 6795 133e
00000150: f3e4 c73d 6063 0fbd 57d4 a5be 48cc a4be
00000160: f295 c13e c6e6 cb3d 9f09 0e3e a1fa 1abe
00000170: 62ee 803e 451d 87be 39b8 553e c7f4 0dbe
00000180: 34e5 a5bc 12d9 bc3e 899c 26be 8d14 90bd
00000190: 0db6 f0bc 47d7 f43e 35d6 0f3e 14e6 a53d
000001a0: ae77 4dbe 6b23 d83d b2af 42be 5f8f 843e
000001b0: 7f36 1e3e ad71 1c3e 543a 953e bb7c 20be
000001c0: 0e0e 93bd 3ed2 b23b b0bb 9c3e ddca 463e
000001d0: 1778 40be f7cb 823e bcd6 6c3e 5151 8e3c
000001e0: 9b24 d3bd fe54 e83c b40b d6be 8649 0bbe
000001f0: 96bf 86be 337f 293e d5d6 67be 3c60 5dbe
00000200: f9f0 473e 6e32 ea3e 6170 9f3e 9495 5fbe
00000210: 80a4 1ebe 0370 dbbd a6f3 0f3e 0470 3b3e
00000220: e395 933e 5129 f83e 396b c63e fba2 d8bd
00000230: 8f7c d2bd 9005 463e e20b 4fbe 7a8a 31be
00000240: c997 efbd 7cb3 3fbe bd01 663e 5f92 793e
00000250: ccdd 54bd 1c69 83be cab0 c6bd 1c47 b6bc
00000260: dfd0 273e caef b6bd dca5 593e 4eb3 44bc
00000270: 97b2 353e 0165 76bd 1335 953e 96b0 53be
00000280: 01dd 333e 0689 69be 9603 1f3e b111 25be
00000290: 9c66 6fbe 2215 de3e cd17 bdbd 686d ad3e
000002a0: 2cb7 09bd a506 173c 35fc 56be ee36 bebe
000002b0: 8fe7 cd3b 243e 1d3e e78f 223e 7fea 9fbe
000002c0: c3be 4f3c b030 9dbe 3489 c9be ac87 a6be
000002d0: 4d6b dfbb f6d4 833d 4ff7 6d3d 7c97 cc3e
000002e0: c50c 5d3e 3676 abbd dc50 a0be 1ecf 843e
000002f0: 7761 a03e 6144 ca3e e112 30bd 31b3 603e
00000300: 157d 66be a1fd 57be e4b4 55be 0301 1e3d
00000310: c49e 32be 9c6c aebc 05f2 743b 67e4 8cbe
00000320: 3311 6dbe 5224 0d3e 4a7b 263e 043b 003f
00000330: 5749 0dbe 7c1c a4bd a9c1 dbbe 5a5e 9dbe
00000340: d751 1c3d a795 0a3e c1e2 2dbe 277b 013e
00000350: 5ebd 00bf 1314 813e b70e a4be a5cb 04be
00000360: 65f0 5f3e ab87 58be 8d26 213e 01a2 16bd
00000370: 2fb0 51be b23c 793d ebb3 133e e165 9fbd
00000380: ee3c ad3d 4e32 813e 1e2c a6be 586a cb3e
00000390: a48f b2be 8893 17bd d898 88be 321f de3e
000003a0: a689 3fbd 49be 8abe 9ccc 58be fd33 833e
000003b0: 2a03 5ebd 3bc5 8fbe 6d38 003f f730 acbe
000003c0: 7deb ba3d 54c3 2dbe 9d0c ac3d 7a61 bb3d
000003d0: b886 a43e dc68 0a3b 7657 15bd 2c47 55be
000003e0: 90e7 d03d bf47 6b3e 4023 ba3e a5d1 9c3e
000003f0: 99e1 8a3c a922 a63d 72b3 0e3e b2dd 653e

lstm.bias_ih_l0 f4 [44]
0.15474887 0.24602638 0.44812623 -0.0928597 0.27573684 -0.06516009 -0.06634042 0.28022316
-0.20510404 0.38728657 0.5630288 0.23295978 0.22498786 0.13261779 0.03810731 0.048359413
0.23723727 0.12077726 0.0117048295 0.3102541 -0.104617774 0.5345527 0.1386455 0.11129922
0.056636367 -0.024643298 0.18973842 -0.08439212 -0.18192354 0.15108766 0.008533425 -0.1697186
-0.4213412 -0.052229583 0.3168089 0.18330376 -0.051423304 0.46998987 0.21445875 0.10255892
-0.03968798 0.005808904 -0.07688831 -0.14703654
00000000: 7d76 1e3e 57ee 7b3e cd70 e53e 3a2d bebd
00000010: 612d 8d3e a772 85bd 7cdd 87bd 6979 8f3e
00000020: cb06 52be 6d4a c63e a822 103f 028d 6e3e
00000030: 3863 663e f5cc 073e 6916 1c3d 8514 463d
00000040: 54ee 723e 115a f73d 9dc5 3f3c a0d9 9e3e
00000050: d841 d6bd 72d8 083f 16f9 0d3e d8f0 e33d
00000060: 89fb 673d bee0 c9bc ca4a 423e c7d5 acbd
00000070: 2a4a 3abe b9b6 1a3e c7cf 0b3c b6ca 2dbe
00000080: 09ba d7be b0ee 55bd c734 a23e fbb3 3b3e
00000090: 3ea1 52bd 83a2 f03e 139b 5b3e 690a d23d
000000a0: dd8f 22bd 9e58 be3b 9e77 9dbd bf90 16be

lstm.bias_hh_l0 f4 [44]
-0.1609973 0.23760633 0.39537355 0.05080465 0.076439545 -0.16320242 0.18060225 -0.11391463
-0.04227261 0.30235437 -0.016701514 0.16981725 0.108583406 -0.09984403 0.285681 0.3871134
0.46410084 0.022366384 0.0745661 0.52431965 0.30465707 0.33873823 0.24516381 -0.062429257
-0.025413148 -0.27325916 0.13206856 -0.0024077646 -0.41366577 0.16331522 0.029017778 -0.14986227
-0.3120047 0.2765651 0.39367336 0.37850854 0.05357275 -0.07188611 0.00187366 0.5315614
-0.27004007 0.38312456 0.1574987 0.039925423
00000000: 7adc 24be 134f 733e 676e ca3e 8918 503d
00000010: 568c 9c3d 891e 27be ccef 383e 134c e9bd
00000020: 0b26 2dbd 31ce 9a3e 9dd1 88bc 93e4 2d3e
00000030: fa60 de3d 077b ccbd c844 923e ba33 c63e
00000040: a09e ed3e b539 b73c 1db6 983d d039 063f
00000050: 03fc 9b3e 196f ad3e 390c 7b3e d2b5 7fbd
00000060: 3c2f d0bc a0e8 8bbe fb3c 073e 96cb 1dbb
00000070: 00cc d3be 1b3c 273e b1b6 ed3c 7f75 19be
00000080: 14bf 9fbe f199 8d3e 8e8f c93e dfcb c13e
00000090: 1a6f 5b3d 0639 93bd 9995 f53a 6814 083f
000000a0: b142 8abe e728 c43e 5747 213e d788 233d

linear.model.0.weight f4 [2, 11]
-0.11387241 -0.4815336 0.73470277 0.7321557 -0.27511206 -0.25308076 -0.43324742 -0.23258342
0.17349833 -0.35964003 -0.42714497 -0.23222911 -0.20959035 -0.19268072 -0.2866756 -0.3880666
0.25322756 -0.055981904 0.21666226 -0.29616892 -0.42422146 -0.14864145
00000000: f035 e9bd 928b f6be 7b15 3c3f 8e6e 3b3f
00000010: 7ddb 8cbe cd93 81be 9bd2 ddbe 592a 6ebe
00000020: 8ca9 313e bd22 b8be bfb2 dabe 78cd 6dbe
00000030: da9e 56be 184e 45be 25c7 92be aab0 c6be
00000040: 0ba7 813e 484d 65bd b6dc 5d3e 74a3 97be
00000050: 8e33 d9be 7735 18be

linear.model.0.bias f4 [2]
-0.14705104 -0.17178652
00000000: 8c94 16be cee8 2fbe
