examples/2_streamflow_isotope_simulation/results/20241125_101506_612553/loss_c60a7_00005_5_batch_size=8,hidden_size=17,learning_rate=0.0020,n_epochs=251,num_layers=2_2024-11-25_10-15-11/checkpoint_000011/model.pt (torch, 19740 bytes, 10 tensors)

lstm.weight_ih_l0 f4 [68, 4]
0	0x3cfac7ce	0.030612852
1	0x3d9d7549	0.07688386
2	0x3d86457c	0.06556222
3	0xbe3a5405	-0.18196113
4	0x3e2a1a6a	0.16611639
5	0xbe271acb	-0.16318814
6	0x3d93fe96	0.07226293
7	0xbdaf9748	-0.085737765
8	0x3ea8731d	0.32900324
9	0xbdec31e0	-0.115329504
10	0xbd58efe5	-0.052963156
11	0xbcc6eefb	-0.024283877
12	0xbe45e419	-0.19325294
13	0x3e4e5cf2	0.20152643
14	0xbe4cf6dc	-0.20016044
15	0xbe595108	-0.21222317
16	0x3ed4fb28	0.41597867
17	0x3e3c7c25	0.18406732
18	0xbde418f9	-0.11137576
19	0xba8ba650	-0.0010654423
20	0xbeb3a589	-0.3508723
21	0x3d0548f6	0.032540284
22	0x3e2f67dc	0.17129463
23	0x3cd1a16c	0.025589667
24	0x3de2c7cc	0.110732645
25	0x3e8d07f0	0.27545118
26	0x3d8c72b4	0.068578154
27	0xbde82264	-0.113346845
28	0x3ebf8a8f	0.374104
29	0x3db0ffde	0.08642553
30	0xbe72555a	-0.23665372
31	0x3e475f1f	0.1946988
32	0xbd3eec79	-0.046612237
33	0xbe53530c	-0.20637149
34	0xbeb014c9	-0.34390858
35	0x3dbbb2b6	0.09164946
36	0x3e3f9aec	0.18711442
37	0xbdd46c23	-0.10372188
38	0x3e2a475e	0.16628787
39	0x3c3861bc	0.01125377
40	0x3ec92f58	0.39293933
41	0x3bd84c8b	0.0066009215
42	0x3e031c3d	0.12803741
43	0x3e3841e1	0.17993881
44	0x3e8ed3a1	0.27895835
45	0xbd358225	-0.04431357
46	0x3c767305	0.015042071
47	0xbdd3f4a9	-0.103493996
48	0xbdec7cb4	-0.11547223
49	0x3e9729cf	0.29524085
50	0xbe0e7bb1	-0.13914372
51	0xbe4ecfa7	-0.201964
52	0x3e9065d8	0.282027
53	0xbeb861cd	-0.36012116
54	0xbe5fafd5	-0.21844418
55	0x3e8b0df0	0.2715907
56	0x3ed37a9a	0.41304475
57	0x3da2428c	0.07922849
58	0x3d7a169f	0.06105673
59	0xbddc901a	-0.10769673
60	0x3e8a535e	0.2701673
61	0xbd3ab2c6	-0.045580648
62	0xbddf239e	-0.10895465
63	0x3e0ea02c	0.13928288
64	0x3ec6d9e5	0.38838115
65	0xbe0557b4	-0.13021737
66	0xbdb3068a	-0.087414816
67	0xbda34add	-0.079732634
68	0x3cf698b3	0.03010211
69	0x3e9e0e96	0.30870503
70	0xbdd80bef	-0.10549151
71	0xbe765673	-0.24056415
72	0x3eb41f9b	0.35180363
73	0x3e918ad7	0.2842624
74	0x3e8a2cb9	0.26987246
75	0x3d26540e	0.040607505
76	0x3e6e2a64	0.23258358
77	0x3e225ff0	0.1585691
78	0x3e5070f0	0.20355582
79	0x3e6f0f50	0.23345685
80	0x3e9a931b	0.30190358
81	0xbdfa42ac	-0.12219748
82	0xbeb914f2	-0.36148793
83	0xbe85c91b	-0.26129994
84	0x3ed740bd	0.4204158
85	0x3e182e4f	0.14861415
86	0x3d72e8f1	0.05930418
87	0xbe3cd8c1	-0.1844206
88	0xbec641d4	-0.38722098
89	0x3e0e455b	0.13893645
90	0xbd9eeff7	-0.077606134
91	0x3d85f748	0.06541306
92	0x3db0f030	0.08639562
93	0x3eab0cc5	0.3340818
94	0x3c05a348	0.008156605
95	0x3d9904fb	0.07471653
96	0x3d3b4051	0.045715634
97	0x3da2550c	0.07926378
98	0x3c489250	0.012241915
99	0x3e497d8c	0.19676799
100	0x3dac8cbd	0.08425281
101	0x3e266dec	0.1625287
102	0xbcd6d5c8	-0.026224986
103	0xbec279d6	-0.37983578
104	0x3e916fc5	0.28405586
105	0xbeb5c6cd	-0.35503235
106	0xbd39f0a2	-0.0453955
107	0x3b748409	0.0037310144
108	0x3ed7218b	0.4201778
109	0xbde2c78b	-0.11073216
110	0x3e87825a	0.26466638
111	0x3d974576	0.073862955
112	0x3db90991	0.09035028
113	0x3d842837	0.06452983
114	0x3dc1327f	0.094334595
115	0xbcf3391c	-0.029690318
116	0xbe823ecd	-0.25438538
117	0xbe412b42	-0.18864158
118	0xbd7888fd	-0.060677517
119	0xbe708271	-0.2348726
120	0xbcd06fa1	-0.025443854
121	0xbe2c97fb	-0.16854851
122	0x3c6a6edf	0.01430866
123	0xbe3832e5	-0.17988165
124	0xbd4fb818	-0.050712675
125	0x3d93f312	0.07224096
126	0x3e32a21a	0.1744465
127	0xbe616535	-0.22011264
128	0xbeba074c	-0.36333692
129	0xbd814072	-0.0631112
130	0xbea910c5	-0.33020607
131	0xbde1985b	-0.110153876
132	0x3e759134	0.23981172
133	0xbc869bed	-0.016431773
134	0xbd438a66	-0.04773941
135	0x3e239bae	0.15977356
136	0xbec94d10	-0.39316607
137	0xbe367c81	-0.17820932
138	0xbe47ab15	-0.19498856
139	0x3e706667	0.23476563
140	0x3e953f06	0.29149646
141	0x3e271014	0.16314727
142	0x3dedfcb9	0.11620469
143	0xbdad9318	-0.084753215
144	0x3e20ef1f	0.15716217
145	0x3de0cdac	0.10976729
146	0x3e4d574d	0.20052834
147	0x3cc33b96	0.023832124
148	0xbe7a1674	-0.24422628
149	0xbe422dcc	-0.18962783
150	0x3dbcbe7f	0.09216022
151	0x3dcec3fe	0.10095976
152	0xbd9a4dfa	-0.07534404
153	0x3e4d6da4	0.20061356
154	0x3df53093	0.119721554
155	0x3e0e6dc1	0.13909055
156	0xbe4106e6	-0.18850288
157	0xbd6e22ee	-0.05813878
158	0x3e1b6bb9	0.15177812
159	0xbe64cf6e	-0.22344753
160	0x3ee937db	0.45550427
161	0xbe15dbc9	-0.14634623
162	0x3cfafc06	0.030637752
163	0x3d23e9c7	0.04001787
164	0x3ea3bb47	0.3197882
165	0xbd5f27e6	-0.05448141
166	0x3e81eb9d	0.2537507
167	0x3e07b057	0.13250862
168	0xbdc8acb9	-0.09798569
169	0x3b77afd9	0.0037794022
170	0x3e70ab91	0.23502947
171	0xbc8b2951	-0.016987475
172	0x3ba40b89	0.005006258
173	0xbea4d328	-0.3219235
174	0xbdf31a68	-0.11870271
175	0xbdd6a37b	-0.104804
176	0x3eadc46e	0.33938926
177	0xbd167e9a	-0.03674183
178	0x3d10b5b6	0.035329543
179	0x3de0b564	0.109720975
180	0xbe16fd47	-0.14745055
181	0xbe2238a0	-0.15841913
182	0xbe69afaa	-0.22820917
183	0x3db3a5aa	0.08771832
184	0x3ee24c94	0.4419905
185	0x3dc6254f	0.09675085
186	0x3d8a3cab	0.06749853
187	0x3ceba246	0.028763901
188	0xbeb07ff1	-0.34472612
189	0xbe0c2bf6	-0.13688645
190	0xbd3d654a	-0.046239175
191	0x3e3aa95a	0.18228665
192	0xbeb9c2d0	-0.36281443
193	0x3da656e2	0.0812204
194	0x3d0eff50	0.034911454
195	0x3e20ad92	0.15691212
196	0x3eab5085	0.3345987
197	0x3e191380	0.14948845
198	0xbd0b65dd	-0.03403269
199	0xbdb00187	-0.08594041
200	0xbe2bb0ec	-0.16766709
201	0x3e5b0c08	0.21391308
202	0x3c136a69	0.008997538
203	0xbe25fe9c	-0.16210407
204	0x3ee8ca68	0.45466924
205	0x3e570ea7	0.21001683
206	0x3d7a759d	0.06114732
207	0x3e435f2a	0.19079271
208	0x3e7b263c	0.24526304
209	0xbc9e6bb6	-0.01933847
210	0x3ddbac9e	0.107262835
211	0x3d76d944	0.060265794
212	0x3c49d278	0.012318246
213	0xbc6a804a	-0.014312813
214	0x3e95c3a5	0.29250827
215	0x3e82404b	0.25439677
216	0xbdfcf92f	-0.123522155
217	0xbe550b2e	-0.20805046
218	0xbe26e9cf	-0.16300128
219	0x3de7dc98	0.11321372
220	0x3f037bf3	0.51361006
221	0x3c3a02b2	0.011353182
222	0xbe0c2031	-0.13684155
223	0xbe342d95	-0.17595513
224	0xbecb0eef	-0.3965983
225	0xbd11b7d7	-0.035575714
226	0x3e26853c	0.16261762
227	0xbe58b36f	-0.21162198
228	0x3e8c27f4	0.27374232
229	0x3ecec79a	0.4038666
230	0x3eb0b69e	0.34514326
231	0x3d98b22b	0.07455858
232	0x3e95f427	0.29287836
233	0xbde2bdd7	-0.11071365
234	0x3d9b663c	0.07587859
235	0x3e230fb5	0.1592396
236	0x3dd3ece0	0.10347915
237	0xbc65a73a	-0.014016921
238	0xbe967f13	-0.29393825
239	0xbe5c296a	-0.21500173
240	0x3e99949f	0.299962
241	0xbe40da23	-0.18833213
242	0x3d56a2f5	0.0524015
243	0xbcbfbb85	-0.023404846
244	0x3e703c81	0.2346058
245	0xbc1900cf	-0.009338572
246	0x3dc4ed0e	0.09615527
247	0xbd985f58	-0.074400604
248	0x3dfa9208	0.122348845
249	0x3e3462fe	0.17615888
250	0xbe071a39	-0.13193597
251	0xbdbbe969	-0.09175379
252	0x3d625ea0	0.055266023
253	0xbe8a0be8	-0.2696221
254	0xbbf7d92a	-0.00756373
255	0xbd9635e2	-0.07334496

lstm.weight_hh_l0 f4 [68, 17]
0	0x3d4373cc	0.047717854
1	0x3e6614ad	0.22468825
2	0x3e7b51b9	0.24542893
3	0xbda07b13	-0.078359745
4	0xbda4e57c	-0.08051583
5	0x3e26e255	0.16297276
6	0x3eb293a4	0.34878266
7	0x3c222240	0.009895861
8	0x3d6377af	0.05553406
9	0x3e764a16	0.24051699
10	0x3e1dc077	0.15405451
11	0x3e09304f	0.13397335
12	0xbeba81c9	-0.36427143
13	0xbe6398d8	-0.22226274
14	0x3c8d1558	0.017222092
15	0xbdc6c11e	-0.09704803
16	0x3e75bb46	0.2399722
17	0xbe5edb36	-0.2176331
18	0x3e8aa4d8	0.2707889
19	0x3d987325	0.07443837
20	0xbd7a2cf0	-0.061078012
21	0xbe412c77	-0.18864618
22	0x3e841b9b	0.2580231
23	0x3e862c9d	0.26205912
24	0x3dbd8889	0.09254558
25	0x3e6574f3	0.22407894
26	0xbd9453d5	-0.07242552
27	0x3e92553f	0.28580663
28	0xbe7a1b3d	-0.24424453
29	0x3d99ee26	0.07516126
30	0x3cf10ee2	0.029426042
31	0x3e3ae05e	0.18249652
32	0x3e81c4a6	0.25345343
33	0x3c06e88d	0.008234155
34	0x3db04afc	0.08608052
35	0xbde159de	-0.11003469
36	0x3e0a82d3	0.13526468
37	0x3e352f41	0.17693807
38	0xbdb4e3b9	-0.08832497
39	0x3e538c18	0.2065891
40	0x3db64b8e	0.0890113
41	0xbd2c2084	-0.042023197
42	0xbe7dbe12	-0.24779537
43	0xbd9a2301	-0.07526208
44	0x3c99193d	0.018688792
45	0xbe034e4f	-0.12822841
46	0x3e3de158	0.18542993
47	0xbe8be070	-0.2731967
48	0x3e39962c	0.18123692
49	0x3d9f7b3b	0.07787176
50	0xbdecd518	-0.11564082
51	0x3e12eb44	0.14347559
52	0xbe4cf783	-0.20016293
53	0x3e0fa821	0.1402898
54	0xbdf31119	-0.118684955
55	0xbe0e4b60	-0.13895941
56	0x3e3be453	0.18348818
57	0x3eaefbe8	0.34176564
58	0x3e606819	0.2191471
59	0x3abfa3fa	0.0014621012
60	0x3e6e778d	0.23287793
61	0x3d16195b	0.036645275
62	0xbe3a002d	-0.1816413
63	0xbd9fa7d8	-0.077956855
64	0xbdc287cc	-0.094985574
65	0xbe648d25	-0.22319467
66	0x3e0f4ac8	0.1399337
67	0xbe544ce8	-0.20732462
68	0x3e3d1f6a	0.18469015
69	0x3ca6b8d9	0.020351814
70	0xbe5e56be	-0.21712777
71	0x3e66e11a	0.22546807
72	0x3b84c0a4	0.004051285
73	0x3e5ca7df	0.21548413
74	0xbe05be54	-0.13060886
75	0x3db01680	0.085980415
76	0xbe4fb22e	-0.20282814
77	0x3d8ff860	0.07029796
78	0x3e1cbf72	0.15307406
79	0xbe0e5d47	-0.1390277
80	0xbde99d4a	-0.11406954
81	0xbe667ca7	-0.22508489
82	0x3d6b2f89	0.05741838
83	0x3e0ba512	0.13637188
84	0xbe2e865b	-0.1704344
85	0xbe2d059b	-0.1689667
86	0x3e07fffe	0.13281247
87	0x3c2f76bd	0.010709462
88	0xbcecadd0	-0.028891474
89	0x3e54459d	0.2072968
90	0x3ea6bab9	0.32564333
91	0xbe699a45	-0.22812755
92	0x3d8fa796	0.07014386
93	0x3e332323	0.17493872
94	0xbe97a08d	-0.29614678
95	0xbd96d2eb	-0.07364448
96	0xbdc89d22	-0.09795596
97	0x3d503d2b	0.050839584
98	0x3d9ea53c	0.0774636
99	0xbd0024b1	-0.03128499
100	0x3e0dc8b4	0.13846093
101	0xbe30c029	-0.17260803
102	0xbe8ee66a	-0.27910167
103	0x3dedcab2	0.11610927
104	0x3dd8b673	0.105816744
105	0x3e78641e	0.24256942
106	0x3d2b728a	0.04185728
107	0x3e97a86e	0.2962069
108	0x3e2cfc18	0.16893041
109	0xbdaeb3a5	-0.08530358
110	0xbd41192d	-0.04714315
111	0x3e328017	0.17431675
112	0x3dbdc19c	0.09265444
113	0xbe82335a	-0.25429803
114	0xbd7dd38c	-0.061969325
115	0xbecc97f0	-0.3995967
116	0x3df7ee4b	0.12105998
117	0xbd917228	-0.07101852
118	0x3eb24157	0.34815475
119	0xbe66f4a3	-0.22554259
120	0x3e512c4e	0.20427057
121	0x3e08bd0b	0.13353364
122	0xbd48216e	-0.048860006
123	0xbd30e385	-0.04318573
124	0xbe37ca57	-0.1794828
125	0x3e0e2ef5	0.138851
126	0x3d8f2c3d	0.0699086
127	0xbe972a1f	-0.29524323
128	0x3e306e93	0.1722968
129	0x3e61370a	0.21993652
130	0x3e817ff1	0.25292924
131	0xbe7897fc	-0.24276727
132	0xbec5fcfc	-0.38669574
133	0x3c383b59	0.011244618
134	0xbd563142	-0.05229307
135	0xbd4bb1d9	-0.049730156
136	0x3dd44cf3	0.103662394
137	0x3df53ceb	0.1197451
138	0xbcccefc4	-0.025016673
139	0xbd6633c2	-0.056201704
140	0x3e17e150	0.14832044
141	0xbe1bb5a5	-0.1520601
142	0x3e23bb7f	0.15989493
143	0x3e229c99	0.1588005
144	0xbcf38de0	-0.029730737
145	0x3dd3953e	0.103312
146	0xbe4f0708	-0.20217526
147	0xbdaf4a72	-0.08559121
148	0x3dcb8d35	0.099390425
149	0xbec32a4e	-0.38118213
150	0xbe9ecf48	-0.31017518
151	0xbe2afe45	-0.16698559
152	0xbe1efd2a	-0.15526262
153	0xbde2218b	-0.11041554
154	0xbe26a439	-0.16273583
155	0xbe08002f	-0.1328132
156	0x3e6fe544	0.23427302
157	0xbeaafaad	-0.33394375
158	0xbe16a3e4	-0.14710957
159	0xbddc74c3	-0.10764458
160	0x3e897edd	0.26854602
161	0xbcebb73e	-0.0287739
162	0x3e16b6fb	0.14718239
163	0x3e3a8c67	0.18217622
164	0x3e4aea55	0.19815953
165	0xbe87c3be	-0.26516527
166	0xbe7c3e57	-0.24633156
167	0xbb1ad963	-0.0023628108
168	0x3e50990c	0.20370883
169	0x3e1f8cdb	0.15581076
170	0xbe3265da	-0.17421666
171	0xbd20e3a2	-0.039279588
172	0x3e089be7	0.13340722
173	0x3e70fbee	0.23533604
174	0x3dd1dbe3	0.10247018
175	0x3e66c969	0.2253777
176	0xbccf68d3	-0.025318539
177	0x3e283c97	0.16429363
178	0xbe8a602d	-0.270265
179	0x3e3ea8a8	0.18619025
180	0xbd1a18d8	-0.03762135
181	0x3df0459f	0.11732029
182	0x3dd923df	0.10602545
183	0x3cfe6c65	0.031057546
184	0x3e3b852a	0.18312517
185	0xbe0d4277	-0.13794886
186	0x3e7837f3	0.24240093
187	0xbd8cedf2	-0.06881322
188	0x3e8006a0	0.25005054
189	0xbe27c29c	-0.16382831
190	0xbdf5f6c5	-0.12009958
191	0xbeb1117a	-0.34583646
192	0xbe4e7b52	-0.2016423
193	0x3ec5f425	0.3866283
194	0xbd0e3c71	-0.03472561
195	0xbe084e4a	-0.13311115
196	0xbdb9f400	-0.090797424
197	0xbdf19b65	-0.11797217
198	0x3e3ac186	0.18237886
199	0xbc6726ff	-0.0141084185
200	0xbda486fa	-0.08033557
201	0xbc909fe8	-0.017654374
202	0x3d537e32	0.05163402
203	0xbe108d5b	-0.14116423
204	0xbdb266d2	-0.08711018
205	0x3df44988	0.119280875
206	0x3d986984	0.074420005
207	0x3e4e6102	0.20154193
208	0x3d92f406	0.0717545
209	0x3e60bd31	0.21947171
210	0xbe2db993	-0.16965322
211	0xbda73bfe	-0.081657395
212	0x3dcbe0d6	0.099549934
213	0x3e9ee60e	0.31034893
214	0xbc6c6615	-0.014428635
215	0xbe22828d	-0.15870114
216	0x3db06bf3	0.0861434
217	0xbd12d19e	-0.035844438
218	0xbe248b0e	-0.1606867
219	0xbe5b8c5f	-0.21440266
220	0x3e3e15f0	0.18563056
221	0xbd82281e	-0.06355308
222	0x3e955d44	0.2917272
223	0x3d5bcefd	0.053664196
224	0x3e8bd31e	0.27309507
225	0xbde83fa5	-0.11340264
226	0xbc43d34b	-0.011952232
227	0x3ed0ebbd	0.40804854
228	0x3e854fe5	0.26037517
229	0xbe500144	-0.20312983
230	0x3e4b5188	0.1985532
231	0x3e82d7ea	0.25555354
232	0x3e91aff2	0.28454548
233	0x3de33988	0.110949576
234	0xbd8aca8b	-0.06776913
235	0xbca39b95	-0.019971648
236	0xbe16bc4a	-0.14720264
237	0xbe9a91c2	-0.3018933
238	0xbcad65f6	-0.021166783
239	0x3e52693f	0.2054796
240	0x3e0f712f	0.1400802
241	0xbe106cf7	-0.14104067
242	0x3ddbbf16	0.10729806
243	0x3e7e1a0f	0.24814628
244	0xbdcbc4c9	-0.09949643
245	0x3e95e0cc	0.2927307
246	0xbe4609b8	-0.19339645
247	0xbc863d8e	-0.016386773
248	0xbd21a4a5	-0.039463658
249	0xbe2711f8	-0.16315448
250	0x3e8856b0	0.26628637
251	0xbd1918f6	-0.03737732
252	0xbe14d4bd	-0.14534278
253	0x3dc4b630	0.09605062
254	0x3e21216b	0.15735404
255	0xbeacf062	-0.33777148

lstm.bias_ih_l0 f4 [68]
0	0xbd096b7a	-0.033549763
1	0xbe05380b	-0.1300966
2	0x3d3e4015	0.046447832
3	0x3e1e6e15	0.1547168
4	0xbdcb10df	-0.09915327
5	0xbe791fe4	-0.24328572
6	0xbc88f3e5	-0.01671786
7	0x3e7b5093	0.24542455
8	0xbd785a0c	-0.06063275
9	0x3d7b431b	0.061343294
10	0x3d236cc5	0.039898653
11	0x3e207921	0.15671207
12	0x3e657c5b	0.22410719
13	0x3db8c349	0.09021623
14	0x3d383643	0.044973623
15	0x3dd0b0c4	0.10189965
16	0x3e321711	0.17391612
17	0x3e3736b5	0.17891963
18	0x3dd9ae3c	0.10628936
19	0x3e174389	0.14771856
20	0x3d954878	0.07289213
21	0xbdd5c2a6	-0.10437517
22	0xbdcb12f6	-0.09915726
23	0xbe5107ec	-0.20413178
24	0xba2aa032	-0.00065088563
25	0x3d87700f	0.0661317
26	0x3e42107c	0.18951601
27	0x3e492e2a	0.19646516
28	0x39d6dee6	0.00040983333
29	0x3e8c0ffe	0.2735595
30	0x3de40736	0.11134188
31	0xbdce0e54	-0.100613266
32	0xbcef2424	-0.029192038
33	0xbe4696fa	-0.1939353
34	0xbe10df97	-0.14147793
35	0x3e020ec6	0.12700948
36	0x3e75bc4b	0.2399761
37	0x3e2b1626	0.16707668
38	0xbe953162	-0.2913924
39	0x3d762a7d	0.060099114
40	0xbe048e2b	-0.12944858
41	0xbde20179	-0.11035437
42	0xbdd93474	-0.10605708
43	0x3e80e7f0	0.25176954
44	0x3e1a4187	0.15064059
45	0x3e0a2c32	0.13493422
46	0xbe110a41	-0.14164068
47	0xbe00a11c	-0.12561458
48	0x3e5ce011	0.2156985
49	0xbdb62ea3	-0.08895614
50	0x3dc1eaf5	0.094686426
51	0x3dfc5367	0.12320595
52	0x3e8ed9eb	0.27900633
53	0xbbabad94	-0.005239198
54	0xbdf5b8b8	-0.11998123
55	0x3e46f8a2	0.19430783
56	0x3ddcd05b	0.10781928
57	0x3cecd91e	0.028912123
58	0xbcaeccfc	-0.021337979
59	0xbe5e2c2e	-0.2169654
60	0x3e6439be	0.22287652
61	0xbde6bd6a	-0.112665966
62	0xbe102609	-0.1407701
63	0xbe0219b8	-0.12705123
64	0x3d501eb6	0.05081054
65	0x3d63aae8	0.05558291
66	0x3e2aa714	0.16665298
67	0x3e83c6ce	0.25737613

lstm.bias_hh_l0 f4 [68]
0	0x3e40a435	0.1881264
1	0xb9e9af3b	-0.0004457178
2	0xbcac942f	-0.021066753
3	0x3e0ff47b	0.14058106
4	0xbe2f4c1a	-0.17118874
5	0xbd9ac3d7	-0.07556885
6	0xbd34f7c7	-0.04418161
7	0x3e189a38	0.1490258
8	0xbe2d30bf	-0.16913126
9	0xbd1136fb	-0.035452824
10	0x3e59b887	0.21261798
11	0x3e395d1f	0.18101929
12	0x3e8d4411	0.27590993
13	0xbc456070	-0.012046918
14	0x3e441ee4	0.19152409
15	0x3d036894	0.032082155
16	0x3e7bdfb7	0.24597059
17	0x3d6f8db5	0.05848475
18	0x3e056aa3	0.1302896
19	0xbd15370c	-0.03642945
20	0x3d31de2d	0.043424774
21	0xbdf70c88	-0.12062937
22	0xbdfd80f5	-0.12378112
23	0x3e49dd50	0.1971333
24	0xbc3e2ad7	-0.0116068935
25	0x3e309fd2	0.17248467
26	0x3c3b988a	0.011449942
27	0x3ca5c90e	0.020237472
28	0x3e597396	0.21235499
29	0x3d8da451	0.069161065
30	0xbe837f17	-0.256829
31	0xbe399a9a	-0.18125382
32	0xbd1104d0	-0.03540498
33	0x3cea70c3	0.028618222
34	0xbdd7ce6c	-0.10537419
35	0xbd5c6e3e	-0.053816073
36	0xbb8b24e9	-0.0042463434
37	0xbd943e54	-0.07238451
38	0xbe96bd96	-0.29441518
39	0xbcca96eb	-0.024730166
40	0x3d3e189c	0.046410188
41	0xbdc3f60a	-0.095684126
42	0xbdbcd7e8	-0.09220868
43	0x3de7c8af	0.11317574
44	0x3e790e91	0.24321963
45	0xbdcff09b	-0.10153314
46	0xbd70ce02	-0.058790214
47	0x3e581b23	0.21104102
48	0xbde134b5	-0.10996381
49	0xbe6c2f60	-0.23064947
50	0x3d84e554	0.06489053
51	0xbe216742	-0.15762046
52	0x3df60b8b	0.120139204
53	0x3e04f703	0.12984852
54	0x3e334712	0.1750758
55	0xbe006ce7	-0.12541543
56	0x3e2ff33b	0.17182629
57	0x3ea2c983	0.31794366
58	0x3e007940	0.12546253
59	0x3e5954c8	0.21223748
60	0x3ccdd44b	0.025125643
61	0x3e74eb18	0.23917806
62	0x3e8f786a	0.28021556
63	0xbdb75afe	-0.08952902
64	0x3d63b5d3	0.055593323
65	0x3e5aeadc	0.21378654
66	0x3e2a8acf	0.16654514
67	0xbd95fef8	-0.07324022

lstm.weight_ih_l1 f4 [68, 17]
0	0xbec32e57	-0.38121292
1	0x3e88cfb9	0.2672098
2	0x3db3df62	0.08782841
3	0xbe7ec78d	-0.2488081
4	0x3b84c428	0.004051704
5	0x3e8a369c	0.2699479
6	0x3e003d70	0.12523437
7	0x3dc6eead	0.097134925
8	0xbe7eb265	-0.2487274
9	0x3e888d7b	0.2667044
10	0x3d9fcd5e	0.078028426
11	0xbe85aa35	-0.2610642
12	0x3eb918cf	0.3615174
13	0xbe4c29ed	-0.19937868
14	0x3d94ffda	0.07275362
15	0x3da02b6b	0.07820781
16	0x3e053a39	0.13010491
17	0xbe8a074c	-0.26958692
18	0x3d7c1392	0.0615421
19	0x3d2cbdb4	0.042173102
20	0xbe03feaf	-0.12890123
21	0xbb2c55ec	-0.002629633
22	0x3e109396	0.141188
23	0x3d1738a9	0.03691927
24	0xbd9b1f91	-0.0757438
25	0xbe378e56	-0.1792539
26	0x3e80c3a7	0.2514927
27	0x3d032c8e	0.032024913
28	0x3e25a4b4	0.1617611
29	0xbe07a9f5	-0.13248427
30	0xbe7ca049	-0.24670519
31	0x3e2ff9a1	0.1718507
32	0x3e2f72bd	0.17133613
33	0xbd073d76	-0.033017598
34	0xbeb6f2dc	-0.35732162
35	0x3e9b31aa	0.30311328
36	0x3c820e35	0.015875915
37	0x3d8c05f7	0.06837075
38	0xbe9508b0	-0.2910819
39	0x3e87098e	0.26374477
40	0x3e53c063	0.20678858
41	0x3eb57771	0.3544269
42	0xbe01111a	-0.1260418
43	0xbdc81fbb	-0.09771677
44	0xbe0308c3	-0.12796311
45	0xbd8ded1f	-0.06929993
46	0xbd9743ff	-0.07386016
47	0xbecb6f16	-0.3973319
48	0xbca88e6e	-0.020575728
49	0x3cff1315	0.031137029
50	0x3c46297d	0.0120948525
51	0xbe9e6924	-0.3093959
52	0xba4d654d	-0.00078352244
53	0xbdcaf74e	-0.09910451
54	0xbd73e824	-0.05954756
55	0xbe2a59e2	-0.1663585
56	0x3d06a76d	0.032874513
57	0x3d59ad57	0.053143825
58	0xbe4fb40e	-0.20283529
59	0x3df959ef	0.121753566
60	0xbd93d1ee	-0.07217775
61	0x3e6c161c	0.23055309
62	0x3d62f2ec	0.05540745
63	0x3da89f9d	0.08233569
64	0xbe83d068	-0.2574494
65	0xbd8aa626	-0.067699715
66	0xbe3483dd	-0.17628427
67	0xbdbd369d	-0.09238932
68	0xbe842d88	-0.25815988
69	0x3d9cee36	0.07662623
70	0x3e3bb32c	0.18330067
71	0xbe447d4c	-0.19188422
72	0xbe6ded24	-0.23234993
73	0x3e5c7363	0.21528392
74	0x3b3b3d44	0.0028570453
75	0x3c5b2807	0.0133762425
76	0xbe85f98b	-0.2616695
77	0x3e1b000e	0.1513674
78	0x3e83f092	0.25769478
79	0x3e3ce70f	0.18447517
80	0x3ca6d555	0.020365397
81	0xbc691cc9	-0.014228054
82	0xbe24ce67	-0.16094361
83	0xbc1cf52f	-0.009579941
84	0xbdc33df0	-0.09533298
85	0xbe5c16d4	-0.21493083
86	0xbc73d738	-0.014882855
87	0x3e8da1ee	0.27662605
88	0x3d075b49	0.03304604
89	0xbcccf629	-0.025019722
90	0xbd0852c6	-0.033282064
91	0x3d006e49	0.031355176
92	0x3e90d534	0.2828766
93	0x3e10bc67	0.1413437
94	0x3e29de5e	0.16588733
95	0x3dbaa851	0.09114135
96	0xbe0f045f	-0.13966511
97	0x3e2a2007	0.1661378
98	0xbec9af18	-0.39391398
99	0xbe832393	-0.25613078
100	0x3e14f840	0.14547825
101	0x3e4a3e16	0.19750246
102	0xbe40bf41	-0.18822958
103	0x3e6764f7	0.22597109
104	0x3e7ddd32	0.2479141
105	0xbd7d95d1	-0.061910454
106	0xbb329985	-0.002725215
107	0x3e46780b	0.1938173
108	0xbd6e5eb6	-0.058195792
109	0x3d90f35a	0.070776656
110	0xbe6bcbdc	-0.23026985
111	0xbdab2144	-0.08355954
112	0x3e86b58f	0.26310393
113	0x3d2ccd15	0.04218777
114	0xbdb60e32	-0.08889426
115	0x3d38ccbe	0.045117132
116	0xbe172bb9	-0.14762773
117	0x3dc1a207	0.094547324
118	0x3e4c4be7	0.1995083
119	0xbe751a75	-0.23935874
120	0x3cde854d	0.027163172
121	0x3ea8a5b6	0.32938927
122	0x3ea6cb45	0.32576957
123	0xbe496f72	-0.1967142
124	0x3ed089fb	0.4073027
125	0x3d40c35a	0.0470613
126	0xbe44a185	-0.1920224
127	0xbddda7d0	-0.10823023
128	0x3e522706	0.20522699
129	0x3e89ee31	0.26939538
130	0x3e4fbddf	0.20287274
131	0xbec1cbf0	-0.37850904
132	0xbe4c8f23	-0.19976477
133	0x3c920dd0	0.017828852
134	0x3e2aa704	0.16665274
135	0xbd956247	-0.072941355
136	0xbda0f8e6	-0.078599736
137	0x3e107a69	0.14109196
138	0xbd1bea3b	-0.038065176
139	0xbd88f587	-0.066874556
140	0x3d97f67f	0.07420062
141	0x3e4cc319	0.19996299
142	0xbdc339ee	-0.095325336
143	0x3eaaa4aa	0.33328754
144	0xbcb29e59	-0.021804022
145	0x3ea36648	0.31913972
146	0x3e5ba8ad	0.21451063
147	0x3e30b695	0.1725715
148	0xbe1ba553	-0.15199785
149	0xbe9374df	-0.28800103
150	0xbe23dc36	-0.16001973
151	0xbe189752	-0.14901474
152	0xbdbb3fea	-0.0914305
153	0xbeacd3b4	-0.33755267
154	0x3c947e13	0.018126523
155	0x3dc76c23	0.09737422
156	0x3dbfabf6	0.09358971
157	0xbd61e378	-0.05514857
158	0xbe4aeb74	-0.1981638
159	0x3e8db27b	0.27675232
160	0x3ef48a43	0.47761735
161	0xbcfb0eee	-0.030646767
162	0x3e0e4f16	0.13897356
163	0x3e9b065d	0.30278292
164	0x3d9e601e	0.07733177
165	0x3e08280e	0.1329653
166	0xbd9eba29	-0.07750351
167	0xbf029a85	-0.5101703
168	0x3dec6a90	0.11543763
169	0xbe3bc73f	-0.18337725
170	0xbe303dd4	-0.17211086
171	0xbd8f298a	-0.06990345
172	0x3c15a2eb	0.009133081
173	0x3db125bb	0.08649775
174	0xbed77367	-0.42080233
175	0xbe2f0d00	-0.17094803
176	0x3e245f39	0.1605195
177	0x3ddd87e0	0.10816932
178	0xbea69a3b	-0.32539544
179	0x3ecf767f	0.40520093
180	0x3cc8ff08	0.02453567
181	0x3e6fe28e	0.23426268
182	0xbd83fad9	-0.0644433
183	0xbed6caea	-0.41951686
184	0xbe8075da	-0.25089914
185	0x3e8e2682	0.27763754
186	0xbe9d0e6f	-0.30675074
187	0x3a4b1f5d	0.0007748509
188	0x3eac0fb0	0.3360572
189	0x3e85ef70	0.2615924
190	0x3e2f0812	0.17092922
191	0xbca8c043	-0.02059949
192	0xbd62ed3c	-0.055402026
193	0x3d582472	0.052769132
194	0xbe459850	-0.19296384
195	0xbe81c56b	-0.2534593
196	0xbe6a62de	-0.22889277
197	0x3e74e6f1	0.23916222
198	0xbe1403c3	-0.1445456
199	0xbe081123	-0.13287787
200	0xbde02df3	-0.10946264
201	0xbca6bf71	-0.020354958
202	0x3d8a340f	0.06748211
203	0x3e62e729	0.22158493
204	0xbdcdb233	-0.100437544
205	0x3eaea8ca	0.3411315
206	0x3ea07638	0.31340194
207	0x3de6ded4	0.1127297
208	0xbdc8958c	-0.09794149
209	0x3ecac056	0.39599866
210	0x3d8dd702	0.06925775
211	0x3dba5b1e	0.090994105
212	0xbd9b0847	-0.07569938
213	0xbd808a03	-0.06276324
214	0x3e286837	0.16446005
215	0x3de9e782	0.1142111
216	0x3e2a08f6	0.16604981
217	0xbd9ec965	-0.07753257
218	0x3b60bfba	0.0034293965
219	0x3dbc4cc4	0.091943294
220	0x3db4471c	0.088026255
221	0x3e0b3578	0.13594615
222	0xbe00c977	-0.12576853
223	0x3e8fe4ab	0.28104147
224	0xbc8daa83	-0.01729322
225	0x3c4d4231	0.012527988
226	0x3df39216	0.11893098
227	0x3daaabdb	0.0833356
228	0x3eabe2cd	0.33571473
229	0x3df6c1ad	0.120486595
230	0x3e610513	0.21974592
231	0xbd2fb8c8	-0.04290083
232	0xbc63f1f7	-0.013912669
233	0xbd5bb068	-0.05363503
234	0xbea7c8bf	-0.32770345
235	0xbea901af	-0.33009097
236	0x3e2eda8e	0.1707556
237	0xbe5f8d04	-0.21831137
238	0x3da9a30a	0.0828305
239	0xbd92cd67	-0.07168084
240	0x3dc96605	0.09833912
241	0x3dac7818	0.084213436
242	0xbe06cdb0	-0.13164401
243	0x3e62d79b	0.2215256
244	0xbcd4a664	-0.025958247
245	0xbaaddb92	-0.001326429
246	0xbd709c85	-0.05874302
247	0x3da4b3f5	0.080421366
248	0xbd5ee74a	-0.054419793
249	0xbeac1a94	-0.33614028
250	0x3e121d62	0.14269021
251	0xbe4c7ede	-0.19970271
252	0x3df3efb0	0.11910951
253	0x3e70b931	0.23508145
254	0x3e637e5e	0.22216174
255	0xbed69cdd	-0.41916552

lstm.weight_hh_l1 f4 [68, 17]
0	0xbd0f89c9	-0.03504351
1	0xbdd32741	-0.103102215
2	0x3d7a90cb	0.06117324
3	0xbdbc86d4	-0.09205404
4	0xbd849d4b	-0.06475314
5	0xbe4318f2	-0.19052485
6	0x3e7b3d3c	0.24535078
7	0xbd980a0f	-0.074237935
8	0x3eb33966	0.3500473
9	0xbdaf4fe8	-0.08560163
10	0xbd16d593	-0.036824774
11	0xbdf8ab81	-0.12142087
12	0x3ca895ed	0.020579303
13	0xbe1c29c9	-0.15250315
14	0x3d42cb62	0.047557242
15	0xbe929d78	-0.28635764
16	0x3d139371	0.036029283
17	0xbe2331fe	-0.1593704
18	0xbe80f3b9	-0.25185946
19	0xbea2ef0c	-0.31823003
20	0xbe0c13f9	-0.13679494
21	0xbd26c04c	-0.040710732
22	0xbd75c6f5	-0.060004193
23	0x3d8739ce	0.06602822
24	0x3e746eda	0.23870412
25	0x3e316d8e	0.17326948
26	0x3e9d5749	0.30730656
27	0xbd97d32f	-0.07413327
28	0xbea2330d	-0.31679574
29	0xbe83c1b7	-0.2573373
30	0xbe4515a6	-0.1924654
31	0xbd48e900	-0.04905033
32	0xbd161b64	-0.036647215
33	0x3da5eb20	0.08101487
34	0xbe0506d0	-0.1299088
35	0x3df90d66	0.12160759
36	0xbe959e7c	-0.29222476
37	0x3dbb520f	0.09146511
38	0xbdab5538	-0.083658636
39	0xbe5e1daa	-0.21691003
40	0x3e50ab60	0.20377874
41	0x3dac1532	0.0840248
42	0x3c3a6bef	0.011378272
43	0x3e1bb505	0.15205772
44	0x3d8810b4	0.06643811
45	0xbd8b7f89	-0.06811435
46	0x3c804db3	0.01566205
47	0xbe7db4c6	-0.24775991
48	0x3d727ccf	0.059201058
49	0x3d4f4413	0.05060203
50	0xbc83fcf9	-0.016111838
51	0xbc41f22a	-0.011837522
52	0xbe9126b8	-0.28349853
53	0xbea3bac1	-0.3197842
54	0x3e4e9d17	0.20177113
55	0xbd56fc8d	-0.052486945
56	0x3cb82e66	0.022483062
57	0xbe0380bb	-0.12842076
58	0x3e6ea00d	0.23303242
59	0x3e5a4dec	0.21318787
60	0xbd202b9b	-0.039104085
61	0xbe5fc87f	-0.21853827
62	0xbdaafc6e	-0.083489284
63	0xbdc9f8b6	-0.09861891
64	0xbe6dd659	-0.23226298
65	0x3d48d0f1	0.049027387
66	0xbe4d297c	-0.20035356
67	0x3e83d9d3	0.25752124
68	0x3cd7b0b3	0.026329374
69	0x3deac246	0.11462836
70	0xbe2b40ad	-0.1672389
71	0xbdd04eaf	-0.10171258
72	0xbe112255	-0.14173253
73	0x3ca009fc	0.01953601
74	0x3e0aa291	0.13538577
75	0x3cff32fd	0.031152243
76	0x3e82ea25	0.25569263
77	0x3e7954c8	0.24348748
78	0xbe0beb33	-0.1366394
79	0x3e09ffc7	0.13476478
80	0x3e7188ba	0.23587313
81	0xbe46bed1	-0.19408728
82	0xbd4aacc3	-0.049481165
83	0x3e0046ee	0.12527058
84	0x3dc21077	0.09475797
85	0xbdfbf97f	-0.12303447
86	0xbe04ae21	-0.1295705
87	0x3d1ad4d2	0.037800618
88	0x3cdcacd0	0.026937872
89	0x3e9e3d0f	0.3090596
90	0xbddb130f	-0.106969945
91	0x3d18ef9f	0.037337895
92	0x3e29ecbf	0.16594218
93	0x3e7f906a	0.24957433
94	0x3d1c23bb	0.038120013
95	0xbe251eb3	-0.16124992
96	0xbd89f911	-0.06736959
97	0x3de25a4f	0.11052381
98	0xbdf913e4	-0.12161997
99	0xbdda07f0	-0.10646045
100	0xbd296072	-0.041351743
101	0xbd843c87	-0.06456857
102	0xbe6bb532	-0.2301834
103	0xbe37011e	-0.1787152
104	0xbe49b17f	-0.19696616
105	0x3de28c31	0.11061896
106	0x3e504398	0.20338285
107	0xbe5a1048	-0.21295273
108	0xbccab194	-0.024742879
109	0x3e3f6e9e	0.18694541
110	0x3e4c0c8b	0.1992666
111	0x3cdc4282	0.026887182
112	0xbe40a317	-0.18812214
113	0xbe8b0a8d	-0.27156487
114	0xbd9380d1	-0.07202304
115	0xbdb59721	-0.08866716
116	0xbe22bcb2	-0.15892294
117	0x3cbe4375	0.023225525
118	0x3e85e587	0.26151678
119	0xbcb73e18	-0.022368476
120	0xbe6ef2c8	-0.23334801
121	0xbdbaffde	-0.09130834
122	0xbe3df702	-0.18551257
123	0xbc070ea4	-0.008243237
124	0x3d7b813c	0.061402544
125	0xbcfadb31	-0.030622097
126	0x3df313c4	0.11869004
127	0x3ed1c7eb	0.40972838
128	0x3cf6dd12	0.030134711
129	0xbd285d1e	-0.04110443
130	0x3bc6a770	0.0060624406
131	0x3c85eac2	0.016347293
132	0xbe11fccf	-0.14256595
133	0xbe635c1a	-0.22203103
134	0xbebd0476	-0.36917466
135	0xbcf04350	-0.029328972
136	0xbcb82a71	-0.022481175
137	0x3c8d398b	0.017239353
138	0x3e5a36d6	0.21309981
139	0x3e8052a7	0.2506306
140	0xbdeaab3f	-0.11458444
141	0xbe7c349a	-0.24629441
142	0x3d58a6e3	0.05289353
143	0x3e8f3fda	0.27978402
144	0x3e2b8051	0.16748168
145	0x3db6c909	0.08925063
146	0xba8adbd0	-0.0010594074
147	0x3e4f08ea	0.20218244
148	0x3e0f6ded	0.14006777
149	0xbe670c79	-0.22563352
150	0xbe73fb93	-0.23826437
151	0xbde0457c	-0.10950753
152	0x3e0ba146	0.1363574
153	0xbd2c558f	-0.042073783
154	0x3c6f3f0c	0.014602434
155	0xbe1f728c	-0.1557104
156	0x3d48d838	0.049034327
157	0x3dc76fd1	0.09738124
158	0xbe49edc9	-0.19719614
159	0xbe6efef4	-0.23339444
160	0xbe262989	-0.16226782
161	0xbd556cdf	-0.05210578
162	0xbe57fc23	-0.21092276
163	0x3be3125d	0.0069296793
164	0x3de071b7	0.109591894
165	0x3e063f9a	0.131102
166	0xbd66d5dd	-0.0563563
167	0x3dea4ad6	0.11440055
168	0xbd42a4f0	-0.047520578
169	0x3e1470cf	0.14496158
170	0x3e20a4a0	0.156878
171	0xbd5b28b9	-0.053505633
172	0xbe2b5e08	-0.16735089
173	0x3c804439	0.015657531
174	0xbdfa9d04	-0.122369796
175	0xbdff4efd	-0.12466238
176	0x3dca32ff	0.09873008
177	0x3e8cde53	0.2751337
178	0x3d6f59b2	0.05843515
179	0x3ea2366e	0.31682152
180	0xbe493a17	-0.19651066
181	0x3da077f3	0.078353785
182	0x3ea8157c	0.3282889
183	0xbea525df	-0.32255456
184	0x3d2b7559	0.04185996
185	0x3dba716b	0.09103664
186	0xbcf59837	-0.029979808
187	0xbd40953c	-0.04701732
188	0x3e0cf6e0	0.1376605
189	0xbc4e33c9	-0.012585589
190	0xbc940e0c	-0.018073104
191	0xbdf70c14	-0.120628506
192	0x3d56153d	0.05226635
193	0xbe64a169	-0.22327198
194	0xbca8e48c	-0.020616792
195	0xbd1d39f2	-0.03838534
196	0xbdf28a46	-0.1184278
197	0xbd1a1778	-0.037620038
198	0xbe06778c	-0.13131541
199	0xbe07fc2e	-0.13279793
200	0xbe63f8de	-0.22262904
201	0xbe28c0b7	-0.16479765
202	0xbdc5fbd0	-0.0966717
203	0x3dd6241e	0.104561076
204	0x3e3c9550	0.18416333
205	0xbd9d605d	-0.076843955
206	0xbe760b66	-0.24027786
207	0x3cd91ae1	0.026502075
208	0x3ccdb3c8	0.02511014
209	0x3d88e669	0.06684572
210	0x3e12a81f	0.14321946
211	0x3e0edfe5	0.13952596
212	0x3e3c606f	0.18396161
213	0x3d2e373a	0.042533137
214	0xbd55c1e2	-0.052186854
215	0xbe968f48	-0.2940619
216	0xbdde8a39	-0.10866208
217	0xbe99a654	-0.3000971
218	0xbbf843d2	-0.007576444
219	0xbe035b06	-0.12827691
220	0x3ebc6fe8	0.36804128
221	0x3ea65dc8	0.32493424
222	0x39f43dfc	0.0004658549
223	0xbe848982	-0.2588616
224	0x3e326142	0.17419913
225	0xbe9cdbfd	-0.30636588
226	0xbdcf97f9	-0.10136408
227	0xbe58fca0	-0.21190119
228	0xbdc671f8	-0.096897066
229	0xbdba4d2c	-0.090967506
230	0xbe01ed60	-0.12688208
231	0x3e203cbe	0.15648171
232	0x3e30862c	0.17238683
233	0x3e5c2c7a	0.21501341
234	0x3d04d4f1	0.03242964
235	0x3d5b7d4a	0.05358628
236	0xbec13776	-0.37737626
237	0x3dc378b9	0.095445104
238	0x3e380867	0.17971955
239	0xbe4f7983	-0.20261197
240	0xbe9e7775	-0.30950513
241	0xbe4cf6f0	-0.20016074
242	0xbd9acd3b	-0.07558676
243	0x3ca37c4c	0.01995673
244	0x38b74be8	8.7402586e-05
245	0xbd23de03	-0.04000665
246	0x3d925a98	0.07146186
247	0x3dd69f38	0.10479587
248	0xbeb650e3	-0.35608587
249	0xbe3d9cbd	-0.18516822
250	0xbe1d4552	-0.15358475
251	0x3d9a3bce	0.07530938
252	0xbd9ef9ef	-0.07762515
253	0xbe8a5b24	-0.2702266
254	0x3cc6461a	0.024203349
255	0x3ec971a3	0.3934451

lstm.bias_ih_l1 f4 [68]
0	0xbd8f82ed	-0.07007394
1	0xbdeeafab	-0.116546
2	0xbd0b0308	-0.033938438
3	0x3baf121b	0.0053427345
4	0x3dbed788	0.09318453
5	0x3b6967df	0.003561489
6	0x3e327c1b	0.17430155
7	0x3dab5954	0.08366647
8	0x3bcb8a16	0.0062115295
9	0x3d8b46d1	0.068006165
10	0x3e059353	0.13044481
11	0x3e3f7d41	0.18700124
12	0x3cddd8cc	0.027080916
13	0x3dd75520	0.10514283
14	0x3e6a8369	0.22901691
15	0x3e96b59f	0.2943544
16	0x3dab865b	0.08375236
17	0xbe3acc75	-0.18242057
18	0x3e6f1ab4	0.2335003
19	0xbd36fc9f	-0.044674512
20	0x3e5dc2ed	0.2165639
21	0x3e87316c	0.26404893
22	0xbaa883c7	-0.0012856656
23	0x3e09b23e	0.134469
24	0x3d6a3b0c	0.057185218
25	0xbc3ccaec	-0.01152299
26	0xbdd761aa	-0.10516675
27	0xbd3bc3df	-0.045841094
28	0x3e8b202e	0.2717299
29	0xbc79f2ea	-0.015255669
30	0xbe055f99	-0.13024749
31	0xbe14af0e	-0.14519903
32	0xbd872872	-0.06599511
33	0x3d4aa010	0.049469054
34	0x3d613e49	0.05499104
35	0xbdaaf8f6	-0.08348267
36	0x3d4223f4	0.04739757
37	0xbd96f1f0	-0.07370365
38	0xbdbf3392	-0.09336008
39	0xbe0a77cf	-0.13522266
40	0x3db4f007	0.08834844
41	0xbca195e0	-0.019724786
42	0x3e9cebd4	0.30648673
43	0x3e971b94	0.29513228
44	0xbe7e1729	-0.24813522
45	0xbe87bc62	-0.26510912
46	0xbe24faa7	-0.16111241
47	0xbe7a650b	-0.24452607
48	0xbe482240	-0.19544315
49	0xbe5782b0	-0.21045947
50	0x3e06463f	0.13112734
51	0x3df441d4	0.11926618
52	0x3d5ea1a4	0.05435337
53	0x3e6f50e3	0.233707
54	0xbad932ea	-0.001657096
55	0x3e4803dd	0.19532724
56	0xbe413c53	-0.18870668
57	0x3ea91a3b	0.33027825
58	0x3ea74acd	0.32674256
59	0x3e1fb377	0.15595804
60	0x3baa00f6	0.005188103
61	0xbcc18b9f	-0.023626147
62	0x3e05bf2f	0.13061212
63	0x3da9beab	0.0828832
64	0x3cace739	0.02110635
65	0xbe2d900c	-0.16949481
66	0x3e92639f	0.2859163
67	0x3e950258	0.2910335

lstm.bias_hh_l1 f4 [68]
0	0xbcd61184	-0.026131399
1	0xbe0b8544	-0.13625056
2	0xbc125c23	-0.0089331
3	0x3e831f3b	0.25609764
4	0x3e436b2c	0.19083852
5	0xbe16295b	-0.14664213
6	0x3e16c60e	0.1472399
7	0x3c5b7cd3	0.01339646
8	0x3d899af2	0.067190066
9	0xbdf724de	-0.12067579
10	0x3e94ded9	0.2907627
11	0x3cc6d38f	0.0242708
12	0x3d6d74a7	0.057972576
13	0xbc30febb	-0.01080292
14	0xbe32b8a6	-0.1745325
15	0xbc4e8498	-0.012604855
16	0xba28c01f	-0.00064373197
17	0xbd6354dc	-0.05550085
18	0xbb57ad1a	-0.0032909573
19	0x3e8b58d3	0.27216205
20	0x3eb84aad	0.35994473
21	0x3e2dd166	0.1697441
22	0x3d63e229	0.055635605
23	0xbdb961f8	-0.09051889
24	0x3da24767	0.07923775
25	0x3d96145e	0.073281035
26	0x3e2270b5	0.15863307
27	0x3e4b6ce5	0.19865759
28	0xbbf5ea70	-0.007504754
29	0xbda9ebfa	-0.08296962
30	0x3e175413	0.14778166
31	0x3e7c41cc	0.24634475
32	0x3e255e06	0.16149148
33	0x3e781633	0.24227218
34	0xbe7b6074	-0.24548513
35	0xbdbb5eb7	-0.09148925
36	0xbe55d410	-0.20881677
37	0x3d90456b	0.070444904
38	0x3dba92d6	0.09110038
39	0xbdab507e	-0.08364962
40	0xbde203d3	-0.11035886
41	0x3e830939	0.25592974
42	0x3ea648e8	0.32477498
43	0xbd5487bd	-0.051887263
44	0x3d87bd92	0.066279545
45	0x3de82e47	0.11336952
46	0x3e6b4284	0.22974592
47	0xbdbb3b82	-0.091422096
48	0xbe5df398	-0.21674955
49	0x3e251854	0.16122562
50	0x3d934d61	0.07192493
51	0x3e5b8374	0.21436864
52	0x3e8cab37	0.27474377
53	0xbd7e3fa1	-0.0620724
54	0xbd1427de	-0.036170833
55	0x3e55a202	0.20862582
56	0xbdb98f30	-0.09060514
57	0x3e66a10c	0.22522372
58	0x3ed49be3	0.41525182
59	0xbcb5afe0	-0.02217859
60	0x3e0927d7	0.13394104
61	0x3dce7824	0.10081509
62	0xbdf4c0bf	-0.11950826
63	0x3e266c59	0.16252269
64	0x3e67613a	0.22595683
65	0xbde7f7be	-0.1132655
66	0x3e7e9807	0.24862681
67	0x3eaca72e	0.33721298

linear.model.0.weight f4 [2, 17]
0	0xbec3e13c	-0.38257778
1	0x3e94bee7	0.29051897
2	0xbe9a7832	-0.30169827
3	0x3e049d15	0.12950547
4	0xbd50ca2d	-0.05097406
5	0x3e9d1d61	0.30686477
6	0x3e7a3903	0.2443581
7	0xbecccc14	-0.3999945
8	0x3e001182	0.12506679
9	0x3e952e99	0.29137114
10	0xbee8c83d	-0.4546527
11	0x3d83797b	0.06419655
12	0x3e97292d	0.29523602
13	0xbeb4eb23	-0.35335645
14	0xbd985cea	-0.07439597
15	0xbf08d55a	-0.5345055
16	0x3ec43bef	0.38326976
17	0x3e0c6d93	0.13713674
18	0xbdec9c0a	-0.115531996
19	0xbe5ee430	-0.21766734
20	0xbe68f1e9	-0.22748531
21	0x3e667c9f	0.22508477
22	0xbe6f6499	-0.23378219
23	0x3ebcc7df	0.3687124
24	0xbc62090c	-0.013796102
25	0xbdb4318d	-0.087985136
26	0xbddef9c8	-0.10887486
27	0x3dcf9403	0.10135653
28	0x3e74e07d	0.2391376
29	0xbe65b755	-0.22433217
30	0x3e58277d	0.21108814
31	0xbe2af864	-0.16696316
32	0xbe2da4cf	-0.169574
33	0x3e7c4aea	0.24637952

linear.model.0.bias f4 [2]
0	0xbc426d8d	-0.011866939
1	0x3dd97e7b	0.10619827
