examples/2_streamflow_isotope_simulation/results/20241125_101506_612553/loss_c60a7_00002_2_batch_size=8,hidden_size=11,learning_rate=0.0020,n_epochs=182,num_layers=1_2024-11-25_10-15-11/checkpoint_000013/model.pt (torch, 5556 bytes, 6 tensors)

lstm.weight_ih_l0 f4 [44, 4]
00000000: f704 90be 0820 1ebe 6fd9 303e 37bd 1a3d
00000010: bcc6 1f3f 2bd6 dabd 0cca 96be 21a0 6a3d
00000020: c087 373e 2bc4 613d 5286 92be 1681 c63e
00000030: ff6d b13e 8618 863e fa7f c33e 1d89 323e
00000040: d9a1 353e 9e5a 5dbe 3605 063e c71c 4bbe
00000050: d4ce 3c3d 494d 73be 6342 ba3e f657 b73c
00000060: 3045 b03e f167 a73e 5c33 c53e f8b6 c53d
00000070: 10c4 563c 43d4 c3bd 1a46 55bd efe1 223e
00000080: d627 e13d 3eef 09bd c129 a63e e702 a93d
00000090: fc01 9d3e 01b8 163e 4f8e 2dbe 6212 c0bc
000000a0: a3cf 12be 98fa 5ebd 2b3f 1abe 3df9 663d
000000b0: f002 8f3e bc56 c6be 5d73 073c ec2b 50bd
000000c0: 6d49 4c3e 8525 613e 1789 8bbe 065d 1ebe
000000d0: d4df 3ebe a8cc 9e3d a5b8 a2be 8bf1 e83d
000000e0: a932 97be 26dc 8bbc 520d 5b3e 5955 9a3e
000000f0: b510 703e 8513 51be 2076 0b3e dbad 4b3e
00000100: f6d0 7d3d 8b82 45bd e29a 7dbe 74cd 7abe
00000110: 78cc c03e 8b5e 90bd 47fc e83e d728 c13b
00000120: 5f0c 443d 7571 86bd 4222 b03e 6f2f db3c
00000130: 5739 b13e 20c4 c33e 3fc2 c0bc 0c08 89bd
00000140: 11cb e43e 1630 2a3d 3641 123e 1122 153d
00000150: 49a6 1a3e 6f2e 703e b789 9d3e d42a b03e
00000160: 4bd0 5cbe b0b6 69be c0db 473e 84dc 013e
00000170: d2c5 abbe 9e4b 233e 34ac 323d eb38 0ebe
00000180: 192b ce3e 0b1f f53d 2fc8 853e f2d0 83bd
00000190: a963 e63e 76d4 4fbe 5f67 95be 2758 a7bd
000001a0: e70e d5be 0be6 84be 44d8 6dbe 23a2 1cbd
000001b0: f451 8d3b aed0 b43e c09a 59bd dc36 bf3d
000001c0: 901d 4fbc fdbb 8a3d 4579 10be aefe 27be
000001d0: 8c77 593d b474 14be 6b30 8cbd cd78 61be
000001e0: aa1f 99bc ae01 7fbe 8a2f c8be 66b9 9f3d
000001f0: b091 47be 852d 7a3d ec50 8ebe cb7d adbe
00000200: 94d4 febc 5920 dfbd 2c73 2bbe 1dd0 383d
00000210: 9b89 6ebe 55d6 62be 1936 d8bb 9d04 1fbe
00000220: 406a 9a3e bf05 82be fa9d 323e 29b5 edbc
00000230: 3fd6 e93e 3cd2 9f3d 6f0f 98be 23fb 93bd
00000240: 2da4 2a3e 2a16 1c3e 2264 e33e 0379 ac3e
00000250: 1e1e e83d ebc0 70be c14f 88be b521 b03d
00000260: e55a 00be dcd8 273e 0178 1abc d477 6fbb
00000270: 34e9 df3d eccd d6bd d36b 87bd 3b4a 5d3e
00000280: 7163 9bbe db9e fe3e 84ab 273e cc42 b6be
00000290: 848d 7a3e 9dde 913a 2947 203e 8bbb dd3b
000002a0: 3a27 123f 55e8 893e 582b 45bd 7bd1 613e
000002b0: 1d4c 963e 7869 1d3e 9602 ffbd c800 193e
-0.28128788 -0.15441906 0.17270444 0.037778106 0.6241262 -0.106853805 -0.29451025 0.057281617
0.17922878 0.05511872 -0.28618103 0.3877036 0.34654233 0.26190585 0.38183576 0.17435117
0.17737521 -0.21616599 0.13087925 -0.19835196 0.046095684 -0.2375995 0.36378774 0.02238081
0.34427786 0.32696488 0.38515747 0.09654039 0.013108268 -0.0956197 -0.052068807 0.159065
0.10993926 -0.033675425 0.3245373 0.08252507 0.30665576 0.1471863 -0.16948818 -0.023446266
-0.1433702 -0.054438204 -0.15063159 0.056390036 0.2793193 -0.38738048 0.008267251 -0.050823137
0.19949885 0.21986969 -0.2725303 -0.15465173 -0.18640071 0.07753879 -0.31781498 0.11374196
-0.29530838 -0.017072748 0.213918 0.3014324 0.23443873 -0.20417602 0.1361928 0.1989054
0.06196686 -0.0482202 -0.24766114 -0.24492437 0.37655997 -0.07049283 0.45504972 0.005894761
0.04786336 -0.06564609 0.34401137 0.026756017 0.3461406 0.3823557 -0.023530124 -0.06690988
0.44686177 0.041549765 0.14282688 0.03640944 0.15102495 0.23455213 0.3076913 0.34407675
-0.21563832 -0.22823596 0.19517422 0.12681776 -0.33549362 0.15946814 0.043621257 -0.138889
0.40267256 0.119688116 0.2612929 -0.064363375 0.4499791 -0.20295891 -0.29180428 -0.081711106
-0.41612932 -0.2595676 -0.2322703 -0.038240563 0.004312748 0.3531546 -0.053126097 0.093366355
-0.012641326 0.06774137 -0.1410876 -0.16405746 0.053092524 -0.14497644 -0.068451725 -0.22018738
-0.018691856 -0.24902984 -0.3909877 0.07799034 -0.19489169 0.061078567 -0.27796113 -0.33885035
-0.031107225 -0.10894842 -0.16743153 0.045120347 -0.2329468 -0.22152074 -0.006598246 -0.15529104
0.30159187 -0.2539501 0.17443076 -0.029017048 0.4567127 0.07803771 -0.29699275 -0.07225635
0.1666419 0.1524283 0.44412333 0.33686075 0.113338694 -0.23511092 -0.26623347 0.08600179
-0.12534674 0.16391319 -0.009428025 -0.003653993 0.10933152 -0.10488495 -0.06612363 0.21610348
-0.30349305 0.49730572 0.16374022 -0.35597837 0.24468046 0.0011128966 0.15652145 0.0067667416
0.57091105 0.26935068 -0.04813704 0.22052567 0.29354945 0.15372264 -0.12451665 0.14941704

lstm.weight_hh_l0 f4 [44, 11]
00000000: 1734 883e 84fa 11be 4c0e 7b3e fa5b 78be
00000010: 5d24 83bd 9919 40be fe73 b53d 245a cdbc
00000020: c4ee 7a3e 0008 bc3c 9b45 96bd 10cd 41be
00000030: 6090 10be 15e7 d53d c1b5 aa3e b1ae 233e
00000040: 2c22 493e e4ff 9bbd 506a 153e cf21 89be
00000050: fbd6 c63d 1527 3dbe 8302 dc3e 2dab 8bbb
00000060: cf3e adbb 07f0 75be 47bf 743e 83bf 503d
00000070: 99ae aabe 3aca f63d 423d 873d 12df ec3d
00000080: 505b 1dbe a35c 4d3e e59d bebe c287 863e
00000090: 2e04 073e b023 b9be 10de a43e 385e babe
000000a0: 15c7 81bd 8757 cfbe e2e9 20be 1076 a03d
000000b0: aa90 09be 2802 10bd 1550 88bd ffa0 b6be
000000c0: d340 a53e 2f5c 483e c141 9c3d a756 bb3d
000000d0: e18e ddbd 74ef 46be 454e a0be d753 77bd
000000e0: 75ef 0a3e 05c0 103e f7fe 9fbe de17 3e3e
000000f0: 81aa 413e ceaf 023e 9456 7b3e f03c b8be
00000100: d450 303e e8e5 883d 2d5e 4c3d 0bca ba3e
00000110: ae0c 533e 1e2d a63d 95be 073e 366d 7d3e
00000120: 240f 8ebe 594a aabc 3a40 fdbd 0db3 9bbe
00000130: 38f9 403e 5c0c a8be 4764 92be dd3c 77be
00000140: 1224 06bd 8ca3 d5be f44f 62bd 8c4f 523e
00000150: 2200 183d 0a6e d1bc 33ed 8cbe ed07 87be
00000160: 9c2d c03e b52b 093d 5dd0 ed3d 2383 3abe
00000170: b3a2 7c3e 9e0b 62be cb97 233e 6c14 20bd
00000180: ea20 d5bc 3131 963e 7cd0 78be 1842 e9bd
00000190: 6bde 943d 84e2 ce3e 48c6 a03d daae f83c
000001a0: a472 38be dcbe df3d 6482 73be 9844 5d3e
000001b0: f1a7 233e 1af9 343e 69ae 653e a627 16be
000001c0: 54b6 4f3d 0a50 433c 73e6 783e ed5d 813e
000001d0: 10b1 22be 2d75 683e b538 413e f877 463c
000001e0: f186 9cbd 8eed 833c 1225 cbbe 79ae cbbd
000001f0: bad0 80be b1fc 203e 60ef 62be 41a6 58be
00000200: 243f f43d f098 eb3e a682 a03e 75c2 5cbe
00000210: 90c7 e1bd 60ef 39be f7a7 d23e 489c a43e
00000220: 2ed4 6c3e b135 b93e 771b b23e bd6c 3ebe
00000230: 6d74 0bbd f573 1b3e 72bb 5dbe 724b 28be
00000240: 6ec2 3abe b925 26be 7914 563e d8cd 643e
00000250: 3751 f5bd 5dfc 97be 0680 88bd 4530 a93c
00000260: 62e2 883d 5a06 e3bd 7f30 1e3e 1eef 1f3d
00000270: c1b0 4e3e 0dc8 63bd 3133 503e ca6a 33be
00000280: 8131 553e 7a1c 80be 0c70 f23d 63e2 03be
00000290: bab5 45be d3e5 da3e 1d10 d0bd 7add 9b3e
000002a0: 6d7f d33b 3012 283c 56e3 4cbe aa62 bdbe
000002b0: 5624 86bc 7c31 183e 66d2 163e f807 a1be
000002c0: 9c18 d3b9 75e9 87be 2bcd 93be 3276 a1be
000002d0: 567a 55bd aafe 7f3d f4a5 7f3d f0e6 bb3e
000002e0: de3e 4e3e 1320 e7bd 20eb 99be e284 8d3e
000002f0: 6cde 423e 5675 003f 0f4a b63c 5a1c 5e3e
00000300: 17d8 7dbe b485 71be 733d 53be d81a 663d
00000310: fea4 5fbe f833 6abd 73f3 06be 4b0d 7dbe
00000320: a335 40be ac7f 3c3e e45a b53d 5f5b f53e
00000330: 3c48 bcbd 15bb 0abe 655d d4be 291a 93be
00000340: db2e ab3d a5b2 0c3e f92b 7bbe c0aa 523e
00000350: 2f6d fabe fddb 623e 22b2 9bbe cae6 1bbe
00000360: c8a7 8e3e f480 63be 9161 c33d 1bf6 92bd
00000370: 3ba5 46be 64a3 343d e351 3f3e ccf9 b2bd
00000380: 5ef3 8c3d 3f1a 5f3e 33a6 b6be 2e1e bb3e
00000390: 0133 a8be c60e 8dbd ba57 92be 48fd cb3e
000003a0: c57c 91bd d589 75bd cd45 3cbe 72d1 4c3e
000003b0: e1f8 80bd e6e8 89be ce73 eb3e c397 afbe
000003c0: e694 aa3d 88e0 1cbe a8c8 a23d b92f 593d
000003d0: 8d1b 863e 166b 93b9 d782 08bb c5ed 2ebe
000003e0: 432e c53d 2766 8a3e 059d be3e 4f38 973e
000003f0: 4a2e 8fbb e547 a13d fc28 1f3e 894d 3c3d
0.2660224 -0.1425572 0.24517173 -0.24253836 -0.0640342 -0.18759765 0.088600144 -0.025067396
0.24505144 0.022953033 -0.07337495 -0.18925881 -0.14117575 0.10444466 0.33341792 0.15984608
0.19641942 -0.07617167 0.14591336 -0.26783606 0.09708973 -0.1847194 0.42970666 -0.004262349
-0.0052870284 -0.24017344 0.23901092 0.05096389 -0.33336332 0.120502904 0.06603481 0.11565985
-0.15366864 0.2005487 -0.3722984 0.2627545 0.13185188 -0.3616004 0.3220067 -0.36400008
-0.063368 -0.40496466 -0.15714219 0.07835019 -0.13434091 -0.035158306 -0.066558994 -0.35669705
0.3227602 0.19566415 0.07629729 0.09147387 -0.108182676 -0.19427282 -0.31309715 -0.06038269
0.13567908 0.1413575 -0.3124921 0.18563792 0.18912698 0.12762377 0.24544746 -0.35983992
0.17218333 0.06684476 0.0498945 0.36482272 0.20610306 0.08114074 0.13256295 0.24748692
-0.27745926 -0.020787405 -0.12365766 -0.30410042 0.1884507 -0.3282193 -0.2859213 -0.24144311
-0.032749243 -0.4172634 -0.05525203 0.20538157 0.0371095 -0.025565166 -0.2752472 -0.26373234
0.37534797 0.033488948 0.11612008 -0.18214087 0.2467144 -0.22074744 0.15975873 -0.039081976
-0.026016671 0.29334405 -0.2429828 -0.113895595 0.07268985 0.40407193 0.07850319 0.030356813
-0.18012482 0.109250754 -0.23780209 0.21608198 0.15982033 0.1767315 0.22429813 -0.14663562
0.05071099 0.011920938 0.2430666 0.25266972 -0.15887856 0.22700949 0.18869288 0.012113564
-0.076429255 0.016104486 -0.3967672 -0.099453874 -0.25159246 0.15721394 -0.22161627 -0.21157171
0.119261056 0.4601512 0.31349677 -0.21558554 -0.11024392 -0.1815772 0.41143772 0.32150483
0.23127815 0.36173776 0.3478658 -0.18596168 -0.03404658 0.15180953 -0.21653536 -0.1643503
-0.18238232 -0.16225328 0.20906247 0.22344148 -0.11978381 -0.29684725 -0.066650435 0.0206529
0.06683804 -0.11085196 0.15448187 0.0390464 0.20184614 -0.055610705 0.20332028 -0.17521206
0.20819665 -0.25021726 0.118377775 -0.12879328 -0.19307604 0.42753467 -0.10159323 0.3044241
0.0064543993 0.0102582425 -0.20008597 -0.36989337 -0.016374748 0.14862627 0.14728698 -0.31451392
-0.00040263392 -0.265453 -0.28867468 -0.31535488 -0.05211862 0.062498726 0.062414125 0.3669963
0.2014117 -0.112854145 -0.300622 0.27640444 0.1903016 0.5017904 0.02225211 0.21690503
-0.24789463 -0.2358616 -0.2062891 0.056177944 -0.21840283 -0.057178468 -0.13178806 -0.24712102
-0.18770461 0.18408078 0.08855227 0.47921273 -0.09193465 -0.13547929 -0.41477504 -0.28730896
0.08358546 0.13740022 -0.24528493 0.20572948 -0.48911425 0.22154231 -0.30409342 -0.15224758
0.27862382 -0.2221716 0.09540094 -0.07175847 -0.19398968 0.044101134 0.18683581 -0.08739051
0.06882356 0.21787356 -0.35673675 0.36546463 -0.32851413 -0.068875834 -0.28582555 0.39841676
-0.07103876 -0.0599459 -0.18386002 0.20001772 -0.0629747 -0.269355 0.4598679 -0.34295473
0.083291814 -0.15320027 0.079484284 0.053024027 0.26192895 -0.0002811781 -0.002082994 -0.1708289
0.09627964 0.2703106 0.3722917 0.29535148 -0.0043695318 0.07875041 0.15542978 0.04597238

lstm.bias_ih_l0 f4 [44]
00000000: c027 253e d868 593e 6298 bf3e af0a fabd
00000010: 72d1 7c3e 3706 7bbd 955b 84bd 2156 663e
00000020: 3d31 20be dd2b ba3e 8947 053f 4d87 653e
00000030: 042f 663e ea2e 1b3e 8d10 b1bb 90a7 313d
00000040: ac79 5d3e c662 0d3e df4a 39bd 2bb5 a63e
00000050: 36d7 c2bd d06d 013f 568b 1e3e 9029 e63d
00000060: a138 953d 7591 c9ba 54c0 263e 56e5 c6bd
00000070: 4a1c 2fbe 76ed 1e3e f24f 153c 97f1 2bbe
00000080: 2d57 c2be f2e6 60bd 3257 8f3e da8f 063e
00000090: 1ba4 adbd ac6e e83e 9607 3c3e ebad c33d
000000a0: 0458 9fbd 56b2 813b 6572 cfbd 99a2 0dbe
0.16128445 0.21231401 0.37420946 -0.12209069 0.24689272 -0.061285224 -0.064627804 0.22493793
-0.15643783 0.3636159 0.5206228 0.22414894 0.22478873 0.15154615 -0.0054035843 0.04337269
0.21628445 0.1380721 -0.04523742 0.32560095 -0.095137045 0.50558186 0.1548284 0.11238396
0.07286192 -0.0015378433 0.16284305 -0.09711711 -0.17100635 0.15520272 0.009113299 -0.16791378
-0.37957135 -0.054907747 0.27996212 0.13140813 -0.08478566 0.45396936 0.18362269 0.095546566
-0.077804595 0.003958027 -0.10129241 -0.13831557

lstm.bias_hh_l0 f4 [44]
00000000: 372b 1ebe 94c9 503e fc95 a43e 3cbb b03c
00000010: 88f3 423d c326 23be bfb0 3a3e bd42 2dbe
00000020: e581 d13b a1af 8e3e 851a 72bd dede 243e
00000030: 90f8 dd3d 22b7 a5bd 7dfb 773e 1ba6 c33e
00000040: 4de4 e23e e873 223d ef5f 903c 9827 0a3f
00000050: abd6 a03e de99 9e3e 3bcf 853e 6044 7bbd
00000060: 7887 16bc 2314 80be 0965 d73d 68ef 77bc
00000070: 1035 cebe d872 2b3e c676 f23c 609c 17be
00000080: 385c 8abe e93a 8c3e f9b1 b63e d039 a73e
00000090: 4290 a53c 6408 b4bd 8242 edbc d948 063f
000000a0: b7c6 9dbe 4b36 c33e f649 083e 6141 473d
-0.15446173 0.20389396 0.3214568 0.021573655 0.04759553 -0.15932755 0.18231486 -0.1691999
0.0063936585 0.2786837 -0.059107322 0.16100642 0.10838425 -0.080915704 0.24217029 0.38212666
0.44314805 0.039661318 0.01762387 0.53966665 0.3141378 0.30976766 0.26134667 -0.061344504
-0.009187572 -0.25015363 0.10517318 -0.0151327625 -0.40274858 0.16743028 0.029597651 -0.14805746
-0.27023482 0.27388695 0.35682657 0.32661295 0.020210389 -0.08790663 -0.028962377 0.52454907
-0.3081567 0.3812736 0.13309464 0.048646335

linear.model.0.weight f4 [2, 11]
00000000: b2f4 97bd 390a b8be b8d4 163f 3e6e 0c3f
00000010: 424c 77be e53a 65be bc92 afbe bab9 24be
00000020: 665b f83d c246 5abe b7e8 9fbe 6763 4abe
00000030: 25ed 32be 08e5 21be 583d a5be 959e afbe
00000040: 42a5 413e afa7 68bd 25ca 163e 9f6c 80be
00000050: e2c2 c8be e33e 01be
-0.07419719 -0.359453 0.58918333 0.54855716 -0.24150184 -0.22385748 -0.34291637 -0.16086474
0.12126808 -0.21316054 -0.31232235 -0.19764481 -0.17473276 -0.15810025 -0.32273364 -0.34300676
0.18910697 -0.05680054 0.1472555 -0.2508287 -0.39211184 -0.12621646

linear.model.0.bias f4 [2]
00000000: da2e 33be f0be 2dbe
-0.17498341 -0.16967368
