examples/2_streamflow_isotope_simulation/results/20241125_101506_612553/loss_c60a7_00003_3_batch_size=4,hidden_size=8,learning_rate=0.0100,n_epochs=205,num_layers=2_2024-11-25_10-15-11/checkpoint_000008/model.pt (torch, 7324 bytes, 10 tensors)

lstm.weight_ih_l0 f4 [32, 4]
00000000: 0fbd 543e 4b76 9c3c 069f 46be d6a4 48be
00000010: 5e33 f13e dcb1 e2be ae83 6fbd 7bdd aa3e
00000020: d451 fb3e 20c8 dc3e b0e9 6fbe 6b62 54be
00000030: bed0 c33e cf64 013e 2a42 05be 26f7 393d
00000040: fefb f23e a240 183e 0e2e 28be 6bfc d83e
00000050: a344 223d f506 5d3e 6b33 35be 76ee cbbe
00000060: abc7 13be c9bb e53e 5df6 d7bd 16b4 9c3e
00000070: 2285 813e f2d1 a63e 5bf4 42bd dc75 d3bd
00000080: b704 1b3e aa4b 2f3e 76c2 6a3e 64e3 873e
00000090: 1c8a ca3e 9413 c13b 74be d53c 2e0f 79be
000000a0: ba54 b0be ff80 fcbc a859 113e 063b 3cbd
000000b0: 1416 163f ee3c fbbc 2fb2 3f3e e91a febd
000000c0: 9ca3 dd3d 395c a63e 0125 4bbe fac6 6ebe
000000d0: fd49 78bd 3b68 9fbe 5c59 09bf d260 2fbe
000000e0: b7e3 a1bd 371b 4dbe 607a 913e 8288 883e
000000f0: 7d0a ab3e e92d cc3e b00f 8bbe d53c 9ebe
00000100: fd1b 18bd bdb7 08bf 43aa e8bd 4ab3 aa3e
00000110: cf7f 2ebf b7f6 03be a6a2 89be bcac c43d
00000120: db6b 333f 5a37 37bd 45b3 453e fd3e 83be
00000130: 77a6 673d 129a 8b3d 05eb e63e c9be e53d
00000140: 0fe1 f13e 4543 efbe e204 37bd 03cd 80be
00000150: be7a 3fbf a614 fa3d 0093 66be e5c6 a9be
00000160: 230b 01bf e6c5 abbe f0eb 4abc 02c4 b4be
00000170: cbac e33e a067 a93e a614 253e 9bf8 953e
00000180: 6c4b 0e3f afa0 af3e 0303 51be 4638 eabd
00000190: e528 0d3f 7c59 843c 5941 b0be ce0e 4dbe
000001a0: 9785 b13e d1ab 23be f861 723d f8fc 6e3e
000001b0: e0d3 d23e 3dda 2f3d ec07 013e a5e9 a0ba
000001c0: 0239 933d 153c 08be d546 6b3d 8380 213e
000001d0: f82a 103f c723 23be 787a 00bf 1289 653c
000001e0: 9e6a 023f 1a49 7fbd 6bcb 763e 05ca b53d
000001f0: e718 753f 5948 23be 31b4 cdbd 4ffb 5ebe
0.20775245 0.019099375 -0.193966 -0.1959413 0.47109503 -0.4427632 -0.05847519 0.333721
0.49085867 0.43121433 -0.23428988 -0.20740668 0.38245195 0.12636112 -0.13013521 0.045401715
0.4745788 0.14868405 -0.16423818 0.4238008 0.03961624 0.21584685 -0.17695396 -0.3983037
-0.14431636 0.4486983 -0.10545037 0.30606145 0.25296885 0.3258205 -0.047596317 -0.10325214
0.15138517 0.17118707 0.22925743 0.26540673 0.39558494 0.0058922265 0.026091792 -0.24322197
-0.3443964 -0.030823229 0.14194357 -0.045954727 0.5862744 -0.030668702 0.18720315 -0.124074765
0.10822222 0.32492235 -0.19838335 -0.23318091 -0.060617436 -0.3113421 -0.53651977 -0.17126778
-0.07904761 -0.20029913 0.28413677 0.26666647 0.3340644 0.39878777 -0.27160406 -0.30905786
-0.037136067 -0.5340536 -0.113606 0.33339912 -0.6816377 -0.12887083 -0.26881903 0.09603259
0.7008645 -0.04473052 0.19306667 -0.25633994 0.056555238 0.06816496 0.4510118 0.1121803
0.4724202 -0.4673101 -0.04468239 -0.25156412 -0.74796665 0.122109696 -0.22517014 -0.33159557
-0.5040762 -0.33549422 -0.012385353 -0.35305792 0.44467768 0.33086872 0.16121158 0.29291233
0.55583835 0.3430228 -0.20411305 -0.114365146 0.55140525 0.01615595 -0.34424856 -0.20025179
0.34672233 -0.15983512 0.05917546 0.23338687 0.41177273 0.042932738 0.12600678 -0.0012276663
0.07188608 -0.1330417 0.057440598 0.1577168 0.56315565 -0.15931617 -0.5018687 0.014009731
0.50943935 -0.062325574 0.24101035 0.08876423 0.9574112 -0.15945567 -0.100441344 -0.21775554

lstm.weight_hh_l0 f4 [32, 8]
00000000: cc3e 483e 54a9 08bf 638b 5c3c 95af 26bc
00000010: 9719 973d a863 cebe 8954 743e 5341 c23e
00000020: b944 20be 3043 4bbe f914 c33e 58a1 cabd
00000030: d098 cfbd 7a4f a0be 28e0 f6bd 11c0 053f
00000040: 7c51 973e a7aa 8c3d c16a a0be f43b 163e
00000050: e68c 043e d28f 853e e469 82bd 3e38 833e
00000060: 83da 013e c6c9 1f3d 52df 023f 7099 083e
00000070: 87d5 993e 3717 7b3e 570b 9abe c07a f43e
00000080: db37 afbd 0a98 3d3d 0aed 0bbe e5fd a43e
00000090: cd5b b83d 5b6c 323d 35c9 5a3e 3e4e 143d
000000a0: 071a c2be 50a8 2abf a933 4b3e f59e a83e
000000b0: 06c4 603c bb01 06be d404 04bf c20e a33d
000000c0: 50a9 51be 333b 923d 018f 7fbd 751d 05be
000000d0: 9480 483e 044e babd 4acf 4cbc efb6 23be
000000e0: e339 0ebe 993a f6be acdd 523e 8e6c 0dbd
000000f0: 8ca5 5c3e 7850 aa3e d394 80bd 1631 ee3d
00000100: a7f3 aebe 0670 b33c 24e4 e03d ce3d de3d
00000110: 4147 1b3e ac6e 09be 7984 18be 0afc 2e3e
00000120: 47fd e6bc 419f d8be 9229 8e3c bcb6 a1be
00000130: 6bf7 9d3c 8284 633e 2853 8b3e 0660 273e
00000140: ad05 cebe 45a6 a1bc 4d92 b03e fdfb 24bd
00000150: 60e7 47be 1db8 d93e 0139 b5be 280b af3e
00000160: 2c30 3dbe c5f6 26be 8c53 0f3f ab21 0d3e
00000170: e2f1 013e 654b d4be 6c12 203e be26 293e
00000180: 2251 b43e ff39 58bd 5ae4 2f3e 13a3 bcbe
00000190: 7f9e 863d 6834 603b e704 30be a860 003f
000001a0: 4a84 a9be 87a1 5d3d 978f 993e 7868 bcbe
000001b0: 8ec7 8ebe 0ff3 9dbe 4599 79bc 9307 45be
000001c0: 25eb 01bf c984 263d 380d 4c3d 8a6e a53e
000001d0: 4422 14be ac94 e7bd b716 94be 2dee 973e
000001e0: 7075 c2be 6dcb c53d f3a8 b23c d685 a73c
000001f0: 3c41 abbe e9b3 3abe 0a67 d7be 8200 aa3d
00000200: 7e0a 983d 1b2b 283e 453c 42bd f4e4 97be
00000210: 4ab4 8f3d db44 83bd d043 5b3e 7284 83bd
00000220: c476 3e3e 8aad 09be c55c 823d 850a 873e
00000230: e04f cfbe 8f4b 9b3e 5e8f 16bf 5610 853c
00000240: 9a54 733e 11b9 7d3e cf2d 46be fc76 293e
00000250: 6fbf 1e3e 52f7 69be 9f61 a0be 83b1 a73e
00000260: 0250 06bf bf6e 973e f37b d63e 8ec8 123f
00000270: 950b 213e 556e 14be f664 8dbe 283d cc3e
00000280: cf49 0ebd 0dcd 473b 4ce6 a23e 73cd ccbe
00000290: 065b 213e 6a39 553e f7ce 7cbe 0bac 15be
000002a0: e54f 9a3e 822a 7cbe 4d13 37bd d7c6 a73e
000002b0: dc05 6e3e 400f 90be fd3a 5d3e cfba d8bd
000002c0: c267 06be a680 fbbe 5f3f d7be 06d6 f6be
000002d0: 839e 463b 915b 113e 86c6 d63d 2f62 a23e
000002e0: 4e41 52be fa24 893d 2e7c 853e 8959 a4bd
000002f0: 6e67 de3d 4bbe 15be baa1 473e f027 20be
00000300: 4654 4ebd 2009 81be 7fb5 d93d af06 30bd
00000310: 29ef 6ebe b8e5 c3bd 8055 83be 27b3 e23e
00000320: 37f9 26be 8d55 03bf a159 363e f53b 2f3e
00000330: 3e41 5d3c 8d83 3abe 97b0 cdbe 16e5 d03e
00000340: 882b 2bba 349b 573d 0534 e53e 6ff5 9a3e
00000350: 90c6 0ebf 89a1 63bd 3a80 7ebe 7e3b f83e
00000360: 0da3 2cbd 7f45 8cbe 7cbd c83e b176 ae3e
00000370: 79f2 90be 414f bd3c 88ae cbbe d7aa 043f
00000380: 271a f4be 2bc8 8abd a5b1 0f3e d926 d83e
00000390: f498 2d3e 32ff d6be 7fac c5be 378e c03e
000003a0: 2df7 a23d 0504 f1bd 0647 f63d 7016 373e
000003b0: 2f84 61be 70c1 c33e 8b31 44bd 9a76 6a3e
000003c0: 2cce d9be adaf 27be 75a3 a53e cac1 c73e
000003d0: 617f 613e b37d 433e c270 cebe 2264 13be
000003e0: ad16 143e ddc3 34bf e97c 8c3d bb2c 8dbe
000003f0: e483 05be c095 f1be 3271 833e 385f 30be
0.19555205 -0.53383374 0.013460967 -0.010173698 0.07377928 -0.40310407 0.23860373 0.37940463
-0.15651216 -0.19849849 0.38101938 -0.09894055 -0.101365685 -0.31310636 -0.12054473 0.52246195
0.29554355 0.06868487 -0.31331447 0.14671308 0.12944373 0.2608629 -0.06367853 0.25628847
0.12681012 0.039010786 0.5112201 0.13339782 0.3004572 0.24520575 -0.30086777 0.477499
-0.085555755 0.046287574 -0.13664642 0.32224956 0.090018846 0.043560367 0.21365817 0.03620743
-0.37910482 -0.66663074 0.19843926 0.32933775 0.013718611 -0.13086598 -0.5156987 0.07961799
-0.20474744 0.071401976 -0.06239224 -0.12999518 0.19580299 -0.090969115 -0.012500593 -0.15987752
-0.1388927 -0.4809158 0.20592374 -0.034527354 0.21547526 0.33264518 -0.06278386 0.11630456
-0.34170267 0.021904003 0.10981014 0.10851632 0.151639 -0.13421124 -0.14894284 0.17088333
-0.028196944 -0.42309 0.017353807 -0.31584728 0.019283017 0.22218516 0.2721188 0.16345224
-0.40238705 -0.019732604 0.3448662 -0.040279377 -0.19521856 0.4252328 -0.35395053 0.341882
-0.18475407 -0.16305073 0.5598686 0.13782375 0.12689927 -0.4146377 0.15632027 0.16518685
0.3521815 -0.052789684 0.17176953 -0.36843166 0.065731995 0.0034210924 -0.1718937 0.50147486
-0.3310874 0.054109123 0.29992363 -0.36798453 -0.27886623 -0.30849501 -0.015234296 -0.1924117
-0.5074943 0.040653978 0.049817294 0.32310897 -0.14466196 -0.11307654 -0.2892358 0.296739
-0.37980223 0.09657941 0.021809077 0.02044956 -0.33448207 -0.18232693 -0.420708 0.08300878
0.07423876 0.16422693 -0.04742076 -0.29666865 0.07016809 -0.064096175 0.21412587 -0.06421746
0.18599993 -0.13445106 0.06365351 0.26375213 -0.40490627 0.30331084 -0.5881251 0.016243141
0.23762742 0.24777628 -0.19353412 0.16549295 0.15502714 -0.22848251 -0.3132448 0.32752618
-0.5246583 0.2957668 0.4189144 0.5733727 0.15727074 -0.14495213 -0.2761609 0.3989041
-0.034738358 0.003048721 0.31816328 -0.40000495 0.15757379 0.20822683 -0.24688326 -0.1461641
0.3013908 -0.2462559 -0.04469614 0.3276889 0.23244423 -0.28136635 0.21604533 -0.10582506
-0.13125518 -0.49121588 -0.42040536 -0.48210162 0.0030306883 0.14195086 0.10487084 0.31715533
-0.20532724 0.06696506 0.26071304 -0.0802489 0.108595714 -0.14623372 0.19495288 -0.15640235
-0.05037334 -0.25202274 0.10630321 -0.042975124 -0.2333342 -0.095653 -0.2565117 0.44277307
-0.16306005 -0.51302415 0.17807628 0.17112716 0.0135043245 -0.18214245 -0.4017379 0.4079978
-0.0006529619 0.052638248 0.4476625 0.30265376 -0.5577173 -0.055573974 -0.24853602 0.4848289
-0.042147685 -0.2739677 0.39207065 0.3407493 -0.28309992 0.02310908 -0.39781594 0.5182318
-0.47676203 -0.0677646 0.1403261 0.42217138 0.16952878 -0.41991574 -0.38608167 0.376085
0.07957301 -0.11768345 0.120252654 0.17879653 -0.2202308 0.3823352 -0.04789881 0.22896805
-0.4254011 -0.16375609 0.3235127 0.39015037 0.22021247 0.19090919 -0.40320402 -0.14393666
0.14461775 -0.70611364 0.06859762 -0.2757319 -0.13038594 -0.47184563 0.256723 -0.17223823

lstm.bias_ih_l0 f4 [32]
00000000: 4c2c 333e 1ee3 f63d 4d4a ac3e 9f74 623e
00000010: e5bd 1e3d ee00 693e 0bcf 923e 13fd 8e3e
00000020: 95d5 a13b 1baa 8ebd c210 b63e 6a17 9f3d
00000030: 1f14 8b3e d815 2bbe 0365 003e be50 60be
00000040: 3951 3dbe 1a9a 4dbe db13 eabd f287 1cbc
00000050: f406 1bbe bef7 bc3d 7fe0 77be 5161 2bbe
00000060: 9917 c93e 9e6a bb3e 5c39 28bd 33ca 77be
00000070: 2e09 713d 9165 e03e c9fc 8e3e e68e f0bd
0.17497367 0.12055038 0.33650437 0.221148 0.038755316 0.22754261 0.28673586 0.27927455
0.004938791 -0.06966039 0.3555966 0.07768138 0.2716379 -0.16707551 0.12538533 -0.219058
-0.18488015 -0.20078316 -0.114295684 -0.009553896 -0.15139371 0.092269406 -0.24206732 -0.16736342
0.39275816 0.3660478 -0.041070327 -0.24198227 0.058846645 0.4382749 0.27927235 -0.11746006

lstm.bias_hh_l0 f4 [32]
00000000: de9f 44be 63ad 003f 869f 8cbe ec6d a03e
00000010: 5f00 973e ff1c cc3e 2ac7 4bbd 59af 833e
00000020: c8e4 9d3e 50fd b93e 2ba1 48be abdc 2c3e
00000030: 160f 45bd b2b7 47bd a1b4 df3e d620 73be
00000040: 69d6 d23e f14b 34be de06 4fbd f14c 2c3e
00000050: 8f23 82be e1fa a23e 6cd6 66be 7fe4 a03e
00000060: 2dac 53be 6e4d e63e e992 133e 0e39 b03e
00000070: e574 dabb f49d 323e 5946 34be d17f 083e
-0.1920161 0.5026457 -0.27465457 0.31333864 0.2949247 0.39865872 -0.049750485 0.25719717
0.3083861 0.36326075 -0.1959273 0.16881053 -0.04811009 -0.04875917 0.43692496 -0.23742995
0.41179207 -0.17607094 -0.05054366 0.16826226 -0.25417754 0.3183203 -0.22542733 0.3142433
-0.20671149 0.4498095 0.1441151 0.3441853 -0.006666767 0.17443067 -0.1760496 0.13330008

lstm.weight_ih_l1 f4 [32, 8]
00000000: d444 113e ebe6 69bf 63f0 0e3f aa20 8abd
00000010: 28a5 683e 1c98 bdbe ad46 163c 4634 153d
00000020: d1cd eebe fefd dbbe 46c4 ac3e 267f 953d
00000030: a451 febd c8f4 063d d4f0 1dbe f44f a13d
00000040: 9104 d7bd 9b90 d4bc ae0b 0abe bbda 813d
00000050: a751 45be 10eb 0d3d 1551 86be 809f ee3d
00000060: 37fc c8be 5f30 35bf a93d e03e e22e 35be
00000070: e58d 183e c064 5fbe 958f 86bd 376b e83e
00000080: 951c 60be 0506 71be 689f 123f adc5 cfbd
00000090: 7066 353d 6b31 9ebd 383e d7bd ae8d 983e
000000a0: cfd0 8a3e 2ab8 77be cbe5 0a3d 2f01 69be
000000b0: 48b9 7e3e 5865 493e 7a6c 85bd 1998 c8be
000000c0: e496 0e3d 6420 6abf e8f1 4c3f 1978 803d
000000d0: 3dea ffbe 9ee7 17be 6895 83be c18b 983e
000000e0: 24eb bfbd a23f 14bf 0f64 c33e 4d10 2fbd
000000f0: 2e5e aebd ec15 07bf 328d c2be f838 203f
00000100: d0c6 90be 9d7e 78be 9539 d03d 5d2a 48be
00000110: 0839 163e d2eb 173b b5df 8a3c 9eae 4d3d
00000120: 9282 8ebc a9ff 633d bbc8 d73e d0eb 9fbd
00000130: ac31 1dbe 167b 5fbe 6a47 94bd 51fe 1c3f
00000140: 9366 63be 3a5d a3be b5e9 f2bd db56 903e
00000150: bdde 2c3e 5de8 dcbd 70b9 aabe 0554 043f
00000160: 9452 b1be f46a a2bd 48d6 e53e 8665 9a3e
00000170: 5e33 9d3c 23e0 95be ccc6 82be 0ee8 163e
00000180: 422b d2be a1cf f7be 6442 ff3e 680f d63d
00000190: f76d ce3b 6a8e 83be 95b8 3b3d ea7b b23e
000001a0: 15b2 883e c5c9 bd3e 6299 bcbe 694d 30bd
000001b0: 2559 d43d 7580 f43e 1f3a 0b3f da67 cbbe
000001c0: 8397 8fbd 2864 733d f4af 833d 65f9 0a3e
000001d0: bb21 2dbd 8e0e b6be 8d47 453e 823c db3e
000001e0: 6f60 393d fc5e 1ebf 51b0 c43e 9149 683e
000001f0: 6acf 933e 141f 0bbe 2065 503d aac6 323e
00000200: cecf f3be 020c 843e 7e92 61be 7b28 e93e
00000210: fd12 bebe 4501 60be 24c5 96be a2d3 53be
00000220: 18f6 16be 50d5 3cbe 897b 0c3e 1d5f c43e
00000230: 3449 253d b319 96be 54c7 c3be c62b 313e
00000240: 5a2d 01bf 1dcf 943e 18da ba3e 8faa 8d3e
00000250: 19f1 e5be 84b7 0abe 94f0 d53d bed8 ac3e
00000260: 5bfa c23e 3e3f 543c 52c1 d13d ec35 eebe
00000270: 2794 e73e b9b8 1f3e 7add e33e 9b23 83bb
00000280: bf6e 6bbe be2b e2be 6380 143e de68 37be
00000290: 5f0b d9be 4d40 5ebd e6ac 1fbe c254 da3e
000002a0: 80ca 2bbe 85c4 e9bd d18f 79be 97eb 26be
000002b0: 640d 9a3e 06da f33e 851c 3d3e 190e 36be
000002c0: 25cf 10be c472 04bf 3a91 1b3f 34e2 f0bd
000002d0: 92e5 e33e 7125 3cbf 7200 523e 80a0 063f
000002e0: 1383 3cbe 2d40 ec3e d17d bebe 8316 99bc
000002f0: 2524 4f3e bda0 ea3e 0720 9a3e 66ea b6be
00000300: b9d2 6ebe c6fd 84be 39a1 4f3e d509 043e
00000310: 6945 53be 1ec6 adbe a18c 8cbe 2d46 093f
00000320: 9e23 16be 60a2 f7bd 417d 433f 3012 de3e
00000330: 246a c9be a6fb d3be 4cb5 91bd a034 0d3f
00000340: 30df 2fbe fa45 15bf 8ea3 b93e bf23 c0bd
00000350: 73d1 4dbe f5bb 1c3b 6ff0 38bc 56ba 0dbd
00000360: aab4 29be c89e 46bf f1ab 2f3f 0e72 8e3e
00000370: 1b23 aabe 188f 22be a1ad bbbe 703a 913d
00000380: b56e 13bf a4c7 85be 7aad 363e 66b6 ef3c
00000390: 3609 13bc 9f2b 30be f7ab 20be 6425 073f
000003a0: b629 043e 39d2 f13e d2c5 10bc 0b46 273c
000003b0: d01b e23e 2365 063f 06fb 673e a6bf 28bf
000003c0: 726a 6e3e 17b8 54bf a0c5 b53e 6cfa 38be
000003d0: 37d2 90bd 0479 f4be 4d58 15bf 8a30 253f
000003e0: b7c7 36bd 92ff 4abf 4dda 033f d933 fc3c
000003f0: 55c9 093b b2d4 43bf 4a37 3bbd e925 c93e
0.14186412 -0.9136798 0.5583555 -0.067445114 0.22719252 -0.37030113 0.009172124 0.036426805
-0.466414 -0.42967218 0.33743495 0.07299642 -0.124179155 0.032948285 -0.154239 0.07876578
-0.10498918 -0.02594786 -0.13481018 0.06340548 -0.19269429 0.034648 -0.26233736 0.11651516
-0.39254925 -0.70776933 0.43797043 -0.17693666 0.14897878 -0.21815777 -0.06570355 0.45394298
-0.21885903 -0.23537453 0.57274485 -0.101451255 0.044287145 -0.077242695 -0.10509914 0.29795593
0.27112433 -0.24191347 0.033910554 -0.22754358 0.24875367 0.19667566 -0.06514831 -0.3917854
0.03481187 -0.91455674 0.8005662 0.06272907 -0.49983397 -0.14834449 -0.25699925 0.29794124
-0.093710214 -0.57909596 0.38162276 -0.042740155 -0.08514057 -0.52767825 -0.37998348 0.6258693
-0.28276682 -0.24267049 0.10167233 -0.1954741 0.14670193 0.0023181331 0.016952375 0.050215356
-0.017396245 0.05566374 0.42145333 -0.078086495 -0.1535098 -0.21824297 -0.07240184 0.61325556
-0.22207098 -0.31907064 -0.11860982 0.28191265 0.16881843 -0.10786507 -0.33344603 0.51690704
-0.34633315 -0.07930556 0.44890046 0.3015558 0.019189533 -0.29272565 -0.25542295 0.1473696
-0.41048628 -0.48400596 0.4985534 0.10452157 0.00629973 -0.2569459 0.045830328 0.34860164
0.26698366 0.37068 -0.36835772 -0.043042574 0.103685655 0.47754255 0.5438556 -0.3972767
-0.070113204 0.05942169 0.06430045 0.13571699 -0.042268496 -0.3555798 0.19265576 0.428196
0.045257982 -0.61863685 0.3841577 0.22684313 0.28869182 -0.13586074 0.05087769 0.17458597
-0.4761948 0.2579041 -0.22028539 0.45538697 -0.37123862 -0.21875484 -0.2944728 -0.206862
-0.14742315 -0.18440747 0.13719 0.38353816 0.040353015 -0.29316482 -0.38238013 0.17301854
-0.50459826 0.29064265 0.36494517 0.27669188 -0.44910505 -0.13546568 0.10446277 0.3375911
0.3808163 0.012954531 0.10241951 -0.46525514 0.4523022 0.1559781 0.4450491 -0.0040020472
-0.22991465 -0.44173998 0.145021 -0.17911097 -0.42391488 -0.05426054 -0.155933 0.4264279
-0.16776466 -0.11414436 -0.24371268 -0.16300808 0.3008834 0.47627276 0.1846791 -0.17778815
-0.1414152 -0.5173762 0.60768473 -0.11761895 0.44511086 -0.7349463 0.20507982 0.52588654
-0.18409376 0.46142712 -0.37205365 -0.018687492 0.20228632 0.4582576 0.3010256 -0.35725707
-0.23322572 -0.25974864 0.20276345 0.12894376 -0.20631947 -0.33940214 -0.2745104 0.53622705
-0.14662024 -0.120915174 0.76363 0.4337325 -0.3933879 -0.4140293 -0.07114658 0.55158424
-0.17174983 -0.583099 0.36257595 -0.09381818 -0.2009943 0.0023915742 -0.011287793 -0.034601532
-0.16572824 -0.7758603 0.68621737 0.27821392 -0.33229908 -0.15874898 -0.36655906 0.07091224
-0.575908 -0.26128876 0.17839614 0.029261779 -0.008974364 -0.1720414 -0.156906 0.5279143
0.12906536 0.472307 -0.008836227 0.010209571 0.44161844 0.5249807 0.22654352 -0.6591743
0.23282793 -0.830934 0.35502338 -0.18064278 -0.07071345 -0.47748578 -0.5833786 0.6452719
-0.044624057 -0.7929622 0.51504976 0.030786442 0.0021024544 -0.7649642 -0.045707025 0.39286736

lstm.weight_hh_l1 f4 [32, 8]
00000000: 77aa 833e 09b9 6b3e 1550 3c3e 2afa 5a3c
00000010: 5133 0ebe 491f 693e dc1c 203f 5eec 9b3d
00000020: 3baf f63e 1fcc 4f3e 95e9 8a3e 086b 393e
00000030: a659 373e 111d 9b3e 3dd0 a9be 6224 8abe
00000040: 7887 96bd e240 4cbd 694e 8dbe c1ed e03d
00000050: 7e04 e93d 1fef 7d3d d7ff ec3e bd47 453e
00000060: a429 f03d 3c2b 3fbe b50d 803e 7eff 023d
00000070: d3e3 a33d 4085 fbbd 2239 79bd bf5d cf3d
00000080: 487d 053e ee6a 843e b5d8 1f3e 319f c1be
00000090: e27a 66be a953 61be a2c0 8fbe 5fff fdbd
000000a0: e5c0 a6be 1729 983e 57d3 a9be 79ef ed3e
000000b0: a843 483d fe0e 873e 57c0 323e 1bb4 5c3e
000000c0: 5312 3f3d 5ab1 193f d239 00bb e62e 4abd
000000d0: 550a 283e 8e63 a63e c93d 2ebe a827 bebe
000000e0: 5d47 13bd 385e 31be b9dd 34be ccb4 c0be
000000f0: d997 ff3d 681b 533e 4ee4 fd3d ef82 da3d
00000100: 6e4b 203d f56a b53b 7411 023d a3f2 bbbe
00000110: 953c d13e 4db5 163f 46a3 c93e 5e0b 08be
00000120: 7426 9cbb cd87 04be cbc5 dcbd b091 dd3c
00000130: e7ff 8e3e a18c f13d 1e75 2cbe 8dfa 67be
00000140: 7ec9 573e a9b3 583e 4cbe d7bd 2687 8cbe
00000150: 3058 943e 26fd 193e 4d2e 32be 28ec b1bb
00000160: a204 f63e 900f 283e 2e7f 16be 1612 5fbe
00000170: 2483 ec3b c710 fe3e 2f75 0b3f 0387 253e
00000180: a41e 673e a956 e03c cbf9 763e 703f 053d
00000190: 7afc 8a3e 3d0d b9bc b0b2 5fbe ae54 b0bd
000001a0: f1d6 73be 7fa4 a9be 4bda 0abd 7d7f 0fbe
000001b0: 02df a3be 8f62 8cbd a70e 493b c54f fd3d
000001c0: 4d7c 49be 2232 d83d 1e7f 58bd 38a2 833d
000001d0: c3bd 75bd 8873 683d 4006 903d b43c 843e
000001e0: 1dad ef3e aad0 a7bd bc6e 75be 6080 ccbd
000001f0: ecba 99be c991 08be cf97 123e 994f 253e
00000200: 64ce 6c3d 620a 173d 369e 503d 537d 67be
00000210: 9de0 86be 803e 133e 36db c23b ce95 423e
00000220: cdad e53d 0237 21bd 0d99 723e 2a34 e63c
00000230: 8ca3 a33c dde0 3c3e 7a90 1a3e c73d 573e
00000240: 8a18 21bd 2314 833e 145e 523e 065f 83be
00000250: f5dc c03d d53f 3f3e ce7b 413e 771a a63c
00000260: f2f7 a2be fe16 29be aef8 04be 73ea 32be
00000270: 0877 64be 54a6 913e 03c1 bc3e ed26 2b3e
00000280: bbc5 35bc c5f7 8b3e 2fea 83be 1b29 d2be
00000290: 1473 1ebd cce1 68be 88fe f43d 4e8c b2be
000002a0: 6beb 56bd 48e5 0e3e 0eb5 823e 0a2d 5cbd
000002b0: e552 9f3e dac1 043e 565d 8a3e 179d 9bbe
000002c0: 0b66 a5be f735 9bbe 350b 97be b905 f8bd
000002d0: a727 7abe a098 b1bd 1ff4 ffbd f80f b13d
000002e0: 8c5c 5ebe c56d 7b3c d1d1 a33e 90cf 1b3e
000002f0: 8631 85be 8f90 d5be aca4 453e 793d 57bd
00000300: 6e02 91be 1e25 2a3c e5fe 98bd dbe6 e73d
00000310: 402f 9f3d 6947 573e 7764 a53e 7aab a3be
00000320: cf28 9c3e 6be5 86be 59c7 6f3e 99c1 133e
00000330: 7c70 a53e 84a2 aa3e 573e 77be 180d 89bd
00000340: e973 9bbe e4b2 ca3e 95ed ad3e 5ab4 f9be
00000350: 0396 0e3f d040 b93e 4ffd 313e 3a70 97be
00000360: 457c b83c 10fe 8d3e 2d74 223e 5f9d 85be
00000370: 85bb 02be 9c87 a23e de11 6b3e c3bd c2be
00000380: d822 e33e 3ef6 873d dfb4 c73e cc17 d3be
00000390: 626c 783e 7251 d43e 939b cc3e 2d85 eb3c
000003a0: 748d 00bf 9337 9abe 349e 6e3d 26f4 e93d
000003b0: 1eff c5bc 2b1b fa3d a411 e53e 7019 503e
000003c0: bdeb 2c3e 7ca4 053f 020f 02be 64eb f0be
000003d0: f178 ed3e 682b 973d 4ea4 c1bd 718a adbe
000003e0: b923 ae3e 7abc 493d 58f5 4ebe 5936 76be
000003f0: b7b4 783e 858b f5bc 5d51 163f 4c6e b73d
0.25715992 0.23019804 0.18389924 0.013365308 -0.13886763 0.2276584 0.62544036 0.07613443
0.48180565 0.2029271 0.27131334 0.18107235 0.17905292 0.30295613 -0.33166686 -0.26980883
-0.07350057 -0.049866565 -0.27598885 0.10982848 0.1137781 0.06199562 0.4628894 0.19265647
0.11726692 -0.18668836 0.25010458 0.031981938 0.080024384 -0.12281275 -0.0608455 0.101253025
0.13036072 0.2586283 0.15610011 -0.37816766 -0.22507814 -0.2200457 -0.28076655 -0.12402224
-0.32569042 0.2971885 -0.33169052 0.46471766 0.048892647 0.26378626 0.17456184 0.2155308
0.046648335 0.6003624 -0.0019565714 -0.049361132 0.16410191 0.3249783 -0.17015757 -0.3713963
-0.03595673 -0.17321098 -0.17662705 -0.37637937 0.124801345 0.20615923 0.12397061 0.10669505
0.039134435 0.005536432 0.031754926 -0.36708555 0.40866533 0.58870393 0.3938238 -0.13285586
-0.004765326 -0.12942429 -0.107799135 0.027047008 0.27929613 0.11794401 -0.16841552 -0.22654171
0.21072957 0.21162285 -0.10534343 -0.2744686 0.28973532 0.15037975 -0.17400475 -0.0054297633
0.4805041 0.16412187 -0.14696953 -0.21784243 0.0072177816 0.49622175 0.5447568 0.16164784
0.22570282 0.027385073 0.24118726 0.0325312 0.2714575 -0.02258932 -0.21845508 -0.08609901
-0.23812462 -0.33133313 -0.033899587 -0.14013477 -0.3200608 -0.06854736 0.00306789 0.123687305
-0.19676323 0.10556437 -0.052855603 0.06427425 -0.059995424 0.056750804 0.07032442 0.25827563
0.46811762 -0.081940964 -0.23968023 -0.09985423 -0.30025423 -0.13336863 0.14315723 0.16143645
0.057814017 0.036875136 0.05093213 -0.22606401 -0.2634324 0.1437931 0.005946542 0.19002458
0.112147905 -0.0393591 0.23691197 0.028101046 0.019975446 0.18445154 0.15094176 0.2101966
-0.039330043 0.256013 0.205437 -0.25658435 0.09417144 0.18676694 0.18894884 0.020276291
-0.31829792 -0.16512677 -0.12985489 -0.17472248 -0.22311032 0.2844721 0.36866006 0.16714068
-0.011094506 0.2733747 -0.25764605 -0.41046986 -0.038683966 -0.22742385 0.119626105 -0.3487267
-0.052470606 0.13954651 0.2552876 -0.05375389 0.3111793 0.12964574 0.27024335 -0.30393288
-0.32304415 -0.3031461 -0.29500738 -0.121104665 -0.24429189 -0.08671689 -0.12497734 0.08645624
-0.21714991 0.015345995 0.31996015 0.15215898 -0.26014346 -0.41711852 0.19301099 -0.05254886
-0.28322166 0.010384826 -0.07470492 0.11323329 0.07772684 0.21023335 0.3230321 -0.31966764
0.30499884 -0.26346907 0.23415889 0.1442932 0.3231238 0.33327115 -0.24144875 -0.066919506
-0.3036187 0.39589608 0.33970323 -0.4877041 0.5569765 0.3618226 0.17381786 -0.2957781
0.022520194 0.27732897 0.1586463 -0.26096627 -0.12766846 0.31744087 0.22956035 -0.38035402
0.4436252 0.06638764 0.3900518 -0.41229093 0.24260095 0.41468388 0.39962444 0.028750027
-0.5021584 -0.30120525 0.058256343 0.11423521 -0.0241695 0.12212213 0.4474002 0.20322204
0.16886802 0.5220411 -0.12701038 -0.4705459 0.46381333 0.07381326 -0.09455167 -0.33894685
0.3401163 0.04925201 -0.20210779 -0.2404417 0.24287687 -0.029973755 0.587179 0.08956584

lstm.bias_ih_l1 f4 [32]
00000000: 64f5 6e3e 174e 4cba 8059 d23e a9c9 bcbc
00000010: d397 9abe 02c3 b3be dcd4 523f 2c34 523d
00000020: 9819 3e3e 07e3 8fbd a1df fb3e f4d6 12be
00000030: e855 50be 1983 2f3e c4a5 6fbe bd3f 513d
00000040: 72a4 cebe eab2 7b3e 2df4 8cbe f607 8abd
00000050: 309c e23d f9bf 753e 8aec 22bd 85bb 8ebe
00000060: 6130 cabd dbca 9c3e 0377 3fbe 33ab 413e
00000070: 6f7e c83e 074c 863e 6e14 1c3f 2efb d03c
0.23335797 -0.0007793619 0.41083908 -0.023045378 -0.30193958 -0.35109717 0.8235605 0.051319286
0.1856445 -0.07025724 0.49194053 -0.1433981 -0.2034527 0.17139854 -0.23403078 0.051086176
-0.40359837 0.24579969 -0.2753004 -0.067398 0.11064947 0.23999013 -0.039776362 -0.2787744
-0.09872509 0.30623516 -0.18697743 0.18912964 0.3915896 0.2622988 0.60968673 0.025510397

lstm.bias_hh_l1 f4 [32]
00000000: fe00 b93e 0408 983a e03c 353d 86c9 9abe
00000010: 09b6 253e 9ccb 263d 3682 033f 41f1 863e
00000020: d941 fe3d cbe0 5dbe 883b b93e df4f 4bbe
00000030: 8397 9abe 7e5b 263e 403f b2be dae7 76be
00000040: 7246 243e 82e9 943e 62db 4dbe 7632 80bd
00000050: 4b37 073e e6f5 1abe e939 3b3e cdf6 733e
00000060: 0933 0e3f a849 2f3e 19c6 e4bd 0029 efbd
00000070: 1284 773c ed2a 083e fc99 c43e dcf3 4cbe
0.3613357 0.0011599069 0.044247508 -0.30231875 0.16182722 0.04072152 0.5137056 0.26355937
0.12414903 -0.21667783 0.3617823 -0.19854687 -0.3019372 0.16245839 -0.3481388 -0.24111882
0.16042498 0.29084402 -0.20103219 -0.06259625 0.13204686 -0.15132865 0.1828381 0.23824616
0.55546623 0.17117941 -0.11170597 -0.11677742 0.015107172 0.13297625 0.3839873 -0.200149

linear.model.0.weight f4 [2, 8]
00000000: 23d1 a7be 9c93 6d3e 91c3 e9bd 9857 1bbe
00000010: be56 863e 754c a3be 6ee4 3d3f 93d2 22bf
00000020: 59b1 c83e 64fa 553e 72f2 e63e 8c85 e9be
00000030: d621 7d3e be91 8bbe 614c 81bd 1142 93be
-0.32776746 0.2320084 -0.114142545 -0.15170133 0.26238054 -0.3189427 0.7417668 -0.6360256
0.39197806 0.20896298 0.45106846 -0.456097 0.24719939 -0.2725963 -0.06313396 -0.28761342

linear.model.0.bias f4 [2]
00000000: 34d8 1dbe a80c 85be
-0.15414506 -0.25986218
