examples/2_streamflow_isotope_simulation/results/20241125_101506_612553/loss_c60a7_00005_5_batch_size=8,hidden_size=17,learning_rate=0.0020,n_epochs=251,num_layers=2_2024-11-25_10-15-11/checkpoint_000010/model.pt (torch, 19740 bytes, 10 tensors)

lstm.weight_ih_l0 f4 [68, 4]
0.019659648 0.07843657 0.070814826 -0.17098638 0.14476079 -0.16967873 0.06346202 -0.06628512
0.31662452 -0.11146576 -0.0490638 -0.020664416 -0.19268285 0.19412377 -0.19237012 -0.2137535
0.39794427 0.18127611 -0.109709404 -0.00781019 -0.34419477 0.029389285 0.15451902 0.03423822
0.09677011 0.25708538 0.058417883 -0.1268346 0.36895236 0.08697697 -0.21662374 0.21237166
-0.054762427 -0.18788081 -0.31618524 0.10154834 0.15130332 -0.10125017 0.15211771 0.005813309
0.36386716 0.016213467 0.1279977 0.18905213 0.26254135 -0.05016491 0.013400791 -0.10554785
-0.11524983 0.27062425 -0.1513223 -0.20674771 0.2778407 -0.32646218 -0.19685306 0.2834872
0.40355834 0.07323027 0.046128027 -0.095436245 0.2465533 -0.029801302 -0.10353287 0.15516731
0.37589023 -0.13176887 -0.08905106 -0.05700507 0.021522636 0.307415 -0.09743407 -0.22668296
0.35236198 0.28153986 0.269659 0.058369115 0.22596878 0.16275826 0.20926993 0.23639601
0.291263 -0.11180389 -0.33387312 -0.26558977 0.40118712 0.14767812 0.06429274 -0.19264661
-0.37398696 0.13261674 -0.09644059 0.07636368 0.10150992 0.31857026 0.009311102 0.059590213
0.0163872 0.066807866 0.01985124 0.19558902 0.064658314 0.18126413 -0.0031052656 -0.3700331
0.27017963 -0.34230238 -0.043329075 -0.0012030887 0.39942423 -0.10454233 0.2715626 0.083814815
0.07010398 0.057350475 0.101170406 -0.03274375 -0.24964061 -0.19305718 -0.043484997 -0.24115568
-0.04053729 -0.17008999 0.0034207404 -0.17564186 -0.06303697 0.06091566 0.15477815 -0.21487747
-0.36367714 -0.0538656 -0.32744825 -0.09316793 0.22784594 -0.024965173 -0.044965953 0.16783012
-0.3972937 -0.18207873 -0.1992569 0.22658385 0.28706434 0.16751319 0.11839813 -0.076603115
0.15632278 0.11399026 0.2025794 0.025314214 -0.259525 -0.18433923 0.09568275 0.0934157
-0.059761345 0.18540987 0.09780568 0.14695854 -0.17080851 -0.053712778 0.14946431 -0.22839165
0.44584945 -0.14507565 0.02926572 0.055896796 0.32504904 -0.06411734 0.24327171 0.1273637
-0.09752569 -0.0034885134 0.22390035 -0.026022034 -0.0070238276 -0.30536643 -0.114834815 -0.11394404
0.31999996 -0.02129009 0.039625347 0.119656555 -0.16088223 -0.15296608 -0.22658631 0.079248466
0.44346225 0.09457867 0.062168557 0.036807157 -0.36145997 -0.12439985 -0.038686287 0.19024548
-0.3662291 0.07992358 0.029525809 0.1670108 0.32685983 0.12916438 -0.04872885 -0.10437858
-0.1634017 0.20318386 0.020144854 -0.14997938 0.4325715 0.21094088 0.06469403 0.2001084
0.22098346 -0.025500365 0.10076984 0.08091629 -0.018082887 -0.013398486 0.2944876 0.26019794
-0.14011654 -0.20565185 -0.14216754 0.11060207 0.48742834 0.012363312 -0.13578336 -0.18327627
-0.38627627 -0.038337372 0.14755866 -0.20186682 0.25899106 0.385015 0.32720757 0.06349073
0.2762449 -0.111845724 0.08902372 0.16680804 0.09516152 0.008151547 -0.2648559 -0.208055
0.27556607 -0.19264877 0.04225542 -0.02491805 0.20352878 -0.0003893664 0.09447391 -0.065446645
0.09899136 0.16955525 -0.1305264 -0.092646964 0.04791576 -0.27962205 -0.0021476431 -0.07995008
00000000: 450d a13c 5aa3 a03d 5d07 913d 0e17 2fbe
00000010: 2c3c 143e 43c0 2dbe 60f8 813d 7ec0 87bd
00000020: 9c1c a23e 2948 e4bd 20f7 48bd 6c48 a9bc
00000030: a74e 45be 62c8 463e acfc 44be 33e2 5abe
00000040: 5abf cb3e 72a0 393e 53af e0bd 9fec ffbb
00000050: 4c3a b0be ccc1 f03c 3c3a 1e3e 603d 0c3d
00000060: 682f c63d b2a0 833e 9747 6f3d eee0 01be
00000070: 53e7 bc3e fb20 b23d 9dd2 5dbe f577 593e
00000080: 914e 60bd d463 40be 08e3 a1be 93f8 cf3d
00000090: 42ef 1a3e 405c cfbd bfc4 1b3e 927d be3b
000000a0: cc4c ba3e 1bd2 843c d411 033e e296 413e
000000b0: d26b 863e b879 4dbd fe8e 5b3c 7929 d8bd
000000c0: 1a08 ecbd 438f 8a3e 3cf4 1abe acb5 53be
000000d0: 2341 8e3e 0d26 a7be d993 49be 3c25 913e
000000e0: 339f ce3e c0f9 953d bef0 3c3d 1474 c3bd
000000f0: 7878 7c3e dc21 f4bc 0b09 d4bd 2ee4 1e3e
00000100: af74 c03e 6bee 06be 6760 b6bd 267e 69bd
00000110: 3d50 b03c 8065 9d3e 848b c7bd 941f 68be
00000120: ca68 b43e fe25 903e bf10 8a3e 7414 6f3d
00000130: 5c64 673e 1aaa 263e db4a 563e cc11 723e
00000140: 6d20 953e 70f9 e4bd 6bf1 aabe 62fb 87be
00000150: 6668 cd3e ef38 173e e9ab 833d 2745 45be
00000160: 387b bfbe afcc 073e a582 c5bd 9064 9c3d
00000170: 6fe4 cf3d a41b a33e 988d 183c de14 743d
00000180: 733e 863c 90d2 883d 119f a23c 7d48 483e
00000190: 946b 843d 4e9d 393e b681 4bbb fa74 bdbe
000001a0: fc54 8a3e 4242 afbe d479 31bd f5b0 9dba
000001b0: 5581 cc3e 4a1a d6bd 410a 8b3e 1aa7 ab3d
000001c0: ad92 8f3d 55e8 6a3d 6e32 cf3d 4f1e 06bd
000001d0: caa1 7fbe c8b0 45be 531d 32bd 84f1 76be
000001e0: 6e0a 26bd 122c 2ebe 802e 603b 76db 33be
000001f0: 8719 81bd b382 793d 2a7e 1e3e d708 5cbe
00000200: e433 babe 2da2 5cbd 4ca7 a7be d4ce bebd
00000210: 7250 693e c383 ccbc 382e 38bd a9db 2b3e
00000220: 146a cbbe d972 3abe 000a 4cbe 9905 683e
00000230: 19fa 923e 9488 2b3e b87a f23d 18e2 9cbd
00000240: 1413 203e ba73 e93d f970 4f3e c15f cf3c
00000250: 76e0 84be 6cc3 3cbe 51f5 c33d bb50 bf3d
00000260: 50c8 74bd 16dc 3d3e 584e c83d 4d7c 163e
00000270: 6de8 2ebe ee01 5cbd 2c0d 193e 80df 69be
00000280: 6146 e43e b68e 14be aabe ef3c 0af4 643d
00000290: d46c a63e f44f 83bd 381c 793e a16b 023e
000002a0: 8dbb c7bd 8b9f 64bb 2246 653e 292c d5bc
000002b0: 2328 e6bb fd58 9cbe 842e ebbd 7e5b e9bd
000002c0: 09d7 a33e 8e68 aebc 304e 223d 7f0e f53d
000002d0: 50be 24be 24a3 1cbe 3e06 68be 054d a23d
000002e0: 7c0d e33e 76b2 c13d 75a4 7e3d 1ac3 163d
000002f0: 4811 b9be 59c5 febd 8375 1ebd b6cf 423e
00000300: 6182 bbbe f9ae a33d 1ce0 f13c e104 2b3e
00000310: 2c5a a73e ab43 043e e797 47bd 70c4 d5bd
00000320: c652 27be 6e0f 503e d206 a53c 3294 19be
00000330: 037a dd3e e300 583e 4e7e 843d 37e9 4c3e
00000340: 7d49 623e 24e6 d0bc 6b60 ce3d 71b7 a53d
00000350: 9022 94bc 5385 5bbc 14c7 963e aa38 853e
00000360: b67a 0fbe 6696 52be 5e94 11be 5783 e23d
00000370: 3590 f93e 7d8f 4a3c cb0a 0bbe c6ac 3bbe
00000380: 01c6 c5be a607 1dbd 9e19 173e 2db6 4ebe
00000390: 7a9a 843e b020 c53e c087 a73e 6e07 823d
000003a0: f96f 8d3e 5f0f e5bd 1152 b63d bacf 2a3e
000003b0: 0be4 c23d 118e 053c 319b 87be 5f0c 55be
000003c0: ff16 8d3e b845 45be 0514 2d3d f020 ccbc
000003d0: d969 503e e023 ccb9 8a7b c13d e408 86bd
000003e0: fbbb ca3d e49f 2d3e b6a8 05be b1bd bdbd
000003f0: 5143 443d 9f2a 8fbe 79bf 0cbb debc a3bd

lstm.weight_hh_l0 f4 [68, 17]
0.046159714 0.2314418 0.25079846 -0.08031583 -0.076420434 0.1609035 0.34522372 0.0025165086
0.057998393 0.2341843 0.15892854 0.12976524 -0.3587311 -0.21209279 0.021340527 -0.09354018
0.24017334 -0.21268435 0.26908323 0.076282546 -0.047209688 -0.19073984 0.2501494 0.263544
0.07416898 0.20603217 -0.055277303 0.2893976 -0.23311041 0.06417392 0.045038268 0.18226323
0.24164549 0.00066495955 0.084844224 -0.10691503 0.13661227 0.16880527 -0.0857146 0.20472266
0.086115085 -0.0392803 -0.24527754 -0.08142381 0.019785028 -0.13338695 0.19153224 -0.27677435
0.18267807 0.08145371 -0.11625028 0.15629227 -0.21246812 0.13604358 -0.11956785 -0.13441342
0.19862664 0.31453368 0.20094813 0.00493812 0.23381338 0.03218972 -0.17786805 -0.08207749
-0.0826901 -0.21158347 0.13731629 -0.20017406 0.17851704 0.016244447 -0.21533799 0.22456792
0.00020501338 0.22901927 -0.14359227 0.08393537 -0.20141928 0.07373555 0.15427224 -0.14013815
-0.11799927 -0.22920239 0.063361466 0.1347989 -0.15768127 -0.1577447 0.12348924 0.0018439817
-0.021608416 0.21425137 0.3120494 -0.23675364 0.06822783 0.17219737 -0.2937116 -0.08148315
-0.08062053 0.049517415 0.09456566 -0.03559581 0.13242742 -0.18102732 -0.26141602 0.10673128
0.09397745 0.2491586 0.051661436 0.2981435 0.17916103 -0.10375601 -0.05908872 0.1748149
0.08311456 -0.23646651 -0.061227333 -0.3828769 0.111521654 -0.06807117 0.3361906 -0.23460446
0.2066884 0.14947796 -0.05082575 -0.030958699 -0.15095592 0.10582402 0.052739296 -0.2887308
0.15782477 0.22498722 0.2381256 -0.2475749 -0.3644931 0.04804606 -0.053261124 -0.030819368
0.09277303 0.13411693 -0.0068594106 -0.06806641 0.1586407 -0.13823807 0.14763081 0.15364064
-0.015231973 0.09012603 -0.19461186 -0.09950138 0.11163799 -0.3768616 -0.2870005 -0.15482089
-0.14149392 -0.0974411 -0.18046771 -0.14585052 0.2324373 -0.32931647 -0.14895928 -0.121168375
0.24041036 -0.025768323 0.14457235 0.16838412 0.20085748 -0.2688994 -0.23402797 -0.00041222133
0.20155345 0.16586782 -0.17433354 -0.0370852 0.1362188 0.22513404 0.110232085 0.22616267
-0.045463454 0.17153344 -0.26269957 0.17586641 -0.036366906 0.113477185 0.11567122 0.033912167
0.19123006 -0.13267174 0.24268033 -0.06252566 0.24245113 -0.16857375 -0.121722385 -0.33362663
-0.20339155 0.3750542 -0.056142353 -0.12583692 -0.093747005 -0.1263242 0.1836798 -0.0198754
-0.061963744 -0.010544016 0.04776283 -0.13615368 -0.07016129 0.10184608 0.06610125 0.20148937
0.07644061 0.22640264 -0.17185745 -0.110845976 0.10019417 0.310457 -0.020531615 -0.14933266
0.08018503 -0.017778022 -0.15816453 -0.21841012 0.19570372 -0.07589347 0.29073173 0.080066234
0.27846098 -0.12415133 0.0023367496 0.37896436 0.26868954 -0.20741893 0.20444122 0.27191147
0.28256354 0.098595574 -0.063187174 0.0035560932 -0.15755643 -0.27959955 -0.009907783 0.1909736
0.1384397 -0.13307048 0.11000138 0.22946729 -0.1030721 0.2843672 -0.20278049 -0.011569027
-0.041909497 -0.14638525 0.25974935 -0.022757301 -0.14455752 0.089341044 0.14723526 -0.31996483
00000000: f811 3d3d 14ff 6c3e a868 803e a07c a4bd
00000010: 5182 9cbd e3c3 243e 2ac1 b03e 02ec 243b
00000020: b98f 6d3d 02ce 6f3e 2abe 223e 2ee1 043e
00000030: 9aab b7be da2e 59be 54d2 ae3c fe91 bfbd
00000040: 00f0 753e edc9 59be 47c5 893e 063a 9c3d
00000050: f25e 41bd 4e51 43be 9513 803e 3def 863e
00000060: e8e5 973d 19fa 523e 746a 62bd ec2b 943e
00000070: 7fb4 6ebe 9e6d 833d 0c7a 383d 36a3 3a3e
00000080: ea71 773e ae50 2e3a cfc2 ad3d 44f6 dabd
00000090: 16e4 0b3e 4adb 2c3e 238b afbd d1a2 513e
000000a0: 1b5d b03d 61e4 20bd 092a 7bbe 87c1 a6bd
000000b0: 3614 a23c 9796 08be 0721 443e 5eb5 8dbe
000000c0: f60f 3b3e 34d1 a63d a014 eebd 150b 203e
000000d0: 3e91 59be 024f 0b3e fddf f4bd aca3 09be
000000e0: c864 4b3e 8f0a a13e 59c5 4d3e f4cf a13b
000000f0: c66c 6f3e 5ed9 033d 0b23 36be 3e18 a8bd
00000100: 6d59 a9bd 56a9 58be a49c 0c3e 6efa 4cbe
00000110: 2ccd 363e 1313 853c 9081 5cbe 22f5 653e
00000120: dcf8 5639 0784 6a3e da09 13be 4fe6 ab3d
00000130: db40 4ebe aa02 973d 8bf9 1d3e 6080 0fbe
00000140: 9aa9 f1bd 08b4 6abe a8c3 813d b908 0a3e
00000150: 3377 21be d487 21be ede7 fc3d c2b1 f13a
00000160: 2204 b1bc b664 5b3e f0c4 9f3e 8c6f 72be
00000170: 08bb 8b3d 8254 303e 5e61 96be a3e0 a6bd
00000180: 601c a5bd c6d2 4a3d a4ab c13d e9cc 11bd
00000190: 0e9b 073e 3a5f 39be 52d8 85be ee95 da3d
000001a0: 4077 c03d 6f23 7f3e f19a 533d 44a6 983e
000001b0: fd75 373e 087e d4bd 0307 72bd ad02 333e
000001c0: f737 aa3d 4724 72be 83c9 7abd 7108 c4be
000001d0: 7765 e43d e668 8bbd 2d21 ac3e 273c 70be
000001e0: 20a6 533e c010 193e a92e 50bd 199d fdbc
000001f0: 3094 1abe 44ba d83d 2905 583d 86d4 93be
00000200: d19c 213e 0d63 663e 33d7 733e 4684 7dbe
00000210: d79e babe f2cb 443d 5628 5abd e678 fcbc
00000220: c9ff bd3d f355 093e e8c4 e0bb 6766 8bbd
00000230: b572 223e 488e 0dbe 882c 173e f953 1d3e
00000240: 868f 79bc ff93 b83d 5548 47be 61c7 cbbd
00000250: 75a2 e43d 01f4 c0be bbf1 92be 5e89 1ebe
00000260: c8e3 10be 338f c7bd 87cc 38be d759 15be
00000270: 0b04 6e3e 2b9c a8be c888 18be 2027 f8bd
00000280: 222e 763e 1718 d3bc c60a 143e e36c 2c3e
00000290: 95ad 4d3e 2fad 89be 07a5 6fbe 691f d8b9
000002a0: 0764 4e3e 41d9 293e 7e84 32be a7e6 17bd
000002b0: f17c 0b3e 8a89 663e 5cc1 e13d 3097 673e
000002c0: e337 3abd 76a6 2f3e 8f80 86be 5316 343e
000002d0: 77f5 14bd ba66 e83d 08e5 ec3d 7ce7 0a3d
000002e0: d0d1 433e 1adb 07be 3181 783e 740d 80bd
000002f0: 1c45 783e 999e 2cbe 9649 f9bd 1cd1 aabe
00000300: e045 50be 1b07 c03e 86f5 65bd 65db 00be
00000310: 6efe bfbd 225b 01be 8f16 3c3e bcd1 a2bc
00000320: b2cd 7dbd cfc0 2cbc f5a2 433d df6b 0bbe
00000330: b9b0 8fbd ad94 d03d 1860 873d 3b53 4e3e
00000340: e58c 9c3d 18d6 673e 66fb 2fbe 3703 e3bd
00000350: 9a32 cd3d 38f4 9e3e eb31 a8bc a9ea 18be
00000360: 0d38 a43d 37a3 91bc e2f5 21be e7a6 5fbe
00000370: 8e66 483e 096e 9bbd cada 943e c4f9 a33d
00000380: 7092 8e3e 0d43 febd 2724 193b 9e07 c23e
00000390: ad91 893e a165 54be 0a59 513e fb37 8b3e
000003a0: 2bac 903e 7aec c93d 4768 81bd 580d 693b
000003b0: 7956 21be ac27 8fbe 4154 22bc 958e 433e
000003c0: 23c3 0d3e a143 08be 6748 e13d 79f9 6a3e
000003d0: 7717 d3bd 9498 913e b0a5 4fbe 048c 3dbc
000003e0: 4ba9 2bbd 04e6 15be defd 843e 856d babc
000003f0: e306 14be 70f8 b63d d7c4 163e 6ed2 a3be

lstm.bias_ih_l0 f4 [68]
-0.034108575 -0.12674645 0.04514453 0.155512 -0.0951008 -0.24628192 -0.028125543 0.24592967
-0.06371896 0.059419274 0.037566166 0.15418518 0.22309822 0.10781767 0.047151167 0.099974774
0.1699649 0.18369031 0.114666365 0.14735346 0.071701646 -0.101298966 -0.10221622 -0.20223254
0.012272661 0.06556632 0.18819147 0.20055594 0.0016833163 0.27767435 0.12392954 -0.10195971
-0.023157166 -0.20117646 -0.14266948 0.12806623 0.2346876 0.16871485 -0.29290625 0.05690878
-0.12974459 -0.10747129 -0.105815634 0.25018403 0.14920406 0.13517651 -0.14246325 -0.12774801
0.21135281 -0.08850148 0.09492327 0.12352324 0.27950865 -0.0077608693 -0.12163282 0.19776474
0.10574172 0.02024764 -0.026959267 -0.2232975 0.22191843 -0.11859481 -0.14545394 -0.12790671
0.062800944 0.05698113 0.1637757 0.25141454
00000000: 6fb5 0bbd d2c9 01be 78e9 383d 8a3e 1f3e
00000010: 35c4 c2bd 5431 7cbe 8a67 e6bc fdd4 7b3e
00000020: 167f 82bd a061 733d fbde 193d b8e2 1d3e
00000030: dc73 643e 83cf dc3d 9521 413d 93bf cc3d
00000040: 470b 2e3e 5019 3c3e 33d6 ea3d d3e3 163e
00000050: 50d8 923d d575 cfbd bd56 d1bd 0c16 4fbe
00000060: 4513 493c a347 863d 44b5 403e 895e 4d3e
00000070: b9a2 dc3a 552b 8e3e c5ce fd3d 41d0 d0bd
00000080: 19b4 bdbc 3401 4ebe f317 12be cb23 033e
00000090: f251 703e 96c3 2c3e cff7 95be 2e19 693d
000000a0: c4db 04be e819 dcbd deb5 d8bd 1f18 803e
000000b0: f3c8 183e b66b 0a3e e3e1 11be 60d0 02be
000000c0: df6c 583e 4440 b5bd 2267 c23d c1f9 fc3d
000000d0: c21b 8f3e e44e febb a11a f9bd d782 4a3e
000000e0: 1d8f d83d 61de a53c aed9 dcbc 1aa8 64be
000000f0: 963e 633e d6e1 f2bd e1f1 14be faf9 02be
00000100: c89d 803d 0c65 693d d1b4 273e 68b9 803e

lstm.bias_hh_l0 f4 [68]
0.18756759 0.0029044405 -0.022370063 0.14137626 -0.16713627 -0.078565046 -0.055589303 0.14953092
-0.17221747 -0.037376843 0.2102855 0.1784924 0.27490094 0.005554528 0.19370164 0.03015726
0.24201937 0.06325542 0.13866661 -0.036794547 0.0422343 -0.11755317 -0.12684008 0.19903255
0.0013166552 0.17191929 0.010125416 0.024328237 0.21362844 0.073275894 -0.24424128 -0.18260027
-0.029370116 0.021377075 -0.10656574 -0.052759312 -0.0095348405 -0.07074632 -0.29592904 -0.027920498
0.046114173 -0.09280104 -0.09196724 0.111590244 0.2417831 -0.10129084 -0.05961281 0.20890759
-0.11430952 -0.23019482 0.06512738 -0.15730321 0.12064151 0.12732686 0.17342426 -0.12195854
0.16974871 0.30927914 0.11984124 0.20590538 0.024167567 0.23324919 0.27553177 -0.09038452
0.06758373 0.21518475 0.16366786 -0.07920183
00000000: b811 403e 6d58 3e3b 6c41 b7bc f0c4 103e
00000010: c525 2bbe b6e6 a0bd 9cb1 63bd a21e 193e
00000020: c759 30be 7618 19bd 1555 573e b6c6 363e
00000030: d1bf 8c3e c202 b63b b959 463e 5c0c f73c
00000040: edd3 773e 0f8c 813d 9ffe 0d3e e1b5 16bd
00000050: e0fd 2c3d b7bf f0bd 5ee2 01be 30cf 4b3e
00000060: 9e93 ac3a 9c0b 303e 13e5 253c 034c c73c
00000070: 6ac1 5a3e ac11 963d 631a 7abe 91fb 3abe
00000080: 9999 f0bc fa1e af3c 243f dabd 261a 58bd
00000090: 0538 1cbc 72e3 90bd 0384 97be 87b9 e4bc
000000a0: 37e2 3c3d 790e bebd 5259 bcbd 6d89 e43d
000000b0: fd95 773e 9271 cfbd 902c 74bd dfeb 553e
000000c0: 1c1b eabd 31b8 6bbe 8161 853d 1814 21be
000000d0: e512 f73d f961 023e 2196 313e 66c5 f9bd
000000e0: 9bd2 2d3e d659 9e3e 536f f53d dcd8 523e
000000f0: 10fb c53c e0d8 6e3e 8012 8d3e 851b b9bd
00000100: 5769 8a3d 6459 5c3e 8c98 273e 9234 a2bd

lstm.weight_ih_l1 f4 [68, 17]
-0.36517555 0.24457057 0.07990117 -0.2269137 0.027034607 0.27013502 0.08934514 0.06491584
-0.2423673 0.25020397 0.05741586 -0.24105422 0.32440683 -0.1718593 0.1031857 0.036927782
0.15196042 -0.26400244 0.047478095 0.042562187 -0.13793635 0.017603299 0.14636259 -0.0071531474
-0.09331871 -0.15910214 0.22920397 0.016598295 0.15076 -0.13387646 -0.21573393 0.1893952
0.16507678 -0.016934086 -0.35204366 0.2977918 0.014901065 0.07022097 -0.27604693 0.26398328
0.17711014 0.34017536 -0.107613236 -0.114352025 -0.13301711 -0.06296469 -0.08254397 -0.37802365
-0.0082998425 0.019395204 0.008561788 -0.30644158 -0.0051290854 -0.11021119 -0.06408587 -0.15625866
0.036009215 0.045577943 -0.2182216 0.13250332 -0.08384407 0.2201038 0.051537443 0.0866338
-0.25696498 -0.0640695 -0.16837339 -0.085908934 -0.26133507 0.07461574 0.17386766 -0.19524089
-0.22745806 0.21926363 -0.016921503 0.010278137 -0.25149515 0.1474809 0.24659368 0.18415052
0.022308566 -0.016878368 -0.16280597 -0.0011710755 -0.093793325 -0.20124733 -0.029928487 0.27061337
0.04222971 -0.0062417965 -0.041211218 -0.0018441512 0.25418425 0.1453235 0.15113628 0.077808864
-0.12369889 0.14630777 -0.36885467 -0.23857102 0.11508877 0.20252194 -0.17301974 0.21264976
0.23696801 -0.0635803 0.006756138 0.18663368 -0.06217363 0.06517602 -0.21996646 -0.086435236
0.2487721 0.044685617 -0.089881666 0.057310116 -0.14967819 0.093604445 0.19331825 -0.21255922
0.0016755871 0.30705175 0.32033548 -0.17121828 0.39508036 0.01828902 -0.2229049 -0.083314754
0.18460374 0.23838244 0.20781502 -0.37790295 -0.17178072 0.04660172 0.154671 -0.054464746
-0.06670017 0.12932378 -0.05298716 -0.06929398 0.082585365 0.19424045 -0.09044146 0.31974137
-0.0147932805 0.31242427 0.20172344 0.17578816 -0.15101022 -0.27729222 -0.15786843 -0.15023835
-0.08529664 -0.32814032 0.010047953 0.08583923 0.094582915 -0.04512047 -0.19656084 0.26305872
0.46052277 -0.028946232 0.1320278 0.2980223 0.088632196 0.13108578 -0.06145601 -0.4840088
0.101535805 -0.16293788 -0.16887872 -0.078649625 0.0068477853 0.09796769 -0.41385043 -0.14983566
0.14674726 0.09539601 -0.31817502 0.39820775 0.017057423 0.24526119 -0.083262056 -0.410501
-0.23035139 0.25430483 -0.29256767 0.009906948 0.32534954 0.25606203 0.1668143 -0.0082559595
-0.050147984 0.026084453 -0.19018303 -0.23902582 -0.23465885 0.22343089 -0.14649557 -0.1304265
-0.099113695 -0.009965037 0.07190372 0.2230662 -0.09367718 0.33020973 0.30554083 0.11205919
-0.09392372 0.39077052 0.05638339 0.07404823 -0.07221763 -0.06522158 0.15253249 0.118726045
0.16280824 -0.06796002 0.01472949 0.08909399 0.09914361 0.1411037 -0.1342228 0.27118888
-0.022613153 0.020889888 0.12326839 0.07675511 0.31990278 0.13018954 0.21200185 -0.05445119
-0.013792542 -0.053227376 -0.31932828 -0.31645468 0.16976622 -0.19798036 0.0899893 -0.07919305
0.0957647 0.09742379 -0.11975843 0.221787 -0.053905565 -0.0037289294 -0.050857503 0.07765576
-0.058801785 -0.3272203 0.12951358 -0.17490405 0.12496802 0.22837391 0.2152609 -0.4155073
00000000: 4af8 babe b570 7a3e 3aa3 a33d 115c 68be
00000010: ae77 dd3c 234f 8a3e 96fa b63d 99f2 843d
00000020: 222f 78be bc1a 803e e52c 6b3d ebd6 76be
00000030: a718 a63e e2fb 2fbe 0653 d33d 9641 173d
00000040: 839b 1b3e 542b 87be 6478 423d b055 2e3d
00000050: 303f 0dbe cb34 903c 13e0 153e f364 eabb
00000060: e11d bfbd aceb 22be 72b4 6a3e 26f9 873c
00000070: d460 1a3e e916 09be 5be9 5cbe d1f0 413e
00000080: e309 293e 5ab9 8abc 113f b4be 2b78 983e
00000090: 9923 743c 03d0 8f3d 0656 8dbe d128 873e
000000a0: 5c5c 353e 772b ae3e 5464 dcbd 6531 eabd
000000b0: a335 08be a2f3 80bd d00c a9bd 518c c1be
000000c0: 10fc 07bc b1e2 9e3c be46 0c3c e9e5 9cbe
000000d0: e311 a8bb 68b6 e1bd 743f 83bd 4502 20be
000000e0: 667e 133d f0af 3a3d 7c75 5fbe f3ae 073e
000000f0: 71b6 abbd e462 613e ed18 533d 106d b13d
00000100: ea90 83be df36 83bd 136a 2cbe 06f1 afbd
00000110: b6cd 85be 23d0 983d 5d0a 323e 3aed 47be
00000120: c4ea 68be a586 603e f79e 8abc a265 283c
00000130: f9c3 80be 3c05 173e 0e83 7c3e f491 3c3e
00000140: 74c0 b63c 8144 8abc 9cb6 26be c67e 99ba
00000150: b716 c0bd c813 4ebe 962c f5bc d68d 8a3e
00000160: 0ff9 2c3d fc87 ccbb 18cd 28bd 72b7 f1ba
00000170: 7024 823e afcf 143e 78c3 1a3e 415a 9f3d
00000180: d855 fdbd b4d1 153e 85da bcbe f64b 74be
00000190: a9b3 eb3d e961 4f3e 162c 31be dcc0 593e
000001a0: bea7 723e 6336 82bd 9862 dd3b e61c 3f3e
000001b0: c7a9 7ebd 017b 853d e33e 61be f504 b1bd
000001c0: 1dbe 7e3e 4408 373d e113 b8bd 03be 6a3d
000001d0: 3d45 19be b0b3 bf3d 38f5 453e 20a9 59be
000001e0: 609f db3a e335 9d3e 0303 a43e d853 2fbe
000001f0: f947 ca3e dbd2 953c 2f41 64be eda0 aabd
00000200: c308 3d3e 871a 743e 76cd 543e 7f7c c1be
00000210: 49e7 2fbe 72e1 3e3d 1362 1e3e 6d16 5fbd
00000220: 199a 88bd 746d 043e 1009 59bd 01ea 8dbd
00000230: 8422 a93d f8e6 463e 5f39 b9bd 24b5 a33e
00000240: 845f 72bc 13f6 9f3e 9790 4e3e d001 343e
00000250: 6ca2 1abe 3ff9 8dbe 43a8 21be 15d8 19be
00000260: 01b0 aebd 0202 a8be 2ba0 243c 7acc af3d
00000270: b0b4 c13d 3ed0 38bd 3f47 49be a2af 863e
00000280: a4c9 eb3e a620 edbc 4c32 073e 6196 983e
00000290: cc84 b53d 5a3b 063e 4cb9 7bbd 00d0 f7be
000002a0: 01f2 cf3d 30d9 26be 8bee 2cbe 0e13 a1bd
000002b0: 6363 e03b 49a3 c83d 34e4 d3be 856e 19be
000002c0: ea44 163e fc5e c33d d6e7 a2be e3e1 cb3e
000002d0: 02bc 8b3c c025 7b3e 4c85 aabd 302d d2be
000002e0: 3ce1 6bbe 3e34 823e 6ecb 95be c050 223c
000002f0: 3794 a63e 901a 833e 5ed1 2a3e 0144 07bc
00000300: f967 4dbd 10af d53c 57bf 42be 2fc3 74be
00000310: 694a 70be 11cb 643e ef02 16be 868e 05be
00000320: 1ffc cabd 6544 23bc 4242 933d 776b 643e
00000330: d2d9 bfbd 4011 a93e d96f 9c3e 4a7f e53d
00000340: 145b c0bd 1313 c83e 45f2 663d 99a6 973d
00000350: d6e6 93bd e492 85bd 7a31 1c3e a426 f33d
00000360: 34b7 263e 9f2e 8bbd f553 713c e976 b63d
00000370: ce0b cb3d 7d7d 103e b471 09be 45d9 8a3e
00000380: 383f b9bc 4521 ab3c 2374 fc3d c831 9d3d
00000390: 4cca a33e 6850 053e 0317 593e 3608 5fbd
000003a0: 1dfa 61bc f304 5abd ff7e a3be 5906 a2be
000003b0: 32d7 2d3e 5dbb 4abe 4f4c b83d f72f a2bd
000003c0: 4820 c43d 2086 c73d e843 f5bd 221c 633e
000003d0: 15cc 5cbd 0e61 74bb f54f 50bd fc09 9f3d
000003e0: 24da 70bd 6b89 a7be 359f 043e 0c1a 33be
000003f0: 3cef ff3d dada 693e 5a6d 5c3e 5fbd d4be

lstm.weight_hh_l1 f4 [68, 17]
-0.029425463 -0.10925768 0.06608994 -0.097388074 -0.06520286 -0.19107127 0.23494954 -0.058295652
0.34822536 -0.101999044 -0.017367447 -0.12378589 0.016855743 -0.14215314 0.053132948 -0.26248193
0.028117541 -0.13975535 -0.2571135 -0.3133179 -0.15641437 -0.023941278 -0.08040348 0.07159189
0.24006225 0.16126983 0.28576687 -0.048090737 -0.3044301 -0.27206618 -0.17561609 -0.05128519
-0.0048442427 0.081571326 -0.12744446 0.12474396 -0.29346842 0.08661947 -0.07958954 -0.21390104
0.20974866 0.07498314 0.0026715016 0.14606035 0.06944364 -0.060424935 0.0070513897 -0.23725666
0.05921707 0.059926353 -0.011236104 -0.012180587 -0.26875684 -0.31151083 0.20490852 -0.058806494
0.018062066 -0.12418151 0.22517213 0.2033594 -0.051012404 -0.2134601 -0.08917988 -0.10485518
-0.22671963 0.056819696 -0.20156163 0.25235674 0.023984406 0.1239124 -0.16048786 -0.105048195
-0.14321652 0.020056782 0.13732494 0.026827198 0.24886267 0.23337448 -0.13274394 0.13623933
0.23175485 -0.18812612 -0.040007904 0.12730713 0.0908231 -0.12523222 -0.12471481 0.045169022
0.03409133 0.30219004 -0.10101808 0.029075887 0.16479334 0.24267152 0.0285643 -0.14784676
-0.07660842 0.11084919 -0.111748114 -0.09789807 -0.023943195 -0.073139995 -0.2262173 -0.17460686
-0.18614359 0.104363725 0.20762207 -0.216004 -0.020998513 0.1841636 0.19269182 0.014870424
-0.16964205 -0.26474553 -0.07801138 -0.080476455 -0.15007514 0.0376065 0.25457135 -0.009709895
-0.21804962 -0.077018596 -0.19716738 0.005922558 0.041939527 -0.019093798 0.1048905 0.39044207
0.004977056 -0.013977156 0.020799158 -0.0021668286 -0.12232286 -0.20973502 -0.3436387 -0.0333177
-0.035429973 0.027379172 0.22997375 0.25380883 -0.11771462 -0.2440853 0.053998716 0.27539504
0.16147485 0.07879 0.011816506 0.20423006 0.13691463 -0.21813355 -0.22350444 -0.10335134
0.12384882 -0.044106722 0.014940517 -0.16836949 0.04221352 0.09945965 -0.20146137 -0.23143946
-0.16629432 -0.052474294 -0.20471251 -0.007000253 0.11270777 0.12774853 -0.053797286 0.10467119
-0.057194687 0.15712643 0.15599655 -0.05807618 -0.17260018 0.010429907 -0.12077049 -0.12324138
0.09457545 0.27752134 0.0602046 0.32181466 -0.20040375 0.07686455 0.33129758 -0.32531714
0.041151877 0.08997068 -0.025042938 -0.042093366 0.14269057 -0.0066001914 -0.029814495 -0.11338811
0.051873572 -0.220051 -0.024384106 -0.04560728 -0.12984438 -0.025907498 -0.12413404 -0.13841842
-0.21452276 -0.16024128 -0.08260183 0.10496218 0.181655 -0.07737132 -0.235083 0.01705573
0.028037708 0.069291145 0.14327192 0.14017504 0.18131097 0.0346232 -0.04268765 -0.28778997
-0.11081625 -0.2947002 0.0002777917 -0.11961731 0.3610141 0.31754312 0.004565821 -0.2515434
0.16639358 -0.3044716 -0.11012176 -0.21051542 -0.099386394 -0.09573407 -0.13593839 0.162438
0.17766881 0.21063149 0.039685175 0.06373247 -0.37193236 0.09018594 0.18177238 -0.19861421
-0.30530894 -0.19796273 -0.07874185 0.023934687 -0.002947452 -0.041796356 0.065991834 0.09613776
-0.34516802 -0.1910138 -0.15556152 0.08146399 -0.07343456 -0.2596654 0.021394514 0.38784665
00000000: ab0d f1bc 7ec2 dfbd 2a5a 873d 6673 c7bd
00000010: 1489 85bd 30a8 43be 9d96 703e 6cc7 6ebd
00000020: 984a b23e e0e4 d0bd 2d46 8ebc 7583 fdbd
00000030: 0e15 8a3c 9890 11be efa1 593d 0864 86be
00000040: c256 e63c 071c 0fbe 61a4 83be 346b a0be
00000050: 172b 20be 8020 c4bc 94aa a4bd c59e 923d
00000060: e1d2 753e eb23 253e 0950 923e cbfa 44bd
00000070: 43de 9bbe 424c 8bbe b4d4 33be 6b10 52bd
00000080: 74bc 9ebb de0e a73d cd80 02be c379 ff3d
00000090: 7e41 96be 8c65 b13d d7ff a2bd e008 5bbe
000000a0: 5ac8 563e c390 993d 5c14 2f3b d890 153e
000000b0: 7838 8e3d 2380 77bd 580f e73b 69f3 72be
000000c0: 998d 723d 5675 753d a317 38bc 1691 47bc
000000d0: 7f9a 89be 597e 9fbe 8ad3 513e 14df 70bd
000000e0: e6f6 933c e052 febd 8693 663e 723d 503e
000000f0: 62f2 50bd 4995 5abe f1a3 b6bd 50be d6bd
00000100: 3129 68be c5bb 683d 2c66 4ebe e734 813e
00000110: f27a c43c c9c5 fd3d ee56 24be 8223 d7bd
00000120: 5aa7 12be 1f4e a43c e99e 0c3e b6c4 db3c
00000130: dbd5 7e3e b8f9 6e3e 07ee 07be 5382 0b3e
00000140: 2551 6d3e 22a4 40be 54df 23bd cd5c 023e
00000150: 7601 ba3d e03c 00be 7a6a ffbd 2703 393d
00000160: 5aa3 0b3d a7b8 9a3e 91e2 cebd 8e30 ee3c
00000170: 96bf 283e e27e 783e aeff e93c 2465 17be
00000180: e0e4 9cbd e604 e33d 32dc e4bd c97e c8bd
00000190: 8524 c4bc 6cca 95bd 82a5 67be 24cc 32be
000001a0: 6d9c 3ebe a6bc d53d e19a 543e 2730 5dbe
000001b0: 1305 acbc 6295 3c3e 0151 453e 14a3 733c
000001c0: a5b6 2dbe ba8c 87be 6ec4 9fbd d7d0 a4bd
000001d0: 4cad 19be 4609 1a3d 2d57 823e 4016 1fbc
000001e0: 6648 5fbe edbb 9dbd 3fe6 49be 0412 c23b
000001f0: c8c8 2b3d 996a 9cbc d5d0 d63d 06e8 c73e
00000200: 9216 a33b 7100 65bc ff62 aa3c 5a01 0ebb
00000210: 6884 fabd c7c4 56be 69f1 afbe 2478 08bd
00000220: 051f 11bd 494a e03c 3d7e 6b3e 3bf3 813e
00000230: 5d14 f1bd 7ff1 79be c22d 5d3d 9400 8d3e
00000240: aa59 253e a75c a13d 059a 413c af21 513e
00000250: 5933 0c3e 675e 5fbe 59de 64be dea9 d3bd
00000260: 73a4 fd3d 40a9 34bd 12c9 743c 0d69 2cbe
00000270: 15e8 2c3d 80b1 cb3d e44b 4ebe 77fe 6cbe
00000280: 0f49 2abe 49ef 56bd 28a0 51be 6162 e5bb
00000290: 55d3 e63d 83d0 023e 8b5a 5cbd d95d d63d
000002a0: fa44 6abd c0e5 203e 8fbd 1f3e 4ae1 6dbd
000002b0: 1abe 30be 33e2 2a3c 8556 f7bd fa65 fcbd
000002c0: c6b0 c13d 4717 8e3e 1999 763d e4c4 a43e
000002d0: a436 4dbe 296b 9d3d d69f a93e f88f a6be
000002e0: df8e 283d 8c42 b83d d926 cdbc 186a 2cbd
000002f0: 7a1d 123e 6b46 d8bb 873d f4bc 0738 e8bd
00000300: 6279 543d 0d55 61be 2dc1 c7bc b3ce 3abd
00000310: edf5 04be f63b d4bc fd39 febd 8fbd 0dbe
00000320: dbab 5bbe 4a16 24be 262b a9bd 69f6 d63d
00000330: c503 3a3e db74 9ebd 99b9 70be 75b8 8b3c
00000340: 56af e53c 84e8 8d3d e0b5 123e 0c8a 0f3e
00000350: 95a9 393e 0ed1 0d3d 3fd9 2ebd 3559 93be
00000360: a1f3 e2bd f2e2 96be 92a4 9139 ecf9 f4bd
00000370: d7d6 b83e 0395 a23e e29c 953b 4cca 80be
00000380: 1463 2a3e b4e3 9bbe 8487 e1bd 5b91 57be
00000390: 188b cbbd 3910 c4bd 6f33 0bbe 2656 263e
000003a0: d0ee 353e c8af 573e ec8c 223d 2b86 823d
000003b0: eb6d bebe 68b3 b83d 8a22 3a3e 8661 4bbe
000003c0: 7451 9cbe beb6 4abe 6843 a1bd ad12 c43c
000003d0: 0a2a 41bb a832 2bbd ba26 873d e0e3 c43d
000003e0: ddb9 b0be 1f99 43be 854b 1fbe 98d6 a63d
000003f0: dc64 96bd ddf2 84be 8c43 af3c d693 c63e

lstm.bias_ih_l1 f4 [68]
-0.06870274 -0.12120624 -0.039870083 -0.0041240435 0.08642929 -0.00017153687 0.16926259 0.06833451
0.0008135439 0.06764136 0.13143855 0.18054324 0.025542142 0.10180657 0.22466005 0.2984158
0.07863718 -0.16918714 0.23566663 -0.04394154 0.19106029 0.25024205 -0.0043028085 0.13273704
0.05456581 -0.017269103 -0.10465826 -0.04151375 0.26254854 -0.017897082 -0.13729668 -0.1467241
-0.066977456 0.054563142 0.055157024 -0.0820794 0.05048188 -0.071799904 -0.091956675 -0.13473232
0.089581154 -0.02629986 0.3032501 0.28955382 -0.2476141 -0.26412868 -0.16171722 -0.24329299
-0.19288252 -0.21069482 0.12820484 0.11965328 0.042379715 0.2289706 -0.01620748 0.18876204
-0.18871184 0.32256332 0.3050429 0.14996423 0.008729705 -0.019820614 0.1212847 0.08052512
0.01704337 -0.17264478 0.28756797 0.28228825
00000000: 06b4 8cbd fa3a f8bd d04e 23bd fc22 87bb
00000010: d701 b13d 94de 33b9 2c53 2d3e f7f2 8b3d
00000020: 0244 553a 8e87 8a3d d497 063e 54e0 383e
00000030: c13d d13c f77f d03d 490d 663e f5c9 983e
00000040: 880c a13d 653f 2dbe 9852 713e 0bfc 33bd
00000050: 4fa5 433e ba1f 803e 93fe 8cbb 38ec 073e
00000060: 6680 5f3d ef77 8dbc 1257 d6bd 520a 2abd
00000070: c36c 863e e79c 92bc 8097 0cbe d83e 16be
00000080: 7a2b 89bd 9a7d 5f3d 55ec 613d 3f19 a8bd
00000090: 16c6 4e3d d40b 93bd c853 bcbd 45f7 09be
000000a0: 5376 b73d ce72 d7bc 9943 9b3e 6640 943e
000000b0: 8d8e 7dbe e03b 87be 3399 25be cc21 79be
000000c0: ff82 45be 62c0 57be 2148 033e c70c f53d
000000d0: 5a96 2d3d 4577 6a3e 8dc5 84bc d64a 413e
000000e0: ad3d 41be 0527 a53e 952e 9c3e 3990 193e
000000f0: 0907 0f3c d75e a2bc 1d64 f83d 5bea a43d
00000100: 8a9e 8b3c cbc9 30be 1c3c 933e 1688 903e

lstm.bias_hh_l1 f4 [68]
-0.024760187 -0.14091077 -0.014864742 0.24663086 0.18408327 -0.15037517 0.14220093 -0.0019355005
0.061792087 -0.12104059 0.29175642 0.017812777 0.056433808 -0.014139166 -0.17888936 -0.008543431
-0.0057589104 -0.042267453 -0.0011246211 0.272895 0.33444113 0.1559372 0.05261847 -0.092250824
0.07661835 0.067534916 0.15914156 0.20298493 -0.016686143 -0.08561103 0.14073247 0.24481967
0.16050914 0.2473663 -0.24531914 -0.09008598 -0.20573243 0.07234865 0.092503786 -0.083159305
-0.10912614 0.24935463 0.32153836 -0.05746575 0.06680068 0.11434988 0.22914112 -0.090188995
-0.21418892 0.16099027 0.06900245 0.21475571 0.26277012 -0.06680883 -0.05072122 0.20206062
-0.090610296 0.21750873 0.39355215 -0.028172376 0.13748264 0.10462064 -0.1288357 0.1601646
0.22189386 -0.11641549 0.2502785 0.32846773
00000000: e0d5 cabc ea4a 10be 3f8b 73bc cd8c 7c3e
00000010: 5380 3c3e f3fb 19be 1f9d 113e 9fb0 fdba
00000020: b319 7d3d 21e4 f7bd 1961 953e 1aec 913c
00000030: 2327 673d f6a7 67bc c62e 37be bff9 0bbc
00000040: 3eb5 bcbb a320 2dbd 0668 93ba e5b8 8b3e
00000050: de3b ab3e 00ae 1f3e 7786 573d 00ee bcbd
00000060: 15ea 9c3d bf4f 8a3d 01f6 223e 48db 4f3e
00000070: 61b1 88bc d654 afbd 2c1c 103e 02b2 7a3e
00000080: 825c 243e 974d 7d3e f134 7bbe 007f b8bd
00000090: 86ab 52be 872b 943d a072 bd3d 6d4f aabd
000000a0: 877d dfbd d256 7f3e ada0 a43e 3561 6bbd
000000b0: cbce 883d 4530 ea3d f8a3 6a3e 02b5 b8bd
000000c0: 5754 5bbe a2da 243e 2851 8d3d ece8 5b3e
000000d0: ce89 863e 11d3 88bd 0ec1 4fbd fbe8 4e3e
000000e0: e491 b9bd 9cba 5e3e ab7f c93e c1c9 e6bc
000000f0: 40c8 0c3e 5943 d63d 81ed 03be 3002 243e
00000100: 2538 633e 3f6b eebd 8124 803e ec2c a83e

linear.model.0.weight f4 [2, 17]
-0.36011612 0.28866434 -0.27741045 0.13712685 -0.05756313 0.28168648 0.23767576 -0.38636482
0.115446426 0.26642248 -0.43579435 0.05591384 0.2820835 -0.34173784 -0.054885462 -0.5156637
0.35733142 0.13935854 -0.116977945 -0.20974381 -0.21710253 0.2167977 -0.22516376 0.35866427
-0.006715929 -0.08553029 -0.111042224 0.10724783 0.22918768 -0.2189996 0.20734532 -0.1578334
-0.15673116 0.23721701
00000000: 2461 b8be d0cb 933e be08 8ebe fb6a 0c3e
00000010: 51c7 6bbd 3639 903e 4661 733e 9cd1 c5be
00000020: 2d6f ec3d 8768 883e 7020 dfbe e905 653d
00000030: 406d 903e 43f8 aebe 94cf 60bd 8902 04bf
00000040: 25f4 b63e 01b4 0e3e 2292 efbd 15c7 56be
00000050: 2050 5ebe 3700 5e3e 5491 66be d8a2 b73e
00000060: 4c11 dcbb 812a afbd 1b6a e3bd c0a4 db3d
00000070: 2db0 6a3e 6e41 60be 5552 543e 149f 21be
00000080: 227e 20be 04e9 723e

linear.model.0.bias f4 [2]
-0.019005446 0.10727384
00000000: 4fb1 9bbc 63b2 db3d
