examples/2_streamflow_isotope_simulation/results/20241125_101506_612553/loss_c60a7_00002_2_batch_size=8,hidden_size=11,learning_rate=0.0020,n_epochs=182,num_layers=1_2024-11-25_10-15-11/checkpoint_000005/model.pt (torch, 5556 bytes, 6 tensors)

lstm.weight_ih_l0 f4 [44, 4]
0	0xbe62b0ec	-0.22137803
1	0xbe24d737	-0.16097723
2	0x3e3a8939	0.18216409
3	0x3db42b0c	0.08797273
4	0x3eba112c	0.36341226
5	0xbdd89bae	-0.105765685
6	0xbe7cf192	-0.24701527
7	0x3e08092f	0.13284753
8	0xbde3f5a3	-0.11130836
9	0x3e6f4ccf	0.23369144
10	0xbe66c292	-0.2253516
11	0x3e5741c6	0.21021184
12	0x3d0ea4b0	0.034825027
13	0x3ea9f2c2	0.33193022
14	0x3eb20885	0.34772125
15	0x3e182679	0.14858426
16	0x3c2d8dd8	0.0105929
17	0xbe989816	-0.29803532
18	0x3dd64d7b	0.10463997
19	0xbd8cbd43	-0.06872036
20	0xbda0ac0c	-0.07845315
21	0xbea38066	-0.31933898
22	0x3e948fe3	0.29016027
23	0x3e0812c1	0.13288404
24	0x3de5c912	0.11219992
25	0x3e23ede4	0.16008717
26	0x3e49a04e	0.19690058
27	0x3e50c0de	0.20386073
28	0x3d8767b3	0.06611576
29	0xbe695a6e	-0.22788402
30	0xbe37f7cb	-0.1796562
31	0x3e398011	0.1811526
32	0x3ce20516	0.027590316
33	0xbd8201ed	-0.063480236
34	0x3e90bc98	0.28268886
35	0x3e58b0ac	0.21161145
36	0x3d4bba19	0.049738023
37	0x3e4d00a3	0.20019774
38	0xbe10d71a	-0.14144555
39	0x3db03c42	0.08605243
40	0xbea54955	-0.3228251
41	0xbd9994f1	-0.074991114
42	0xbe4c1c82	-0.1993275
43	0xbca9c30c	-0.020722888
44	0x3e915d6e	0.28391594
45	0xbeb2e2b0	-0.34938574
46	0x3dc05195	0.093905605
47	0xbd013bcd	-0.03155117
48	0xbd978282	-0.07397939
49	0x3e2ef493	0.17085485
50	0xbe7a469b	-0.24440996
51	0xbe042613	-0.12905149
52	0xbe1d585b	-0.15365736
53	0x3e4a80cd	0.19775696
54	0xbe1c72af	-0.15278123
55	0xbc42a0c7	-0.011879153
56	0xbe081d6e	-0.13292477
57	0xbd6804e2	-0.05664528
58	0x3e3a1219	0.18170966
59	0x3ea66883	0.3250161
60	0x3d84717c	0.06466958
61	0xbe912df6	-0.28355378
62	0x3e3cbde3	0.18431811
63	0x3e83a11b	0.2570885
64	0xbd8b9880	-0.068161964
65	0xbe11c14a	-0.1423389
66	0xbe895887	-0.26825354
67	0xbe534d59	-0.20634975
68	0x3e4be1a4	0.19910294
69	0xbe49cce9	-0.19707073
70	0x3ea87099	0.32898405
71	0x3de5b6ba	0.11216493
72	0x3e0e7d31	0.13914944
73	0xbe5dba32	-0.21653059
74	0x3e5ac48b	0.21364038
75	0x3d2f9bad	0.042873073
76	0x3e9ca514	0.30594695
77	0x3e9003c8	0.28127885
78	0xbd1bdd85	-0.038053054
79	0xbe0ccd67	-0.1375023
80	0x3e6b06d3	0.22951822
81	0x3d96ca0d	0.07362757
82	0x3e2e2b4d	0.17008705
83	0x3e0654af	0.13118242
84	0xbcd5f999	-0.026119994
85	0x3e5fa751	0.2184117
86	0x3e7f0bc5	0.24906833
87	0x3e9312e3	0.28725347
88	0xbe7e3b40	-0.2482729
89	0xbe5e7fc6	-0.21728429
90	0x3e4f9dd7	0.20275055
91	0x3e1b02ea	0.1513783
92	0xbe2966d2	-0.16543129
93	0x3e34a394	0.17640525
94	0x3dbc9d24	0.0920966
95	0xbe1acee5	-0.15117987
96	0x3e248a0a	0.16068283
97	0x3db5c770	0.0887593
98	0x3e37782c	0.17916936
99	0xbb2a6d68	-0.0026005153
100	0x3e286bfc	0.16447443
101	0xbe43272e	-0.19057915
102	0xbea876bf	-0.32903096
103	0xbdd33190	-0.10312188
104	0xbe5aa121	-0.21350528
105	0xbead02e6	-0.33791274
106	0xbe82865c	-0.25493133
107	0xbda6db21	-0.08147264
108	0x3dbf78b9	0.09349198
109	0x3eb2bf0a	0.34911376
110	0xbd59c354	-0.053164795
111	0x3d9eb753	0.0774981
112	0x3dccb5b5	0.09995595
113	0x3dd0f529	0.102030106
114	0xbdbb00cc	-0.09131011
115	0xbe35721f	-0.17719315
116	0x3e12bb2a	0.1432921
117	0xbe1dead1	-0.15421607
118	0xbe015887	-0.12631427
119	0xbe6b4635	-0.22976
120	0x3e2b9e9b	0.16759722
121	0xbe88d200	-0.26722717
122	0xbebec370	-0.37258482
123	0x3d3aaa13	0.04557235
124	0xbabfbdc5	-0.0014628699
125	0xbc968dce	-0.018378165
126	0xbe9b8a12	-0.30378777
127	0xbe8c5e67	-0.27415773
128	0x3e1d8d38	0.15385902
129	0xbd304733	-0.04303665
130	0xbda80a74	-0.08205119
131	0x3d936d09	0.07198531
132	0xbe97ae35	-0.29625097
133	0xbe720394	-0.23634177
134	0x3cbc38f6	0.02297638
135	0xbdc8a02c	-0.09796175
136	0xbb8646a1	-0.004097775
137	0xbe87df84	-0.26537716
138	0x3e0f983c	0.14022917
139	0xbdcf850a	-0.10132797
140	0x3e31c22c	0.17359227
141	0x3e2b7003	0.16741948
142	0xbe664557	-0.22487389
143	0xbe83554d	-0.25651017
144	0xbe0d093d	-0.13773055
145	0x3e029451	0.1275189
146	0x3eaf9dce	0.34300083
147	0x3e9b5686	0.3033945
148	0xbdd819f7	-0.105518274
149	0xbe88f2c2	-0.2674771
150	0xbe981672	-0.29704624
151	0x3e561a69	0.20908512
152	0xbe9b7cb5	-0.3036858
153	0x3cf266c8	0.029590026
154	0xbdefd90c	-0.1171132
155	0x3e10cf34	0.14141542
156	0xbe284acf	-0.16434787
157	0x3dd69136	0.104769155
158	0xbc99a25d	-0.018754179
159	0x3e82df02	0.25560766
160	0xbe561339	-0.2090577
161	0x3eabffa3	0.33593473
162	0x3d91a969	0.071123905
163	0xbe9c8ea4	-0.30577576
164	0x3cb4fbde	0.022092756
165	0xbdcd1acb	-0.10014876
166	0x3dd31322	0.10306384
167	0x3dbab241	0.091160305
168	0x3ea1f5a8	0.31632733
169	0x3ea66268	0.32496953
170	0xbcc043f1	-0.023469897
171	0x3ea8ae48	0.32945466
172	0xbc9a1108	-0.01880695
173	0x3e9834da	0.29727823
174	0xbdeb2d00	-0.114831924
175	0x3e8be56f	0.2732348

lstm.weight_hh_l0 f4 [44, 11]
0	0x3e201b7a	0.15635481
1	0xbe0649ef	-0.13114141
2	0x3df08728	0.11744529
3	0xbe485990	-0.19565415
4	0xbe1e1145	-0.15436275
5	0xbd77c62d	-0.06049173
6	0x3e2a6b8a	0.16642585
7	0xbd9e5095	-0.077302136
8	0x3e123bd5	0.14280637
9	0xbd251b63	-0.04030932
10	0xbcac58b9	-0.0210384
11	0xbe0db7ca	-0.13839641
12	0xbe3adca0	-0.18248224
13	0x3c02b6e5	0.007978176
14	0x3e8ba733	0.27276
15	0x3e1bac78	0.1520251
16	0x3e1df435	0.15425189
17	0xbdb3aa64	-0.08772734
18	0x3e2e60b7	0.17029081
19	0xbe689d6c	-0.22716302
20	0x3d4d9ac3	0.05019642
21	0xbe42195e	-0.1895499
22	0x3e16e535	0.14735873
23	0x3e7a5220	0.2444539
24	0x3d289eea	0.041167177
25	0xbd827182	-0.06369306
26	0x3d7d6147	0.06186035
27	0x3ddba134	0.107241064
28	0xbd6710af	-0.056412395
29	0xbded0fa4	-0.11575249
30	0xbc7a224b	-0.015266965
31	0x3e94a462	0.29031664
32	0x3e08354a	0.13301578
33	0x3dece557	0.115671806
34	0xbe5c4873	-0.21512012
35	0x3ea7b0e6	0.3275215
36	0x3e2a96fd	0.1665916
37	0xbeb707c2	-0.35748106
38	0x3e7894e2	0.24275544
39	0xbe87b458	-0.2650478
40	0xbe6a225b	-0.22864668
41	0xbeb0d709	-0.3453906
42	0xbd81199e	-0.06303714
43	0x3e35c3a7	0.17750417
44	0xbe4939b4	-0.19650918
45	0x3c18f058	0.009334646
46	0xbe8448a6	-0.25836676
47	0xbe917ed3	-0.28417072
48	0x3eacd728	0.337579
49	0x3e7faac1	0.24967481
50	0x3e1f6b0d	0.1556818
51	0x3d185b97	0.037196722
52	0xbdbc61e5	-0.091983594
53	0xbe116d84	-0.14201933
54	0xbe7cb70b	-0.246792
55	0xbddf158d	-0.10892782
56	0x3e41e597	0.18935238
57	0xbaa4c939	-0.0012572176
58	0xbe5d470d	-0.21609135
59	0x3e4f6f70	0.20257354
60	0x3e2fab7d	0.17155261
61	0x3e773b9b	0.24143831
62	0x3dcbc78d	0.09950171
63	0xbea06d31	-0.31333306
64	0x3e5bfbea	0.21482816
65	0x3e47f67e	0.19527623
66	0x3d75c789	0.060004745
67	0x3e8f00c1	0.27930263
68	0xbd02cf85	-0.031936187
69	0x3d2c6a5f	0.04209363
70	0x3e0c578c	0.13705271
71	0x3e97f540	0.29679298
72	0xbe805a12	-0.25068718
73	0x3dc77ef8	0.09741014
74	0xbe5b4d5d	-0.2141623
75	0xbeba4d7e	-0.36387247
76	0x3e3f9935	0.18710788
77	0xbe8235c5	-0.25431648
78	0xbe322fa1	-0.17400981
79	0xbe51ccdf	-0.20488308
80	0x3d9ba654	0.07600084
81	0xbe70b67e	-0.23507115
82	0xbe7e0ee1	-0.24810363
83	0x3e958ba0	0.29208088
84	0xbdb8d401	-0.090248115
85	0x3e1c1aa0	0.15244532
86	0xbe0c6f57	-0.13714348
87	0xbe1bf817	-0.15231358
88	0x3e90d0de	0.28284353
89	0xbc731161	-0.014835686
90	0xbc72434f	-0.014786555
91	0xbe1bb059	-0.1520399
92	0x3e47bedd	0.19506402
93	0xbe0d5169	-0.13800587
94	0x3e42d9aa	0.19028345
95	0xbd3f30b6	-0.046677314
96	0xbd3f1e12	-0.046659537
97	0x3e70ac97	0.23503338
98	0xbe84e0da	-0.25952798
99	0xbe223e2c	-0.15844029
100	0x3e02e9a7	0.12784444
101	0x3e8d3bfd	0.2758483
102	0x3d365af7	0.044520345
103	0x3c3c3220	0.01148656
104	0xbe155070	-0.14581466
105	0x3dde8a9c	0.108662814
106	0xbe9363b6	-0.2878701
107	0x3e594457	0.21217476
108	0x3e25bb80	0.16184807
109	0x3e2ec763	0.17068247
110	0x3d19f601	0.037588123
111	0x3d819bba	0.063285306
112	0xbd2b840c	-0.041873977
113	0x3d809e67	0.06280213
114	0x3e4ec309	0.20191588
115	0x3e8a5646	0.27018946
116	0xbbb4ccd8	-0.0055175833
117	0x3dc9bc2d	0.09850345
118	0x3e30119f	0.17194222
119	0x3dbac3f6	0.09119408
120	0x3d575f84	0.052581325
121	0xbdf6c7f6	-0.12049858
122	0xbeb4ad7c	-0.35288608
123	0xbe1ba858	-0.15200937
124	0xbe480eb4	-0.19536859
125	0x3cf2a108	0.029617801
126	0xbdb7c132	-0.08972396
127	0xbdcce199	-0.10003967
128	0x3cf0e764	0.02940721
129	0x3ea95315	0.330712
130	0x3e71a956	0.23599753
131	0xbdf14261	-0.11780239
132	0xbd354c08	-0.044261962
133	0xbe4a12bb	-0.19733708
134	0x3eaa4f58	0.3326366
135	0x3e869cc6	0.26291484
136	0x3e6d6629	0.23183502
137	0x3e8f61fb	0.2800444
138	0x3eafba7f	0.34321973
139	0xbe1a6562	-0.15077737
140	0x38133b28	3.5102625e-05
141	0x3dece061	0.115662344
142	0xbe58aa72	-0.2115877
143	0xbeb885bb	-0.36039528
144	0xbcef8374	-0.029237486
145	0xbe1311ba	-0.14362231
146	0x3e6e6a2c	0.23282689
147	0x3d6eb9e3	0.058282744
148	0xbc911878	-0.017711863
149	0xbe163426	-0.1466833
150	0xbe10b8fa	-0.14133063
151	0xbe06deed	-0.13170977
152	0x3dbe9b8c	0.09307012
153	0x3d2f4ab9	0.04279587
154	0x3e0d3e65	0.13793333
155	0x3e03316e	0.12811825
156	0x3e04d173	0.12970524
157	0xbd84b491	-0.06479753
158	0x3e4f097a	0.20218459
159	0xbe643099	-0.22284164
160	0x3e7ef725	0.24898966
161	0xbea080b2	-0.31348187
162	0x3e036fc9	0.12835611
163	0xbdb0487c	-0.08607575
164	0xbe1c170e	-0.1524317
165	0x3eb5f14c	0.35535657
166	0xbd33c1df	-0.04388606
167	0x3e5b3cd3	0.21409921
168	0x3dd661f6	0.10467903
169	0xbb6eb586	-0.0036424114
170	0xbe1adf4f	-0.15124248
171	0xbe87bfd0	-0.2651353
172	0xbdb9835d	-0.09058259
173	0x3e1ab2d7	0.15107284
174	0x3e53d746	0.20687589
175	0xbe530d15	-0.20610459
176	0xbdbd7709	-0.0925122
177	0xbe14fd3c	-0.14549726
178	0xbe96c9ad	-0.2945074
179	0xbe2de390	-0.1698134
180	0xbddb7b77	-0.107169084
181	0x3d86f764	0.06590155
182	0x3e65e8e4	0.22452122
183	0x3e52a0df	0.2056918
184	0x3e3f65c7	0.18691169
185	0xbd68f898	-0.056877702
186	0xbdf4ec0b	-0.11959084
187	0x3e8c1e20	0.27366734
188	0x3dfb5cf7	0.12273591
189	0x3e8bc20f	0.27296492
190	0xbcaf3de7	-0.021391822
191	0x3e3d395e	0.18478915
192	0xbe3bf3cf	-0.18354724
193	0xbe612a01	-0.2198868
194	0xbdde8695	-0.10865513
195	0xbcf1a2b9	-0.029496538
196	0xbe93cb8d	-0.28866234
197	0xbd8b9a30	-0.06816518
198	0xbdd529d3	-0.10408368
199	0xbe22bd5d	-0.15892549
200	0xbdded8ed	-0.10881219
201	0x3eac5c73	0.33664283
202	0x3e73cb55	0.23808034
203	0x3e95d547	0.2926428
204	0x3c865ac3	0.0164007
205	0xbe86bf0e	-0.26317638
206	0xbe7bc3eb	-0.24586456
207	0xbe0ff670	-0.14058852
208	0x3e66e0c1	0.22546674
209	0x3c093373	0.008374083
210	0xbe20596e	-0.15659115
211	0x3e655259	0.22394694
212	0xbec183d2	-0.37795883
213	0x3e2f9ef9	0.17150487
214	0xbe873195	-0.26405016
215	0xbbdd2648	-0.0067489482
216	0x3e3c2153	0.18372087
217	0xbe6652ed	-0.22492571
218	0x3e11a3f8	0.14222705
219	0x3d779f5d	0.060454715
220	0xbe4c98fd	-0.19980235
221	0x3de3fef2	0.11132611
222	0x3ddd11fc	0.10794446
223	0xbdd4fdd8	-0.10399979
224	0x3db8fdd4	0.09032789
225	0x3e40ddcb	0.18834607
226	0xbead9a83	-0.33906946
227	0x3e95f758	0.2929027
228	0xbe9a9ee5	-0.30199352
229	0xbd2c9ec5	-0.042143602
230	0xbe853432	-0.26016384
231	0x3e88c539	0.2671297
232	0x3dee2953	0.11628976
233	0xbdc1d2a3	-0.09464004
234	0xbdff4cec	-0.124658436
235	0x3e50a06b	0.20373695
236	0xbdec5057	-0.11538761
237	0xbe1283e0	-0.14308119
238	0x3ea4ed8e	0.3221249
239	0xbe9ee199	-0.31031492
240	0x3e2cc0e1	0.16870452
241	0xbd0e6c70	-0.034771383
242	0xbd0f07f6	-0.0349197
243	0x3ce4be9d	0.027922923
244	0x3e569109	0.20953764
245	0x3a972c57	0.00115336
246	0xbddd5010	-0.10806286
247	0xbc509bf8	-0.012732498
248	0x3e0986c7	0.1343032
249	0x3e93e90e	0.28888744
250	0x3e80be73	0.251453
251	0x3e450869	0.1924149
252	0xbbcbc2ea	-0.006218304
253	0x3e015e49	0.12633623
254	0x3e37bb94	0.17942649
255	0x3e2bb105	0.16766746

lstm.bias_ih_l0 f4 [44]
0	0x3db155a4	0.08658913
1	0x3e68c014	0.22729522
2	0x3e0adb1a	0.13560143
3	0xbe57ab53	-0.21061449
4	0x3e3a4520	0.18190432
5	0xbe2abcfb	-0.16673653
6	0xbda041cf	-0.07825052
7	0x3e2cf11d	0.16888852
8	0xbe3d8ae0	-0.18510008
9	0x3eb0b8ee	0.3451609
10	0x3ec1532a	0.37758762
11	0x3ddb023d	0.10693786
12	0x3e73f8be	0.23825356
13	0x3cd1debb	0.025618901
14	0xbd243b1a	-0.040095426
15	0xbd4f7885	-0.050652046
16	0x3d501289	0.050798927
17	0x3df1296f	0.11775481
18	0xbdfc3461	-0.12314678
19	0x3e3e0cdf	0.18559597
20	0xbdfa83af	-0.12232148
21	0x3ec84c42	0.3912068
22	0x3de81f79	0.11334128
23	0x3e0fcafc	0.14042276
24	0x3d4f6fbf	0.05064368
25	0xbcc8bdad	-0.024504507
26	0x3dc47044	0.095917255
27	0xbd9f19f2	-0.077686206
28	0xbe07a10f	-0.13245033
29	0x3e0653d0	0.1311791
30	0xbd28c6f2	-0.041205354
31	0xbe2e07cd	-0.16995163
32	0xbe96d7ee	-0.29461616
33	0xbdfea6f4	-0.124341875
34	0x3e28fe69	0.165033
35	0xbdb1a847	-0.086746745
36	0xbe537ea5	-0.2065378
37	0x3eafb91f	0.34320924
38	0x3d69165f	0.0569061
39	0xbd852c1a	-0.06502552
40	0xbdbb22e2	-0.09137513
41	0xbde51fd2	-0.1118771
42	0xbe2a44da	-0.16627827
43	0xbe3eb2eb	-0.1862294

lstm.bias_hh_l0 f4 [44]
0	0xbe6aa820	-0.22915697
1	0x3e6020d0	0.21887517
2	0x3da9ac93	0.08284869
3	0xbd891d2d	-0.06695018
4	0xbc8e7b7a	-0.017392863
5	0xbe879118	-0.26477885
6	0x3e2cbda3	0.16869216
7	0xbe66a7c1	-0.2252493
8	0xbcb66c89	-0.02226855
9	0x3e853cb2	0.2602287
10	0xbe4efe75	-0.20214255
11	0x3d3362b3	0.0437953
12	0x3df98c04	0.12184909
13	0xbe53cea3	-0.20684294
14	0x3e547536	0.20747837
15	0x3e93820c	0.28810155
16	0x3e8e29c1	0.2776623
17	0x3c9e776b	0.019344052
18	0xbd76ede9	-0.060285483
19	0x3ecca070	0.39966154
20	0x3e92eb8f	0.28695342
21	0x3e48150b	0.19539277
22	0x3e6122db	0.21985953
23	0xbd086b8f	-0.0333057
24	0xbd00a367	-0.031405833
25	0xbe8bd66e	-0.27312034
26	0x3d1ca953	0.038247418
27	0x3b8cd7bc	0.0042981785
28	0xbeba7775	-0.36419263
29	0x3e12d932	0.14340666
30	0xbca9bf10	-0.020720989
31	0xbe19b296	-0.15009531
32	0xbe3dba00	-0.18527985
33	0x3e515c17	0.20445286
34	0x3e77b3f2	0.24189737
35	0x3dde1f54	0.10845819
36	0xbdcff527	-0.10154181
37	0xbe4b6f49	-0.1986667
38	0xbe1f6a4f	-0.15567897
39	0x3eba5b39	0.36397722
40	0xbea4b96a	-0.3217271
41	0x3e87e794	0.26543868
42	0x3d8b7c9a	0.06810875
43	0x3a400374	0.00073247333

linear.model.0.weight f4 [2, 11]
0	0x3d8f7ad6	0.07005851
1	0xbdf5b695	-0.119977154
2	0x3e80d49b	0.25162205
3	0x3e827de5	0.25486675
4	0xbd7020af	-0.05862492
5	0xbe53aa77	-0.20670496
6	0xbe5fc14d	-0.21851082
7	0xbe0ba34c	-0.13636512
8	0xbc42531a	-0.011860633
9	0xbd6f9029	-0.05848709
10	0xbe4be372	-0.19910982
11	0xbe18e399	-0.14930572
12	0xbdf091f3	-0.117465876
13	0xbe08694e	-0.1332142
14	0xbea2ff4b	-0.31835398
15	0xbe8bc85e	-0.27301306
16	0x3d8eae34	0.0696682
17	0xbcc67698	-0.024226472
18	0x3d93b04e	0.07211362
19	0xbe1e8c76	-0.15483269
20	0xbea11f31	-0.3146911
21	0xbd8c4712	-0.06849493

linear.model.0.bias f4 [2]
0	0xbe5ee26a	-0.21766058
1	0xbe3d51d0	-0.1848824
