examples/best_model.pt (torch, 25698 bytes, 10 tensors)

lstm.weight_ih_l0 f4 [80, 4]
0.12710044 0.4290485 0.16985388 -0.02634194 0.5829891 0.039444327 -0.36616272 -0.028528985
0.4647056 -0.104295336 -0.07559031 -0.11868347 0.13723692 -0.23948112 0.059112765 -0.020754818
0.2681235 -0.1985832 -0.24456978 -0.31204486 0.14586538 0.06778536 -0.03860094 -0.20151785
0.3089725 -0.18783583 0.16541924 -0.19419421 0.29465723 -0.17378984 -0.4199737 0.0873317
0.6318935 0.25286266 -0.044431586 0.03183896 0.19784127 0.4614218 0.19344099 -0.2536377
-0.009135507 -0.01284852 -0.23657544 -0.32759154 0.255355 0.15276685 0.32427734 -0.10809069
0.36683428 0.2580317 0.043013163 0.0971555 0.39420962 0.41084102 0.4469778 -0.2005554
0.20953801 0.626043 0.8338424 0.051799998 0.11763688 0.102577 0.27274564 -0.05703801
0.114161566 0.22791293 0.0030678078 -0.1952797 0.33796185 0.19594997 0.1185868 -0.34307194
0.24163571 -0.10153583 0.010000602 -0.01141859 0.33302647 0.2073369 -0.08564393 -0.4078595
-0.095358185 0.22793725 0.10794586 -0.44954643 0.24995112 -0.027918259 -0.34075752 -0.29374692
0.50361973 -0.09062975 -0.11706212 0.017558726 0.32313576 0.35841903 0.3086279 -0.16629457
0.24448928 -0.1899706 -0.04197488 -0.22152288 0.2682969 0.08704335 -0.0011136938 -0.2690317
0.0825963 0.22133805 0.3496856 -0.15543607 0.056525156 -0.2706846 -0.27989766 -0.03778173
0.92680156 0.07637243 -0.044913404 -0.19810118 0.020345952 0.26390612 -0.18604699 -0.30747297
-0.094546326 -0.44544783 -0.5990718 0.55001193 -0.7958439 0.046756845 -0.019295456 -0.20117348
0.39515206 0.3398205 -0.20993426 -0.012918267 -0.10454758 0.66066104 0.21779275 0.05391392
0.5062384 0.16762231 0.04631157 -0.1810746 -0.29311115 0.38574874 0.41814822 -0.17739844
0.55296373 -0.100902945 0.073047064 -0.3152904 0.3318456 0.08292709 -0.13291919 0.07613016
0.3232519 -0.20545536 -0.25857818 -0.06096538 0.4038266 0.21025024 0.008749582 -0.23484088
-0.06284004 0.20478027 -0.22373535 -0.31983122 0.12923256 -0.044424046 0.46713513 0.1948789
0.1713081 0.15174675 0.37279645 0.16883789 -0.14146824 0.05657392 0.28271684 0.13660115
-0.18276612 -0.18706973 0.08954953 -0.025401847 -0.18878251 0.11085408 0.00394929 0.26368743
-0.24587354 0.08925436 0.051982056 0.23930968 -0.056795225 0.01537162 -0.401899 0.1983428
0.1776933 0.28162464 0.21922086 -0.118118554 0.6410076 -0.052291807 0.2227961 -0.11001115
0.120596565 -0.18282087 -0.06557439 -0.15693827 -0.4782248 -0.037350275 -0.11195057 -0.057310443
0.08950409 -0.534145 0.039285235 0.047886133 -0.39828816 -0.123219855 0.03716229 -0.18217452
0.5575107 0.09671792 -0.13455367 -0.25872707 -0.19538666 0.16348062 0.115881495 -0.018752972
-0.3894599 -0.2643519 0.16747455 -0.09666339 -0.29327834 -0.20747045 -0.10344611 -0.07839458
0.54188937 -0.20793454 -0.015734563 -0.02722181 0.11837079 0.2613067 -0.098714516 -0.1623364
0.07211217 0.028103495 0.39220953 -0.13094683 0.26338816 -0.46448538 -0.5016064 -0.33648968
0.7066644 -0.34673136 -0.5284002 0.14760026 0.31528893 -0.11942213 0.009952715 -0.398445
00000000: 9e26 023e 3fac db3e 2dee 2d3e 0dcb d7bc
00000010: c63e 153f 6090 213d ae79 bbbe 9eb5 e9bc
00000020: e4ed ed3e cb98 d5bd 18cf 9abd 5210 f3bd
00000030: d687 0c3e 8a3a 75be 3a20 723d 0206 aabc
00000040: 7c47 893e 6559 4bbe 8070 7abe 58c4 9fbe
00000050: bc5d 153e 0dd3 8a3d 051c 1ebd b25a 4ebe
00000060: a531 9e3e 0958 40be a963 293e d9da 46be
00000070: 50dd 963e f7f5 31be cb06 d7be f6da b23d
00000080: c6c3 213f 3777 813e e5fd 35bd 9269 023d
00000090: e796 4a3e 7a3f ec3e 6515 463e cddc 81be
000000a0: 18ad 15bc 9982 52bc d540 72be 14ba a7be
000000b0: e4bd 823e ea6e 1c3e ae07 a63e a75e ddbd
000000c0: b4d1 bb3e bb1c 843e 922e 303d 76f9 c63d
000000d0: d8d5 c93e c159 d23e 46da e43e 655e 4dbe
000000e0: 2291 563e 5b44 203f b276 553f 3c2c 543d
000000f0: 9beb f03d e413 d23d 51a5 8b3e b0a0 69bd
00000100: 8acd e93d 0262 693e 460d 493b 67f7 47be
00000110: 5609 ad3e 1ca7 483e a3dd f23d 20a7 afbe
00000120: 5a6f 773e 04f2 cfbd 91d9 233c 0a15 3bbc
00000130: 7282 aa3e 2050 543e 1666 afbd f6d2 d0be
00000140: 274b c3bd 6268 693e b812 dd3d f32a e6be
00000150: 30f3 7f3e d5b4 e4bc c577 aebe ff65 96be
00000160: 39ed 003f 179c b9bd 44be efbd 51d7 8f3c
00000170: 0d72 a53e b382 b73e 7a04 9e3e 2049 2abe
00000180: 665b 7a3e a787 42be daed 2bbd e5d6 62be
00000190: 365e 893e c943 b23d 5df9 91ba 86be 89be
000001a0: 4028 a93d 71a6 623e fe09 b33e a22a 1fbe
000001b0: ec86 673d 2c97 8abe bf4e 8fbe 04c1 1abd
000001c0: de42 6d3f 2669 9c3d 1ef7 37bd 09db 4abe
000001d0: 8eac a63c b41e 873e 1a83 3ebe 196d 9dbe
000001e0: 81a1 c1bd bd11 e4be c55c 19bf 95cd 0c3f
000001f0: 6dbc 4bbf 1b84 3f3d 8111 9ebc 6c00 4ebe
00000200: 5f51 ca3e f4fc ad3e 02f9 56be 24a7 53bc
00000210: 0b1d d6bd 1521 293f 1005 5f3e d8d4 5c3d
00000220: d798 013f 2fa5 2b3e 33b1 3d3d 9f6b 39be
00000230: aa12 96be dc80 c53e 8617 d63e f0a7 35be
00000240: 088f 0d3f 34a6 cebd b399 953d be6d a1be
00000250: abe7 a93e aed5 a93d f81b 08be 21ea 9b3d
00000260: 4681 a53e e462 52be 5c64 84be d6b6 79bd
00000270: 5cc2 ce3e d74b 573e 685a 0f3c 217a 70be
00000280: 47b2 80bd ebb1 513e e11a 65be ebc0 a3be
00000290: 8a55 043e fdf5 35bd 562c ef3e 568e 473e
000002a0: 646b 2f3e 8063 1b3e 2ddf be3e d7e3 2c3e
000002b0: 0ddd 10be 0eba 673d 43c0 903e 2ce1 0b3e
000002c0: 0b27 3bbe 358f 3fbe be65 b73d 8917 d0bc
000002d0: 3450 41be 7707 e33d 0c69 813b 0a02 873e
000002e0: 46c6 7bbe fdca b63d 23eb 543d 990d 753e
000002f0: 1ca2 68bd 3fd9 7b3c b5c5 cdbe 601a 4b3e
00000300: 3cf5 353e 1b31 903e 6f7b 603e 24e8 f1bd
00000310: 1319 243f ef2f 56bd a924 643e 874d e1bd
00000320: 55fb f63d 6535 3bbe de4b 86bd 6db4 20be
00000330: e2d9 f4be 9afc 18bd 5746 e5bd 5bbe 6abd
00000340: ec4d b73d babd 08bf 8ee9 203d 4024 443d
00000350: 6dec cbbe b15a fcbd 7c37 183d f58b 3abe
00000360: 05b9 0e3f 0b14 c63d 70c8 09be e077 84be
00000370: 7113 48be 7767 273e 4753 ed3d d59f 99bc
00000380: 4a67 c7be 2259 87be 737e 2b3e 75f7 c5bd
00000390: 9428 96be 2273 54be 8edb d3bd 568d a0bd
000003a0: 43b9 0a3f cbec 54be c5e5 80bc 4600 dfbc
000003b0: 626c f23d fec9 853e d62a cabd 833b 26be
000003c0: 8caf 933d 4d39 e63c b0cf c83e ed16 06be
000003d0: d0da 863e 07d1 edbe 4769 00bf 6048 acbe
000003e0: f5e7 343f c686 b1be 3c45 07bf 8624 173e
000003f0: 8d6d a13e 9793 f4bd b610 233c fc00 ccbe

lstm.weight_hh_l0 f4 [80, 20]
0.062238723 -0.28119874 0.36735228 -0.08526782 -0.1562134 -0.3854862 -0.30307254 -0.1561833
0.26837113 0.41362047 0.07747465 -0.009547826 0.109431356 -0.3423466 0.14155588 -0.071057126
0.015189127 -0.14771713 0.30474362 0.008586733 0.123856604 0.008508787 0.12153395 -0.34281895
0.2680424 -0.32417047 -0.44139114 -0.064555936 -0.11592424 0.27155697 0.33009958 0.086645596
0.10685025 -0.28056827 0.43821213 -0.07518064 0.049315885 -0.28939757 0.25702354 0.095307656
0.15420258 -0.3679545 -0.12865451 -0.014421444 0.11779785 -0.4627161 -0.38726386 -0.038114212
0.03673948 -0.09712265 0.52831334 0.08060505 0.35445637 -0.06700362 -0.08779163 0.011436761
-0.014365959 -0.06469402 0.21807317 0.3695141 0.06813351 -0.09938521 -0.18059966 -0.22264549
0.0071097217 0.015836017 -0.15897402 -0.15892966 -0.25654984 0.3903419 0.04964164 -0.16220729
0.096432194 0.10475302 0.020335644 0.32918572 -0.011604502 0.1531192 0.16568314 0.22632612
0.3754929 -0.02418575 0.25556576 -0.016323462 -0.24707077 0.040661633 -0.160692 -0.41172943
-0.16883889 -0.020814985 -0.06492279 -0.1277989 -0.11110904 -0.2666106 0.26899427 0.08461702
-0.19808589 -0.1547213 0.0029332712 -0.22777268 0.3407419 -0.27924246 -0.19253927 -0.15277524
0.12945192 -0.2291025 -0.22058229 0.15488419 -0.029203502 -0.12512302 -0.0046640947 0.091295205
-0.17552117 0.0845712 0.22400355 0.2735873 -0.28677943 -0.07321182 0.13481574 -0.027251555
-0.07382301 -0.31766295 -0.26359716 0.015387581 0.24018471 -0.17656015 0.13287126 -0.08902273
0.15204273 0.3343588 0.064521015 -0.30383158 0.30579874 0.095072515 0.19418313 0.14070563
-0.17719418 0.05043025 0.41983786 -0.18359329 0.5779994 -0.53962547 -0.08153905 -0.51939285
0.34442297 -0.12880848 -0.532588 0.21568252 -0.21584255 0.019388998 0.519362 0.29939207
0.51386243 -0.1379744 0.35161608 0.0075697103 -0.2180275 0.10364845 0.36688772 0.42947382
0.13245097 -0.26505813 0.02253484 -0.018360464 -0.13274996 -0.058103036 -0.117086835 0.11802222
-0.21170391 -0.03277599 0.2631234 0.03572241 -0.15145594 -0.0706815 0.16852297 0.095959656
0.07859441 -0.014158444 0.13522665 0.27225733 0.30149296 -0.25667483 -0.025631603 0.12217883
0.070022985 0.10873504 0.013235123 -0.13851386 0.1822198 -0.18119994 0.08102172 0.2582173
-0.10794369 0.32289088 -0.41974896 -0.01446864 -0.013290678 0.12688032 -0.17015445 0.26063967
0.14648624 -0.10606919 0.024924047 -0.15035833 -0.08187215 -0.09460467 -0.07858513 -0.06947627
-0.08133419 0.063886024 0.26382455 0.13990843 -0.25292695 -0.1671745 -0.028141852 -0.039246142
0.17865382 0.14283635 -0.13525404 -0.29602847 -0.06767176 -0.0437343 -0.09770574 0.24111621
0.059735164 0.015907876 0.22641075 -0.23522195 0.0054514715 -0.1568988 -0.11444484 0.24783441
-0.20678383 0.44375765 -0.22148198 0.11290473 0.010151192 0.36509654 -0.22053277 -0.08788219
-0.030880738 0.1251186 0.1550547 0.054379735 -0.07168858 -0.09809577 -0.18481602 -0.19575074
0.054198448 6.8011286e-05 0.02557852 0.016159954 0.15207568 -0.16190825 0.37015668 0.13857757
00000000: 08ee 7e3d 48f9 8fbe 9915 bc3e e5a0 aebd
00000010: 68f6 1fbe 725e c5be 532c 9bbe 84ee 1fbe
00000020: f167 893e 10c6 d33e 08ab 9e3d 7c6e 1cbc
00000030: 8c1d e03d 0e48 afbe 06f4 103e 6686 91bd
00000040: d1db 783c 2943 17be 5b07 9c3e 5eaf 0c3c
00000050: 88a8 fd3d 7068 0b3c cbe6 f83d f785 afbe
00000060: da3c 893e acf9 a5be 05fe e1be e735 84bd
00000070: b069 edbd 8409 8b3e d002 a93e 3f73 b13d
00000080: 4ed4 da3d a5a6 8fbe 575d e03e 4ff8 99bd
00000090: 74ff 493d eb2b 94be 9798 833e a930 c33d
000000a0: 48e7 1d3e 8864 bcbe 02be 03be ec47 6cbc
000000b0: 0040 f13d 20e9 ecbe 7347 c6be a61d 1cbd
000000c0: 237c 163d 3de8 c6bd 8b3f 073f 4314 a53d
000000d0: 4e7b b53e 3239 89bd 19cc b3bd 4161 3b3c
000000e0: 335f 6bbc 4c7e 84bd 934e 5f3e f430 bd3e
000000f0: 9589 8b3d 798a cbbd 1eef 38be 2efd 63be
00000100: abf8 e83b 89ba 813c 16ca 22be 75be 22be
00000110: 805a 83be e5da c73e 0855 4b3d ab19 26be
00000120: 3e7e c53d c088 d63d f096 a63c 088b a83e
00000130: cf20 3ebc 48cb 1c3e d7a8 293e 09c2 673e
00000140: 9b40 c03e 3221 c6bc 84d9 823e c8b8 85bc
00000150: 1f00 7dbe d08c 263d 728c 24be 33ce d2be
00000160: 1ae4 2cbe 3084 aabc 3df6 84bd b7dd 02be
00000170: 238d e3bd 2f81 88be 9eb9 893e b04b ad3d
00000180: 07d7 4abe 436f 1ebe 203c 403b 3e3d 69be
00000190: b975 ae3e def8 8ebe 0429 45be 1d71 1cbe
000001a0: 0b8f 043e d999 6abe 53e0 61be f699 1e3e
000001b0: 2f3c efbc 4020 00be 43d5 98bb fbf8 ba3d
000001c0: d2bb 33be aa33 ad3d 3061 653e a213 8c3e
000001d0: c1d4 92be 14f0 95bd 230d 0a3e a73e dfbc
000001e0: 8530 97bd b8a4 a2be 35f6 86be 311c 7c3c
000001f0: fbf2 753e 2fcc 34be 670f 083e 8d51 b6bd
00000200: 17b1 1b3e 1431 ab3e 9823 843d d08f 9bbe
00000210: a791 9c3e 61b5 c23d f1d7 463e 2315 103e
00000220: 6472 35be f38f 4e3d fdf4 d63e e1ff 3bbe
00000230: c5f7 133f e524 0abf f2fd a6bd eef6 04bf
00000240: 3558 b03e 5fe6 03be b057 08bf e1db 5c3e
00000250: d405 5dbe add5 9e3c e8f4 043f eb49 993e
00000260: 7d8c 033f 2949 0dbe 0607 b43e 550b f83b
00000270: 9a42 5fbe a345 d43d b5d8 bb3e fee3 db3e
00000280: 3aa1 073e b3b5 87be fc9a b83c af68 96bc
00000290: 9bef 07be 73fd 6dbd 39cb efbd a2b5 f13d
000002a0: e9c8 58be 1e40 06bd 1cb8 863e a951 123d
000002b0: 4417 1bbe 76c1 90bd 4991 2c3e 7f86 c43d
000002c0: 1bf6 a03d d1f8 67bc db78 0a3e 5065 8b3e
000002d0: 495d 9a3e e26a 83be 5ef9 d1bc e538 fa3d
000002e0: 3668 8f3d 7ab0 de3d 21d8 583c 94d6 0dbe
000002f0: d497 3a3e 7a8c 39be b7ee a53d 0f35 843e
00000300: 9511 ddbd f451 a53e 56e9 d6be e00d 6dbc
00000310: 25c1 59bc eaec 013e f83c 2ebe 9072 853e
00000320: 7d00 163e ce3a d9bd 842d cc3c 89f7 19be
00000330: 96ac a7bd 18c0 c1bd 3ef1 a0bd 9349 8ebd
00000340: 8a92 a6bd add6 823d 0314 873e 2844 0f3e
00000350: a47f 81be cb2f 2bbe be89 e6bc 90c0 20bd
00000360: 07f1 363e b143 123e 0980 0abe 0b91 97be
00000370: 7e97 8abd bd22 33bd f219 c8bd 2be7 763e
00000380: dcac 743d 3c51 823c 38d8 673e 06de 70be
00000390: 42a2 b23b 14aa 20be 0e62 eabd 4ec8 7d3e
000003a0: 24bf 53be 3434 e33e 2ccc 62be 983a e73d
000003b0: 2f51 263c efed ba3e 58d3 61be 94fb b3bd
000003c0: 9af9 fcbc 171f 003e a9c6 1e3e 49bd 5e3d
000003d0: 76d1 92bd 6fe6 c8bd 6940 3dbe e272 48be
000003e0: 31ff 5d3d 48a1 8e38 0b8a d13c e161 843c
000003f0: bab9 1b3e 47cb 25be 2d85 bd3e 47e7 0d3e

lstm.bias_ih_l0 f4 [80]
0.19561552 0.056577533 0.09039322 0.18561082 0.15099408 -0.04306701 -0.2015623 0.3646031
0.0509455 0.105325654 -0.2055635 0.076267004 0.18363698 -0.134813 0.11853081 -0.03569979
-0.054490793 0.024475938 -0.19215848 -0.23299727 -0.036605947 -0.027600916 -0.16782098 -0.026292501
-0.16496697 0.15413374 -0.11139653 -0.002862684 0.14572774 0.14825521 0.6700971 0.22978249
0.15697573 0.35275403 0.09880671 -0.24265155 0.0117648775 0.026705943 -0.03976004 -0.08472233
0.025986254 -0.08902646 -0.026148105 -0.201316 0.044551477 -0.04886967 0.23957947 0.0024932
-0.13349193 0.14975496 -0.10081936 0.11992698 -0.011638871 0.09728249 0.13522053 0.057455864
-0.18054086 -0.030220186 0.15707338 0.014323226 0.22925279 -0.18657576 -0.034355287 0.027765138
0.062472235 -0.12960318 -0.031884786 0.22383162 0.10276945 0.051005173 -0.06683532 0.16902275
0.023391545 0.08584259 -0.22636703 -0.21713838 0.08224404 -0.0077396994 0.0009523422 0.032504525
00000000: 6f4f 483e d8bd 673d 1520 b93d c310 3e3e
00000010: 319e 1a3e 0867 30bd 5966 4ebe 42ad ba3e
00000020: 3bac 503d fab4 d73d 3d7f 52be e031 9c3d
00000030: 550b 3c3e 6b0c 0abe 48c0 f23d f139 12bd
00000040: bd31 5fbd c381 c83c 31c5 44be d696 6ebe
00000050: 1ef0 15bd 511b e2bc 43d9 2bbe 5f63 d7bc
00000060: 1aed 28be 3cd5 1d3e dd23 e4bd de9b 3bbb
00000070: a739 153e 37d0 173e 7c8b 2b3f 1a4c 6b3e
00000080: 3fbe 203e 2d9c b43e 2c5b ca3d a679 78be
00000090: 79c1 403c 6cc6 da3c 6cdb 22bd e782 adbd
000000a0: 20e1 d43c 8153 b6bd 8d34 d6bc c825 4ebe
000000b0: 9c7b 363d 902b 48bd 5254 753e f464 233b
000000c0: 1cb2 08be 5d59 193e 617a cebd 479c f53d
000000d0: f7b0 3ebc 0b3c c73d 4077 0a3e d756 6b3d
000000e0: b4df 38be 5390 f7bc d8d7 203e f7ab 6a3c
000000f0: 3ec1 6a3e b70d 3fbe 21b8 0cbd b773 e33c
00000100: e3e2 7f3d b2b6 04be 9f99 02bd 1e34 653e
00000110: ca78 d23d cdea 503d f5e0 88bd 4d14 2d3e
00000120: a09f bf3c 3dce af3d c2cc 67be 8659 5ebe
00000130: 906f a83d 4e9d fdbb 9aa6 793a 7723 053d

lstm.bias_hh_l0 f4 [80]
-0.19445126 0.101711884 0.11143247 0.016114919 0.11884824 0.027573515 -0.078659184 0.0027448663
0.03929601 0.1200968 -0.32899177 0.09994638 0.19992544 -0.20308876 0.013254745 -0.26365831
0.2352579 -0.029405303 -0.011540039 -0.23455206 0.071460634 -0.26684543 -0.34982958 0.028430544
0.037409097 0.06743234 -0.08852701 0.07361817 -0.06341679 0.1687874 0.7334528 -0.16194153
0.13334382 0.29538622 0.06370445 -0.24095358 -0.21153995 0.087936245 0.25608575 -0.19359455
0.06559025 0.049094878 0.041681428 0.21342021 0.17239706 -0.061228193 -0.16253719 -0.2936992
0.16010576 -0.1259087 -0.061907765 0.13987556 0.024626248 0.048523434 0.25241613 0.072727494
0.06083156 0.13670109 -0.116163835 0.12591226 0.19062811 0.05863636 -0.07121725 -0.11290042
0.1701143 0.1894736 -0.09871307 0.009829565 -0.09284598 0.07152048 -0.09847588 -0.037725765
-0.12600544 0.2913442 -0.13964663 -0.17167392 0.07758248 -0.19090052 -0.121493265 -0.05599802
00000000: 3b1e 47be 524e d03d b536 e43d 6f03 843c
00000010: b566 f33d dae1 e13c 1118 a1bd 37e3 333b
00000020: daf4 203d 50f5 f53d 9c71 a8be b0b0 cc3d
00000030: 41b9 4c3e 80f6 4fbe 6e2a 593c 39fe 86be
00000040: 72e7 703e 64e3 f0bc 6f12 3dbc 6a2e 70be
00000050: f459 923d f79f 88be dd1c b3be 2ce7 e83c
00000060: 483a 193d f719 8a3d a64d b5bd 20c5 963d
00000070: a9e0 81bd 9bd6 2c3e 90c3 3b3f 00d4 25be
00000080: 488b 083e dd3c 973e 7b77 823d 89bc 76be
00000090: ee9d 58be eb17 b43d ac1d 833e a63d 46be
000000a0: 2e54 863d b617 493d 25ba 2a3d d48a 5a3e
000000b0: db88 303e 6aca 7abd 2670 26be be5f 96be
000000c0: c4f2 233e 36ee 00be ff92 7dbd 8a3b 0f3e
000000d0: fcbc c93c 82c0 463d b03c 813e 27f2 943d
000000e0: 842a 793d 5ffb 0b3e 4ee7 edbd 25ef 003e
000000f0: 0434 433e ae2c 703d 59da 91bd 5638 e7bd
00000100: 7132 2e3e 5e05 423e 142a cabd 2f0c 213c
00000110: 0826 bebd 5479 923d b9ad c9bd 5586 1abd
00000120: 9207 01be 112b 953e 87ff 0ebe 4acb 2fbe
00000130: 90e3 9e3d 6d7b 43be 76d1 f8bd 2e5e 65bd

lstm.weight_ih_l1 f4 [80, 20]
0.31765902 0.08174297 0.13975807 -0.51524276 0.26232246 -0.3766682 -0.56001675 -0.24872887
0.29494432 0.029645946 0.6042995 -0.06425717 0.45431075 -0.43699646 0.33333606 0.09257359
-0.5054869 -0.14395715 0.42775214 0.22435656 0.25118744 -0.04803802 -0.29527953 -0.31331638
0.11841468 -0.11038035 -0.23157799 0.14705653 -0.2913138 -0.09424354 0.27985772 -0.1740306
0.009383061 -0.18247905 0.18236947 -0.44331017 0.30616936 0.13138843 0.10357194 -0.21257934
0.1272983 0.29879537 0.35643128 -0.3001265 -0.16543299 -0.09221096 -0.1082653 -0.17692512
0.42012125 0.37519115 0.15462823 -0.4819342 -0.22983328 -0.15176512 0.55805695 -0.06948838
-0.107388064 -0.46253017 0.4391748 0.059916403 -0.19028386 0.11134613 0.0033445517 0.0011345341
-0.053053524 -0.22633289 0.17562845 0.016187174 0.1278993 0.1425497 -0.005368074 0.014881999
-0.093635075 0.16022685 -0.048503336 -0.04420779 0.20157084 -0.039540526 0.2383375 0.19164008
-0.22381185 -0.16135496 0.21167187 -0.29502848 0.16860138 -0.03528675 -0.014043098 -0.13944076
-0.43240517 -0.022944555 0.0250727 -0.11123309 0.08115325 -0.2021796 0.37066808 -0.23101604
0.010757526 -0.11333914 0.09553061 0.049924772 -0.034002468 -0.15441813 0.01542374 -0.317834
-0.010837722 -0.30660468 -0.26242533 -0.17327581 0.05227644 -0.1699021 0.17632167 0.1032748
0.26267582 -0.040769227 0.0049200687 -0.005888675 0.30225316 -0.25022465 0.07322462 0.15755098
0.27875262 -0.2850172 0.18894018 -0.21905455 0.0040107397 -0.2529142 -0.166859 -0.12099018
0.4380913 0.15360188 0.34741053 -0.2121504 -0.052837044 -0.53774804 0.27226433 -0.033895127
-0.356172 -0.37656105 0.27962345 0.036218613 0.08434681 0.03352561 0.29769185 -0.2699849
-0.33306232 -0.16633108 -0.3149072 -0.54770225 0.22073838 0.326435 -0.34443834 -0.041711684
0.44208214 -0.18923669 0.54098237 -0.11358017 -0.25284284 -0.32738012 0.42575693 0.32364425
0.5188889 -0.057805423 0.23040773 -0.08381239 0.07898972 -0.39136255 -0.4822353 -0.37111077
0.37634897 0.19546357 -0.27389315 -0.19084729 -0.05869138 -0.05482057 0.36601445 0.2130981
-0.26139638 -0.39756066 0.28205168 0.6427538 0.07454924 0.27731547 -0.026348602 0.044948384
0.13394397 0.06345979 0.13400654 -0.061873842 0.003876659 0.32003266 -0.06329573 0.04187246
-0.11894515 -0.04740439 0.08854472 0.13407826 -0.055931736 -0.30224887 0.1847823 -0.16328476
0.091610834 0.08368297 0.23504415 -0.21384719 -0.06962344 -0.09243903 -0.47584167 -0.22361064
-0.04638631 -0.034409303 0.32843855 -0.24225543 0.45284933 -0.35343274 0.059151404 -0.3588623
0.19700205 -0.1215689 0.33858255 -0.0461107 0.2704223 0.60308063 0.14859667 0.2282654
-0.4977454 0.03787017 0.21767819 -0.3572087 0.39712423 0.27504838 -0.32384753 -0.14615211
-0.42481312 0.1329062 0.19976307 0.2576408 -0.1919068 -0.32200125 0.17585424 0.23962276
-0.043974657 0.33093494 0.33148965 -0.020796837 0.03837855 -0.38464558 -0.3172169 -0.3784663
0.13467735 0.62404346 -0.031139953 -0.22213288 0.36728874 -0.028849287 0.50453436 -0.05874894
00000000: 34a4 a23e dc68 a73d bd1c 0f3e f3e6 03bf
00000010: 214f 863e a8da c0be 425d 0fbf c8b2 7ebe
00000020: f102 973e 0edc f23c 5fb3 1a3f 4399 83bd
00000030: 6b9b e83e 00be dfbe 06ab aa3e 3997 bd3d
00000040: 9767 01bf 8169 13be 5402 db3e babd 653e
00000050: a49b 803e 84c3 44bd e12e 97be 016b a0be
00000060: 6583 f23d 180f e2bd c822 6dbe fd95 163e
00000070: 1527 95be c202 c1bd 8349 8f3e 1435 32be
00000080: 69bb 193c cadb 3abe 10bf 3a3e 8df9 e2be
00000090: 3bc2 9c3e b08a 063e 861d d43d 66ae 59be
000000a0: 7c5a 023e b5fb 983e 297e b63e 2eaa 99be
000000b0: 4467 29be 1ad9 bcbd 33ba ddbd dc2b 35be
000000c0: 221a d73e 0e19 c03e dd56 1e3e 14c0 f6be
000000d0: 6a59 6bbe 5168 1bbe d2dc 0e3f ec4f 8ebd
000000e0: 46ee dbbd c1d0 ecbe 85db e03e e76a 753d
000000f0: c6d9 42be 7109 e43d 4430 5b3b a6b4 943a
00000100: a74e 59bd cfc3 67be f2d7 333e f79a 843c
00000110: 09f8 023e 8cf8 113e abe6 afbb a1d3 733c
00000120: bfc3 bfbd 8212 243e 6fab 46bd 3a13 35bd
00000130: 9668 4e3e 3ff5 21bd bf0e 743e 4c3d 443e
00000140: ef2e 65be 3c3a 25be 83c0 583e f90d 97be
00000150: d7a5 2c3e d788 10bd 0615 66bc 8fc9 0ebe
00000160: 3664 ddbe 38f6 bbbc 4365 cd3c 2dce e3bd
00000170: ad33 a63d 2b08 4fbe 35c8 bd3e 788f 6cbe
00000180: 5640 303c 5a1e e8bd 8da5 c33d eb7d 4c3d
00000190: 2c46 0bbd c91f 1ebe dbb3 7c3c 23bb a2be
000001a0: b390 31bc 4afb 9cbe 9d5c 86be 376f 31be
000001b0: d21f 563d d1fa 2dbe ab8d 343e bd81 d33d
000001c0: 727d 863e a2fd 26bd 8738 a13b c9f5 c0bb
000001d0: edc0 9a3e 721d 80be caf6 953d 0b55 213e
000001e0: aab8 8e3e c6ed 91be 8979 413e d64f 60be
000001f0: 866c 833b f87d 81be 16dd 2abe b3c9 f7bd
00000200: 814d e03e d049 1d3e cbdf b13e f43d 59be
00000210: a86b 58bd dba9 09bf 3b66 8b3e 9ed5 0abd
00000220: 2d5c b6be 9ccc c0be ce2a 8f3e f859 143d
00000230: 05be ac3d 2652 093d 116b 983e 763b 8abe
00000240: 2587 aabe b252 2abe 843b a1be 3736 0cbf
00000250: 3e09 623e 7d22 a73e 395a b0be dfd9 2abd
00000260: 9758 e23e 43c7 41be d27d 0a3f b89c e8bd
00000270: 9e74 81be 5e9e a7be d0fc d93e b3b4 a53e
00000280: e7d5 043f 61c5 6cbd 01f0 6b3e d5a5 abbd
00000290: 5dc5 a13d ac60 c8be 8ce7 f6be 3b02 bebe
000002a0: d0b0 c03e 9a27 483e b93b 8cbe 796d 43be
000002b0: 5f66 70bd 898b 60bd 3f66 bb3e 6336 5a3e
000002c0: bfd5 85be 128d cbbe 1469 903e 838b 243f
000002d0: 46ad 983d 4bfc 8d3e 06d9 d7bc cc1b 383d
000002e0: 9c28 093e 35f7 813d 0339 093e 6d6f 7dbd
000002f0: 8c0f 7e3b 52db a33e 31a1 81bd 7582 2b3d
00000300: 8499 f3bd 1b2b 42bd ef56 b53d d04b 093e
00000310: ad18 65bd 5dc0 9abe 9237 3d3e 1f34 27be
00000320: 769e bb3d fa61 ab3d 6aaf 703e c2fa 5abe
00000330: bc96 8ebd ad50 bdbd 85a1 f3be 30fa 64be
00000340: 92ff 3dbd c5f0 0cbd 1929 a83e cf11 78be
00000350: dedb e73e 23f5 b4be be48 723d cdbc b7be
00000360: e8ba 493e 1ef9 f8bd b15a ad3e 93de 3cbd
00000370: cb74 8a3e 7e63 1a3f ba29 183e 68be 693e
00000380: 7cd8 febe c01d 1b3d 08e7 5e3e 0fe4 b6be
00000390: de53 cb3e 24d3 8c3e 58cf a5be e6a8 15be
000003a0: 1b81 d9be 9018 083e b18e 4c3e 7fe9 833e
000003b0: 3783 44be 59dd a4be 2213 343e ab5f 753e
000003c0: c51e 34bd 4e70 a93e 03b9 a93e 215e aabc
000003d0: d432 1d3d 44f0 c4be 416a a2be 56c6 c1be
000003e0: dce8 093e 50c1 1f3f 3719 ffbc cd76 63be
000003f0: 450d bc3e 5755 ecbc 2a29 013f baa2 70bd

lstm.weight_hh_l1 f4 [80, 20]
-0.044874158 0.0057683126 -0.43555167 -0.21447025 0.36512646 0.06232706 -0.10795496 0.5268057
-0.2403817 -0.046788603 0.040383834 0.07383132 0.046661157 0.028662186 0.24382916 -0.5114479
-0.09889126 0.04065534 -0.02365237 0.050049093 -0.078809574 0.2385488 -0.0061589465 -0.09899354
0.2808278 -0.17073427 0.06757561 0.48628527 0.05211884 -0.019299567 -0.01779947 0.27955118
0.41896704 0.009735003 0.20717515 -0.13912117 -0.099496305 0.14183165 0.17797688 0.25845405
-0.102878176 -0.04069931 0.21967229 -0.119431876 0.043639477 -0.034114134 0.1828475 0.11665882
-0.21837144 -0.17383437 -0.02475401 -0.008967575 0.051037308 0.046289258 -0.050867677 -0.38741237
-0.034596406 -0.015841765 -0.025908917 -0.013624532 -0.097266436 -0.019165805 -0.10823243 0.072799414
0.06877158 -0.11297174 -0.20423484 0.053348795 0.027678126 -0.19708721 0.2572085 -0.28338876
-0.24268971 0.044198446 -0.116717614 0.1460037 0.00018070207 0.059114583 0.1653774 -0.015087462
0.106478214 0.22215916 -0.20727772 -0.2222118 0.0975616 0.081466675 -0.22101182 0.12978813
-0.033827163 0.009194875 0.21128854 0.14073762 -0.1661708 -0.21495968 -0.055596083 -0.12709978
-0.2188286 -0.1062376 -0.107894294 -0.02396372 0.16363063 0.21839426 0.041067317 0.016636912
-0.055420533 0.18106 0.03094619 -0.051391486 0.09822333 -0.10383733 -0.02935735 -0.11402703
-0.25964037 -0.26286387 -0.3029316 -0.21239032 -0.1026025 -0.17236103 0.12988752 -0.07268026
0.010281498 0.14371938 0.087725624 -0.17105581 0.289153 0.020209273 -0.06720061 0.36339194
-0.0019966206 0.20345935 0.3161347 0.024235027 0.15871723 -0.0070298165 0.11661923 -0.32117677
0.11182456 -0.007708605 -0.10992346 0.27437216 0.09511415 -0.23612796 -0.5172594 0.23594566
0.06274382 -0.024399752 0.20970161 0.1089761 -0.17814621 0.011514932 -0.038533475 -0.47271353
-0.1624521 -0.06672527 -0.030306153 -0.24754728 -0.15169302 -0.1441393 0.047740478 0.0893352
-0.2830405 -0.005161704 -0.0947474 -0.11566166 0.13843311 -0.06756263 -0.20358169 0.22367688
0.269249 -0.28740054 0.45232752 0.17118512 -0.22386765 -0.09168835 -0.218973 -0.3140015
0.0496434 -0.29934534 0.27465978 0.43672264 -0.09784952 0.20423287 -0.100846976 -0.041414876
-0.16394418 0.21341798 0.122034505 0.16177224 0.025237758 -0.2003887 -0.02151742 0.051258452
0.1593828 0.059286233 0.07906724 0.20716387 0.059250508 0.14891152 -0.11743994 -0.0059472704
0.089624815 -0.22014132 0.27623355 -0.29610708 0.11136851 0.047638096 0.044400737 -0.13434854
0.108728364 -0.12751761 0.0648183 0.30272168 0.013924268 -0.23539825 -0.11401538 0.19337241
0.06492833 -0.041965492 0.11023724 -0.026885418 0.24173403 -0.6120669 -0.10422758 -0.11907133
0.0980164 0.22164434 -0.001949439 -0.33708134 -0.11250303 -0.121444166 0.25720614 -0.1269761
0.07731327 -0.04419511 -0.31649125 -0.22498456 0.06422405 -0.13820288 -0.109673075 0.3200368
0.3269488 -0.11956084 0.020812828 0.08168846 0.091343 -0.2245255 -0.09023517 -0.008929674
-0.34045568 0.15326895 0.4307221 -0.4717839 0.2238736 -0.074266955 0.24796079 -0.6443507
00000000: f7cd 37bd 1d04 bd3b a100 dfbe 179e 5bbe
00000010: dbf1 ba3e a94a 7f3d 7d17 ddbd bddc 063f
00000020: 9f26 76be 68a5 3fbd 8569 253d e034 973d
00000030: c51f 3f3d f6cc ea3c 5aae 793e 40ee 02bf
00000040: 8087 cabd 3786 263d 9dc2 c1bc 4700 4d3d
00000050: ea66 a1bd 2346 743e fdd0 c9bb 20bd cabd
00000060: a9c8 8f3e f7d4 2ebe 1565 8a3d 62fa f83e
00000070: 917a 553d 201a 9ebc 32d0 91bc 5521 8f3e
00000080: d982 d63e 907f 1f3c b925 543e c875 0ebe
00000090: b8c4 cbbd 513c 113e 923f 363e 1754 843e
000000a0: cbb1 d2bd 52b4 26bd c6f1 603e b398 f4bd
000000b0: 4fbf 323d 43bb 0bbd 603c 3b3e d2ea ee3d
000000c0: c39c 5fbe a301 32be ecc8 cabc bcec 12bc
000000d0: 7f0c 513d ce99 3d3d a05a 50bd ea5a c6be
000000e0: f6b4 0dbd 97c6 81bc f03e d4bc 6e39 5fbc
000000f0: a033 c7bd 9b01 9dbc f7a8 ddbd dc17 953d
00000100: 1dd8 8c3d ba5d e7bd f022 51be 4484 5a3d
00000110: 3dbd e23c 3bd1 49be d5b0 833e 5518 91be
00000120: a783 78be 6e09 353d a509 efbd fe81 153e
00000130: d87a 3d39 2222 723d b158 293e 6731 77bc
00000140: 4011 da3d b17d 633e 9c40 54be 7d8b 63be
00000150: 60ce c73d 00d8 a63d ec50 62be 2ee7 043e
00000160: 5a8e 0abd 1aa6 163c 065c 583e 861d 103e
00000170: ae28 2abe 641e 5cbe b8b8 63bd 7226 02be
00000180: 9b14 60be 1993 d9bd aff7 dcbd 904f c4bc
00000190: ca8e 273e bfa2 5f3e 3436 283d 224a 883c
000001a0: a400 63bd cb67 393e dd82 fd3c e17f 52bd
000001b0: 5029 c93d aba8 d4bd d37e f0bc 0187 e9bd
000001c0: 95ef 84be 1896 86be da19 9bbe d97c 59be
000001d0: 4221 d2bd 697f 30be 3c01 053e 63d9 94bd
000001e0: ba73 283c 2c2b 133e 7ea9 b33d 4129 2fbe
000001f0: dd0b 943e eb8d a53c 79a0 89bd 820e ba3e
00000200: bcd9 02bb a657 503e 68dc a13e 8988 c63c
00000210: c586 223e 605a e6bb 10d6 ee3d 4871 a4be
00000220: 4604 e53d 7798 fcbb 8d1f e1bd 827a 8c3e
00000230: 35cb c23d 87cb 71be 1d6b 04bf bd9b 713e
00000240: d57f 803d fde1 c7bc 05bc 563e dd2e df3d
00000250: f66b 36be 20a9 3c3c 47d5 1dbd 8207 f2be
00000260: d859 26be 42a7 88bd 9c44 f8bc 097d 7dbe
00000270: 6a55 1bbe 4199 13be 858b 433d 60f5 b63d
00000280: afea 90be 8323 a9bb ed0a c2bd 05e0 ecbd
00000290: 69c1 0d3e 475e 8abd b877 50be 8d0b 653e
000002a0: 01db 893e 2a26 93be 7997 e73e 274b 2f3e
000002b0: 903d 65be 1ac7 bbbd 753a 60be cec4 a0be
000002c0: e156 4b3d cb43 99be 35a0 8c3e 1c9a df3e
000002d0: 5465 c8bd 6c22 513e dc88 cebd a5a2 29bd
000002e0: fce0 27be 3e8a 5a3e 3aed f93d 9fa7 253e
000002f0: 6abf ce3c b232 4dbe 4d45 b0bc 62f4 513d
00000300: 3f35 233e 1fd6 723d 01ee a13d c422 543e
00000310: a9b0 723d 437c 183e 5a84 f0bd 52e1 c2bb
00000320: 378d b73d ba6c 61be 7c6e 8d3e 599b 97be
00000330: 2c15 e43d 2a20 433d 8cdd 353d aa92 09be
00000340: faac de3d fa93 02be 75bf 843d 56fe 9a3e
00000350: 9d22 643c 3d0c 71be e580 e9bd 6b03 463e
00000360: 25f9 843d 02e4 2bbd 10c4 e13d cf3e dcbc
00000370: 2089 773e 6bb0 1cbf 4575 d5bd abdb f3bd
00000380: d3bc c83d bcf6 623e 5284 ffba ed95 acbe
00000390: fd67 e6bd b8b7 f8bd 86b0 833e 0606 02be
000003a0: 6b56 9e3d ef05 35bd 240b a2be 5a62 66be
000003b0: e687 833d 0e85 0dbe 479c e0bd dddb a33e
000003c0: d565 a73e 50dc f4bd aa7f aa3c 484c a73d
000003d0: 0a12 bb3d 03ea 65be 38cd b8bd c44d 12bc
000003e0: 3550 aebe 89f2 1c3e 9b87 dc3e a98d f1be
000003f0: 1f3f 653e 4619 98bd 6fe9 7d3e 2bf4 24bf

lstm.bias_ih_l1 f4 [80]
0.23773302 0.026620213 0.17053245 0.19631027 -0.11545043 -0.08157522 0.018653478 -0.04804859
0.11421194 0.19541915 -0.04783926 0.07244978 0.26251528 -0.26257902 0.044558175 0.11138382
-0.12826672 -0.30938834 0.05114774 -0.17303024 -0.031639006 -0.18102194 0.038432635 0.3964868
0.05764212 -0.18356253 -0.016416851 -0.082361825 0.088430874 0.5434725 0.20594886 0.22581027
0.10530851 0.10540008 0.26847133 -0.014436254 -0.13912983 -0.11442923 -0.061255157 0.28533983
0.07535857 0.08031892 -0.06951743 -0.0034598017 0.16156556 0.10770053 0.051631622 0.10042384
0.24470893 0.21994159 0.2104433 0.0037580165 -0.20288734 -0.05620727 0.06393616 0.24162765
0.113757566 -0.05443725 -0.009171305 0.032663442 0.2699421 -0.053169917 0.1341119 0.0752416
-0.039165925 -0.08361155 0.31676996 -0.10161773 0.27939165 0.20814101 0.22513403 0.046090968
-0.23769549 -0.14300016 -0.032000363 0.043289624 0.18934722 -0.073288366 0.14568265 0.18989863
00000000: 4970 733e a212 da3c 0fa0 2e3e 8f05 493e
00000010: 4671 ecbd e910 a7bd 2ecf 983c 99ce 44bd
00000020: f3e7 e93d f51b 483e 1af3 43bd 8d60 943d
00000030: 6768 863e c270 86be a282 363d 331d e43d
00000040: 5a58 03be 2668 9ebe 4b80 513d d72e 31be
00000050: e797 01bd d15d 39be 8a6b 1d3d 5100 cb3e
00000060: 251a 6c3d d1f7 3bbe a27c 86bc 51ad a8bd
00000070: 3f1b b53d 0421 0b3f 42e4 523e cf3a 673e
00000080: fdab d73d ffdb d73d 1375 893e 0a86 6cbc
00000090: 0d78 0ebe df59 eabd b0e6 7abd 1018 923e
000000a0: 9855 9a3d 3f7e a43d 285f 8ebd d7bd 62bb
000000b0: 7171 253e 1892 dc3d ae7b 533d 04ab cd3d
000000c0: fa94 7a3e 5e38 613e 737e 573e 0e49 763b
000000d0: b3c1 4fbe 9839 66bd f6f0 823d 3d6d 773e
000000e0: baf9 e83d 98f9 5ebd 3e43 16bc 1aca 053d
000000f0: da35 8a3e b3c8 59bd a154 093e 4518 9a3d
00000100: 736c 20bd 883c abbd ac2f a23e f51c d0bd
00000110: 6c0c 8f3e eb22 553e 8989 663e e2c9 3c3d
00000120: 7266 73be a26e 12be d012 03bd 7650 313d
00000130: 3de4 413e 3618 96bd d52d 153e c974 423e

lstm.bias_hh_l1 f4 [80]
-0.016694373 0.10660263 -0.058882874 0.27031088 -0.14441837 -0.12395763 0.06985199 0.21045965
-0.027025234 -0.06875885 -0.14247793 0.4074382 -0.102936566 -0.23578723 -0.17234139 0.2544766
-0.024128152 -0.1958466 0.036433738 0.16868173 0.03235408 -0.14765967 0.04755859 0.39920846
0.12483451 -0.0013918931 0.12902711 -0.15560982 -0.015608441 0.62713087 0.24223456 0.3814075
-0.066748485 0.28492543 0.0815799 -0.10882619 -0.21110697 -0.10856516 0.044900145 0.07603725
-0.14407432 -0.13697253 -0.119478256 0.13842037 -0.11268076 -0.13487628 0.10313683 -0.2362624
-0.06049794 -0.0009881733 0.08055316 -0.1883058 0.08172244 0.035145037 -0.05121113 0.09605989
0.008046152 -0.02620781 0.18368265 -0.03438754 0.09185776 -0.25888437 -0.10156852 -0.019329613
-0.034436 0.039069075 0.13869059 0.03641991 0.11456853 0.0057865176 -0.17869966 0.17326336
-0.19273043 -0.10290179 -0.08867682 0.3453547 -0.08031799 -0.093871675 0.055805076 0.00553002
00000000: a3c2 88bc 7b52 da3d 2b2f 71bd 3066 8a3e
00000010: 69e2 13be 7fdd fdbd 8f0e 8f3d bc82 573e
00000020: 0664 ddbc 71d1 8cbd bce5 11be bd9b d03e
00000030: 68d0 d2bd 3572 71be 437a 30be c24a 823e
00000040: 67a8 c5bc 038c 48be 8b3b 153d e7ba 2c3e
00000050: b685 043d 1934 17be cccc 423d 0d65 cc3e
00000060: 3ca9 ff3d 2f70 b6ba af1f 043e 2e58 1fbe
00000070: 8cba 7fbc a68b 203f 560c 783e d847 c33e
00000080: 6eb3 88bd bfe1 913e 5d13 a73d 44e0 debd
00000090: 6d2c 58be 6957 debd 37e9 373d 6bb9 9b3d
000000a0: 3888 13be 8742 0cbe 04b1 f4bd 12be 0d3e
000000b0: 2cc5 e6bd 021d 0abe 6739 d33d c5ee 71be
000000c0: b0cc 77bd 9885 81ba 0ef9 a43d 3cd3 40be
000000d0: 185e a73d 3ef4 0f3d c3c2 51bd 0cbb c43d
000000e0: 02d4 033c c3b1 d6bc 4e17 3c3e f3d9 0cbd
000000f0: ec1f bc3d 7e8c 84be 2803 d0bd 2359 9ebc
00000100: c30c 0dbd e506 203d e804 0e3e 0b2d 153d
00000110: e8a2 ea3d d49c bd3b 0bfd 36be f36b 313e
00000120: 205b 45be 2cbe d2bd 319c b5bd 55d2 b03e
00000130: c27d a4bd cb3f c0bd dd93 643d 2c35 b53b

linear.model.0.weight f4 [2, 20]
0.7390335 -0.17532068 -0.4391113 -0.1954656 0.24534945 -0.18428183 0.5302442 0.75774235
-0.5704074 -0.022022385 0.450125 -0.043202445 0.57486 -0.087038554 0.63232535 -0.69729024
-0.55309767 0.60301715 0.14638709 0.16851251 0.010206749 -0.09649456 -0.2104827 0.08408129
-0.16222501 0.16284294 0.27659082 -0.16657393 -0.38373443 0.11887872 -0.25218195 -0.4081747
-0.120060556 0.34439582 -0.3257077 -0.17930834 0.27011046 -0.22444566 -0.14253743 -0.1730673
00000000: 4d31 3d3f 4487 33be 32d3 e0be 2228 48be
00000010: e33c 7b3e 60b4 3cbe 15be 073f 67fb 413f
00000020: 3806 12bf 4a68 b4bc c976 e63e 0cf5 30bd
00000030: 062a 133f 4541 b2bd 13e0 213f 9d81 32bf
00000040: cf97 0dbf 555f 1a3f 7fe6 153e 8b8e 2c3e
00000050: 353a 273c f19e c5bd c788 57be d032 ac3d
00000060: 501e 26be 4dc0 263e 509d 8d3e 5b92 2abe
00000070: d778 c4be b076 f33d fe1d 81be 46fc d0be
00000080: 4fe2 f5bd a654 b03e 29c3 a6be 9b9c 37be
00000090: eb4b 8a3e 15d5 65be 55f5 11be 8e38 31be

linear.model.0.bias f4 [2]
0.11631067 0.009265697
00000000: 4a34 ee3d 26cf 173c
