examples/2_streamflow_isotope_simulation/results/best_model.pt (torch, 25698 bytes, 10 tensors)

lstm.weight_ih_l0 f4 [80, 4]
000000 94 35 54 3e 01 ab a7 bc 96 52 9b 3e ae 3b 93 3e
       0.20723563 -0.020467283 0.30336446 0.2875647
000010 4f 54 47 3e 80 77 77 be c9 17 aa be 12 8e 00 3e
       0.19465755 -0.2416668 -0.33221272 0.12554196
000020 f2 9f c9 3e 07 cd 31 3e fa d5 85 3e 11 44 e0 bc
       0.3937984 0.17363368 0.26139814 -0.027376207
000030 7f ca e3 3d 4f 71 58 be 5f 90 90 3e 23 5d 3f be
       0.111226074 -0.21136974 0.28235146 -0.18687873
000040 ed 53 d7 bd f4 34 d8 bd 14 b8 e3 39 9a 3f 5b be
       -0.105140544 -0.10556975 0.00043433963 -0.21410981
000050 d7 ba 97 3e 7f 90 e2 3d 89 2f 24 3d 81 4f 18 be
       0.29634735 0.11062717 0.040084396 -0.14874078
000060 60 e9 dd 3e 9c 87 84 3e ee 6e b9 bb 29 69 44 bd
       0.43342113 0.25884712 -0.005658976 -0.04795185
000070 fc 87 31 3e ba 79 f6 3c 40 52 10 3e a1 bb 62 3d
       0.1733703 0.03008734 0.14093876 0.055354718
000080 39 c0 de bd 7d 02 d2 bc 38 d1 25 3e 6f 6d 20 3e
       -0.10876507 -0.025635952 0.16193092 0.15666746
000090 56 bf 43 3e 76 d8 0d bd dc c4 14 bd f3 91 73 be
       0.19115958 -0.03463026 -0.036320552 -0.23786144
0000a0 d1 f2 b7 bd c9 ba bd 3d d9 91 49 3e fd 3a 8d be
       -0.089818604 0.09264142 0.19684543 -0.27584067
0000b0 2b 52 b6 3e 3c 53 c5 bd c3 8e ce bc e2 da 89 bd
       0.35609564 -0.09635016 -0.025214558 -0.06731202
0000c0 25 90 0f 3e 80 fd 8d 3d 8a 03 77 3e 65 b3 41 be
       0.1401983 0.06933117 0.24122444 -0.1891609
0000d0 96 83 44 3d 37 83 71 be ec 30 57 3d 28 f3 c3 bc
       0.047977053 -0.2358521 0.05253689 -0.023919657
0000e0 79 68 2b be b0 8e ca bb cf 4b e6 bd 93 ff fb 3d
       -0.16739072 -0.0061815605 -0.11244928 0.12304606
0000f0 ec 12 8c 3e 99 18 00 be 7a 1b 50 3e a8 03 78 bd
       0.27358186 -0.12509383 0.20322981 -0.060550362
000100 01 c9 82 3e 2d e8 91 bd 55 02 6c be a3 a9 c6 bd
       0.2554398 -0.07124362 -0.23047765 -0.097003244
000110 d0 68 89 3d 70 21 47 bd 48 09 b5 3b a3 f4 91 bc
       0.067094445 -0.048615873 0.005524788 -0.017816847
000120 3c 24 0f 3e 3f 2e 55 3e 1f ab 6d be 62 87 26 be
       0.13978666 0.20818423 -0.23209809 -0.16262582
000130 8d 27 f3 bd 79 3a 58 3e 50 0d a2 bc 08 1c 7c 3e
       -0.11872778 0.21116056 -0.019781739 0.24620068
000140 e0 a9 02 3e 04 d5 82 3e 0c 12 2e 3e 12 55 1d be
       0.12760115 0.25553143 0.16999072 -0.15364483
000150 0c a6 9d be 7c 4f 5a bd c9 89 c7 bd 69 41 b4 bd
       -0.30790746 -0.05329846 -0.09743077 -0.088015385
000160 02 56 7e 3e 7e e2 a4 bc 58 fc 29 be 66 e1 30 be
       0.24837497 -0.020127531 -0.16600168 -0.17273483
000170 5c 36 92 3d 9c 4c 62 3d 47 0f 32 3e e4 a4 9e bd
       0.071392745 0.05524884 0.1738864 -0.07746294
000180 0f 08 af be 77 c2 1d bb ab ac aa be 49 46 11 3e
       -0.34185836 -0.002407221 -0.3333486 0.14186968
000190 7f dc 62 bd 65 cf 49 3e c0 9c 15 3e 72 42 38 be
       -0.055386063 0.19708021 0.14610577 -0.17994097
0001a0 9b 6d d0 3e 73 30 be bd a2 b0 44 be 4e 2c 9b bd
       0.40708622 -0.09286585 -0.19208005 -0.0757681
0001b0 69 40 82 bd 5c 72 0e 3e c3 3e 7c 3d c4 5b c2 3d
       -0.063599415 0.13910812 0.06158329 0.09490159
0001c0 22 1b a6 3d fb c3 b1 b9 34 ce f5 3c b8 02 f0 bc
       0.08110644 -0.00033906088 0.030005552 -0.029298171
0001d0 35 08 4a 3d 6f aa a7 3d 84 43 87 be 1c 7c e1 bc
       0.049324233 0.081868045 -0.26418698 -0.027525
0001e0 df 8b 86 3d 35 03 f3 bd 55 1b bd ba 35 0b 24 3e
       0.06569647 -0.11865846 -0.0014427701 0.160199
0001f0 60 db 15 3e 16 ad 12 bb 47 bc f0 bc 1e dd 89 be
       0.14634466 -0.0022381 -0.029386653 -0.26926512
000200 fb 97 ab 3d 98 72 27 3e 14 83 d2 3d 0d f9 e8 bd
       0.08378597 0.16352308 0.102789074 -0.11375628
000210 fa 16 ab bd 59 be 82 bc b8 68 0e be e5 f9 4f be
       -0.08353992 -0.015959905 -0.13907135 -0.20310171
000220 e6 62 22 bb d4 cb 03 3c c1 80 b9 bd dd 89 27 be
       -0.0024778186 0.008044202 -0.09057761 -0.16361184
000230 26 10 fe bb fb 0c 51 be dc 92 3d 3e 37 7e 7e 3b
       -0.00775339 -0.20415108 0.18513054 0.0038832554
000240 bc fa e6 3d f1 dc 82 be 63 b4 41 be 5f 42 16 3e
       0.112782925 -0.2555919 -0.18916468 0.14673756
000250 9f 95 14 bd 56 08 23 3e aa c3 59 be a5 6c 7d be
       -0.036275502 0.15921149 -0.21266046 -0.24748476
000260 40 a6 04 3e 6e cb 81 be 52 91 91 be 27 63 29 be
       0.12954044 -0.25350517 -0.28431183 -0.1654173
000270 c8 3b a7 be c0 9d 56 3d 5c 6a b5 3d 4c e3 59 3e
       -0.32662797 0.052396536 0.08858177 0.21278113
000280 44 bd e6 3e fc b6 1d 3e 75 16 1e 3c 4c 5e 66 be
       0.45066273 0.15401834 0.009648909 -0.22496909
000290 10 18 8e be f0 29 ca bd 68 8c b2 be f7 95 bd 3d
       -0.27752733 -0.0987128 -0.34872746 0.09257119
0002a0 39 f6 f3 bd 6b d7 6c 3e 36 b2 9a 3d 08 b7 f4 3d
       -0.119121976 0.2312905 0.07553522 0.11948973
0002b0 0c d4 67 3e 2f 4a 1a be 41 48 27 3d 40 67 db bb
       0.22639483 -0.15067361 0.04084039 -0.006695658
0002c0 ce ea f4 3c cc 62 a9 be ed c5 33 3e 1d 50 c0 bb
       0.02989712 -0.3308319 0.17555971 -0.0058689252
0002d0 ef 1b 99 be 0d ac 19 3e c9 bd 96 bd d4 8a f7 3d
       -0.29904124 0.15007038 -0.073604174 0.12087026
0002e0 32 fc 02 3e 4b 92 a3 3c c2 cd 53 3e f2 2c 41 bd
       0.12791517 0.019967219 0.20683959 -0.047162004
0002f0 a6 a7 93 be 5c ec 6e 3d b8 8f 0e be c1 93 f9 3d
       -0.28838843 0.05833088 -0.13922012 0.12186385
000300 58 2b 0e 3d 27 b2 87 3e f2 df f6 3d 39 fc 96 bd
       0.034709305 0.26503107 0.12054433 -0.073723264
000310 af 4d 13 be 5f 4f 4e be 61 8a 93 bd b7 f4 1e bb
       -0.14385103 -0.20147465 -0.07204128 -0.0024254748
000320 74 02 07 be aa bd 92 3c 61 ef 21 bd 3e 65 47 3e
       -0.1318453 0.017912704 -0.03953493 0.19472215
000330 b6 4c b2 be f9 a3 ac bc ef fb 1a be b1 d7 15 be
       -0.3482415 -0.021074282 -0.15135168 -0.14633061
000340 e8 41 b0 3e ed 6f 0f 3d 8a 7d 24 be 07 12 c1 bc
       0.34425282 0.03501885 -0.16063514 -0.023568166
000350 d6 6c 40 be d8 f7 f8 bc f0 2c 10 bd f7 e6 11 be
       -0.18791518 -0.030391619 -0.035199106 -0.14248262
000360 0b 61 d5 bd f0 c5 3f be df 7b 89 3c 72 0a 76 bd
       -0.104189 -0.18727851 0.0167827 -0.060068555
000370 90 76 83 be c7 7c be bd 7b 1e f8 3c 03 46 b1 3d
       -0.25676394 -0.09301143 0.030287972 0.08655932
000380 b4 c5 8f bd e8 aa ae 3d cb 90 dc 3d d8 25 39 3e
       -0.07020131 0.085286915 0.107698046 0.18080842
000390 da 4d 20 3e 02 c2 1d 3d 45 31 ec 3d f1 9b 53 3e
       0.15654698 0.0385151 0.11532835 0.20664956
0003a0 64 dc 6c 3e 43 16 4a 3d 45 a4 af bc 91 37 cb bd
       0.23130947 0.049337637 -0.021440635 -0.09922708
0003b0 fa 0f 44 bc d8 e7 62 3e fc 7e e8 bd 72 f1 b2 3d
       -0.0119667 0.22158754 -0.11352345 0.08737458
0003c0 61 2d d3 3e 46 0d 9a 3d 3c 9e 76 3e af b2 9c 3e
       0.4124556 0.07522063 0.24083799 0.30605075
0003d0 d8 80 ad 3e 7d d0 bb be fd bb 3c be e9 ba 2c bd
       0.33887362 -0.366825 -0.18431087 -0.04217044
0003e0 2f ab a3 3e ab 24 4c bc eb ae 2c 3e 9e 6b 46 be
       0.3196654 -0.012459914 0.16863601 -0.1937699
0003f0 fe 66 be 3e 7c 98 66 3e 34 ee c3 3e c8 23 3c 3d
       0.37187952 0.22519106 0.38267672 0.04593256

lstm.weight_hh_l0 f4 [80, 20]
000000 60 04 9a 3d 02 2b 3a 3e 1b f9 b3 bd 36 b3 fb bd
       0.07520366 0.18180469 -0.087877475 -0.12290041
000010 d8 ca 87 bc b6 1c d0 3c c7 9a 1d 3e e7 58 3e 3e
       -0.016576216 0.025404315 0.15391074 0.18588601
000020 bd fe 79 bc c4 b7 71 3d 4d 62 46 3c 0c 3a 0f be
       -0.015258488 0.059013143 0.012108398 -0.13986987
000030 f6 41 c4 3d f9 0a cb 3e 9f c1 6a 3d 59 a0 ad 3d
       0.095828936 0.3965681 0.057313558 0.084778495
000040 0b 96 06 bb 62 c3 bb 3e fb 63 84 bc 7f 4a 81 3b
       -0.002053621 0.36672503 -0.016160956 0.003945648
000050 f3 c4 4f 3e 4c 65 b8 3d f0 0f cb be ef 22 ca 3e
       0.20289974 0.09003696 -0.39660597 0.39479777
000060 58 61 a2 be f9 17 e2 bd b6 a9 a0 bc 4a df 21 3e
       -0.31714892 -0.11039729 -0.019612174 0.15807834
000070 e1 e8 be be 79 ab 69 bd b5 fd 60 bd 20 97 c4 3c
       -0.37287048 -0.057048295 -0.054929454 0.023997843
000080 75 3a b6 3e e0 40 3f 3e 48 32 3d 3e 3f 32 ac be
       0.35591474 0.18677092 0.18476212 -0.33632085
000090 3c d4 a1 be fe 2b 25 be 96 6f c8 be 92 48 9d 3d
       -0.31607234 -0.16130063 -0.39147633 0.07679857
0000a0 09 fe a1 3e 64 cf 36 be d5 9c 07 be 2a cd 34 3d
       0.31639126 -0.1785255 -0.1324342 0.044140972
0000b0 1c 84 b8 bd ef e4 47 3d e7 4e e3 3d 0b 98 48 3e
       -0.09009573 0.048802312 0.11099034 0.1958925
0000c0 be 9e 5c 3e 36 4d a0 bd 6f 4a 2a 3e 42 a9 bf bc
       0.2154493 -0.07827227 0.16629957 -0.023396138
0000d0 7a d9 1c 3e ab 5f 1b 3e 6e c6 04 be 33 99 85 be
       0.15317336 0.15173213 -0.1296632 -0.26093444
0000e0 39 79 bd 3a 25 b2 a9 bc 8d 2e 51 3c 7b 9c 28 3e
       0.0014455683 -0.020714829 0.012767446 0.16465943
0000f0 95 86 b2 3e 79 c6 e8 3a d7 61 f9 3d b8 97 1a be
       0.34868303 0.0017759345 0.121768646 -0.15096939
000100 a7 e1 58 be 27 3a 2e bd 3e 65 8a 3d 8c ac ca 3d
       -0.2117983 -0.042535927 0.06757592 0.09896192
000110 0c a5 57 be 84 98 12 3e 63 4a b1 3d 80 b2 a2 bd
       -0.21059054 0.14315993 0.08656766 -0.079442024
000120 40 aa 78 3d a3 bd 51 3e c3 b7 34 3e fd e5 66 3e
       0.060709238 0.20482497 0.17648225 0.22548671
000130 e2 6e a7 be 22 2a 65 3c 77 32 5c be fa 0a 98 bc
       -0.32701784 0.013987096 -0.21503626 -0.018559922
000140 4f 11 91 3d f8 97 70 3e fc dc 67 3d bd 27 63 3d
       0.070833795 0.23495471 0.05660723 0.05545782
000150 74 7f 22 be 87 8d d5 3d 61 1a 77 be 1b 1e 30 3e
       -0.15868932 0.10427385 -0.24131157 0.17198984
000160 26 e5 ef 3d 08 68 21 be 2f 41 da 3d 11 47 3b bb
       0.117136285 -0.15762341 0.10656964 -0.0028576294
000170 6a b0 75 3d bb 3d 1c 3e 49 42 24 3e d9 d4 48 be
       0.059982695 0.15257923 0.16040911 -0.19612445
000180 ae 12 30 bc bc 2c a9 bd 04 2d 9b 3d 5b 3b 4c be
       -0.010746641 -0.082604855 0.075769454 -0.19944517
000190 08 38 81 3d 27 7a 68 3d db 75 0a 3e 3b de 76 3e
       0.06309515 0.05675712 0.13521521 0.24108212
0001a0 dc e7 b5 3d 7d 87 b5 bc 5b 2d f4 bc f4 45 08 be
       0.08882114 -0.022159332 -0.029806783 -0.13307935
0001b0 ac 5d 69 bd 13 b3 08 3e 05 01 5c 3d 44 30 6f bd
       -0.056974098 0.13349561 0.05371191 -0.05839564
0001c0 f1 99 d6 bd 42 1e 25 3e 98 f0 c7 bd c5 e9 83 bd
       -0.10478581 0.16124824 -0.097626865 -0.064410724
0001d0 34 c1 9b be c2 d5 a4 3d 92 8b af bd 95 2d b8 3d
       -0.3042084 0.080485836 -0.08571543 0.08993069
0001e0 01 a7 98 3e 3d b9 e4 3d 01 5b d4 3b f3 5f 41 be
       0.29814914 0.11168144 0.006480575 -0.18884258
0001f0 14 10 38 be 53 46 03 be b9 b1 a6 3d a6 36 bc 3d
       -0.17974883 -0.12819795 0.08139367 0.09190111
000200 32 cb 40 3e 17 42 09 3e ce 8f 18 be 61 1c 7f 3c
       0.18827513 0.13404118 -0.14898607 0.015570731
000210 f7 bf 8a bd 1b 3d 86 3e 39 12 e5 bc 82 25 0b be
       -0.06774896 0.26218495 -0.02796279 -0.13588527
000220 dc 32 c3 3d d3 27 06 3e bd 0d 72 bd f3 11 01 be
       0.09531185 0.13101129 -0.059095133 -0.12604503
000230 bc 9e 3c be d2 81 f7 bd e5 69 38 3c c0 4d a1 bd
       -0.18419927 -0.12085308 0.011255716 -0.07876158
000240 2a 4c 07 3c 21 d5 08 be c6 bf 07 be b6 5f 80 3e
       0.008257905 -0.13362552 -0.1325675 0.25073022
000250 fd 48 26 3e 79 76 63 be 45 13 18 bd 63 78 80 be
       0.1623878 -0.22213162 -0.03712775 -0.25091848
000260 2c 00 f1 3d af 22 65 3e 52 44 20 3e 04 51 80 3e
       0.11767611 0.22376512 0.15651062 0.2506181
000270 06 37 4c be d4 41 49 3e 5b 7f be 3d 56 7b 13 be
       -0.19942865 0.19654018 0.09301635 -0.14402518
000280 73 b1 9c 3c 8c 11 28 3e fe 96 92 be 4d 44 0f 3e
       0.019127583 0.16412944 -0.28630823 0.13990898
000290 7c dd a6 be e4 0d bc bd 81 f6 8d bd e9 a5 43 3e
       -0.32590854 -0.09182337 -0.069317825 0.19106258
0002a0 b9 96 3a be bb 86 81 bd 30 0f 86 bd 35 15 85 3e
       -0.18221559 -0.06324526 -0.065458655 0.25992742
0002b0 61 b2 93 3e 6e 4a 8f 3e 1c ee fe bd 18 5a 2b 3e
       0.2884703 0.27986473 -0.124477595 0.16733587
0002c0 36 35 9e 3c 65 35 59 bd f2 9c 20 be 44 f6 a3 bb
       0.019312482 -0.053029437 -0.1568487 -0.0050037224
0002d0 a7 32 2f 3e 20 d2 74 3e 95 58 6e be 65 4c 35 3e
       0.17109166 0.23908281 -0.23275979 0.17704923
0002e0 92 83 b2 3d 5a 4a 02 3e 4e 2f 12 3e 4d c6 38 be
       0.08716501 0.12723675 0.14275858 -0.18044396
0002f0 6f c5 03 bd f1 f8 76 3e c3 61 3f 3e 8c 74 61 bd
       -0.03217071 0.24118401 0.18689637 -0.05504279
000300 3b 02 ac bd 60 b2 f0 bd 0d ea 62 3e b1 e9 d0 3d
       -0.08398863 -0.11752772 0.22159596 0.10200823
000310 af eb c4 bc 43 17 f0 bc 86 5b 74 be c9 dd fb bd
       -0.024038164 -0.029307967 -0.23863038 -0.122981615
000320 6b a8 0d 3d e4 20 b2 bc c0 1d a4 bd a0 dd dc 3d
       0.034584444 -0.0217442 -0.08013487 0.10784459
000330 d4 89 3b be 29 2d ee bd 90 56 26 be dd 97 44 3e
       -0.18314296 -0.11629707 -0.16243958 0.19198556
000340 25 7b c2 bd d8 0f 3c 3d 36 e8 22 be 41 ad c3 bc
       -0.09496144 0.045913547 -0.15908894 -0.023886325
000350 0e 08 b2 bd 7f a2 cc 3d dc ba cd 3c ce 84 6e 3d
       -0.086929426 0.09991931 0.025113516 0.05823212
000360 d9 06 77 3d 6d 81 e2 3d 00 42 0e be 2c 8d 1c 3b
       0.060309265 0.11059842 -0.13892365 0.0023887856
000370 e2 d5 eb 3d 3b 79 83 3a 8a cf 95 be 1d e5 59 3d
       0.11515404 0.0010030636 -0.29259902 0.053197015
000380 eb 30 93 be 12 9c a2 bc a0 5b 66 3b 7f c4 8d 3e
       -0.2874826 -0.01984981 0.0035149828 0.27688977
000390 47 a7 45 be 73 ab 26 3e fd a1 65 be 0c 9f b1 bd
       -0.19302092 0.1627634 -0.22425075 -0.08672914
0003a0 89 c2 a9 3b b1 96 a3 3b 5b e8 a5 3e 4a f1 85 be
       0.005180661 0.004992329 0.32403836 -0.2616065
0003b0 76 83 8c be 41 1c a4 3d 70 50 99 be ef cc 45 bc
       -0.27444047 0.080132015 -0.2994418 -0.012072786
0003c0 37 df 73 3d 58 34 5d be 5a 8c 7a 3d 77 3c de bc
       0.059539046 -0.21601999 0.061169006 -0.027128441
0003d0 fa d6 a1 bd af fb 01 3d 93 9a 5b 3e cc 51 c7 bd
       -0.07902332 0.031734165 0.21445684 -0.097323984
0003e0 37 df 0a be 5b d0 4d be db 12 93 3d a6 3a 5b be
       -0.13561712 -0.20099013 0.07181331 -0.21409091
0003f0 8f be d5 3d 6d 01 1f 3e b2 eb 57 3e 21 ad 05 3e
       0.10436737 0.15527888 0.21086004 0.13054325

lstm.bias_ih_l0 f4 [80]
000000 1a b9 7f 3e 0f e0 b5 3e 76 b4 61 3d df 56 0f 3e
       0.24972954 0.35522506 0.05510374 0.13997982
000010 95 07 01 3e df ec 7d 3d 64 db 36 be 5b 17 d1 bd
       0.12600549 0.061993476 -0.17857128 -0.10209533
000020 56 2c e1 3d 75 d8 8d bd e2 15 c7 3c e0 e4 a9 3e
       0.109947845 -0.069260515 0.024302427 0.3318243
000030 99 6b 8d bd 08 b1 30 be cc 6e 83 3e e4 83 80 3e
       -0.06905288 -0.17255032 0.2567047 0.25100625
000040 99 31 02 3d a5 64 40 3e da 9a 27 bd 10 e2 42 bd
       0.03178558 0.18788393 -0.040919162 -0.04757887
000050 2a 89 29 be b3 b4 ff bd 9b 92 56 3e fb ed a2 3c
       -0.1655623 -0.124856375 0.20954363 0.019888869
000060 fe 67 13 3e 56 4d 49 bd ac 13 95 bc 04 7b 68 3e
       0.14395139 -0.04914602 -0.018197857 0.22703177
000070 a5 67 15 3e 26 81 48 3d 35 2d a4 bd de e8 98 3d
       0.14590319 0.04895129 -0.08016435 0.07466291
000080 84 99 d6 bd 37 0d 76 3e 05 77 aa bd 5e 28 7d 3d
       -0.104784995 0.24028479 -0.083234824 0.061806075
000090 99 67 94 bd be 42 8e 3e f8 e4 12 be ec d4 5c 3e
       -0.07246322 0.27785295 -0.14345157 0.21565598
0000a0 e9 63 a1 bc e6 ce e4 3d 1c e8 ab bc f5 65 21 3d
       -0.019700961 0.11172275 -0.020984702 0.039403874
0000b0 99 70 e8 3d f7 e9 bf bd 71 9d 24 3d da 00 49 3e
       0.11349601 -0.09370797 0.04018921 0.19629231
0000c0 1a 15 3c be 87 02 2d 3e 7f 21 a6 3d 83 89 99 bd
       -0.18367425 0.16895495 0.081118576 -0.074969314
0000d0 2a 7a cc 3c 55 22 28 3e 59 a2 7e 3e 95 f4 26 3e
       0.024960596 0.16419347 0.24866618 0.16304238
0000e0 87 4a fb bd 51 3f 9b 3d 83 81 80 3d eb 66 3b be
       -0.12270074 0.07580436 0.062747024 -0.18300979
0000f0 3f 4a b6 3e a5 8b 8e 3d 55 f2 e6 3d 77 19 3e 3e
       0.3560352 0.06960229 0.1127669 0.18564402
000100 bb fb 09 be 4f 65 9c bc c1 4b 46 bd 75 57 ab bd
       -0.13474934 -0.019091276 -0.04841209 -0.083662905
000110 50 91 3f 3d 05 6e a9 bd 61 3a d1 3d 2b 01 00 3e
       0.04676944 -0.08272938 0.10216213 0.12500446
000120 de 90 b2 3c ad c1 d6 3d e0 49 2f bd ff 4b a9 3d
       0.021797594 0.104861595 -0.042795062 0.08266448
000130 32 61 e0 3c 72 a4 7e 3e 70 02 85 3e f7 b7 a8 3a
       0.027390096 0.24867418 0.25978422 0.0012872209

lstm.bias_hh_l0 f4 [80]
000000 dd 03 9f 3e d5 d3 b7 bb f5 d0 97 bd a1 04 96 3e
       0.31057635 -0.005609969 -0.07412902 0.29300407
000010 92 a7 6b 3d d1 62 5b 3e b6 bd be 3d aa a5 33 3e
       0.057532854 0.21424414 0.09313528 0.17543665
000020 3b ad 31 3e 81 28 26 3e 30 d4 2a be 52 3d 51 3e
       0.17351238 0.16226389 -0.16682506 0.20433548
000030 f9 55 64 bc 26 6b f4 bd 9a 4a 4b 3e 1d 21 22 3e
       -0.013936513 -0.119344994 0.19852677 0.15832944
000040 78 47 84 3b b2 c8 9d 3e a7 a1 bd 3d 5c 4a 3b bd
       0.00403684 0.3081718 0.09259348 -0.04572521
000050 2f 25 e5 bb 3e f8 c7 3d 67 8b 2d 3d 64 ff 88 3e
       -0.006992958 0.09764145 0.042369273 0.26757348
000060 c2 5c a0 3e b6 56 a7 3d d5 0b f1 bd c0 08 c5 bd
       0.3132077 0.08170836 -0.11769835 -0.096208096
000070 e9 45 a7 bd 3f 3e 6a 3e dc ec 76 bd 67 8a 05 be
       -0.08167631 0.22875308 -0.06028448 -0.13041078
000080 54 a5 0f 3e 44 1b d9 3d b4 ca 62 3e 8e 5c 5f 3e
       0.14027911 0.10600904 0.22147638 0.2181265
000090 37 9c 16 bd fc 75 61 bd bc b4 c4 3d e8 ba 75 3e
       -0.03677007 -0.05504416 0.09604785 0.2399708
0000a0 29 e9 97 3d 25 4d bc bc 7d 35 28 be 63 f0 00 3e
       0.07417519 -0.022986004 -0.16426654 0.125917
0000b0 7f eb 22 be 25 6a 84 3d 34 ed 2d 3e b3 e6 94 3d
       -0.15910147 0.06465558 0.16985017 0.07270565
0000c0 0e cc 3b be 0b 65 98 3d 68 0e 11 be ab 0a 46 3e
       -0.1833956 0.074411474 -0.14165652 0.19340007
0000d0 82 7c 3f 3e 0d 2a 36 3e ca 54 b9 bd 5a a2 03 be
       0.1869984 0.17789479 -0.09049375 -0.12854901
0000e0 5e 27 60 be 95 81 bf bd 9b 87 f8 bd 2f 5d 18 3d
       -0.21890017 -0.09350888 -0.1213524 0.03719824
0000f0 36 a5 bb 3e 38 e5 f6 3d 5d cd 86 3d b5 65 81 bd
       0.36649483 0.12055439 0.06582139 -0.06318227
000100 77 ac 9a bd ab 06 25 3d ba 37 ef bd d6 8c 21 3e
       -0.07552426 0.040289562 -0.11680551 0.15776381
000110 84 81 06 be 92 fb 1b be 1c 7b 3b 3e 1c 8e 1a 3e
       -0.13135344 -0.15232685 0.18308681 0.15093273
000120 d7 7c be 3d 98 1f 21 be 60 bc ee 3d 87 fc 76 3e
       0.09301155 -0.15734708 0.116570234 0.24119769
000130 5a 7f 9c 3d 68 a5 10 be 51 7f e1 bd 9c 26 d6 3c
       0.07641478 -0.14125597 -0.11010612 0.026141457

lstm.weight_ih_l1 f4 [80, 20]
000000 75 20 f4 3e 68 c3 66 be 83 13 e7 3d 93 f6 03 bd
       0.47681013 -0.22535479 0.112830184 -0.032217573
000010 ee 15 1b be 54 f2 3d 3e 2a 59 cc ba 52 d9 5f bd
       -0.15145084 0.18549472 -0.0015590538 -0.054650612
000020 dd 99 00 bd 08 63 55 be 72 7c 3e bc ee 47 a6 be
       -0.031396735 -0.20838559 -0.01162635 -0.32476753
000030 91 aa 1f 3c ca 4d 19 3e 2c 75 33 bd 7d 7d 6b 3d
       0.009745256 0.1497108 -0.043812916 0.05749272
000040 83 1e 9a be 70 ce 4a 3d b8 bb 26 bd 81 5c 18 3e
       -0.30101404 0.04951328 -0.040706366 0.14879037
000050 94 56 8a 3c 97 82 10 3d 7c bd d9 3d d2 9a ba bc
       0.016886987 0.03528079 0.106318444 -0.022778902
000060 66 d4 94 be 4b 1d 4b be f0 7b 3a 3d dc 5e 86 be
       -0.29068297 -0.19835393 0.045528352 -0.26244247
000070 f6 a1 0a be 61 02 8d ba bc 63 37 3d cd f4 88 3d
       -0.13538346 -0.0010758155 0.04477285 0.06687317
000080 c1 c8 63 be 94 ad 70 bc 65 b2 1e be 82 6b 81 bc
       -0.2224455 -0.014689822 -0.1549774 -0.015798334
000090 9f e8 b2 3c 31 b8 fb bd d1 d2 05 be 5c 4f c4 bd
       0.021839438 -0.12290991 -0.13068701 -0.09585449
0000a0 82 58 2b 3e bc 40 a7 be 82 1c 72 be 98 9b 6c 3d
       0.16732982 -0.32666576 -0.23643687 0.057765573
0000b0 90 20 85 3e 9f 51 69 be 8d 3c 57 3e af 11 04 3d
       0.26001406 -0.22785042 0.21019192 0.032243427
0000c0 d8 a2 18 3e d4 9d 5d 3d 1d 1c d2 bd 71 a4 b1 be
       0.1490587 0.054105595 -0.102592684 -0.3469577
0000d0 02 7a c3 3d 9d 98 0d be 88 6a 87 bc 58 f1 8b be
       0.095447555 -0.13827749 -0.01653029 -0.27332568
0000e0 ce 54 dd bd 18 f6 cc bd 44 63 8c 3e d5 bd 72 be
       -0.10807191 -0.10007876 0.27419484 -0.23705228
0000f0 a9 00 d6 3e f7 02 bb bd e7 89 b1 3c 78 7e 17 3e
       0.4179738 -0.09131425 0.021672202 0.14794338
000100 3f e2 a9 3c 41 6c 07 3e 66 ac cb 3d f9 9a 13 bc
       0.020737765 0.1322489 0.09944992 -0.009009116
000110 36 fb d1 bd 4e 53 0c 3e a4 f8 8c be ab ae d4 be
       -0.10252993 0.13703653 -0.27533448 -0.4153951
000120 67 83 29 3d ec 03 c1 3d aa 0f d7 bd 58 16 b5 3c
       0.04138508 0.09424576 -0.105010346 0.02210538
000130 5a f9 8e be 50 ec 16 be 0f c3 30 be b9 c5 49 be
       -0.27924615 -0.14738584 -0.17261909 -0.19704331
000140 c6 90 4e 3e 72 97 62 be 94 7d c5 bd 5f e6 8a 3e
       0.20172414 -0.22128084 -0.09643093 0.27128884
000150 28 3c 04 3e 4a f3 62 bd 0c 34 12 3e a1 30 fe bd
       0.12913573 -0.0554078 0.14277667 -0.12411619
000160 6b 6c 92 bd f0 c9 ef bc 17 c0 ec 3d 0d 64 70 be
       -0.07149585 -0.029271096 0.11560076 -0.23475666
000170 4d c2 ab 3d ff 5f 0d be c8 9d f2 bd 65 be 72 3c
       0.08386669 -0.13806151 -0.11846501 0.014815901
000180 2c 97 bd 3c f9 98 92 3c d1 32 16 bc 2c 60 e0 3d
       0.023143373 0.017895209 -0.009167389 0.10955843
000190 5a 17 76 bb c6 74 3d be 59 87 e0 3d 97 51 91 3e
       -0.003755054 -0.18501577 0.109633155 0.2838256
0001a0 74 67 8e 3d 26 0f 67 3d 5e 2a 3a 3e a0 6d 3f 3e
       0.06953326 0.05641093 0.18180224 0.18694162
0001b0 1e 73 91 bc b8 6e 63 3e c2 20 e8 3d 33 29 54 bd
       -0.017755087 0.22210205 0.11334373 -0.051797103
0001c0 40 72 5f 3e e9 37 8f 3d e2 59 4c 3e 72 46 ff bd
       0.21820927 0.06993086 0.19956163 -0.12464608
0001d0 40 aa 43 be ac 33 e5 3d 92 f1 4c 3c fe 47 df bd
       -0.19107914 0.11191496 0.012508767 -0.10902403
0001e0 99 a9 88 3e 01 b0 26 3d f3 2d 13 3e 9e 2a 88 3d
       0.26691893 0.040695194 0.14372997 0.066487536
0001f0 b0 b6 08 3e c5 7d 05 be 12 eb 0d 3e 34 b9 fc bb
       0.1335094 -0.13036259 0.13859203 -0.0077125076
000200 e7 d9 4b be 88 fa 51 bd fb d6 0d be e6 cf 86 be
       -0.19907342 -0.051264316 -0.1385154 -0.2633049
000210 1f 89 96 3e 7f 05 6a bc ac 02 46 be ed 12 d1 bc
       0.2940149 -0.014283537 -0.19336957 -0.02552172
000220 ba d6 a1 be 5f 61 5c 3e 2d ef 39 3e 57 fc 10 be
       -0.31609136 0.21521519 0.18157645 -0.1415876
000230 e9 44 bc 3e 71 7f 6f bd 4c 8d 24 be bf 83 2b 3e
       0.36771324 -0.058471147 -0.16069525 0.16749476
000240 e7 8a 19 3e 79 a9 d2 be 3a 51 b9 3e d4 b7 f2 3d
       0.14994393 -0.41144922 0.36194783 0.11851469
000250 c2 d7 84 bd 3b 65 d4 bd cb ce c0 3c 3a 70 7d be
       -0.06486465 -0.10370871 0.023536107 -0.24749842
000260 18 98 04 3e 66 3c e6 bd a8 af 48 be be c8 ac bd
       0.12948644 -0.11241989 -0.19598258 -0.08436726
000270 a1 60 ed 3b e2 d1 c1 bd 81 65 ce 3d 9c 99 86 be
       0.007244185 -0.0946386 0.10077954 -0.2628907
000280 4b 6b cc 3d d2 a8 de 3d c2 b5 0e 3e ac f3 30 3d
       0.09981402 0.10872044 0.13936523 0.043201134
000290 be b1 29 3e 2b 5c 19 3e 69 97 5d 3e 53 e2 3a bc
       0.1657171 0.14976566 0.2163979 -0.011406499
0002a0 12 f7 3c 3e 25 7d 2c 3e 5f 8d 16 be 38 f4 d5 3c
       0.18453625 0.16844614 -0.14702366 0.02611743
0002b0 38 73 14 3e 53 4b 5d 3e 2f 68 09 bd 3c 3e 2a be
       0.14497077 0.21610765 -0.033546623 -0.16625303
0002c0 cb d7 88 be 3b b2 c2 bd ff 59 19 bd 11 a3 55 be
       -0.26727137 -0.09506651 -0.037439343 -0.20862986
0002d0 1e 26 aa 3e c6 97 13 3e e0 2a 8a be 5f f8 e9 3e
       0.33232206 0.14413366 -0.26985836 0.45697305
0002e0 ea 0a 11 bd 5f fb b7 be c4 c9 aa 3e bb b1 2a 3e
       -0.0354108 -0.35933968 0.3335706 0.16669361
0002f0 a0 f0 45 be c4 f5 9e 3e 73 85 92 3d b6 24 06 bc
       -0.19330072 0.3104688 0.0715436 -0.0081874635
000300 c7 6d dc 3e be 58 d3 3c 88 06 27 3c cc b3 33 be
       0.43052503 0.025799152 0.010194428 -0.17549056
000310 23 62 8a bd 3e f2 93 bd cf b9 1e be 00 df 1a be
       -0.06756999 -0.072239384 -0.15500568 -0.1512413
000320 1b ad d6 3d 12 e5 87 be e2 45 0b 3e 86 86 bd bd
       0.10482236 -0.26541954 0.13600877 -0.09254174
000330 cc 90 b9 bd 6d 79 80 ba 97 c7 71 3e 57 1d 9f 3d
       -0.09060821 -0.0009801813 0.23611294 0.07769268
000340 43 64 38 3e 31 61 e7 bd d1 f1 38 be 0c c5 b4 be
       0.18006997 -0.11297835 -0.18060996 -0.35306585
000350 f2 7a 06 3e 85 a1 eb 3d 8c 77 82 be e9 86 0c be
       0.13132837 0.11505417 -0.25481832 -0.13723339
000360 c1 02 93 be 61 9a 0e 3e 92 08 09 bd 07 54 ce 3c
       -0.2871304 0.13926078 -0.03345544 0.025186552
000370 e6 0b ba ba 3b e5 af be d7 86 3d be ad 64 95 3e
       -0.001419422 -0.34354576 -0.18508469 0.29178372
000380 00 b0 7b bc ee 2a 96 be e1 88 80 bc 05 94 03 be
       -0.015361786 -0.29329628 -0.015690269 -0.12849434
000390 bd 9e 59 3d aa dc 07 3e ac ba 75 3d ed 14 44 bd
       0.0531299 0.1326777 0.059992477 -0.04787152
0003a0 b8 b4 bd bd de db 35 bd df f3 83 bd 0c dc 45 be
       -0.09262985 -0.044399135 -0.06442999 -0.19322222
0003b0 cf 74 b9 bc 46 b1 67 be 9f af e7 3d 1c 9c 6c 3d
       -0.022638706 -0.22626218 0.11312794 0.057766065
0003c0 29 61 15 3e 9b da ff be a0 f6 dc bd 49 13 84 3e
       0.14587845 -0.4997147 -0.107892275 0.25795963
0003d0 22 b7 a2 3e 6d 64 93 bd 3f a5 92 3d d4 0e 34 be
       0.31780344 -0.07196889 0.071604244 -0.17583781
0003e0 7a 88 5a 3d a1 a0 4b 3e 5c 42 b7 3c 87 5f 56 be
       0.05335281 0.19885494 0.02237051 -0.20934878
0003f0 d2 01 6c 3e 60 38 00 3e 74 96 dc 3d fa 9c 1c 3c
       0.2304757 0.12521505 0.10770884 0.0095589105

lstm.weight_hh_l1 f4 [80, 20]
000000 f9 f6 17 be 24 bf 7e bd 5b 0c d7 bd e1 67 88 be
       -0.14840306 -0.062194005 -0.105004035 -0.26641753
000010 cd c4 8f bd 86 c5 56 3e 55 44 20 3e 9f 39 a6 3e
       -0.07019959 0.20973787 0.15651067 0.32465836
000020 4e 28 03 3e ba 5c 00 3e 4c 9c 28 3e 56 d7 a6 3c
       0.12808344 0.12535372 0.16465873 0.020366352
000030 7f 1b ee bc f3 bc 54 be ba 55 a6 bd 52 a1 e3 3d
       -0.029065846 -0.20775203 -0.0812182 0.11114754
000040 1e 30 23 3d 2a 18 81 be bd 2e 90 be 4c 99 3e bd
       0.03984081 -0.25213748 -0.28160658 -0.046532914
000050 04 e4 19 3e 65 b8 e1 3d 86 1e 09 3e bb 76 44 be
       0.15028387 0.110214986 0.1339055 -0.19185917
000060 36 9c 17 bd a4 9d 93 3c 1c 4f 9c be 7a d8 89 bd
       -0.03701421 0.018019505 -0.30529106 -0.06730743
000070 f6 9c f8 3d b7 2a 86 bd 16 29 e9 3d 6f bb 74 3d
       0.12139313 -0.06551116 0.1138479 0.059749063
000080 38 fe a4 bd 1d 8a e7 3d a1 be 41 be 0d 79 20 bc
       -0.08056301 0.1130564 -0.18920375 -0.009794486
000090 c4 a7 70 3d cb 4e 31 3c 1e fd 86 3e c7 15 83 bd
       0.058753744 0.010822008 0.26364988 -0.06400638
0000a0 0a da 39 bc 44 6c 02 be 18 18 d1 bd 98 7b 0e be
       -0.0113434885 -0.12736613 -0.10209674 -0.13914335
0000b0 d0 bc 00 3e c7 df e6 3c 41 18 4f 3e 57 cd 02 be
       0.12572026 0.028182877 0.20224096 -0.12773643
0000c0 0d 03 ea bd 1d c3 2c 3e 4d e5 2d 3e 40 3e ff 3d
       -0.11426363 0.16871305 0.16982003 0.12463045
0000d0 39 d9 97 be 1d fb b6 3d 9d 50 06 3e 87 26 8a 3d
       -0.29657915 0.08934615 0.13116689 0.0674563
0000e0 11 2c f3 bd 1d f5 4c be 34 5a 90 be 54 bd 20 3d
       -0.118736394 -0.20015378 -0.2819382 0.039243057
0000f0 aa 2d 2a 3e 6c f5 db 3e af 43 c7 3e 1e 9d 84 be
       0.16618982 0.4296068 0.38918826 -0.2590112
000100 79 cb b5 3d 4a 85 ad 3e 7b 48 00 3e f1 bc 3f 3e
       0.088767 0.33890754 0.12527649 0.18724419
000110 ad ac 65 3e 0d 7c 8b bc 2e f4 d8 3d 99 a8 bc be
       0.22429152 -0.017026925 0.105934486 -0.3684738
000120 68 9e 7a bd d0 61 b2 be 2f 87 07 be 77 ce bd be
       -0.061186224 -0.3484025 -0.13235162 -0.37071583
000130 72 67 6b be 19 70 eb be e0 12 98 be 10 00 f7 ba
       -0.2298868 -0.4598396 -0.297019 -0.0018844623
000140 2a 58 57 bd 90 1e a1 ba 76 00 18 bd 7e c8 18 be
       -0.052574314 -0.0012292434 -0.037109815 -0.14920232
000150 30 b3 42 bd 40 1b 7c 3b a5 15 e9 3b 06 76 e8 bc
       -0.047534168 0.003846839 0.007113176 -0.02837659
000160 95 92 28 be de 57 67 3e 7f c0 44 3e 66 2b 84 3d
       -0.16462167 0.22592112 0.19214056 0.0645359
000170 3e 5c 0c be b7 52 67 be c2 e1 88 3d d9 f4 0c bd
       -0.13707063 -0.22590147 0.06683685 -0.034413192
000180 60 08 dc bd 7a 58 e2 3c ae 91 27 be 37 25 9b be
       -0.10743785 0.02763008 -0.16364166 -0.3030183
000190 65 02 b4 bd cf ad 65 3e d9 84 04 be 61 59 29 3e
       -0.08789519 0.22429584 -0.12941302 0.16538002
0001a0 c7 97 a3 3d 5c 6b 9c 3c 9b b4 51 3d 4d 9d 96 3e
       0.079879336 0.019094162 0.05119763 0.29416886
0001b0 7f 9e 55 bd 7e e7 b0 3d 01 dd e2 bd 82 17 19 be
       -0.052153107 0.08637904 -0.110773094 -0.14950374
0001c0 18 13 7c be da ef 73 3d 46 d0 75 3d 2b ba e3 3d
       -0.24616659 0.059554912 0.06001308 0.11119493
0001d0 8c d8 77 be f5 b3 d4 bd dc eb 8d 3d ef 10 24 3e
       -0.242037 -0.103858866 0.06929752 0.16022085
0001e0 ae 12 db 3d 2d 37 99 3d 0b 58 00 be 2d eb 0f be
       0.10696922 0.07481227 -0.12533586 -0.14054556
0001f0 5e 6e 8b bd 78 09 08 be d9 93 df bd 8d d2 f5 bb
       -0.0680816 -0.13284862 -0.109168716 -0.0075019062
000200 8f 56 a4 3c 8d 43 50 bd f9 bc 96 3d d3 85 88 bc
       0.020060806 -0.05084567 0.073602624 -0.016665375
000210 92 02 c7 3d b7 c8 4c be dc 92 a5 bc d4 14 dc b9
       0.09717287 -0.19998442 -0.02021163 -0.00041977188
000220 bc 5b 6b be 23 fb 88 bd ef 62 df bd 7b f0 42 bd
       -0.22984213 -0.066885255 -0.10907542 -0.04759262
000230 ed 96 aa bc c1 66 64 3e 73 38 1a bd 0e c0 9e 3c
       -0.02082392 0.22304823 -0.03765149 0.019378688
000240 4e bb f4 3d fc 70 81 3e 5b af 37 3e cd fd 77 3e
       0.11949788 0.25281513 0.17937987 0.24217911
000250 2b 4a 0c bd a5 b1 38 3e 40 55 39 bd c2 d6 04 be
       -0.03425042 0.18036516 -0.045247316 -0.12972549
000260 4c 6a d3 bc 7a 02 4f 3e d8 08 80 be e8 71 33 be
       -0.025807522 0.20215788 -0.25006747 -0.1752392
000270 6e 9d 57 bc 59 71 c1 bd 03 b9 ae be 50 0c 6f be
       -0.013160093 -0.094454475 -0.34125528 -0.2334454
000280 e1 b5 99 bc f3 c7 55 3d 5f 50 98 3c 1e e7 33 be
       -0.018763484 0.05219264 0.018593011 -0.17568633
000290 5f e4 4c 3d a5 89 ef 3d 7b a1 f1 bb bb 6b bf 3a
       0.05002248 0.116961755 -0.0073739863 0.001460425
0002a0 e4 fc 2e 3d 74 58 09 bd 1c e1 58 3e b9 ec 05 be
       0.042721644 -0.03353162 0.21179622 -0.13078584
0002b0 45 4c 24 be 62 27 a1 bd a1 a8 53 bd 55 de aa 3d
       -0.1604472 -0.0786884 -0.05167449 0.08343188
0002c0 3f 90 ee bd f3 89 b9 bd 1c f7 2c be cd 3d 2c be
       -0.116486065 -0.09059515 -0.1689114 -0.1682045
0002d0 4b eb af bd 8e fb 5f 3e b0 74 f7 3e 6a 42 05 be
       -0.085898004 0.21873304 0.48331213 -0.13013616
0002e0 38 b1 24 3e e4 97 d4 3e 99 29 de 3c 53 d8 29 3e
       0.16083229 0.41522133 0.027119445 0.16586427
0002f0 c3 41 05 3e 59 f2 fc 3d 4b 6c 99 3e 82 06 8a be
       0.13013367 0.12350912 0.29965433 -0.2695809
000300 c0 d4 94 bb 5e f1 74 3e 50 e2 46 be 0c 0a a0 be
       -0.0045419633 0.239202 -0.19422269 -0.31257665
000310 ec a9 f6 be 4f 59 fd bc 82 4b 1d bd 4c a4 ec be
       -0.48176515 -0.030926375 -0.038402088 -0.462191
000320 36 15 9c bd 59 6c 0c be c6 25 21 bc 00 bf 20 3e
       -0.07621233 -0.13713206 -0.009835666 0.1569786
000330 41 1b 26 3e 3b c0 48 3e 29 23 79 3e 39 22 51 3e
       0.16221334 0.1960458 0.24329819 0.20423211
000340 7b 76 33 3d 83 7b 22 3d 3a 0f 19 3e cb 11 5b be
       0.043814164 0.03966857 0.14947215 -0.21393506
000350 84 f9 2a 3d 76 cd b5 be b0 d0 13 3e f6 d3 4f 3e
       0.041741863 -0.35508317 0.14435077 0.202957
000360 0f c2 40 3d 8c fa 43 be 00 86 9a 3c a1 e3 71 bd
       0.04706007 -0.19138545 0.018862724 -0.059054974
000370 a9 fa 0f be 76 38 f2 bd ab 63 4b bd 9b cf cb bd
       -0.14060463 -0.11827175 -0.049655598 -0.09951707
000380 04 8f 7d bd 77 2d 04 3e d6 05 0e 3e 02 ad 5d 3e
       -0.06190397 0.12907968 0.13869414 0.21648028
000390 d4 69 13 be 16 f4 cc 3b 18 e7 1d 3d e0 9d 9e 3d
       -0.14395839 0.0062546832 0.038550466 0.07744956
0003a0 4d 0d 3d be 13 b8 10 bd 90 5b 0e bd e1 83 6a be
       -0.18462105 -0.035331797 -0.03475529 -0.2290187
0003b0 99 81 88 be c6 91 ec bd fe ed e7 3d 37 24 8e bd
       -0.26661375 -0.115512416 0.1132469 -0.06940501
0003c0 85 31 4c 3e 11 35 e4 3d f7 5f e1 bc fb 6f eb bd
       0.19940765 0.11142934 -0.02751158 -0.11495968
0003d0 10 25 8d 3e 83 44 6f 3e 54 da 96 bd 9d 7b 7a 3e
       0.2756734 0.23365979 -0.073658615 0.24461217
0003e0 3f d7 1a 3e e4 18 95 3d eb 01 2e 3d 63 03 62 be
       0.15121172 0.07280138 0.042482298 -0.22071604
0003f0 26 0d 46 3d 0d 42 fb bd eb 83 8b 3b 4b f1 14 be
       0.048352383 -0.122684576 0.004257669 -0.14545171

lstm.bias_ih_l1 f4 [80]
000000 c5 e4 11 bd 58 13 31 3b 84 84 aa 3c 9d 38 5f bd
       -0.035618562 0.0027019586 0.020815141 -0.05449735
000010 ad a1 f7 3d cc 69 43 3e 8e 0f 03 3e c6 24 4b 3e
       0.12091384 0.19083327 0.12798902 0.19838247
000020 d4 aa 76 3e b8 9a b0 3c 3b c7 f9 3d c7 d4 ac bd
       0.24088603 0.02155815 0.12196203 -0.084390216
000030 87 ea 0b 3e 7d 0a 6a 3d a0 a5 00 3d 6c c8 6e 3e
       0.13663684 0.05713891 0.031407952 0.23318642
000040 09 5c 5a 3e e9 2e 23 be a8 51 5d 3c 61 74 72 3e
       0.21324171 -0.15935864 0.013508238 0.23677208
000050 ea b5 b5 bd 8b cc 8b 3c 0e e8 2f 3d ba 10 04 be
       -0.08872588 0.017065307 0.042945914 -0.12897006
000060 67 c2 41 3e 96 67 be 3d 17 14 9d 3d 97 9b 7b bd
       0.18921815 0.09297101 0.076698475 -0.06142768
000070 ca 4d 8a 3e 6c e1 32 3e 3c 9f 11 be 16 45 7e 3e
       0.27012473 0.17468804 -0.142209 0.24831042
000080 42 12 32 be 2d 07 3b be e5 ef f9 bd f3 f2 95 bd
       -0.17389777 -0.18264456 -0.122039594 -0.073217295
000090 63 eb 3c be aa cf 1c 3d 23 ea ea 3d fc f7 70 3e
       -0.18449168 0.03828398 0.11470439 0.23532099
0000a0 e3 bd 27 3e ee 59 b9 bc a4 25 f3 3d 4b f1 19 be
       0.1638103 -0.02262589 0.11872414 -0.15033452
0000b0 3f 35 4a 3d 38 6f 06 3e 6a ae f0 3d 6a 4e 2a 3e
       0.049367186 0.13128364 0.11752017 0.16631475
0000c0 85 db c6 bd 9e 56 23 3e 0e 12 1e 3e 12 1e c4 bd
       -0.09709839 0.1595101 0.15436575 -0.09576048
0000d0 cf 33 5e be fd e8 99 3d e4 d2 e6 bd 25 40 f9 bc
       -0.21699451 0.07515142 -0.11270693 -0.030426094
0000e0 a8 55 31 be 5c 16 9f bd ce 77 8a bd cb fb 12 3e
       -0.17317832 -0.077679366 -0.06761132 0.14353864
0000f0 35 98 80 bd c7 0f 08 3e 08 ee 0a bd 64 3b 43 3e
       -0.06279031 0.13287269 -0.03391841 0.19065624
000100 63 5c 47 3d 3d c0 22 3e 96 52 f2 3d f2 98 95 bd
       0.04867209 0.15893646 0.11832158 -0.07304563
000110 32 de 5c 3e 52 06 b9 3e 1f 51 46 be 9f b1 8e bd
       0.21569136 0.36137635 -0.19366883 -0.06967472
000120 fc aa b6 3e dc 62 30 3e 9c 98 b4 bd 35 ce e5 bd
       0.35677326 0.17225212 -0.088181704 -0.112209715
000130 33 ab c7 3d ca 1a 2b 3c 91 33 52 bd 34 e6 39 3e
       0.097494505 0.010443399 -0.05131871 0.18154222

lstm.bias_hh_l1 f4 [80]
000000 ef df 42 3e 4d 38 35 3e ca 46 b1 3d 97 c8 df 3d
       0.19030736 0.17697258 0.0865608 0.10926931
000010 86 00 84 3e 20 55 aa bd 5a 85 4b bd fd b4 56 bd
       0.2578165 -0.083170176 -0.04968772 -0.052418698
000020 13 95 87 3e 16 c2 e5 3e 88 6a 4e 3e 1d 60 09 3e
       0.26480922 0.44874638 0.20157826 0.1341557
000030 09 09 f7 3c 16 01 dd 3c ad 3c 61 bd 20 cd 5d 3e
       0.030155675 0.026978057 -0.054989506 0.2166028
000040 73 ce e7 3d 7f e3 46 3e fa 60 fc 3d 3b 8a 64 3e
       0.11318674 0.1942272 0.12323184 0.22318356
000050 c9 c6 db 39 d1 29 48 3e 55 47 c4 bc e8 30 6d 3e
       0.00041919042 0.19547202 -0.023959795 0.23163188
000060 a5 4e e1 3c 9e 14 44 3e a9 1d 2f 3e 61 f6 5b 3e
       0.027503321 0.1914849 0.17101158 0.21480705
000070 88 0d 1a bd ee 3f 15 be 92 31 15 bd 9a 63 66 3e
       -0.03761056 -0.14575168 -0.036424227 0.22498932
000080 5a 74 37 3a fc c0 5f 3e 43 0b 1e 3e c3 4f 1a be
       0.0006998234 0.21850961 0.15433984 -0.15069489
000090 67 77 75 3e 7b cc 30 3e f7 ce 18 bd 38 bd cf bd
       0.2397133 0.17265503 -0.037306752 -0.101435125
0000a0 67 55 ae 3b a4 f9 41 3e 6b c9 8d 3c c1 32 62 be
       0.0053202393 0.18942887 0.017307958 -0.22089674
0000b0 fd ff 97 3d 51 c1 44 bd da 3b d6 bd b7 40 1f bd
       0.07421873 -0.048035923 -0.104606345 -0.038880076
0000c0 11 db 3a 3e da d2 19 3d a8 79 1c 3e ee 62 b4 bc
       0.1824763 0.0375546 0.15280783 -0.02201983
0000d0 fe 58 84 be a7 59 55 3d f8 b3 48 be 2f 33 4c be
       -0.25849146 0.052087452 -0.19599903 -0.199414
0000e0 5d 53 9a bd fc ef 29 be 26 1f 59 be c3 a1 68 be
       -0.075354315 -0.16595453 -0.21203288 -0.22717957
0000f0 9a a1 a7 3d ac 7d 84 3d 77 ba aa 3d bc df 0e 3e
       0.0818512 0.064692825 0.083363466 0.13952535
000100 17 1e 8f 3e fa 36 66 bb 11 6a 88 bd ca ef 7f bd
       0.27952644 -0.0035127983 -0.066608556 -0.06248454
000110 68 79 2a 3e 49 79 fd 3d 1d cc 15 bd e3 1d b2 3d
       0.16647875 0.12376649 -0.03657161 0.08697107
000120 43 60 3f bd 42 bd cf 3e fa 5f ea 3d ec 0a 5e 3e
       -0.04672266 0.4057408 0.11444087 0.21683854
000130 d9 2e 06 be fc 6e e3 3d 5c 82 1c 3e d6 29 af 3e
       -0.13103808 0.11105153 0.15284103 0.34211606

linear.model.0.weight f4 [2, 20]
000000 bf a8 6b be 56 77 3b 3d 63 fe c7 3e 43 2c be 3e
       -0.2301359 0.045768104 0.3906127 0.37143144
000010 9f e2 89 3e d3 3e 9b 3e 9d ea 18 3d 64 9d 9f 3e
       0.2693071 0.3032137 0.03733312 0.31174767
000020 c7 0f ff 3d fb 4d f3 be da f6 6f be b0 34 99 be
       0.12454181 -0.47520432 -0.2343401 -0.2992301
000030 77 ae b2 3e 82 5c 05 bf 06 d6 5d 3e 1e 1b 88 3b
       0.3489873 -0.5209428 0.21663675 0.0041536232
000040 d5 14 84 be 43 3c 81 be 43 8f 2c be 83 b1 09 bf
       -0.25797144 -0.2524129 -0.16851525 -0.53786486
000050 35 2a 64 3e c3 5e 8a bd 89 4d 50 3e 0e d7 9c bd
       0.22281726 -0.067563556 0.20342077 -0.07658206
000060 87 b3 7f 3e bd 8c 14 be a8 0a a6 3e 59 80 04 bd
       0.24970828 -0.14506812 0.32430005 -0.032348964
000070 7c 7a 8b be 9c c2 dd 3d 81 1b 37 3e 5d 12 e5 3d
       -0.27241886 0.108281344 0.17881586 0.11185143
000080 8f df 0f be 85 01 7d be 42 a0 88 3e da 9b 9d 3d
       -0.14050125 -0.24707611 0.26684767 0.07695742
000090 10 e8 44 be 38 d5 57 3e f6 d5 88 bd 4a 12 a3 3e
       -0.1922915 0.2107743 -0.06681435 0.3184989

linear.model.0.bias f4 [2]
000000 0b 27 9e bd a8 16 dd 3d
       -0.077222906 0.10795337
