examples/2_streamflow_isotope_simulation/results/data.pt (torch, 160550 bytes, 32 tensors)

Erlenbach f4 [730, 4]
18.89 -14.29 9.38 0.0 9.74 -13.16 9.11 0.0
9.65 -13.44 10.3 0.0 0.19 -12.545 10.8 0.0
6.0 -11.65 10.4 0.0 6.52 -14.36 13.0 0.0
42.08 -13.73 13.4 0.0 36.25 -11.47 10.6 0.0
20.13 -10.91 9.27 0.0 4.79 -7.01 13.5 0.0
11.11 -10.27 10.4 0.0 5.03 -8.19 10.4 0.0
24.74 -10.16 10.2 0.0 9.92 -8.75 8.6 0.0
2.63 -9.2 9.37 0.0 61.3 -13.23 7.77 0.0
12.1 -12.07 8.83 0.0 13.79 -11.33 8.68 0.0
17.81 -12.8 7.74 0.0 4.51 -9.69 11.4 0.0
3.02 -6.88 13.1 0.0 0.08 -6.16 18.8 0.0
0.0 -5.44 21.9 0.0 5.35 -4.72 18.3 0.0
17.67 -7.76 13.1 0.0 0.68 -7.475 10.1 0.0
0.0 -7.19 11.2 0.0 0.01 -6.905 15.2 0.0
9.31 -6.62 15.8 0.0 4.6 -5.84 13.7 0.0
0.09 -5.97 16.5 0.0 19.15 -6.1 11.0 0.0
0.0 -5.93125 11.3 0.0 0.0 -5.7625 14.9 0.0
0.03 -5.59375 15.9 0.0 0.0 -5.425 13.7 0.0
0.0 -5.25625 16.0 0.0 0.01 -5.0875 18.8 0.0
0.0 -4.91875 17.5 0.0 1.11 -4.75 20.5 0.0
45.0 -6.16 17.5 0.0 35.16 -7.89 12.0 0.0
44.91 -8.18 7.49 0.0 19.08 -9.46 6.25 0.0
5.75 -8.75 6.53 0.0 0.0 -7.288 9.92 0.0
0.0 -5.826 15.4 0.0 0.0 -4.364 17.9 0.0
0.0 -2.902 19.4 0.0 6.37 -1.44 21.6 0.0
0.47 -3.5 18.3 0.0 11.32 -2.02 15.5 0.0
6.57 -2.75 15.0 0.0 26.05 -5.33 15.1 0.0
19.54 -5.99 15.1 0.0 3.65 -5.99 15.5 0.0
4.12 -4.7 13.9 0.0 0.38 -5.55 15.1 0.0
0.0 -6.4 16.3 0.0 0.1 -7.25 18.6 0.0
27.05 -8.1 14.2 0.0 0.01 -8.59 12.0 0.0
0.0 -9.08 14.8 0.0 0.0 -9.57 17.3 0.0
00000000: b81e 9741 d7a3 64c1 7b14 1641 0000 0000
00000010: 0ad7 1b41 5c8f 52c1 8fc2 1141 0000 0000
00000020: 6666 1a41 3d0a 57c1 cdcc 2441 0000 0000
00000030: 5c8f 423e 52b8 48c1 cdcc 2c41 0000 0000
00000040: 0000 c040 6666 3ac1 6666 2641 0000 0000
00000050: d7a3 d040 8fc2 65c1 0000 5041 0000 0000
00000060: ec51 2842 14ae 5bc1 6666 5641 0000 0000
00000070: 0000 1142 1f85 37c1 9a99 2941 0000 0000
00000080: 3d0a a141 5c8f 2ec1 ec51 1441 0000 0000
00000090: ae47 9940 ec51 e0c0 0000 5841 0000 0000
000000a0: 8fc2 3141 ec51 24c1 6666 2641 0000 0000
000000b0: c3f5 a040 3d0a 03c1 6666 2641 0000 0000
000000c0: 85eb c541 5c8f 22c1 3333 2341 0000 0000
000000d0: 52b8 1e41 0000 0cc1 9a99 0941 0000 0000
000000e0: ec51 2840 3333 13c1 85eb 1541 0000 0000
000000f0: 3333 7542 14ae 53c1 d7a3 f840 0000 0000
00000100: 9a99 4141 b81e 41c1 ae47 0d41 0000 0000
00000110: d7a3 5c41 ae47 35c1 48e1 0a41 0000 0000
00000120: e17a 8e41 cdcc 4cc1 14ae f740 0000 0000
00000130: ec51 9040 3d0a 1bc1 6666 3641 0000 0000
00000140: ae47 4140 f628 dcc0 9a99 5141 0000 0000
00000150: 0ad7 a33d b81e c5c0 6666 9641 0000 0000
00000160: 0000 0000 7b14 aec0 3333 af41 0000 0000
00000170: 3333 ab40 3d0a 97c0 6666 9241 0000 0000
00000180: 295c 8d41 ec51 f8c0 9a99 5141 0000 0000
00000190: 7b14 2e3f 3333 efc0 9a99 2141 0000 0000
000001a0: 0000 0000 7b14 e6c0 3333 3341 0000 0000
000001b0: 0ad7 233c c3f5 dcc0 3333 7341 0000 0000
000001c0: c3f5 1441 0ad7 d3c0 cdcc 7c41 0000 0000
000001d0: 3333 9340 48e1 bac0 3333 5b41 0000 0000
000001e0: ec51 b83d 3d0a bfc0 0000 8441 0000 0000
000001f0: 3333 9941 3333 c3c0 0000 3041 0000 0000
00000200: 0000 0000 cdcc bdc0 cdcc 3441 0000 0000
00000210: 0000 0000 6666 b8c0 6666 6e41 0000 0000
00000220: 8fc2 f53c 0000 b3c0 6666 7e41 0000 0000
00000230: 0000 0000 9a99 adc0 3333 5b41 0000 0000
00000240: 0000 0000 3333 a8c0 0000 8041 0000 0000
00000250: 0ad7 233c cdcc a2c0 6666 9641 0000 0000
00000260: 0000 0000 6666 9dc0 0000 8c41 0000 0000
00000270: 7b14 8e3f 0000 98c0 0000 a441 0000 0000
00000280: 0000 3442 b81e c5c0 0000 8c41 0000 0000
00000290: d7a3 0c42 e17a fcc0 0000 4041 0000 0000
000002a0: d7a3 3342 48e1 02c1 14ae ef40 0000 0000
000002b0: d7a3 9841 295c 17c1 0000 c840 0000 0000
000002c0: 0000 b840 0000 0cc1 c3f5 d040 0000 0000
000002d0: 0000 0000 4c37 e9c0 52b8 1e41 0000 0000
000002e0: 0000 0000 986e bac0 6666 7641 0000 0000
000002f0: 0000 0000 e3a5 8bc0 3333 8f41 0000 0000
00000300: 0000 0000 5eba 39c0 3333 9b41 0000 0000
00000310: 0ad7 cb40 ec51 b8bf cdcc ac41 0000 0000
00000320: d7a3 f03e 0000 60c0 6666 9241 0000 0000
00000330: b81e 3541 ae47 01c0 0000 7841 0000 0000
00000340: 713d d240 0000 30c0 0000 7041 0000 0000
00000350: 6666 d041 5c8f aac0 9a99 7141 0000 0000
00000360: ec51 9c41 14ae bfc0 9a99 7141 0000 0000
00000370: 9a99 6940 14ae bfc0 0000 7841 0000 0000
00000380: 0ad7 8340 6666 96c0 6666 5e41 0000 0000
00000390: 5c8f c23e 9a99 b1c0 9a99 7141 0000 0000
000003a0: 0000 0000 cdcc ccc0 6666 8241 0000 0000
000003b0: cdcc cc3d 0000 e8c0 cdcc 9441 0000 0000
000003c0: 6666 d841 9a99 01c1 3333 6341 0000 0000
000003d0: 0ad7 233c a470 09c1 0000 4041 0000 0000
000003e0: 0000 0000 ae47 11c1 cdcc 6c41 0000 0000
000003f0: 0000 0000 b81e 19c1 6666 8a41 0000 0000

Alp f4 [730, 4]
14.76 -11.365 9.38 1.0 4.75 -13.21 9.11 1.0
10.27 -13.65 10.3 1.0 0.52 -11.155 10.8 1.0
5.16 -8.66 10.4 1.0 1.5 -11.745 13.0 1.0
28.02 -14.83 13.4 1.0 30.55 -11.5 10.6 1.0
14.31 -10.51 9.27 1.0 4.57 -6.56 13.5 1.0
8.3 -8.08 10.4 1.0 5.83 -7.69 10.4 1.0
22.73 -8.25 10.2 1.0 6.65 -7.91 8.6 1.0
3.3 -11.59 9.37 1.0 45.23 -12.03 7.77 1.0
9.33 -11.27 8.83 1.0 14.13 -10.72 8.68 1.0
13.42 -11.06 7.74 1.0 4.16 -8.19 11.4 1.0
3.08 -5.65 13.1 1.0 0.02 -6.41 18.8 1.0
0.01 -7.17 21.9 1.0 15.16 -7.93 18.3 1.0
15.11 -6.38 13.1 1.0 0.79 -5.9766665 10.1 1.0
0.01 -5.5733333 11.2 1.0 0.05 -5.17 15.2 1.0
11.01 -5.305333 15.8 1.0 5.45 -5.4406667 13.7 1.0
0.05 -5.576 16.5 1.0 15.5 -5.7113333 11.0 1.0
0.0 -5.846667 11.3 1.0 0.0 -5.982 14.9 1.0
0.09 -6.1173334 15.9 1.0 0.0 -6.2526665 13.7 1.0
0.0 -6.388 16.0 1.0 0.01 -6.5233335 18.8 1.0
0.0 -6.6586666 17.5 1.0 0.48 -6.794 20.5 1.0
37.37 -6.929333 17.5 1.0 27.66 -7.0646667 12.0 1.0
35.45 -7.2 7.49 1.0 15.87 -9.35 6.25 1.0
6.68 -9.54 6.53 1.0 0.0 -7.788 9.92 1.0
0.0 -6.036 15.4 1.0 0.0 -4.284 17.9 1.0
0.0 -2.532 19.4 1.0 4.69 -0.78 21.6 1.0
0.66 -1.235 18.3 1.0 8.11 -1.69 15.5 1.0
6.75 -4.07 15.0 1.0 19.93 -6.52 15.1 1.0
18.74 -8.95 15.1 1.0 2.87 -6.86 15.5 1.0
2.61 -5.82 13.9 1.0 1.04 -6.3475 15.1 1.0
0.0 -6.875 16.3 1.0 0.14 -7.4025 18.6 1.0
20.31 -7.93 14.2 1.0 0.03 -8.175 12.0 1.0
0.0 -8.42 14.8 1.0 0.0 -8.665 17.3 1.0
00000000: f628 6c41 0ad7 35c1 7b14 1641 0000 803f
00000010: 0000 9840 295c 53c1 8fc2 1141 0000 803f
00000020: ec51 2441 6666 5ac1 cdcc 2441 0000 803f
00000030: b81e 053f e17a 32c1 cdcc 2c41 0000 803f
00000040: b81e a540 5c8f 0ac1 6666 2641 0000 803f
00000050: 0000 c03f 85eb 3bc1 0000 5041 0000 803f
00000060: f628 e041 ae47 6dc1 6666 5641 0000 803f
00000070: 6666 f441 0000 38c1 9a99 2941 0000 803f
00000080: c3f5 6441 f628 28c1 ec51 1441 0000 803f
00000090: 713d 9240 85eb d1c0 0000 5841 0000 803f
000000a0: cdcc 0441 ae47 01c1 6666 2641 0000 803f
000000b0: 5c8f ba40 7b14 f6c0 6666 2641 0000 803f
000000c0: 0ad7 b541 0000 04c1 3333 2341 0000 803f
000000d0: cdcc d440 b81e fdc0 9a99 0941 0000 803f
000000e0: 3333 5340 a470 39c1 85eb 1541 0000 803f
000000f0: 85eb 3442 e17a 40c1 d7a3 f840 0000 803f
00000100: ae47 1541 ec51 34c1 ae47 0d41 0000 803f
00000110: 7b14 6241 1f85 2bc1 48e1 0a41 0000 803f
00000120: 52b8 5641 c3f5 30c1 14ae f740 0000 803f
00000130: b81e 8540 3d0a 03c1 6666 3641 0000 803f
00000140: b81e 4540 cdcc b4c0 9a99 5141 0000 803f
00000150: 0ad7 a33c b81e cdc0 6666 9641 0000 803f
00000160: 0ad7 233c a470 e5c0 3333 af41 0000 803f
00000170: 5c8f 7241 8fc2 fdc0 6666 9241 0000 803f
00000180: 8fc2 7141 f628 ccc0 9a99 5141 0000 803f
00000190: 713d 4a3f da40 bfc0 9a99 2141 0000 803f
000001a0: 0ad7 233c bf58 b2c0 3333 3341 0000 803f
000001b0: cdcc 4c3d a470 a5c0 3333 7341 0000 803f
000001c0: f628 3041 4ac5 a9c0 cdcc 7c41 0000 803f
000001d0: 6666 ae40 f119 aec0 3333 5b41 0000 803f
000001e0: cdcc 4c3d 986e b2c0 0000 8441 0000 803f
000001f0: 0000 7841 3ec3 b6c0 0000 3041 0000 803f
00000200: 0000 0000 e517 bbc0 cdcc 3441 0000 803f
00000210: 0000 0000 8b6c bfc0 6666 6e41 0000 803f
00000220: ec51 b83d 32c1 c3c0 6666 7e41 0000 803f
00000230: 0000 0000 d815 c8c0 3333 5b41 0000 803f
00000240: 0000 0000 7f6a ccc0 0000 8041 0000 803f
00000250: 0ad7 233c 26bf d0c0 6666 9641 0000 803f
00000260: 0000 0000 cc13 d5c0 0000 8c41 0000 803f
00000270: 8fc2 f53e 7368 d9c0 0000 a441 0000 803f
00000280: e17a 1542 19bd ddc0 0000 8c41 0000 803f
00000290: ae47 dd41 c011 e2c0 0000 4041 0000 803f
000002a0: cdcc 0d42 6666 e6c0 14ae ef40 0000 803f
000002b0: 85eb 7d41 9a99 15c1 0000 c840 0000 803f
000002c0: 8fc2 d540 d7a3 18c1 c3f5 d040 0000 803f
000002d0: 0000 0000 4c37 f9c0 52b8 1e41 0000 803f
000002e0: 0000 0000 e926 c1c0 6666 7641 0000 803f
000002f0: 0000 0000 8716 89c0 3333 8f41 0000 803f
00000300: 0000 0000 4a0c 22c0 3333 9b41 0000 803f
00000310: 7b14 9640 14ae 47bf cdcc ac41 0000 803f
00000320: c3f5 283f 7b14 9ebf 6666 9241 0000 803f
00000330: 8fc2 0141 ec51 d8bf 0000 7841 0000 803f
00000340: 0000 d840 713d 82c0 0000 7041 0000 803f
00000350: a470 9f41 d7a3 d0c0 9a99 7141 0000 803f
00000360: 85eb 9541 3333 0fc1 9a99 7141 0000 803f
00000370: 14ae 3740 1f85 dbc0 0000 7841 0000 803f
00000380: 3d0a 2740 713d bac0 6666 5e41 0000 803f
00000390: b81e 853f b81e cbc0 9a99 7141 0000 803f
000003a0: 0000 0000 0000 dcc0 6666 8241 0000 803f
000003b0: 295c 0f3e 48e1 ecc0 cdcc 9441 0000 803f
000003c0: e17a a241 8fc2 fdc0 3333 6341 0000 803f
000003d0: 8fc2 f53c cdcc 02c1 0000 4041 0000 803f
000003e0: 0000 0000 52b8 06c1 cdcc 6c41 0000 803f
000003f0: 0000 0000 d7a3 0ac1 6666 8a41 0000 803f

Erlenbach f4 [354, 4]
0.35 -8.24 16.6 0.0 4.8 -5.17 14.7 0.0
31.39 -10.01 12.1 0.0 23.78 -9.6 7.47 0.0
0.08 -8.75 9.57 0.0 0.0 -7.9 12.0 0.0
0.0 -7.05 13.7 0.0 8.85 -6.2 12.7 0.0
0.0 -5.6625 12.6 0.0 0.0 -5.125 14.9 0.0
0.0 -4.5875 18.3 0.0 7.28 -4.05 16.0 0.0
0.0 -4.2515383 8.53 0.0 0.0 -4.453077 9.91 0.0
0.0 -4.6546154 11.1 0.0 0.0 -4.856154 10.6 0.0
0.0 -5.0576925 13.4 0.0 0.0 -5.2592306 12.3 0.0
0.0 -5.460769 11.5 0.0 0.0 -5.6623077 14.3 0.0
0.0 -5.8638463 17.6 0.0 0.0 -6.0653844 18.9 0.0
0.0 -6.266923 19.6 0.0 1.42 -6.4684615 16.1 0.0
3.68 -6.67 17.5 0.0 13.69 -7.5 12.7 0.0
6.1 -9.01 11.9 0.0 0.0 -8.63875 14.2 0.0
0.0 -8.2675 15.5 0.0 0.0 -7.89625 15.6 0.0
0.02 -7.525 13.5 0.0 0.0 -7.15375 10.4 0.0
0.0 -6.7825 13.7 0.0 0.03 -6.41125 16.6 0.0
2.97 -6.04 17.3 0.0 19.26 -8.24 15.1 0.0
0.2 -5.99 16.2 0.0 1.18 -3.74 14.7 0.0
0.0 -4.1066666 17.0 0.0 0.0 -4.4733334 17.5 0.0
12.13 -4.84 15.6 0.0 6.0 -8.59 12.6 0.0
1.0 -4.13 13.3 0.0 0.09 -4.125 14.3 0.0
0.0 -4.12 18.5 0.0 0.0 -4.115 18.7 0.0
0.0 -4.11 18.8 0.0 0.01 -4.105 19.7 0.0
5.75 -4.1 15.3 0.0 0.0 -3.903 18.7 0.0
0.0 -3.706 20.4 0.0 0.0 -3.509 21.7 0.0
0.67 -3.312 19.1 0.0 0.0 -3.115 19.4 0.0
0.0 -2.918 20.4 0.0 0.0 -2.721 21.0 0.0
0.0 -2.524 20.8 0.0 0.85 -2.327 20.2 0.0
1.02 -2.13 20.1 0.0 2.47 -1.82 17.9 0.0
11.45 -5.54 16.7 0.0 0.09 -5.785 12.0 0.0
0.0 -6.03 12.8 0.0 0.0 -6.275 17.5 0.0
00000000: 3333 b33e 0ad7 03c1 cdcc 8441 0000 0000
00000010: 9a99 9940 a470 a5c0 3333 6b41 0000 0000
00000020: b81e fb41 f628 20c1 9a99 4141 0000 0000
00000030: 713d be41 9a99 19c1 3d0a ef40 0000 0000
00000040: 0ad7 a33d 0000 0cc1 b81e 1941 0000 0000
00000050: 0000 0000 cdcc fcc0 0000 4041 0000 0000
00000060: 0000 0000 9a99 e1c0 3333 5b41 0000 0000
00000070: 9a99 0d41 6666 c6c0 3333 4b41 0000 0000
00000080: 0000 0000 3333 b5c0 9a99 4941 0000 0000
00000090: 0000 0000 0000 a4c0 6666 6e41 0000 0000
000000a0: 0000 0000 cdcc 92c0 6666 9241 0000 0000
000000b0: c3f5 e840 9a99 81c0 0000 8041 0000 0000
000000c0: 0000 0000 9a0c 88c0 e17a 0841 0000 0000
000000d0: 0000 0000 9b7f 8ec0 5c8f 1e41 0000 0000
000000e0: 0000 0000 9cf2 94c0 9a99 3141 0000 0000
000000f0: 0000 0000 9d65 9bc0 9a99 2941 0000 0000
00000100: 0000 0000 9ed8 a1c0 6666 5641 0000 0000
00000110: 0000 0000 9e4b a8c0 cdcc 4441 0000 0000
00000120: 0000 0000 9fbe aec0 0000 3841 0000 0000
00000130: 0000 0000 a031 b5c0 cdcc 6441 0000 0000
00000140: 0000 0000 a1a4 bbc0 cdcc 8c41 0000 0000
00000150: 0000 0000 a117 c2c0 3333 9741 0000 0000
00000160: 0000 0000 a28a c8c0 cdcc 9c41 0000 0000
00000170: 8fc2 b53f a3fd cec0 cdcc 8041 0000 0000
00000180: 1f85 6b40 a470 d5c0 0000 8c41 0000 0000
00000190: 3d0a 5b41 0000 f0c0 3333 4b41 0000 0000
000001a0: 3333 c340 f628 10c1 6666 3e41 0000 0000
000001b0: 0000 0000 5238 0ac1 3333 6341 0000 0000
000001c0: 0000 0000 ae47 04c1 0000 7841 0000 0000
000001d0: 0000 0000 14ae fcc0 9a99 7941 0000 0000
000001e0: 0ad7 a33c cdcc f0c0 0000 5841 0000 0000
000001f0: 0000 0000 85eb e4c0 6666 2641 0000 0000
00000200: 0000 0000 3d0a d9c0 3333 5b41 0000 0000
00000210: 8fc2 f53c f628 cdc0 cdcc 8441 0000 0000
00000220: 7b14 3e40 ae47 c1c0 6666 8a41 0000 0000
00000230: 7b14 9a41 0ad7 03c1 9a99 7141 0000 0000
00000240: cdcc 4c3e 14ae bfc0 9a99 8141 0000 0000
00000250: 3d0a 973f 295c 6fc0 3333 6b41 0000 0000
00000260: 0000 0000 d069 83c0 0000 8841 0000 0000
00000270: 0000 0000 8c25 8fc0 0000 8c41 0000 0000
00000280: 7b14 4241 48e1 9ac0 9a99 7941 0000 0000
00000290: 0000 c040 a470 09c1 9a99 4941 0000 0000
000002a0: 0000 803f f628 84c0 cdcc 5441 0000 0000
000002b0: ec51 b83d 0000 84c0 cdcc 6441 0000 0000
000002c0: 0000 0000 0ad7 83c0 0000 9441 0000 0000
000002d0: 0000 0000 14ae 83c0 9a99 9541 0000 0000
000002e0: 0000 0000 1f85 83c0 6666 9641 0000 0000
000002f0: 0ad7 233c 295c 83c0 9a99 9d41 0000 0000
00000300: 0000 b840 3333 83c0 cdcc 7441 0000 0000
00000310: 0000 0000 c1ca 79c0 9a99 9541 0000 0000
00000320: 0000 0000 1b2f 6dc0 3333 a341 0000 0000
00000330: 0000 0000 7593 60c0 9a99 ad41 0000 0000
00000340: 1f85 2b3f cff7 53c0 cdcc 9841 0000 0000
00000350: 0000 0000 295c 47c0 3333 9b41 0000 0000
00000360: 0000 0000 83c0 3ac0 3333 a341 0000 0000
00000370: 0000 0000 dd24 2ec0 0000 a841 0000 0000
00000380: 0000 0000 3789 21c0 6666 a641 0000 0000
00000390: 9a99 593f 91ed 14c0 9a99 a141 0000 0000
000003a0: 5c8f 823f ec51 08c0 cdcc a041 0000 0000
000003b0: 7b14 1e40 c3f5 e8bf 3333 8f41 0000 0000
000003c0: 3333 3741 ae47 b1c0 9a99 8541 0000 0000
000003d0: ec51 b83d b81e b9c0 0000 4041 0000 0000
000003e0: 0000 0000 c3f5 c0c0 cdcc 4c41 0000 0000
000003f0: 0000 0000 cdcc c8c0 0000 8c41 0000 0000

Alp f4 [354, 4]
1.08 -6.5 16.6 1.0 5.44 -5.17 14.7 1.0
32.79 -9.13 12.1 1.0 22.04 -8.198 7.47 1.0
0.02 -7.266 9.57 1.0 0.0 -6.334 12.0 1.0
0.0 -5.402 13.7 1.0 6.94 -4.47 12.7 1.0
0.0 -4.648125 12.6 1.0 0.0 -4.82625 14.9 1.0
0.0 -5.004375 18.3 1.0 4.88 -5.1825 16.0 1.0
0.0 -5.360625 8.53 1.0 0.0 -5.53875 9.91 1.0
0.0 -5.716875 11.1 1.0 0.0 -5.895 10.6 1.0
0.0 -6.073125 13.4 1.0 0.0 -6.25125 12.3 1.0
0.0 -6.429375 11.5 1.0 0.0 -6.6075 14.3 1.0
0.0 -6.785625 17.6 1.0 0.0 -6.96375 18.9 1.0
0.0 -7.141875 19.6 1.0 6.88 -7.32 16.1 1.0
5.32 -5.57 17.5 1.0 12.28 -7.81 12.7 1.0
5.38 -7.3977776 11.9 1.0 0.0 -6.9855556 14.2 1.0
0.0 -6.5733333 15.5 1.0 0.0 -6.161111 15.6 1.0
0.05 -5.748889 13.5 1.0 0.0 -5.3366666 10.4 1.0
0.0 -4.9244447 13.7 1.0 0.04 -4.5122223 16.6 1.0
2.57 -4.1 17.3 1.0 11.76 -5.94 15.1 1.0
0.16 -5.06 16.2 1.0 0.77 -4.18 14.7 1.0
0.0 -3.3 17.0 1.0 0.0 -2.42 17.5 1.0
6.75 -1.54 15.6 1.0 3.74 -8.1 12.6 1.0
1.02 -5.55 13.3 1.0 0.04 -5.413889 14.3 1.0
0.0 -5.2777777 18.5 1.0 0.0 -5.141667 18.7 1.0
0.0 -5.0055556 18.8 1.0 0.08 -4.8694444 19.7 1.0
5.57 -4.733333 15.3 1.0 0.0 -4.5972223 18.7 1.0
0.0 -4.461111 20.4 1.0 0.0 -4.325 21.7 1.0
0.71 -4.188889 19.1 1.0 0.0 -4.052778 19.4 1.0
0.0 -3.9166667 20.4 1.0 0.0 -3.7805555 21.0 1.0
0.0 -3.6444445 20.8 1.0 0.67 -3.5083334 20.2 1.0
0.73 -3.3722222 20.1 1.0 1.66 -3.2361112 17.9 1.0
9.93 -3.1 16.7 1.0 0.08 -5.9 12.0 1.0
0.0 -5.943333 12.8 1.0 0.0 -5.9866667 17.5 1.0
00000000: 713d 8a3f 0000 d0c0 cdcc 8441 0000 803f
00000010: 7b14 ae40 a470 a5c0 3333 6b41 0000 803f
00000020: f628 0342 7b14 12c1 9a99 4141 0000 803f
00000030: ec51 b041 022b 03c1 3d0a ef40 0000 803f
00000040: 0ad7 a33c 1283 e8c0 b81e 1941 0000 803f
00000050: 0000 0000 21b0 cac0 0000 4041 0000 803f
00000060: 0000 0000 2fdd acc0 3333 5b41 0000 803f
00000070: 7b14 de40 3d0a 8fc0 3333 4b41 0000 803f
00000080: 0000 0000 71bd 94c0 9a99 4941 0000 803f
00000090: 0000 0000 a470 9ac0 6666 6e41 0000 803f
000000a0: 0000 0000 d723 a0c0 6666 9241 0000 803f
000000b0: f628 9c40 0ad7 a5c0 0000 8041 0000 803f
000000c0: 0000 0000 3d8a abc0 e17a 0841 0000 803f
000000d0: 0000 0000 713d b1c0 5c8f 1e41 0000 803f
000000e0: 0000 0000 a4f0 b6c0 9a99 3141 0000 803f
000000f0: 0000 0000 d7a3 bcc0 9a99 2941 0000 803f
00000100: 0000 0000 0a57 c2c0 6666 5641 0000 803f
00000110: 0000 0000 3d0a c8c0 cdcc 4441 0000 803f
00000120: 0000 0000 71bd cdc0 0000 3841 0000 803f
00000130: 0000 0000 a470 d3c0 cdcc 6441 0000 803f
00000140: 0000 0000 d723 d9c0 cdcc 8c41 0000 803f
00000150: 0000 0000 0ad7 dec0 3333 9741 0000 803f
00000160: 0000 0000 3d8a e4c0 cdcc 9c41 0000 803f
00000170: f628 dc40 713d eac0 cdcc 8041 0000 803f
00000180: 713d aa40 713d b2c0 0000 8c41 0000 803f
00000190: e17a 4441 85eb f9c0 3333 4b41 0000 803f
000001a0: f628 ac40 98ba ecc0 6666 3e41 0000 803f
000001b0: 0000 0000 ac89 dfc0 3333 6341 0000 803f
000001c0: 0000 0000 bf58 d2c0 0000 7841 0000 803f
000001d0: 0000 0000 d227 c5c0 9a99 7941 0000 803f
000001e0: cdcc 4c3d e6f6 b7c0 0000 5841 0000 803f
000001f0: 0000 0000 f9c5 aac0 6666 2641 0000 803f
00000200: 0000 0000 0d95 9dc0 3333 5b41 0000 803f
00000210: 0ad7 233d 2064 90c0 cdcc 8441 0000 803f
00000220: e17a 2440 3333 83c0 6666 8a41 0000 803f
00000230: f628 3c41 7b14 bec0 9a99 7141 0000 803f
00000240: 0ad7 233e 85eb a1c0 9a99 8141 0000 803f
00000250: b81e 453f 8fc2 85c0 3333 6b41 0000 803f
00000260: 0000 0000 3333 53c0 0000 8841 0000 803f
00000270: 0000 0000 48e1 1ac0 0000 8c41 0000 803f
00000280: 0000 d840 b81e c5bf 9a99 7941 0000 803f
00000290: 295c 6f40 9a99 01c1 9a99 4941 0000 803f
000002a0: 5c8f 823f 9a99 b1c0 cdcc 5441 0000 803f
000002b0: 0ad7 233d 943e adc0 cdcc 6441 0000 803f
000002c0: 0000 0000 8ee3 a8c0 0000 9441 0000 803f
000002d0: 0000 0000 8988 a4c0 9a99 9541 0000 803f
000002e0: 0000 0000 832d a0c0 6666 9641 0000 803f
000002f0: 0ad7 a33d 7dd2 9bc0 9a99 9d41 0000 803f
00000300: 713d b240 7777 97c0 cdcc 7441 0000 803f
00000310: 0000 0000 721c 93c0 9a99 9541 0000 803f
00000320: 0000 0000 6cc1 8ec0 3333 a341 0000 803f
00000330: 0000 0000 6666 8ac0 9a99 ad41 0000 803f
00000340: 8fc2 353f 610b 86c0 cdcc 9841 0000 803f
00000350: 0000 0000 5bb0 81c0 3333 9b41 0000 803f
00000360: 0000 0000 abaa 7ac0 3333 a341 0000 803f
00000370: 0000 0000 9ff4 71c0 0000 a841 0000 803f
00000380: 0000 0000 943e 69c0 6666 a641 0000 803f
00000390: 1f85 2b3f 8988 60c0 9a99 a141 0000 803f
000003a0: 48e1 3a3f 7dd2 57c0 cdcc a041 0000 803f
000003b0: e17a d43f 721c 4fc0 3333 8f41 0000 803f
000003c0: 48e1 1e41 6666 46c0 9a99 8541 0000 803f
000003d0: 0ad7 a33d cdcc bcc0 0000 4041 0000 803f
000003e0: 0000 0000 c92f bec0 cdcc 4c41 0000 803f
000003f0: 0000 0000 c692 bfc0 0000 8c41 0000 803f

Erlenbach f4 [348, 4]
1.46 -7.19 9.83 0.0 25.12 -2.39 7.38 0.0
18.65 -9.48 9.94 0.0 35.66 -6.39 12.6 0.0
6.94 -8.13 7.21 0.0 0.0 -9.04 10.6 0.0
0.0 -6.8575 13.0 0.0 0.0 -4.675 15.2 0.0
1.26 -2.4925 15.7 0.0 0.0 -0.31 15.2 0.0
0.0 -0.54285717 16.2 0.0 0.0 -0.7757143 19.0 0.0
0.0 -1.0085714 21.6 0.0 0.0 -1.2414286 23.0 0.0
0.0 -1.4742857 23.2 0.0 0.0 -1.7071428 23.3 0.0
3.86 -1.94 24.0 0.0 0.01 -2.7 20.2 0.0
10.83 -3.46 23.3 0.0 5.4 -4.27 12.8 0.0
0.0 -4.2188888 11.5 0.0 0.0 -4.167778 15.4 0.0
0.0 -4.116667 19.3 0.0 0.27 -4.0655556 17.5 0.0
0.0 -4.0144444 15.9 0.0 0.0 -3.9633334 17.8 0.0
0.0 -3.9122221 19.0 0.0 0.0 -3.8611112 21.4 0.0
8.89 -3.81 20.0 0.0 0.9 1.83 19.0 0.0
16.86 -2.86 18.3 0.0 0.0 -2.8166666 18.5 0.0
0.0 -2.7733333 21.0 0.0 3.41 -2.73 18.5 0.0
0.0 -4.6 15.3 0.0 13.17 -6.47 17.1 0.0
0.0 -7.345 11.9 0.0 13.65 -8.22 12.8 0.0
0.0 -5.75 13.9 0.0 3.08 -3.28 11.4 0.0
21.72 -7.47 10.9 0.0 0.08 -1.14 8.99 0.0
0.19 -2.1 13.1 0.0 5.74 -3.06 12.9 0.0
0.1 -1.82 14.5 0.0 0.0 -0.58 18.7 0.0
1.11 0.66 16.4 0.0 0.0 1.3433334 18.9 0.0
0.0 2.0266666 21.5 0.0 0.66 2.71 22.7 0.0
0.27 0.94 21.2 0.0 6.33 -0.83 17.2 0.0
5.58 -1.41 16.3 0.0 0.08 -0.155 17.5 0.0
0.08 1.1 19.0 0.0 0.99 -1.44 19.7 0.0
2.2 -3.02 14.2 0.0 22.91 -10.23 10.6 0.0
10.46 -10.91 10.4 0.0 0.53 -6.72 10.0 0.0
19.29 -7.55 10.3 0.0 16.47 -9.86 8.69 0.0
0.16 -9.488 10.8 0.0 0.16 -9.116 12.2 0.0
00000000: 48e1 ba3f 7b14 e6c0 ae47 1d41 0000 0000
00000010: c3f5 c841 c3f5 18c0 f628 ec40 0000 0000
00000020: 3333 9541 14ae 17c1 3d0a 1f41 0000 0000
00000030: d7a3 0e42 e17a ccc0 9a99 4941 0000 0000
00000040: 7b14 de40 7b14 02c1 52b8 e640 0000 0000
00000050: 0000 0000 d7a3 10c1 9a99 2941 0000 0000
00000060: 0000 0000 a470 dbc0 0000 5041 0000 0000
00000070: 0000 0000 9a99 95c0 3333 7341 0000 0000
00000080: ae47 a13f 1f85 1fc0 3333 7b41 0000 0000
00000090: 0000 0000 52b8 9ebe 3333 7341 0000 0000
000000a0: 0000 0000 b0f8 0abf 9a99 8141 0000 0000
000000b0: 0000 0000 3695 46bf 0000 9841 0000 0000
000000c0: 0000 0000 de18 81bf cdcc ac41 0000 0000
000000d0: 0000 0000 22e7 9ebf 0000 b841 0000 0000
000000e0: 0000 0000 65b5 bcbf 9a99 b941 0000 0000
000000f0: 0000 0000 a883 dabf 6666 ba41 0000 0000
00000100: 3d0a 7740 ec51 f8bf 0000 c041 0000 0000
00000110: 0ad7 233c cdcc 2cc0 9a99 a141 0000 0000
00000120: ae47 2d41 a470 5dc0 6666 ba41 0000 0000
00000130: cdcc ac40 d7a3 88c0 cdcc 4c41 0000 0000
00000140: 0000 0000 2301 87c0 0000 3841 0000 0000
00000150: 0000 0000 705e 85c0 6666 7641 0000 0000
00000160: 0000 0000 bcbb 83c0 6666 9a41 0000 0000
00000170: 713d 8a3e 0819 82c0 0000 8c41 0000 0000
00000180: 0000 0000 5476 80c0 6666 7e41 0000 0000
00000190: 0000 0000 41a7 7dc0 6666 8e41 0000 0000
000001a0: 0000 0000 d961 7ac0 0000 9841 0000 0000
000001b0: 0000 0000 721c 77c0 3333 ab41 0000 0000
000001c0: 713d 0e41 0ad7 73c0 0000 a041 0000 0000
000001d0: 6666 663f 713d ea3f 0000 9841 0000 0000
000001e0: 48e1 8641 3d0a 37c0 6666 9241 0000 0000
000001f0: 0000 0000 4444 34c0 0000 9441 0000 0000
00000200: 0000 0000 4b7e 31c0 0000 a841 0000 0000
00000210: 713d 5a40 52b8 2ec0 0000 9441 0000 0000
00000220: 0000 0000 3333 93c0 cdcc 7441 0000 0000
00000230: 52b8 5241 3d0a cfc0 cdcc 8841 0000 0000
00000240: 0000 0000 3d0a ebc0 6666 3e41 0000 0000
00000250: 6666 5a41 1f85 03c1 cdcc 4c41 0000 0000
00000260: 0000 0000 0000 b8c0 6666 5e41 0000 0000
00000270: b81e 4540 85eb 51c0 6666 3641 0000 0000
00000280: 8fc2 ad41 3d0a efc0 6666 2e41 0000 0000
00000290: 0ad7 a33d 85eb 91bf 0ad7 0f41 0000 0000
000002a0: 5c8f 423e 6666 06c0 9a99 5141 0000 0000
000002b0: 14ae b740 0ad7 43c0 6666 4e41 0000 0000
000002c0: cdcc cc3d c3f5 e8bf 0000 6841 0000 0000
000002d0: 0000 0000 e17a 14bf 9a99 9541 0000 0000
000002e0: 7b14 8e3f c3f5 283f 3333 8341 0000 0000
000002f0: 0000 0000 59f2 ab3f 3333 9741 0000 0000
00000300: 0000 0000 e8b4 0140 0000 ac41 0000 0000
00000310: c3f5 283f a470 2d40 9a99 b541 0000 0000
00000320: 713d 8a3e d7a3 703f 9a99 a941 0000 0000
00000330: 5c8f ca40 e17a 54bf 9a99 8941 0000 0000
00000340: 5c8f b240 e17a b4bf 6666 8241 0000 0000
00000350: 0ad7 a33d 52b8 1ebe 0000 8c41 0000 0000
00000360: 0ad7 a33d cdcc 8c3f 0000 9841 0000 0000
00000370: a470 7d3f ec51 b8bf 9a99 9d41 0000 0000
00000380: cdcc 0c40 ae47 41c0 3333 6341 0000 0000
00000390: ae47 b741 14ae 23c1 9a99 2941 0000 0000
000003a0: 295c 2741 5c8f 2ec1 6666 2641 0000 0000
000003b0: 14ae 073f 3d0a d7c0 0000 2041 0000 0000
000003c0: ec51 9a41 9a99 f1c0 cdcc 2441 0000 0000
000003d0: 8fc2 8341 8fc2 1dc1 3d0a 0b41 0000 0000
000003e0: 0ad7 233e d9ce 17c1 cdcc 2c41 0000 0000
000003f0: 0ad7 233e 23db 11c1 3333 4341 0000 0000

Alp f4 [348, 4]
2.54 -6.09 9.83 1.0 16.7 -7.43 7.38 1.0
13.64 -4.43 9.94 1.0 35.36 -7.02 12.6 1.0
4.32 -7.67 7.21 1.0 0.0 -6.788 10.6 1.0
0.0 -5.906 13.0 1.0 0.0 -5.024 15.2 1.0
0.92 -4.142 15.7 1.0 0.0 -3.26 15.2 1.0
0.0 -2.378 16.2 1.0 0.0 -1.496 19.0 1.0
0.0 -0.614 21.6 1.0 0.0 0.268 23.0 1.0
0.0 1.15 23.2 1.0 0.0 -0.31 23.3 1.0
3.85 -4.2 24.0 1.0 0.04 -2.62 20.2 1.0
11.65 -2.613846 23.3 1.0 3.7 -2.6076922 12.8 1.0
0.0 -2.6015384 11.5 1.0 0.0 -2.5953846 15.4 1.0
0.0 -2.5892308 19.3 1.0 0.2 -2.583077 17.5 1.0
0.0 -2.5769231 15.9 1.0 0.0 -2.5707693 17.8 1.0
0.0 -2.5646155 19.0 1.0 0.0 -2.5584614 21.4 1.0
7.0 -2.5523076 20.0 1.0 1.02 -2.5461538 19.0 1.0
18.24 -2.54 18.3 1.0 0.0 -3.0466666 18.5 1.0
0.0 -3.5533333 21.0 1.0 3.94 -4.06 18.5 1.0
0.0 -3.69 15.3 1.0 8.97 -3.32 17.1 1.0
0.0 -5.36 11.9 1.0 12.26 -7.4 12.8 1.0
0.0 7.86 13.9 1.0 2.19 -0.21 11.4 1.0
17.9 -6.02 10.9 1.0 0.02 -4.016667 8.99 1.0
0.6 -2.0133333 13.1 1.0 4.38 -0.01 12.9 1.0
0.24 7.2 14.5 1.0 0.0 6.1485715 18.7 1.0
0.62 5.0971427 16.4 1.0 0.0 4.0457144 18.9 1.0
0.0 2.9942858 21.5 1.0 0.25 1.9428571 22.7 1.0
0.32 0.8914286 21.2 1.0 7.31 -0.16 17.2 1.0
9.43 -2.81 16.3 1.0 0.03 -3.058387 17.5 1.0
0.02 -3.3067741 19.0 1.0 0.53 -3.5551612 19.7 1.0
2.43 -3.8035483 14.2 1.0 20.31 -4.0519357 10.6 1.0
12.09 -4.3003225 10.4 1.0 0.25 -4.54871 10.0 1.0
18.72 -4.7970967 10.3 1.0 12.59 -5.045484 8.69 1.0
0.03 -5.293871 10.8 1.0 0.03 -5.5422583 12.2 1.0
00000000: 5c8f 2240 48e1 c2c0 ae47 1d41 0000 803f
00000010: 9a99 8541 8fc2 edc0 f628 ec40 0000 803f
00000020: 713d 5a41 8fc2 8dc0 3d0a 1f41 0000 803f
00000030: a470 0d42 d7a3 e0c0 9a99 4941 0000 803f
00000040: 713d 8a40 a470 f5c0 52b8 e640 0000 803f
00000050: 0000 0000 4c37 d9c0 9a99 2941 0000 803f
00000060: 0000 0000 f4fd bcc0 0000 5041 0000 803f
00000070: 0000 0000 9cc4 a0c0 3333 7341 0000 803f
00000080: 1f85 6b3f 448b 84c0 3333 7b41 0000 803f
00000090: 0000 0000 d7a3 50c0 3333 7341 0000 803f
000000a0: 0000 0000 2731 18c0 9a99 8141 0000 803f
000000b0: 0000 0000 ee7c bfbf 0000 9841 0000 803f
000000c0: 0000 0000 1b2f 1dbf cdcc ac41 0000 803f
000000d0: 0000 0000 4c37 893e 0000 b841 0000 803f
000000e0: 0000 0000 3333 933f 9a99 b941 0000 803f
000000f0: 0000 0000 52b8 9ebe 6666 ba41 0000 803f
00000100: 6666 7640 6666 86c0 0000 c041 0000 803f
00000110: 0ad7 233d 14ae 27c0 9a99 a141 0000 803f
00000120: 6666 3a41 4149 27c0 6666 ba41 0000 803f
00000130: cdcc 6c40 6ee4 26c0 cdcc 4c41 0000 803f
00000140: 0000 0000 9b7f 26c0 0000 3841 0000 803f
00000150: 0000 0000 c81a 26c0 6666 7641 0000 803f
00000160: 0000 0000 f5b5 25c0 6666 9a41 0000 803f
00000170: cdcc 4c3e 2251 25c0 0000 8c41 0000 803f
00000180: 0000 0000 4fec 24c0 6666 7e41 0000 803f
00000190: 0000 0000 7c87 24c0 6666 8e41 0000 803f
000001a0: 0000 0000 a922 24c0 0000 9841 0000 803f
000001b0: 0000 0000 d5bd 23c0 3333 ab41 0000 803f
000001c0: 0000 e040 0259 23c0 0000 a041 0000 803f
000001d0: 5c8f 823f 2ff4 22c0 0000 9841 0000 803f
000001e0: 85eb 9141 5c8f 22c0 6666 9241 0000 803f
000001f0: 0000 0000 96fc 42c0 0000 9441 0000 803f
00000200: 0000 0000 d069 63c0 0000 a841 0000 803f
00000210: f628 7c40 85eb 81c0 0000 9441 0000 803f
00000220: 0000 0000 f628 6cc0 cdcc 7441 0000 803f
00000230: 1f85 0f41 e17a 54c0 cdcc 8841 0000 803f
00000240: 0000 0000 1f85 abc0 6666 3e41 0000 803f
00000250: f628 4441 cdcc ecc0 cdcc 4c41 0000 803f
00000260: 0000 0000 1f85 fb40 6666 5e41 0000 803f
00000270: f628 0c40 3d0a 57be 6666 3641 0000 803f
00000280: 3333 8f41 d7a3 c0c0 6666 2e41 0000 803f
00000290: 0ad7 a33c 8988 80c0 0ad7 0f41 0000 803f
000002a0: 9a99 193f 74da 00c0 9a99 5141 0000 803f
000002b0: f628 8c40 0ad7 23bc 6666 4e41 0000 803f
000002c0: 8fc2 753e 6666 e640 0000 6841 0000 803f
000002d0: 0000 0000 19c1 c440 9a99 9541 0000 803f
000002e0: 52b8 1e3f cb1b a340 3333 8341 0000 803f
000002f0: 0000 0000 7e76 8140 3333 9741 0000 803f
00000300: 0000 0000 61a2 3f40 0000 ac41 0000 803f
00000310: 0000 803e 8baf f83f 9a99 b541 0000 803f
00000320: 0ad7 a33e aa34 643f 9a99 a941 0000 803f
00000330: 85eb e940 0ad7 23be 9a99 8941 0000 803f
00000340: 48e1 1641 0ad7 33c0 6666 8241 0000 803f
00000350: 8fc2 f53c 9dbc 43c0 0000 8c41 0000 803f
00000360: 0ad7 a33c 30a2 53c0 0000 9841 0000 803f
00000370: 14ae 073f c387 63c0 9a99 9d41 0000 803f
00000380: 1f85 1b40 566d 73c0 3333 6341 0000 803f
00000390: e17a a241 75a9 81c0 9a99 2941 0000 803f
000003a0: a470 4141 3e9c 89c0 6666 2641 0000 803f
000003b0: 0000 803e 088f 91c0 0000 2041 0000 803f
000003c0: 8fc2 9541 d181 99c0 cdcc 2441 0000 803f
000003d0: a470 4941 9b74 a1c0 3d0a 0b41 0000 803f
000003e0: 8fc2 f53c 6467 a9c0 cdcc 2c41 0000 803f
000003f0: 8fc2 f53c 2e5a b1c0 3333 4341 0000 803f

Erlenbach f4 [730, 2]
9.945567 -11.7982855 9.439684 -12.015153 8.400698 -12.112013 5.5324636 -12.059034
5.7676954 -11.997315 6.5574226 -12.0004835 25.540123 -12.185426 28.052328 -12.589386
16.863258 -12.792925 7.803591 -12.4488325 8.137254 -12.24197 6.510022 -12.119025
14.423528 -12.106582 10.326832 -12.191149 5.8779793 -12.057 29.198936 -12.134719
16.52874 -12.6249275 9.636168 -12.45842 10.817396 -12.336654 7.549433 -12.228928
5.642986 -12.060895 4.3025346 -11.923875 3.4492543 -11.795243 3.0587893 -11.609751
5.146629 -11.115324 3.3349164 -10.926987 2.0894666 -10.890505 1.439466 -10.874042
1.9759429 -10.611909 1.8751783 -10.440936 1.2007129 -10.430113 4.270508 -9.957222
2.6666722 -9.945201 1.5795641 -10.075998 1.021085 -10.200641 0.76257706 -10.312506
0.53392434 -10.390876 0.33277845 -10.437507 0.23687744 -10.475193 0.14768362 -10.4575
11.164479 -9.609384 18.801521 -9.32541 23.946983 -9.583691 14.638898 -9.841186
6.0591044 -10.094457 3.68178 -10.176307 2.4457676 -10.117933 1.49107 -10.0944
0.89603543 -10.09837 0.9354749 -9.928425 0.8558531 -9.905139 2.0867934 -9.636822
2.722906 -9.472303 7.522954 -9.078289 9.030937 -8.91419 5.7604284 -9.047074
4.1538057 -9.241592 2.8950155 -9.467262 1.9894044 -9.684231 1.3875408 -9.861988
7.7309294 -9.465272 4.1864386 -9.640243 2.2343984 -9.97188 1.4170191 -10.211956
19.034676 -9.86556 18.89206 -10.297311 4.057476 -10.782526 2.2144134 -10.978808
1.7582667 -11.027139 4.765152 -10.856369 4.9874535 -10.835926 2.5603614 -10.97205
1.8430138 -11.051244 1.3973594 -11.0736685 1.0774758 -11.066235 0.8437345 -11.042927
0.6479454 -11.006526 1.4809268 -10.651404 14.475724 -9.774967 6.409395 -9.561932
3.3878832 -9.674965 2.1184418 -9.879356 1.4585466 -10.05955 0.99337816 -10.178435
0.6610658 -10.263189 0.40129185 -10.319719 0.23767042 -10.358731 0.11335325 -10.380388
0.053448677 -10.3859415 2.188007 -9.926516 1.8669629 -9.869549 1.7061977 -9.847141
1.2942123 -9.972539 1.0263369 -10.141281 0.9332242 -10.324594 19.707193 -10.053441
25.493568 -10.651701 5.292592 -11.170405 2.4336028 -11.28257 2.1662743 -11.290693
1.8348567 -11.306238 1.5823481 -11.30256 1.3630164 -11.278992 1.1406622 -11.236966
0.93633366 -11.184968 0.7426908 -11.126634 0.6493523 -11.06845 0.95845604 -10.936065
1.8923087 -10.789022 11.728527 -10.600058 7.318165 -10.76194 2.840475 -10.964494
2.0425706 -11.059528 1.6558352 -11.097843 1.4135671 -11.125912 1.2601225 -11.14639
1.1578109 -11.1589365 1.5646362 -11.05193 1.6152768 -11.003349 1.324266 -11.013833
1.0930336 -11.030167 0.9260719 -11.045847 0.8486445 -11.04365 3.6457891 -10.633095
2.3643324 -10.656014 1.5741515 -10.802848 1.2000599 -10.980754 1.1024909 -11.113131
00000000: 0b21 1f41 c7c5 3cc1 f208 1741 113e 40c1
00000010: 4269 0641 ceca 41c1 f109 b140 cef1 40c1
00000020: f690 b840 01f5 3fc1 68d6 d140 fb01 40c1
00000030: 2c52 cc41 81f7 42c1 2b6b e041 206e 49c1
00000040: f4e7 8641 d2af 4cc1 04b7 f940 6b2e 47c1
00000050: 3132 0241 1cdf 43c1 1a52 d040 87e7 41c1
00000060: c5c6 6641 8fb4 41c1 b43a 2541 f20e 43c1
00000070: 6818 bc40 79e9 40c1 6c97 e941 cf27 42c1
00000080: dc3a 8441 b4ff 49c1 be2d 1a41 b055 47c1
00000090: 0e14 2d41 ef62 45c1 f594 f140 b0a9 43c1
000000a0: 5793 b440 6df9 40c1 5dae 8940 31c8 3ec1
000000b0: 95c0 5c40 51b9 3cc1 34c3 4340 8ac1 39c1
000000c0: 2fb1 a440 5ed8 31c1 456f 5540 f0d4 2ec1
000000d0: d2b9 0540 823f 2ec1 6c40 b83f 13fc 2dc1
000000e0: b2eb fc3f 61ca 29c1 d805 f03f 130e 27c1
000000f0: f6b0 993f bee1 26c1 00a8 8840 c850 1fc1
00000100: c2aa 2a40 8b1f 1fc1 282f ca3f 4a37 21c1
00000110: eab2 823f d335 23c1 4038 433f 0600 25c1
00000120: 44af 083f 0741 26c1 f061 aa3e 0700 27c1
00000130: 0090 723e 649a 27c1 603a 173e ec51 27c1
00000140: b5a1 3241 09c0 19c1 8469 9641 e134 15c1
00000150: 6c93 bf41 cc56 19c1 ed38 6a41 7f75 1dc1
00000160: 2fe4 c140 e582 21c1 49a2 6b40 27d2 22c1
00000170: 7587 1c40 0ee3 21c1 62db be3f aa82 21c1
00000180: 9462 653f ec92 21c1 487b 6f3f d4da 1ec1
00000190: 3019 5b3f 737b 1ec1 068e 0540 6c30 1ac1
000001a0: 1844 2e40 8e8e 17c1 0abc f040 ac40 11c1
000001b0: b87e 1041 86a0 0ec1 6e55 b840 d1c0 10c1
000001c0: faeb 8440 90dd 13c1 ef47 3940 e879 17c1
000001d0: cea4 fe3f 9cf2 1ac1 f09a b13f b4ca 1dc1
000001e0: c663 f740 c171 17c1 4ef7 8540 6f3e 1ac1
000001f0: 6200 0f40 d28c 1fc1 e260 b53f 2c64 23c1
00000200: 0447 9841 55d9 1dc1 f022 9741 c9c1 24c1
00000210: d8d6 8140 3a85 2cc1 f3b8 0d40 33a9 2fc1
00000220: e20e e13f 296f 30c1 207c 9840 b0b3 2dc1
00000230: 3899 9f40 f45f 2dc1 f6dc 2340 848d 2fc1
00000240: e0e7 eb3f e5d1 30c1 acdc b23f bf2d 31c1
00000250: baea 893f 4c0f 31c1 fcfe 573f d4af 30c1
00000260: c0df 253f bb1a 30c1 028f bd3f 276c 2ac1
00000270: 919c 6741 4466 1cc1 c419 cd40 acfd 18c1
00000280: 14d3 5840 a8cc 1ac1 8d94 0740 d811 1ec1
00000290: a8b1 ba3f ebf3 20c1 084e 7e3f dfda 22c1
000002a0: 9c3b 293f 0636 24c1 2076 cd3e 921d 25c1
000002b0: e05f 733e 5dbd 25c1 c025 e83d 1216 26c1
000002c0: 00ed 5a3d d12c 26c1 4f08 0c40 02d3 1ec1
000002d0: a4f8 ee3f ace9 1dc1 b064 da3f e48d 1dc1
000002e0: c0a8 a53f 858f 1fc1 025f 833f b042 22c1
000002f0: c8e7 6e3f 8931 25c1 55a8 9d41 e5da 20c1
00000300: d4f2 cb41 5e6d 2ac1 ea5c a940 fbb9 32c1
00000310: 26c0 1b40 6885 34c1 3da4 0a40 aea6 34c1
00000320: 96dc ea3f 5ae6 34c1 628a ca3f 49d7 34c1
00000330: 5277 ae3f c076 34c1 3801 923f 9dca 33c1
00000340: 90b3 6f3f a1f5 32c1 fc20 3e3f b106 32c1
00000350: f43b 263f 5f18 31c1 605d 753f 1ffa 2ec1
00000360: 2c37 f23f d69f 2cc1 0ca8 3b41 d699 29c1
00000370: 682e ea40 e830 2cc1 58ca 3540 916e 2fc1
00000380: 7ab9 0240 d4f3 30c1 68f2 d33f c490 31c1
00000390: c4ef b43f bc03 32c1 b24b a13f 9d57 32c1
000003a0: 2633 943f 018b 32c1 0046 c83f b5d4 30c1
000003b0: 64c1 ce3f b80d 30c1 8c81 a93f a938 30c1
000003c0: 86e8 8b3f 907b 30c1 0c13 6d3f cabb 30c1
000003d0: c440 593f cab2 30c1 9c54 6940 2821 2ac1
000003e0: 3951 1740 097f 2ac1 cc7d c93f 77d8 2cc1
000003f0: 909b 993f 2bb1 2fc1 6c1e 8d3f 62cf 31c1

Alp f4 [730, 2]
7.796061 -11.68858 6.6876616 -11.782536 7.670829 -11.841098 5.432644 -11.845281
5.021426 -11.790366 4.486282 -11.759183 15.171686 -11.84026 24.12369 -12.176372
14.2041025 -12.443502 6.4524426 -12.171685 6.064535 -11.971456 5.381748 -11.875626
11.014896 -11.780547 7.746732 -11.811146 5.3742485 -11.790961 23.361822 -11.85965
13.807806 -12.237319 9.449656 -12.156772 9.115377 -12.058776 6.574192 -11.968977
4.960577 -11.866699 3.8261805 -11.781722 3.122693 -11.69866 4.4898443 -11.468003
6.1641912 -11.102067 3.4800735 -11.008726 2.164431 -11.01082 1.4853058 -11.014209
2.0143874 -10.752674 2.063857 -10.578914 1.3971956 -10.586717 3.2227674 -10.254441
2.2450764 -10.2830305 1.4612532 -10.41286 1.0450823 -10.540896 0.86949563 -10.658382
0.7358582 -10.751396 0.63713384 -10.819712 0.62007594 -10.876522 0.59796596 -10.904401
8.896415 -10.109729 14.784662 -9.596021 18.705173 -9.524973 11.922235 -9.775615
5.8979654 -10.097436 3.5608563 -10.28951 2.3186486 -10.374466 1.420147 -10.4482155
0.83891416 -10.510604 0.5658481 -10.437164 0.3593731 -10.430513 0.7588303 -10.247112
1.4600782 -10.067403 5.071203 -9.614459 8.12121 -9.347231 4.6744294 -9.519121
2.8779888 -9.80683 1.8765464 -10.0543995 1.285284 -10.255775 0.93138623 -10.406156
4.0272355 -10.063198 2.556335 -10.195671 1.612545 -10.421999 1.1688304 -10.607735
15.733323 -10.014118 15.460255 -10.248391 4.1974416 -10.733185 2.2992725 -10.987696
1.8372014 -11.086975 3.4063215 -10.992824 3.5729897 -10.991442 2.4216576 -11.082527
1.8329301 -11.1380825 1.4212189 -11.160219 1.1609724 -11.163046 1.015351 -11.159052
0.9769993 -11.128842 1.5128949 -10.902014 8.042705 -10.147595 4.2108397 -10.005859
2.9142113 -10.050596 1.9289913 -10.187285 1.3001564 -10.328768 0.8427403 -10.434063
0.5377097 -10.512355 0.32366657 -10.567211 0.2035222 -10.608267 0.12996149 -10.635006
0.1170764 -10.644069 0.63735676 -10.47908 0.6965177 -10.486568 0.71175075 -10.46104
0.66459394 -10.514288 0.64716077 -10.59462 0.69523 -10.689088 11.614655 -10.083093
15.403965 -10.301653 4.5835233 -10.865114 2.6817667 -11.15562 2.522202 -11.284935
2.4059422 -11.380081 2.3318844 -11.443682 2.2604196 -11.480512 2.159755 -11.494557
2.0326138 -11.490642 1.8717735 -11.471296 1.7362418 -11.444556 1.7781973 -11.380171
1.923636 -11.321678 5.5984364 -11.183923 4.8233476 -11.203533 3.073076 -11.268876
2.3512945 -11.307039 1.975446 -11.3247385 1.7511752 -11.336737 1.6122775 -11.345736
1.526309 -11.3519945 1.6987143 -11.3148985 1.8704817 -11.280169 1.7130508 -11.287049
1.546515 -11.29715 1.4133675 -11.305663 1.3541155 -11.300316 2.8282917 -11.052812
2.2364688 -11.055937 1.7466455 -11.118898 1.4516349 -11.204765 1.3148718 -11.273698
00000000: 5579 f940 6c04 3bc1 5301 d640 4485 3cc1
00000010: 6e77 f540 2375 3dc1 38d8 ad40 4586 3dc1
00000020: 86af a040 57a5 3cc1 9f8f 8f40 9d25 3cc1
00000030: 3abf 7241 b471 3dc1 51fd c041 6bd2 42c1
00000040: 0144 6341 9618 47c1 697a ce40 39bf 42c1
00000050: ac10 c240 158b 3fc1 4837 ac40 9002 3ec1
00000060: 043d 3041 1f7d 3cc1 3be5 f740 74fa 3cc1
00000070: d8f9 ab40 c7a7 3cc1 03e5 ba41 20c1 3dc1
00000080: c6ec 5c41 0fcc 43c1 ca31 1741 2382 42c1
00000090: 96d8 1141 bff0 40c1 c85f d240 ee80 3fc1
000000a0: 0cbd 9e40 00de 3dc1 24e0 7440 ef81 3cc1
000000b0: 34da 4740 b62d 3bc1 ceac 8f40 f17c 37c1
000000c0: 0e41 c540 11a2 31c1 86b9 5e40 be23 30c1
000000d0: 0a86 0a40 522c 30c1 801e be3f 333a 30c1
000000e0: b9eb 0040 f40a 2cc1 3c16 0440 3b43 29c1
000000f0: 4ed7 b23f 3163 29c1 d241 4e40 3112 24c1
00000100: 55af 0f40 4b87 24c1 580a bb3f 139b 26c1
00000110: 42c5 853f 83a7 28c1 4497 5e3f bc88 2ac1
00000120: 3461 3c3f b805 2cc1 341b 233f 8a1d 2dc1
00000130: 4cbd 1e3f 3c06 2ec1 4c14 193f 6d78 2ec1
00000140: b757 0e41 73c1 21c1 fa8d 6c41 4d89 19c1
00000150: 32a4 9541 4a66 18c1 79c1 3e41 eb68 1cc1
00000160: 22bc bc40 198f 21c1 12e5 6340 d5a1 24c1
00000170: bd64 1440 d0fd 25c1 60c7 b53f e42b 27c1
00000180: 14c3 563f 6f2b 28c1 6cdb 103f a0fe 26c1
00000190: c0ff b73e 62e3 26c1 b442 423f 2cf4 23c1
000001a0: d8e3 ba3f 1514 21c1 4c47 a240 d3d4 19c1
000001b0: 7af0 0141 428e 15c1 ed94 9540 524e 18c1
000001c0: f830 3840 c7e8 1cc1 ac32 f03f d2de 20c1
000001d0: 3084 a43f a817 24c1 546f 6e3f 9d7f 26c1
000001e0: 1ddf 8040 dc02 21c1 fe9a 2340 7821 23c1
000001f0: e067 ce3f 82c0 26c1 3c9c 953f 48b9 29c1
00000200: b1bb 7b41 d439 20c1 345d 7741 69f9 23c1
00000210: 7151 8640 20bb 2bc1 4827 1340 9acd 2fc1
00000220: 6a29 eb3f 4064 31c1 2c01 5a40 9be2 2fc1
00000230: ddab 6440 f2dc 2fc1 70fc 1a40 0852 31c1
00000240: 749d ea3f 9635 32c1 80ea b53f 4290 32c1
00000250: be9a 943f d69b 32c1 06f7 813f 7a8b 32c1
00000260: a01c 7a3f bd0f 32c1 8aa6 c13f a66e 2ec1
00000270: ebae 0041 8d5c 22c1 33bf 8640 0018 20c1
00000280: 7082 3a40 3ecf 20c1 30e9 f63f 1fff 22c1
00000290: 866b a63f a242 25c1 d4bd 573f ecf1 26c1
000002a0: 58a7 093f 9b32 28c1 a0b7 a53e 4c13 29c1
000002b0: 2068 503e 76bb 29c1 a014 053e fc28 2ac1
000002c0: c0c5 ef3d 1b4e 2ac1 d029 233f 50aa 27c1
000002d0: fc4e 323f fcc8 27c1 4c35 363f 6b60 27c1
000002e0: d422 2a3f 863a 28c1 54ac 253f 9083 29c1
000002f0: 98fa 313f 8106 2bc1 a0d5 3941 5954 21c1
00000300: a476 7641 92d3 24c1 39ac 9240 82d7 2dc1
00000310: 11a2 2b40 6b7d 32c1 c26b 2140 188f 34c1
00000320: f5fa 1940 d014 36c1 983d 1540 5219 37c1
00000330: b7aa 1040 2db0 37c1 6d39 0a40 b5e9 37c1
00000340: 5816 0240 abd9 37c1 4696 ef3f 6e8a 37c1
00000350: 2c3d de3f e71c 37c1 f89b e33f 2e15 36c1
00000360: b439 f63f 9825 35c1 6426 b340 59f1 32c1
00000370: dd58 9a40 ac41 33c1 47ad 4440 514d 34c1
00000380: 9c7b 1640 a2e9 34c1 6adb fc3f 2132 35c1
00000390: 8226 e03f 4663 35c1 1c5f ce3f 2288 35c1
000003a0: 185e c33f c5a1 35c1 786f d93f d309 35c1
000003b0: f26b ef3f 927b 34c1 4045 db3f c197 34c1
000003c0: 34f4 c53f 20c1 34c1 3ae9 b43f ffe3 34c1
000003d0: a853 ad3f 18ce 34c1 bb02 3540 51d8 30c1
000003e0: 4e22 0f40 1ee5 30c1 1492 df3f 02e7 31c1
000003f0: 2ccf b93f b846 33c1 b84d a83f 1161 34c1

Erlenbach f4 [354, 2]
3.804896 -11.675625 3.4500122 -11.533671 14.448379 -10.960415 18.074175 -10.666888
4.7030215 -10.759575 2.3954823 -10.863355 1.7590544 -10.875126 2.2042096 -10.6859
1.4216914 -10.674231 0.91439295 -10.692225 0.5390332 -10.693283 0.8248043 -10.488222
0.76932883 -10.501626 0.5905385 -10.568207 0.46994805 -10.639874 0.42320585 -10.714705
0.35720158 -10.766159 0.3687849 -10.815569 0.4033847 -10.8652725 0.3926978 -10.893856
0.3645854 -10.894986 0.3565588 -10.878312 0.3546152 -10.851502 0.46424818 -10.8059635
0.6682539 -10.691956 2.5940187 -10.303413 2.9208555 -10.149087 1.8215082 -10.2647505
1.210532 -10.423074 0.90947104 -10.553239 0.7838528 -10.660061 0.74437714 -10.759388
0.65000486 -10.822216 0.54671264 -10.852372 0.58319354 -10.79224 3.953088 -10.2630005
2.2977526 -10.168589 1.3267753 -10.2065325 0.75706625 -10.265564 0.473001 -10.313529
1.7184489 -10.002442 2.455881 -9.88137 1.7405417 -9.946376 1.132474 -10.067442
0.6876707 -10.152521 0.44609308 -10.212774 0.2929616 -10.254944 0.17297268 -10.2809925
0.5757258 -10.162433 0.49538422 -10.158154 0.30907297 -10.174608 0.16667318 -10.184223
0.16584492 -10.18275 0.12414789 -10.191437 0.061187744 -10.19429 0.013500214 -10.18964
-0.0074505806 -10.181854 0.02979517 -10.151865 0.09481859 -10.112364 0.29673767 -10.045524
1.9033744 -9.732144 1.8147554 -9.764888 1.3419018 -9.910429 0.93114996 -10.040341
10.444144 -9.4284725 9.702101 -9.375209 4.0713143 -9.747314 1.9912858 -10.068712
3.618904 -9.87609 2.0846093 -9.959563 1.2331612 -10.088244 0.80235577 -10.189663
0.5265405 -10.262613 0.58909035 -10.198588 2.000603 -9.863667 13.99431 -9.305627
10.853538 -9.253613 4.551011 -9.6154585 2.6740916 -9.917248 1.7897365 -10.117554
17.415516 -9.7548275 7.5316157 -9.915345 15.63533 -10.087141 19.675299 -10.554894
4.30666 -10.9859705 2.6217303 -11.1374855 2.3324716 -11.18549 1.9405701 -11.237581
9.093075 -10.896276 6.162149 -10.79652 2.3752885 -10.882431 1.5629854 -10.93382
1.1722066 -10.958878 0.9509635 -10.970319 0.8366282 -10.96705 7.219412 -10.280209
4.0659566 -10.047221 1.9199252 -10.148136 1.163413 -10.264867 0.7623558 -10.354803
0.5498624 -10.412294 0.40646744 -10.469561 0.27411127 -10.513945 1.3943436 -10.210089
1.2597296 -10.158182 16.423002 -9.570291 7.018817 -9.754546 2.4736938 -10.261932
1.841636 -10.4927 1.5143862 -10.6330185 1.3115461 -10.772836 1.2304485 -10.921182
7.870885 -10.57124 13.847878 -10.334078 4.4445853 -10.534754 2.301457 -10.732495
1.766684 -10.824661 1.4586256 -10.896124 1.3157408 -10.967175 1.2875991 -11.041686
1.3151374 -11.111517 1.382946 -11.168533 1.4840775 -11.203256 1.6277864 -11.243387
1.7298303 -11.284534 1.8426006 -11.323555 1.9756532 -11.358177 2.0851905 -11.397847
00000000: 6b83 7340 5ccf 3ac1 00cd 5c40 eb89 38c1
00000010: 8f2c 6741 dc5d 2fc1 e997 9041 93ab 2ac1
00000020: 277f 9640 3827 2cc1 954f 1940 4dd0 2dc1
00000030: b228 e13f 8400 2ec1 c511 0d40 72f9 2ac1
00000040: fcf9 b53f a6c9 2ac1 a815 6a3f 5b13 2bc1
00000050: 14fe 093f b017 2bc1 6026 533f c2cf 27c1
00000060: bcf2 443f a906 28c1 882d 173f 6017 29c1
00000070: 089d f03e ed3c 2ac1 70ae d83e 6f6f 2bc1
00000080: 20e3 b63e 3042 2cc1 60d1 bc3e 920c 2dc1
00000090: 7088 ce3e 28d8 2dc1 b00f c93e 3c4d 2ec1
000000a0: f0aa ba3e dd51 2ec1 e08e b63e 910d 2ec1
000000b0: 2090 b53e c19f 2dc1 f0b1 ed3e 3ae5 2cc1
000000c0: b012 2b3f 4012 2bc1 6704 2640 c8da 24c1
000000d0: 4cef 3a40 a962 22c1 2e27 e93f 6b3c 24c1
000000e0: b6f2 9a3f e9c4 26c1 18d3 683f 11da 28c1
000000f0: 94aa 483f 9c8f 2ac1 808f 3e3f 7426 2cc1
00000100: b866 263f cc27 2dc1 5cf5 0b3f 51a3 2dc1
00000110: 2c4c 153f 04ad 2cc1 65ff 7c40 4035 24c1
00000120: 610e 1340 8ab2 22c1 c6d3 a93f f54d 23c1
00000130: 18cf 413f c03f 24c1 302d f23e 3704 25c1
00000140: 22f6 db3f 010a 20c1 282d 1d40 171a 1ec1
00000150: 12ca de3f 5b24 1fc1 e8f4 903f 3e14 21c1
00000160: 300b 303f ba70 22c1 5066 e43e 8667 23c1
00000170: 10ff 953e 4014 24c1 c01f 313e f27e 24c1
00000180: c462 133f 5399 22c1 00a3 fd3e cc87 22c1
00000190: d03e 9e3e 32cb 22c1 60ac 2a3e 94f2 22c1
000001a0: 40d3 293e 8bec 22c1 4041 fe3d 2010 23c1
000001b0: 00a0 7a3d d01b 23c1 0030 5d3c c408 23c1
000001c0: 0024 f4bb e0e8 22c1 0015 f43c 0a6e 22c1
000001d0: 4030 c23d 3ecc 21c1 00ee 973e 77ba 20c1
000001e0: c6a1 f33f ddb6 1bc1 e849 e83f fb3c 1cc1
000001f0: 70c3 ab3f 1e91 1ec1 d85f 6e3f 3da5 20c1
00000200: 371b 2741 06db 16c1 ce3b 1b41 db00 16c1
00000210: 3548 8240 00f5 1bc1 74e2 fe3f 7219 21c1
00000220: 209c 6740 7704 1ec1 3d6a 0540 5f5a 1fc1
00000230: 3ad8 9d3f 7369 21c1 3067 4d3f dc08 23c1
00000240: 5ccb 063f aa33 24c1 a0ce 163f 6b2d 23c1
00000250: e109 0040 94d1 1dc1 b2e8 5f41 d9e3 14c1
00000260: 17a8 2d41 cd0e 14c1 e2a1 9140 ebd8 19c1
00000270: 5124 2b40 0cad 1ec1 1616 e53f 80e1 21c1
00000280: fa52 8b41 c613 1cc1 ff02 f140 41a5 1ec1
00000290: 502a 7a41 ee64 21c1 0367 9d41 d9e0 28c1
000002a0: 29d0 8940 89c6 2fc1 6eca 2740 2433 32c1
000002b0: 3747 1540 c4f7 32c1 9a64 f83f 22cd 33c1
000002c0: 3c7d 1141 2657 2ec1 5330 c540 8cbe 2cc1
000002d0: ba04 1840 701e 2ec1 e80f c83f edf0 2ec1
000002e0: de0a 963f 9057 2fc1 5872 733f 6d86 2fc1
000002f0: 442d 563f 0979 2fc1 6c05 e740 bc7b 24c1
00000300: 511c 8240 6bc1 20c1 1cc0 f53f c45e 22c1
00000310: b8ea 943f e53c 24c1 c029 433f 46ad 25c1
00000320: c8c3 0c3f c298 26c1 801c d03e 5283 27c1
00000330: 5058 8c3e 1e39 28c1 da79 b23f 865c 23c1
00000340: d23e a13f ea87 22c1 4f62 8341 e91f 19c1
00000350: 269a e040 9f12 1cc1 0051 1e40 e030 24c1
00000360: baba eb3f 19e2 27c1 68d7 c13f d820 2ac1
00000370: bee0 a73f 895d 2cc1 567f 9d3f 29bd 2ec1
00000380: 4ade fb40 cd23 29c1 e990 5d41 6258 25c1
00000390: 0b3a 8e40 5a8e 28c1 124b 1340 4db8 2bc1
000003a0: b422 e23f d031 2dc1 3eb4 ba3f 8656 2ec1
000003b0: 326a a83f 8c79 2fc1 0cd0 a43f bfaa 30c1
000003c0: 6c56 a83f c6c8 31c1 6004 b13f 50b2 32c1
000003d0: 40f6 bd3f 8940 33c1 4e5b d03f eae4 33c1
000003e0: 146b dd3f 748d 34c1 56da eb3f 482d 35c1
000003f0: 34e2 fc3f 18bb 35c1 c373 0540 955d 36c1
