examples/2_streamflow_isotope_simulation/results/model_state_dict.pt (torch, 7266 bytes, 6 tensors)

lstm.weight_ih_l0 f4 [56, 4]
00000000: 0063 053f 42e5 5abe ab29 1b3e 2836 293d
00000010: e5f8 883e 3b06 283f a58a 9a3e acf2 dd3d
00000020: 0294 c83e abbc b1be 5aaa 25bf fde9 f6be
00000030: ba9d 933e 7997 00bf cdea 1f3f 44a8 12bf
00000040: cbc3 793f e325 00be bb91 a4bc 76d6 e8be
00000050: 8e58 f83e ebee 86be 6679 8b3e 7031 02bf
00000060: a881 0e3f bdb8 aebe 5bfb 7fbe bc12 22be
00000070: 208c ea3e a835 25bf 0f4c 46bf e677 8bbe
00000080: ea83 873e d45e 403f 1ca9 99bb 7ba8 43be
00000090: 0d42 283f 294c f6bd 18a1 18be 1f4e e2bd
000000a0: 5bf4 ea3e 2bcf d33d 3590 50be 0b07 b9be
000000b0: 864a 673f 9b67 113e a7fe 983e ee90 a93d
000000c0: 4874 fc3e a882 0d3f e7e9 053e 872f f7bd
000000d0: 9b96 bf3e 444e c6bd 7e0d 5b3e d1c0 22be
000000e0: 95d9 55be 51db c7be 4f08 afbe 3a38 373f
000000f0: ccd3 5bbf 6726 c93e 0931 263d b215 26be
00000100: bdd0 e53e 90d7 27bf d752 a3be f430 023e
00000110: b6ec d53e bf5f 82be 62c9 fd3e 4115 8d3e
00000120: f19e 023f 2dd7 b93e 1ba5 2fbe 7a39 9bbe
00000130: 16ad 94bd a4c9 05bf bcf5 a2be 8ccd 5dbf
00000140: 3e9b 073f 0971 c83d e2f1 0bbe bbf7 23bf
00000150: ba1f 43bf 0b4c 12bf 34cc 27bf 0b11 3d3e
00000160: 72ae 663c c335 a43e 2ce9 68bc e2ea 37be
00000170: 33a3 503f da72 853c b914 6a3e a649 cfbe
00000180: 9282 d5be b5f3 1ebe 489c b1be 941a 8d3e
00000190: 9092 2abe 5c20 8e3e 54a4 c23d 57ea 463f
000001a0: 1bdb 0bbd c2a7 7fbb b66c 243e bc84 a83e
000001b0: eb27 25bd 6ff8 0e3d b78a eabe 8868 a5bc
000001c0: 794b b23e 4c4e 653d 6a04 0abf 787f 5bbe
000001d0: 72b1 20bf 482e 033e 275c 31be 5a7f 27be
000001e0: e053 2e3e 115b 803e 414f 743f 762d c1bd
000001f0: 7868 2fbf e685 bbbc f002 043e 4f6c 3a3e
00000200: 882c 803d 063c 21bf bba6 29be 0f6b 283e
00000210: 445d eb3c 1713 993c b567 ccbd de7d 99be
00000220: 71cf 20be d57c 5d3e 3583 503e ee9f 7a3e
00000230: 70fc 993e 56c5 0f3f 7f16 8a3f 304b dfbb
00000240: e8e4 1cbf d761 a63d 3fde 41be 405f f1bd
00000250: 8b1b 86bd 4b81 13bf 077b 48be 61fe 6ebd
00000260: 9576 a9be a8f9 a6bd fb6b 8bbe ac18 e23c
00000270: 5bb6 afbe 716e cbbe b8b6 edbe f63f 823c
00000280: 3c9e 403e 2a69 c03c d808 06bf aefe b2bc
00000290: 934c 263e e42e 29bf ed00 9a3e ef2b 83bd
000002a0: ff21 a03e a50b 9ebe 28fb 043f 9aea 973e
000002b0: 5f4d 0abe 3312 723e 1dca a33e 675d 68be
000002c0: 9556 133f 6e9a cfbd e22b 57be c58a f1be
000002d0: 8f8e a83e 86c3 f8be 92b1 253f a14e 11bf
000002e0: ab60 f83e 2961 aa3e c553 443e 36d5 b0bd
000002f0: bb95 92be 14d8 bebe 2cc6 f1be 3b9d 34bf
00000300: c9ca af3e 8ce8 003d d6dd 85be a93a efbe
00000310: 314b 4a3e 3878 cbbe 378c 61bf df08 83be
00000320: a5b8 ae3e e945 9a3e 67f8 613d 6a67 fdbe
00000330: 1a2c 2a3f b9ce 9cbe 4c9c 96bd 1a77 f5be
00000340: 045a 493f 9dc5 d33d 54be 013f ba71 46bf
00000350: 23c5 533f d422 933c 7f86 3a3c 83d6 8dbe
00000360: 71f9 aa3e a7a5 103e ce3a 3abe e976 ecbe
00000370: 7655 523e 52e5 6fbe 2c79 933d f2f9 95be
0.52104187 -0.21376517 0.15152614 0.041311413 0.2675239 0.65634507 0.30183902 0.108373016
0.3917542 -0.34714255 -0.6471306 -0.48225394 0.28831273 -0.5023113 0.6246765 -0.57288
0.9756438 -0.12514453 -0.020089021 -0.4547612 0.48505062 -0.26354155 0.27241057 -0.50856686
0.5566659 -0.3412532 -0.24998228 -0.15827459 0.45810032 -0.64535 -0.77459806 -0.27239913
0.2646783 0.75144696 -0.004689349 -0.19107239 0.65725785 -0.12026245 -0.14905202 -0.11050057
0.45889553 0.103422485 -0.2036751 -0.36138186 0.9034809 0.14199679 0.29881784 0.08279596
0.49307466 0.5527749 0.13077508 -0.12069612 0.3741959 -0.09682897 0.21391866 -0.15893866
-0.20883782 -0.39034513 -0.34186026 0.7157017 -0.8587005 0.3928711 0.040574107 -0.16219214
0.44885817 -0.655633 -0.3189914 0.12713987 0.4178216 -0.25463673 0.49567705 0.27555278
0.51023775 0.3629698 -0.17152826 -0.3031729 -0.07259576 -0.52260804 -0.31828105 -0.86641765
0.52971256 0.09787185 -0.1366649 -0.6404988 -0.76220286 -0.5714728 -0.65545964 0.18463533
0.014079677 0.32072267 -0.014215749 -0.17960694 0.8149902 0.016290117 0.22859468 -0.40485877
-0.4170118 -0.15522654 -0.34689546 0.2755934 -0.16657472 0.27759063 0.09503999 0.77701324
-0.034144502 -0.0039009904 0.16057095 0.32913768 -0.040321272 0.034904893 -0.45808956 -0.020191446
0.34823206 0.055982873 -0.53912985 -0.21435344 -0.6277076 0.12810624 -0.1732031 -0.16357175
0.17024183 0.25069478 0.9543343 -0.09432499 -0.6851878 -0.022890996 0.12891746 0.18205379
0.06258494 -0.62982213 -0.16567509 0.1644709 0.028730996 0.01868586 -0.09980718 -0.29978842
-0.15704133 0.21629651 0.20362552 0.24475071 0.30075407 0.56160486 1.0788115 -0.006814383
-0.61286783 0.0812413 -0.18932436 -0.117857456 -0.06548222 -0.5761916 -0.19578181 -0.058348063
-0.33098283 -0.08153087 -0.2723082 0.027599655 -0.34318814 -0.39732698 -0.46428466 0.01589964
0.18810362 0.023487646 -0.52357244 -0.021849956 0.16240148 -0.66087174 0.3007883 -0.06404864
0.31275937 -0.3086826 0.51945734 0.29671174 -0.13506077 0.23639755 0.31990138 -0.2269188
0.5755399 -0.10136877 -0.21012834 -0.47176185 0.32921264 -0.48586673 0.64724076 -0.56760603
0.48511252 0.33277252 0.1917258 -0.08634417 -0.2862986 -0.3727423 -0.47221506 -0.70552415
0.343344 0.031471774 -0.2614581 -0.46724442 0.19755246 -0.39740157 -0.88104576 -0.25592706
0.34125248 0.30131462 0.055168536 -0.4949296 0.66473544 -0.30626467 -0.0735403 -0.4794243
0.7865298 0.10340426 0.5068104 -0.7751728 0.8272268 0.017960943 0.011384605 -0.27702722
0.33393434 0.14125691 -0.18186495 -0.4618447 0.20540413 -0.23427323 0.07200846 -0.29292256

lstm.weight_hh_l0 f4 [56, 14]
00000000: ea3b 86bd 390b 60bf 8ad2 05be ade3 febe
00000010: 6088 55bd 49bf 93be d706 913d ebe5 0bbe
00000020: cfad 21bf d757 58be 5d1f 9f3c 58c5 2dbf
00000030: 787c 30bf f18e b7bd e4b1 21bd de62 c33d
00000040: db28 593f 6931 19bf d20d 4ebe 6684 d3bd
00000050: bffc 8fbe 8af1 4f3f f161 973d 2711 343e
00000060: de7a a6bc 4666 aebe 58d6 a83e 18a2 353e
00000070: fcb5 1a3f 8b52 923d a1cb 52be 90ff d2be
00000080: 0cec 19be ae4d 243f 60d9 9bbe 5619 29bf
00000090: 007f 36bf df40 bb3e 0b7c 3e3f 1b79 28bd
000000a0: 88bb 79bd 391c 1b3f 4034 5d3e 80dc 45bf
000000b0: 7b61 e5bd 7ee6 e0bd f5ac 9bbb 8750 65be
000000c0: 3037 423e 8489 e1be b05e cfbe f9ba bfbe
000000d0: c99a 5a3e 1885 393e 84d9 37bf dd25 333c
000000e0: 3d84 ed3e 2bf6 4f3b 5972 ea3d eaaf 2b3e
000000f0: 77e8 88be fd1b b5bd adc7 53be 2212 203e
00000100: 4492 c5be 808b 24be 44a0 97bc 1707 013e
00000110: 54d0 6e3e ff0e 703d c604 be3e 9861 cdbe
00000120: 20a5 3d3e ba73 d5be a56a d8bd 6fd7 293d
00000130: 1958 b2be 79e2 92bd 5eb3 1cbf 1b69 193c
00000140: fd80 3bbe fefa 08bf 840e c3be 19f3 db3d
00000150: 7d74 e43e 2c91 d6be 327c fb3c 3dde 48be
00000160: 2d97 f0bd f231 0b3c ae90 32bd 8179 d9bb
00000170: 261c 30bf 9faa 1dbe 2643 b6bc cd7a babd
00000180: 8860 56be 1014 e93d 432d 5b3e 1548 993e
00000190: 676b 1cbf 9c54 babe 7ad2 d4bc 0c47 a2bd
000001a0: c74d a83e fc35 55bf 07ee 9c3e 5f4a 843d
000001b0: ff55 2bbd aa7f 783e b963 953e 632c c1bd
000001c0: 1818 5b3d 5313 213e 2eb9 b93e dc37 c73d
000001d0: 618e 433e 34ff 393e ca03 743e a326 1bbe
000001e0: c100 1e3c 754d 6dbe dd57 fb3e 518c 703e
000001f0: 3529 f3be 7abd c83e 249d f73d 792f 2b3e
00000200: 1314 f43e 9d50 a7be a4ae 2fbc e747 513e
00000210: a16a 24be 0fc5 c63e 5b33 f5be b85e 923c
00000220: 03a6 4ebd 64c5 8c3d 9a7a 04be 2c4a b33d
00000230: 93a6 6c3f 7866 0abe c13a 173d 49c0 92bf
00000240: 3455 09be 5664 d53e aaf8 a7be ad2f aebd
00000250: 1d0b b8be 25d7 23be 10ab 483e 3f83 65be
00000260: d35d c93c 8236 b23e 39f0 c1bd 4fc5 91be
00000270: f169 a83e e06b a6bd 6fe9 94bd fddb d13e
00000280: a2e2 323d e4fd 993e ced5 cfbe e36f 23be
00000290: 0932 013e 8917 c1bd ab75 7b3d 9792 473d
000002a0: 3d21 c5bd 8f10 da3c ebc1 8e3d 965d 363e
000002b0: e5a1 6ebe 0cf2 c1be 00df ea3c b40f 31bc
000002c0: 88a5 98be a0f4 0fbc 1f7e 98be 8860 03bf
000002d0: 3666 26be ef03 593d c530 653f e4b8 713e
000002e0: 2679 cf3d ed38 1fbf 6a15 abbd c6eb 093f
000002f0: c741 66be c91b 2c3e 519c 30be 85c8 43bd
00000300: 99f0 2cbe c6b9 4cbe 282a a23e 693b 713e
00000310: 82e8 a73d a447 c23d 9e4d c4be 16bb 983d
00000320: cd17 23bc 8427 b83e dfe2 d9bd db4e 88be
00000330: b9b5 a3be ca8c b03e b7d7 4d3e 5725 8e3e
00000340: 89ae dd3e 2968 333c 5f93 7c3b 1800 153e
00000350: 4a26 aabd fa27 b73d 9e38 55be 0ebb cabe
00000360: 33e4 aa3e c71c 603d 46af a53d 6272 223b
00000370: 3a5a 113f 7917 b8bc 63cb 61be e5e7 0ebe
00000380: eed2 283e 0970 41be d94a 91be 6456 213e
00000390: 3db2 dfbe 96ad 843e b38d 293c 87d2 b6bd
000003a0: ea69 b2bd 36b2 46be 3b4a 3dbe 9150 d7bd
000003b0: 144f 0ebd 5c10 90bd b922 00bf f702 e5be
000003c0: aa00 c7be 34eb c73e e794 b4be 04e1 743e
000003d0: 9cf9 64be 1d14 ac3e db42 033f 99e9 a23d
000003e0: 3d4c 473e 128a 81bd e491 1cbd 9da8 67be
000003f0: cd20 273e 0b0f 1abe 38ae 9e3e 87a7 22be
-0.065543965 -0.87517124 -0.13068596 -0.49783078 -0.05213201 -0.28856876 0.07081383 -0.13661925
-0.63155836 -0.21127258 0.019424135 -0.6787925 -0.68939924 -0.08962811 -0.03947629 0.09540342
0.84827965 -0.5984102 -0.2012246 -0.103279874 -0.28122517 0.81227934 0.07391728 0.17584668
-0.02032226 -0.34062403 0.3297603 0.17737615 0.60433936 0.0714465 -0.20585491 -0.41210604
-0.15031451 0.6418103 -0.3043928 -0.66054285 -0.71287537 0.3657293 0.74408025 -0.04113112
-0.06096986 0.6058994 0.21601963 -0.7728958 -0.112002335 -0.10981463 -0.0047508427 -0.22394
0.18966365 -0.4405023 -0.40501928 -0.37447336 0.21348108 0.18117177 -0.7181628 0.01093432
0.46389952 0.003173242 0.11447591 0.16766325 -0.26739857 -0.08843229 -0.20681639 0.15631917
-0.38588154 -0.1606884 -0.018509038 0.12600361 0.23321658 0.05860805 0.37113017 -0.4011352
0.18520021 -0.41689855 -0.10567216 0.04146522 -0.34832838 -0.071721025 -0.6121119 0.009363438
-0.18310924 -0.53507984 -0.38097012 0.107397266 0.44620124 -0.41907632 0.03069887 -0.19616027
-0.117475845 0.008495795 -0.04359501 -0.006636799 -0.6879295 -0.15397118 -0.022248816 -0.09105454
-0.20935261 0.1138078 0.21403985 0.29937807 -0.6110138 -0.36392677 -0.02597927 -0.07923707
0.3287184 -0.832855 0.3065035 0.06459498 -0.04183006 0.2426745 0.29177645 -0.09432294
0.053489774 0.15730028 0.36274093 0.09727451 0.19097282 0.18163759 0.2382957 -0.15151457
0.009643734 -0.23174079 0.49090472 0.23491026 -0.47492376 0.3920706 0.12090519 0.16717328
0.47671565 -0.3267869 -0.01072279 0.20437585 -0.160563 0.3882222 -0.47890744 0.017867431
-0.05045129 0.06873587 -0.12937394 0.087543815 0.9244167 -0.13515651 0.036921266 -1.1464931
-0.13411409 0.41678113 -0.32806903 -0.08505187 -0.3594598 -0.1600004 0.19596505 -0.22413348
0.024580872 0.3480721 -0.09469647 -0.28470847 0.32893327 -0.08126044 -0.072710864 0.4098815
0.043673165 0.30076516 -0.40592808 -0.1596065 0.12616743 -0.09428317 0.061391514 0.048723783
-0.0962548 0.026619224 0.06970581 0.17809138 -0.23303945 -0.3787998 0.028670788 -0.010806967
-0.2981379 -0.0087863505 -0.29783723 -0.5131917 -0.16249928 0.052982267 0.8952754 0.23605686
0.10130529 -0.62196237 -0.08353694 0.53875387 -0.2248603 0.16807474 -0.1724713 -0.047798652
-0.16888656 -0.19992742 0.31672788 0.2355782 0.08198644 0.094863206 -0.38340467 0.07457559
-0.009954405 0.35967648 -0.10638975 -0.26622662 -0.3197458 0.34482414 0.2010182 0.27762863
0.43297222 0.010950127 0.0038539988 0.14550817 -0.08308084 0.08943172 -0.20822379 -0.39595836
0.33377227 0.054714944 0.080900714 0.0024787416 0.567783 -0.02247213 -0.22050242 -0.13955648
0.16486713 -0.18890394 -0.28377417 0.15755612 -0.43690673 0.25913686 0.010348725 -0.08926874
-0.08711608 -0.1940392 -0.18485348 -0.10513414 -0.034743384 -0.0703437 -0.5005298 -0.44728824
-0.38867694 0.39046633 -0.35269853 0.23913962 -0.22360843 0.33609095 0.5127389 0.079547115
0.19462676 -0.06325163 -0.03822507 -0.22622915 0.16321106 -0.15044801 0.30992293 -0.15884219

lstm.bias_ih_l0 f4 [56]
00000000: 8d2a b13d 6702 923e fd65 9a3e 83b0 07bf
00000010: 3cab dbbe ce0d f33c 779c dd3d 5bcb 083e
00000020: 945b 073e fb8c 4c3e 4198 6bbe 8a9c 333c
00000030: d87e 943d 2e48 61bd 398e 3a3e c92f ed3e
00000040: 9d63 91be 8253 1f3e 54d2 533e eb3d 853c
00000050: d8a1 79b9 b2a1 33be 8405 263e 7a05 ca3e
00000060: 7c5f f7bd c48d 8d3e 8f0f c63e cfa6 ca3e
00000070: cbfc 4fbd c259 13be 8e83 4e3e 3245 22bd
00000080: 403b 543e 71fd ddbd 5b11 a83d ee4e 133e
00000090: 2be2 253e edba da3d 9395 3ebc b883 44be
000000a0: 3bc7 34be b8f5 563b 3fe9 f13e d9be 013f
000000b0: 4613 6dbe 6659 ab3d 999a eebd 2221 f53d
000000c0: 2214 493e bf10 333e e6c6 a43e 27b8 6ebe
000000d0: 6eee 64be 9db0 2fbe 0d3d 063d f6e2 013e
0.08650694 0.28517458 0.30155936 -0.5300371 -0.4290408 0.029669669 0.10820859 0.13358824
0.13218528 0.19975655 -0.23007299 0.010962615 0.07250756 -0.055000477 0.18218316 0.4632552
-0.2839631 0.155592 0.20685703 0.016264876 -0.00023806782 -0.1754215 0.16213042 0.39457303
-0.12078759 0.2764722 0.38683745 0.3958039 -0.05077819 -0.14389709 0.20167372 -0.03961677
0.20725727 -0.10839356 0.08206435 0.14385578 0.16199557 0.106801845 -0.011632341 -0.19190872
-0.17654125 0.0032800268 0.47248265 0.50681835 -0.23151883 0.08366661 -0.11650581 0.1196921
0.19636586 0.17486857 0.32182997 -0.23312436 -0.22356579 -0.17157216 0.032773066 0.12684235

lstm.bias_hh_l0 f4 [56]
00000000: e811 82bc 5d9b d8bc 0f6e 8dbd 63a4 eabe
00000010: b8ec bcbe eaa3 cebe 7e1e 2fbe 65c4 97bd
00000020: 7d4d 983e 0e2d a33e 192a b2be b011 d2bd
00000030: 7a55 95bd 44e3 d2bd 7d7d 553e 1629 073f
00000040: 4001 b5be 3e33 68be f5f6 b93e efe8 d93d
00000050: f777 983e 3e8a 31be 367b 59bd 8019 d8bc
00000060: ec3f 343e bfa3 173f ff83 143f bb8f 2a3e
00000070: 70d7 cabd 53c2 493e 8e62 483e f0d5 773b
00000080: cc44 2dbe 32be 6fbc 6477 6c3e eefb 14bc
00000090: 0852 33bd 44e8 423d 2508 c13e badd 723e
000000a0: 961d 0e3d 5299 153e 13a6 883d 22f9 0f3f
000000b0: fbee b9bd 5968 933d f21f e63d 363b 4abd
000000c0: 64fd 76be 815c 983e a068 093e 7843 303d
000000d0: 3414 81bd d745 3f3e 42af d73d 3e4a d7bc
-0.015877679 -0.02644127 -0.06905758 -0.45828542 -0.36899352 -0.40359432 -0.17101476 -0.07410506
0.2974662 0.31870311 -0.34797743 -0.1025728 -0.07291694 -0.10297254 0.20848651 0.5279707
-0.35352516 -0.22675797 0.36321226 0.10640132 0.29779026 -0.17337891 -0.05309602 -0.026379347
0.1760251 0.5923423 0.5801391 0.16656391 -0.09904373 0.19703035 0.19568846 0.0037816726
-0.16920775 -0.014632748 0.23092419 -0.009093268 -0.043779403 0.047584787 0.37701526 0.23717394
0.034696184 0.14609268 0.06672301 0.5623952 -0.09078785 0.07197637 0.11236562 -0.049372874
-0.24120098 0.29758075 0.13418818 0.043033093 -0.063026816 0.18678986 0.10531475 -0.026280519

linear.model.0.weight f4 [2, 14]
00000000: cb3a 2a3f 3ad0 eebd 699c 853f 16e8 68bf
00000010: 697b 273f 85e7 0fbe 10da 98be 856d 313f
00000020: 38c8 1bbf 4a43 a23e e8af 3ebf 48ad 1abf
00000030: c13a 043f a7c6 d13e 5b73 ddbd ab80 00bf
00000040: 4419 2b3d bffa 80be eb2e 00bf e7da dabe
00000050: d700 a73e 78ea 54be 48ca 04bf 18a0 cfbe
00000060: 4568 cbbd e1aa 19bd 7220 94be 3aaa 94be
0.6649596 -0.1166081 1.0438358 -0.90979135 0.65422684 -0.14053161 -0.29853868 0.6930774
-0.60852385 0.31691962 -0.7448716 -0.60420656 0.5165215 0.40971872 -0.10813018 -0.5019633
0.041772142 -0.25191304 -0.5007159 -0.42745134 0.32617828 -0.20792568 -0.51871157 -0.4055183
-0.09931997 -0.03751648 -0.28931004 -0.29036123

linear.model.0.bias f4 [2]
00000000: 4a38 6f3e dd08 22bd
0.23361316 -0.039559234
