examples/1_streamflow_simulation/results/best_model_state_dict.pt (torch, 21588 bytes, 5 tensors)

lstm.weight_ih_l0 f4 [120, 7]
0	0xbe91a2d8	-0.28444552
1	0x3e5ec58c	0.21755046
2	0x3e94bf9a	0.2905243
3	0x3d8582b5	0.06519071
4	0x3d0bba4f	0.034113225
5	0x3d3d82dc	0.046267375
6	0xbe2281f0	-0.1586988
7	0x3db0ef5f	0.086394064
8	0x3e87223c	0.26393306
9	0xbdc9fcd6	-0.09862678
10	0xbd0cda15	-0.034387667
11	0x3cdda139	0.027054416
12	0xbe367a7b	-0.1782016
13	0xbc01c35b	-0.0079201115
14	0xbe984822	-0.29742533
15	0xbe88a697	-0.26689598
16	0xbcfc6ae9	-0.030812697
17	0x3e3130b6	0.17303738
18	0xbbbedd68	-0.0058247335
19	0xbe652f64	-0.2238136
20	0xbda77cb6	-0.081780836
21	0x3e8b4392	0.2719999
22	0x3dd2a6e7	0.1028574
23	0xbdb3df8b	-0.08782872
24	0x3e648460	0.22316122
25	0xbd911e95	-0.07085911
26	0xbe140321	-0.14454319
27	0xbe778b41	-0.24174215
28	0xbe93d0f7	-0.28870365
29	0x3dbda9df	0.09260916
30	0xbd207b5e	-0.039180152
31	0xbc2bd1b5	-0.01048701
32	0x3e5540f0	0.20825553
33	0xbe6cd53d	-0.23128219
34	0xbb7efb66	-0.003890717
35	0xbe2f3da7	-0.17113362
36	0xbd84f122	-0.06491305
37	0x3e2b21f2	0.16712168
38	0xbd137d7e	-0.03600835
39	0xbe2d8340	-0.16944599
40	0xbe2ec4ae	-0.17067215
41	0xbe26e65d	-0.16298814
42	0x3eaff7c4	0.34368718
43	0xbe0b2499	-0.1358818
44	0xbd9f1d3b	-0.07769247
45	0x3ddfe537	0.10932391
46	0x3cc1d43a	0.023660768
47	0xbe74dd99	-0.23912658
48	0xbdc03ebc	-0.09386966
49	0xbd483cde	-0.048886172
50	0x3e093f10	0.13402963
51	0xbe14f6db	-0.14547293
52	0x3ab002a6	0.0013428524
53	0xbe5a44f9	-0.21315373
54	0x3d96a87e	0.07356356
55	0x3c21cf0f	0.009876027
56	0x3e9bd06f	0.3043246
57	0x3dcbd4a5	0.09952668
58	0xbbb81b6b	-0.005618503
59	0xbe232cbe	-0.15935037
60	0x3de849be	0.1134219
61	0x3daa351a	0.083109096
62	0x3d74ae1a	0.05973635
63	0x3e814efb	0.2525557
64	0x3d9271f0	0.07150638
65	0x3e5ec1e5	0.21753652
66	0xbc67a78e	-0.014139069
67	0xbe823631	-0.2543197
68	0x3e312eea	0.17303053
69	0xbd8099a5	-0.06279305
70	0x3e4a1c86	0.19737443
71	0x3e9b407a	0.3032263
72	0xbd95b829	-0.073105164
73	0xbd99484a	-0.07484491
74	0x3d40254b	0.046910565
75	0xbbc05b00	-0.005870223
76	0xbdd0ee9e	-0.102017626
77	0x3ecd9d8f	0.4015927
78	0x3e3f5bbc	0.18687338
79	0xbdcb64e9	-0.099313565
80	0xbd7f5c33	-0.062343787
81	0xbe7ae526	-0.24501476
82	0x3b059d1c	0.0020387834
83	0x3dc44245	0.095829524
84	0x3e4e38e9	0.20138897
85	0x3e2ed84c	0.17074698
86	0x3d8fdd7f	0.07024669
87	0x3e25ba67	0.16184388
88	0xbe0eb5cd	-0.13936539
89	0xbd698a77	-0.057016816
90	0x3c487231	0.012234257
91	0x3e6a3905	0.22873314
92	0x3dc175af	0.094462745
93	0x3e0ae5d3	0.13564233
94	0x3e2888ef	0.16458486
95	0xbe815c7b	-0.2526587
96	0x3d975dac	0.07390913
97	0xbe3f1ab6	-0.18662533
98	0x3cfc1b59	0.03077476
99	0xbe767e0c	-0.2407152
100	0xbd8e633a	-0.0695252
101	0x3ddfd5fd	0.10929487
102	0xbd9f9269	-0.077915974
103	0x3ddc2cb5	0.10750715
104	0xbcc36fe3	-0.023857063
105	0x3e0d7b8c	0.1381666
106	0xbe41d1d4	-0.189277
107	0xbd84fb16	-0.06493203
108	0xbcae7ffe	-0.021301266
109	0x3dfb4e37	0.12270778
110	0xbdf623e7	-0.120185666
111	0x3e651be8	0.22373927
112	0x3e50e967	0.20401536
113	0xbe8df12c	-0.27723062
114	0xbba7045d	-0.0050969557
115	0x3e0919bd	0.13388725
116	0x3e45947f	0.19294928
117	0xbd9fea86	-0.07808404
118	0x3de70a54	0.11281267
119	0x3eb2e7f3	0.34942588
120	0xbd86eb0f	-0.065878026
121	0x3dcfca7f	0.10146045
122	0xbd058195	-0.032594282
123	0xbe857125	-0.26062885
124	0x3e1d9677	0.15389429
125	0x3d6f59e1	0.058435325
126	0x3ecdcfa0	0.40197468
127	0x3e9ebe8e	0.31004757
128	0x3d539846	0.05165889
129	0x3d2172f5	0.039416272
130	0xbec665be	-0.38749498
131	0x3cb36e76	0.021903258
132	0x3dc637aa	0.09678586
133	0x3e3132b4	0.17304498
134	0xbe83d9df	-0.2575216
135	0x3d7a158b	0.0610557
136	0xbe13605d	-0.14392228
137	0x3df54edb	0.11977931
138	0x3e10af87	0.14129458
139	0xb9db2576	-0.00041798846
140	0x3e2b70dc	0.16742271
141	0x3db8b2c8	0.09018475
142	0xbe2a2fcf	-0.166198
143	0xbe1d2f5c	-0.15350097
144	0xbe472032	-0.19445875
145	0x3cd312c4	0.025765784
146	0xbccf160b	-0.025279066
147	0x3e863155	0.26209512
148	0xbe770c53	-0.24125795
149	0xbe58f42a	-0.21186891
150	0x3d5f44d0	0.054508984
151	0xbd217ea7	-0.039427426
152	0x3a8acd03	0.0010589663
153	0x3de9cb54	0.11415735
154	0x3e8150b6	0.2525689
155	0xbdb68b97	-0.089133434
156	0xbd960216	-0.073246166
157	0xbe4b8598	-0.1987518
158	0x3dc0bdd7	0.09411209
159	0xbe2cfd06	-0.16893396
160	0xbdd64103	-0.10461619
161	0xbdcba6b5	-0.09943906
162	0x3de5c220	0.11218667
163	0x3edf2485	0.4358255
164	0x3e7b7e3e	0.24559876
165	0xbe9cfdc3	-0.30662355
166	0x3e288778	0.16457927
167	0xbe7dd4f3	-0.24788265
168	0x3dd0a7e1	0.1018827
169	0xbe24d7b7	-0.16097914
170	0x3e4cecf7	0.2001227
171	0xbd0ca431	-0.034336273
172	0x3e24982e	0.16073677
173	0x3e177908	0.14792264
174	0xbdb215b3	-0.08695545
175	0xbca503ad	-0.020143354
176	0x3e2d7845	0.1694041
177	0xbd69d684	-0.057089344
178	0x3e82580f	0.25457808
179	0x3c2086ae	0.009797735
180	0xbd4ad6fd	-0.049521435
181	0xbd11effa	-0.03562925
182	0x3da64355	0.08118311
183	0x3e53fae0	0.2070117
184	0x3dfdb0ae	0.123872146
185	0x3da04c4c	0.078270525
186	0xbe50a71c	-0.20376247
187	0x3d53b508	0.051686317
188	0xbdc1aa4f	-0.09456312
189	0xbe9355d9	-0.28776434
190	0xbc93eb11	-0.018056424
191	0xbe2c9329	-0.16853012
192	0x3e43ea82	0.19132426
193	0x3dfd2e3f	0.12362336
194	0x3c55500c	0.013019573
195	0x3e019d56	0.12657675
196	0x3e750815	0.23928864
197	0x3f166a21	0.5875569
198	0x3e30cd88	0.17265904
199	0x3e3fe9b5	0.18741496
200	0x3e6284ad	0.22120924
201	0x3e149ad9	0.14512195
202	0xbde911a6	-0.11380319
203	0x3e88cda2	0.26719385
204	0x3dbbb331	0.091650374
205	0x3dcd3f4a	0.10021837
206	0xbdfdcfd2	-0.12393154
207	0x3e452765	0.19253309
208	0x3d62a877	0.05533644
209	0x3e364ff9	0.17803945
210	0xbe62f481	-0.22163583
211	0x3e169f57	0.14709221
212	0x3de1802d	0.11010776
213	0x3e79c9f0	0.2439344
214	0x3e4d878c	0.20071238
215	0xbd51d6dd	-0.0512303
216	0xbdb7894c	-0.08961734
217	0x3d170480	0.036869526
218	0x3e07cba4	0.13261276
219	0x3d89cf0c	0.06728944
220	0x3d4ae0b2	0.049530692
221	0xbd659d65	-0.056058306
222	0x3d91b871	0.071152575
223	0x3dbf8463	0.09351423
224	0xbed3884c	-0.41314924
225	0xbe90d3d6	-0.28286618
226	0x3cded499	0.027200984
227	0x3e7e0d71	0.24809815
228	0x3e214ca5	0.15751894
229	0xbde34066	-0.110962674
230	0xbcbf506b	-0.023353776
231	0x3dd92ffe	0.10604857
232	0xbccae043	-0.02476514
233	0x3e14eb85	0.14542969
234	0xbd06d635	-0.032919127
235	0x3e4fbb61	0.20286323
236	0xbdda52e0	-0.106603384
237	0xbe07d83c	-0.1326608
238	0xbeb342c0	-0.35011864
239	0x3d8f75d8	0.07004899
240	0xbe18913d	-0.14899154
241	0xbe67d8c6	-0.22641286
242	0x3e84fc9b	0.25973973
243	0x3db19286	0.08670525
244	0xbdb2dbed	-0.08733354
245	0xbded2282	-0.115788475
246	0xbdf3e785	-0.11909393
247	0xbbf80253	-0.0075686364
248	0xbdb631fd	-0.08896253
249	0xbe0fe824	-0.14053398
250	0xbe02b17b	-0.12763016
251	0x3d51f2af	0.05125683
252	0x3d386e43	0.04502703
253	0x3def4358	0.11682767
254	0xbed860af	-0.42261264
255	0xbea05a34	-0.3131882

lstm.weight_hh_l0 f4 [120, 30]
0	0xbe0ca163	-0.13733439
1	0xbdc2a57d	-0.09504221
2	0xbe32a0fe	-0.17444226
3	0xbeab7abe	-0.33492082
4	0x3e9557d4	0.2916857
5	0x3e6a3b8e	0.22874281
6	0x3dfbed15	0.12301079
7	0xbe4167c7	-0.18887244
8	0x3e2b101c	0.16705364
9	0x3e36d8c1	0.17856123
10	0xbe859066	-0.2608673
11	0xbe9c1fba	-0.30492955
12	0x3e1b65ce	0.15175554
13	0xbdbd5874	-0.09245387
14	0x3dc57df4	0.09643164
15	0xbdb46016	-0.088073894
16	0x3e9db0fa	0.30799085
17	0xbd0c52bd	-0.034258593
18	0x3e58a7cb	0.21157758
19	0x3dc27ddd	0.09496663
20	0x3b1abdd9	0.0023611693
21	0xbcf23fba	-0.029571403
22	0x3d5e4a30	0.05426997
23	0x3d5c6954	0.053811386
24	0xbe21c92d	-0.15799399
25	0xbddfc0c3	-0.10925438
26	0x3cbf6129	0.02336176
27	0xbe0fe42d	-0.14051886
28	0xbd405758	-0.046958297
29	0xbc8d4e1a	-0.017249156
30	0x3d1f470f	0.038886126
31	0xbdb6f273	-0.08932962
32	0x3e1ac045	0.15112408
33	0xbeae50e7	-0.340461
34	0x3e1ae3f5	0.15126021
35	0xbc29c5b3	-0.010362077
36	0xbe57eec3	-0.21087174
37	0xbe1b3a1e	-0.15158889
38	0x3e4ceba3	0.20011763
39	0xbd6b8d54	-0.057507828
40	0xbd2f8176	-0.042848073
41	0xbec4663a	-0.38359243
42	0xbdb24dd0	-0.08706248
43	0x3ec0d4cd	0.37662354
44	0x3f0a007d	0.53906995
45	0x3e77c34f	0.24195598
46	0x3e0fb004	0.14031988
47	0x3e22dbe8	0.159042
48	0x3e9dc626	0.30815238
49	0xbd4cd7ce	-0.050010495
50	0x3cf804e3	0.030275768
51	0x3e2d2a2a	0.16910616
52	0x3f027fe5	0.509764
53	0xbeddd0f9	-0.43323496
54	0x3e679517	0.22615467
55	0x3ee81127	0.45325586
56	0xbe076078	-0.13220394
57	0x3d9009b8	0.07033104
58	0x3c70490a	0.014665851
59	0xbe809315	-0.25112215
60	0xbe482a98	-0.19547498
61	0xbe254c24	-0.16142327
62	0x3e82c4ae	0.2554068
63	0xbe2b7412	-0.16743496
64	0x3d054c18	0.03254327
65	0xbe564057	-0.20922981
66	0x3e02b5f1	0.12764718
67	0x3d82cc6c	0.06386647
68	0x3e38f3a8	0.18061697
69	0xbe2c85ac	-0.16847867
70	0x3d660a7b	0.05616234
71	0xbe3a8713	-0.18215589
72	0xbe169c5b	-0.14708082
73	0x3ea1db57	0.31612656
74	0x3e807d3a	0.2509554
75	0x3e376bbc	0.17912191
76	0x3e877abd	0.2646083
77	0x3abb271e	0.0014278626
78	0x3e3ba7bb	0.18325703
79	0xbd9b85dc	-0.07593891
80	0x3e00d37b	0.12580673
81	0x3e730385	0.23731811
82	0x3e5ae2b4	0.21375543
83	0xbdcec042	-0.10095264
84	0x3e2cbc2a	0.16868654
85	0x3eadca73	0.3394352
86	0xbd126e57	-0.03574976
87	0x3d23cdee	0.03999131
88	0xbea396ae	-0.31950897
89	0x3d6a201b	0.057159524
90	0x3dc62981	0.09675885
91	0x3e65d010	0.22442651
92	0xbe3fb65e	-0.18721911
93	0xbd5205aa	-0.051274933
94	0xbdd652a9	-0.10464985
95	0x3e1ce62e	0.15322182
96	0x3da66e2c	0.08126482
97	0xbd660cb0	-0.056164443
98	0x3e1d0bd0	0.15336537
99	0x3d6e9239	0.058244918
100	0x3ee3f138	0.44519973
101	0x3d4a840c	0.049442336
102	0x3e3fc5c5	0.18727787
103	0x3d995aef	0.07488047
104	0xbd9811d8	-0.074252784
105	0x3deced23	0.11568668
106	0xbcff8275	-0.031190136
107	0x3ca59700	0.020213604
108	0x3e0b0062	0.13574365
109	0xbdb33ca1	-0.087517984
110	0x3d91b20b	0.07114037
111	0x3e48f5dd	0.1962504
112	0x3cf5eb46	0.030019414
113	0x3e026ecc	0.12737578
114	0xbe09d464	-0.13459927
115	0xbe436673	-0.1908205
116	0xbdaa5131	-0.08316267
117	0x3d3f6b98	0.04673347
118	0xbdfbfe66	-0.12304382
119	0xbe92c3a9	-0.28664902
120	0x3e0094f2	0.12556818
121	0x3e891871	0.2677646
122	0xbdea15c3	-0.11429932
123	0xbe8ad695	-0.27116838
124	0xbdc3ff50	-0.09570181
125	0xbccfaac4	-0.025349982
126	0x3b79535b	0.0038044068
127	0xbd84bb12	-0.06480993
128	0xbdae4562	-0.085093275
129	0xbe8c2ac7	-0.27376387
130	0xbe269bc0	-0.16270351
131	0xbdf5a0f9	-0.11993594
132	0x3d9f8fa0	0.07791066
133	0xbc96c78c	-0.018405698
134	0xbd5f6a6c	-0.05454485
135	0x3cf4de19	0.02989106
136	0x3e450ac3	0.19242387
137	0xbe5cf6db	-0.21578543
138	0x3dedb31a	0.116064265
139	0x3d118460	0.035526633
140	0xbd497fa1	-0.049193982
141	0x3c9f278f	0.019428043
142	0x3d888730	0.0666641
143	0xbe9eb08a	-0.30994064
144	0x3d34a3c0	0.044101477
145	0xbe22f29e	-0.15912864
146	0xbe01666e	-0.1263673
147	0xbd03bf98	-0.03216514
148	0x3da8c380	0.08240414
149	0xbd89edfb	-0.06734844
150	0xbd9733bb	-0.07382914
151	0xbd56e093	-0.052460264
152	0xbc0c94c4	-0.00858039
153	0x3d1f6187	0.03891137
154	0xbd5706bf	-0.052496668
155	0x3d1c48a1	0.0381552
156	0x3e650502	0.22365192
157	0x3cf66737	0.030078514
158	0xbd6202dc	-0.05517851
159	0xbcb0ca23	-0.021580761
160	0xbc7f1b21	-0.015570433
161	0xbe637351	-0.22211958
162	0x3c4fee77	0.012691132
163	0xbe3f0a72	-0.18656328
164	0xbceb6d83	-0.028738743
165	0xbc36a23a	-0.011147076
166	0x3da7f4ea	0.082010105
167	0xbd398556	-0.045293175
168	0x3d01f56b	0.03172819
169	0x3e9a1ef9	0.30101755
170	0x3e1f879f	0.15579079
171	0x3dfd3000	0.12362671
172	0x3dc95111	0.09829915
173	0xbe849190	-0.25892305
174	0xbe92f4d9	-0.2870243
175	0xbdb18955	-0.08668772
176	0x3d1250f6	0.03572174
177	0xbe28fa14	-0.16501647
178	0xbe6912f6	-0.2276114
179	0xbe451b30	-0.19248652
180	0xbabfb792	-0.0014626852
181	0xbde67904	-0.11253551
182	0xbd865dd4	-0.06560865
183	0xbd6d2a25	-0.05790152
184	0xbde9e053	-0.114197396
185	0x3e834248	0.25636506
186	0x3e200b34	0.15629274
187	0xbe1c9dbf	-0.1529455
188	0x3db8a0f4	0.09015074
189	0x3dd250a3	0.102692865
190	0x3e20c056	0.1569837
191	0xbe80ffd8	-0.25195193
192	0x3bb8f76b	0.005644729
193	0x3e054c9b	0.13017504
194	0x3dae1ab5	0.08501188
195	0xbe6b74c1	-0.22993757
196	0x3e99aa49	0.3001273
197	0x3e587b1d	0.21140714
198	0x3c8e85d1	0.017397793
199	0x3e10b6c1	0.14132215
200	0x3ba4a497	0.0050245035
201	0x3b87d850	0.0041456595
202	0x3e0da933	0.13834076
203	0xbe42e77a	-0.19033614
204	0xbe944bb3	-0.28964004
205	0xbc0eb999	-0.008711242
206	0xbe360f27	-0.17779218
207	0xbe2d86c5	-0.16945942
208	0xbe8c07db	-0.27349743
209	0xbe5a90c1	-0.21344282
210	0xbdd372fb	-0.10324665
211	0xbd4df9de	-0.05028712
212	0xbd07478b	-0.033027213
213	0x3dab4afe	0.08363913
214	0xbe40d217	-0.18830143
215	0x3e17f8c5	0.14840992
216	0x3db3a96f	0.08772551
217	0xbd8cfef1	-0.06884564
218	0xbc14ebd3	-0.009089428
219	0x3dc0df36	0.09417574
220	0xbe986edb	-0.29772076
221	0xbe876a1f	-0.2644815
222	0x3e6f3862	0.23361352
223	0x3e8cc0e3	0.2749091
224	0xbd47f189	-0.04881433
225	0xbe4b2fe8	-0.19842494
226	0x3dbf2a06	0.09334187
227	0x3ddaa58d	0.106761076
228	0x3d3e415c	0.04644905
229	0x3e631540	0.22176075
230	0x3df9add8	0.12191361
231	0xbd8946f9	-0.0670299
232	0xbcade5cc	-0.02122774
233	0x393f9fe0	0.00018274738
234	0xbe97cb68	-0.29647374
235	0xbe8ad91f	-0.27118775
236	0xbdbec239	-0.09314389
237	0xbd21b6ee	-0.039481096
238	0xbe68207f	-0.22668646
239	0xbcf4b853	-0.029873049
240	0x3d2927c0	0.041297674
241	0xbe4d0947	-0.2002307
242	0xbe88a533	-0.26688537
243	0xbde3f691	-0.11131013
244	0x3c9f8e42	0.019477013
245	0x3e3afccb	0.18260495
246	0xbd391556	-0.045186363
247	0xbdc11786	-0.09428315
248	0xbdb49dfc	-0.08819196
249	0xbe0bc4bf	-0.13649271
250	0xbdb35eab	-0.08758291
251	0xbe6aadfa	-0.2291793
252	0x3d16e9ae	0.036843948
253	0xbe62f770	-0.22164702
254	0xbd504e32	-0.050855823
255	0x3d5c3e4a	0.05377034

lstm.bias_ih_l0 f4 [120]
0	0xbe0e61cb	-0.13904493
1	0xbdf4b385	-0.11948303
2	0x3e2e9c47	0.17051803
3	0xbd67f9cd	-0.056634713
4	0x3acf8d7b	0.0015835011
5	0x3c722b59	0.014780843
6	0xbe96bb40	-0.29439735
7	0xbd29f013	-0.04148872
8	0xbe7f3064	-0.24920803
9	0xbdb30856	-0.08741824
10	0xbecbfc69	-0.3984101
11	0xbe145bf9	-0.1448821
12	0xbe42a122	-0.1900678
13	0xbe9475fb	-0.28996262
14	0xbe7f432d	-0.2492797
15	0xbe306507	-0.17226039
16	0x3d11074d	0.035407353
17	0xbe648ddf	-0.22319745
18	0xbcfa405b	-0.030548265
19	0x3e020c3b	0.12699978
20	0xbe82c477	-0.25540516
21	0xbdbfdeba	-0.093686536
22	0xbe1963d3	-0.14979486
23	0x3d3246b7	0.04352447
24	0x3a791413	0.00095015875
25	0xbe8a1ec7	-0.26976606
26	0xbe303aeb	-0.17209975
27	0x3dac1ee2	0.08404328
28	0x3c6d301c	0.014476802
29	0xbde2fb85	-0.1108313
30	0xbe7b6b2f	-0.24552606
31	0x3e71532a	0.23566881
32	0x3e5c6df7	0.21526323
33	0xbe130dc0	-0.14360714
34	0x3ddcef22	0.107877985
35	0x3db48bd0	0.088157296
36	0x3d21454b	0.039372724
37	0xbd7a93ce	-0.061176114
38	0xbe6bcb04	-0.23026663
39	0x3e00a1ec	0.12561768
40	0x3e4eb298	0.20185316
41	0x3d9770e3	0.07394578
42	0xbcb822e5	-0.022477577
43	0xbda714fe	-0.08158301
44	0x3ea079f7	0.31343052
45	0x3ee81adb	0.4533299
46	0x3e648dc7	0.22319709
47	0xbe5b31f8	-0.2140578
48	0x3d5897f2	0.05287928
49	0x3d93eff3	0.07223501
50	0xbe289272	-0.16462114
51	0xbe39717b	-0.18109696
52	0x3d921520	0.071329355
53	0xbe230dd7	-0.15923248
54	0x3b2b64b9	0.0026152565
55	0x3e1115b3	0.14168434
56	0x3e30b51c	0.17256588
57	0x3dbc01a4	0.091800004
58	0x3e5aa325	0.21351297
59	0xbb4c43fa	-0.0031168447
60	0x3d1458b1	0.036217395
61	0x3d05197a	0.032495
62	0x3e0f6e72	0.14006975
63	0x3e3fc95c	0.18729156
64	0x3c41f767	0.0118387705
65	0x3cfe1dbb	0.031020036
66	0x3da89d8a	0.08233173
67	0x3dad038d	0.08447943
68	0x3ce3baae	0.027798977
69	0xbc335c63	-0.01094732
70	0x3e210eeb	0.15728347
71	0x3df7188d	0.120652296
72	0xbe1fa7f7	-0.15591417
73	0x3d58cc42	0.05292917
74	0x3dd7a2ce	0.105290994
75	0x3d252c97	0.040325727
76	0xbd0dc550	-0.034612
77	0x3de1adb8	0.11019462
78	0x3dd1e46e	0.10248648
79	0xbe71a343	-0.23597436
80	0x3d80b1ee	0.062839374
81	0xbb945e28	-0.004527826
82	0x3e07f4b7	0.13276945
83	0xbe248256	-0.16065344
84	0x3d6a586a	0.057213224
85	0xbd66049c	-0.05615674
86	0xbc8a92a0	-0.01691562
87	0x3e428b00	0.18998337
88	0xbd4e3e19	-0.05035219
89	0x3e070b33	0.13187866
90	0xbe9c952e	-0.30582565
91	0xbdb3240f	-0.08747112
92	0x3dfe3cbb	0.12413927
93	0xbd548bf6	-0.05189129
94	0xbe95313e	-0.2913913
95	0xbdc07edb	-0.09399196
96	0xbde390d3	-0.111116074
97	0xbda0734f	-0.07834493
98	0xbdd662b2	-0.104680434
99	0xbe7698dc	-0.24081749
100	0xbd1f76ba	-0.038931586
101	0x3af3ba86	0.0018595017
102	0xbe9ae11c	-0.3024987
103	0xbe230860	-0.15921164
104	0xbe2c19e9	-0.16806759
105	0x3d7471d4	0.059678867
106	0xbe5a30a3	-0.21307616
107	0xbe5baffa	-0.21453848
108	0xbd379f44	-0.044829622
109	0xbe0fb8f8	-0.14035404
110	0xbea0f2a3	-0.31435117
111	0xbe06b609	-0.13155378
112	0xbdf4f8e7	-0.11961537
113	0xbd93014f	-0.07177984
114	0xbe48f29c	-0.19623798
115	0xbc086d3c	-0.008326825
116	0xbd636197	-0.05551299
117	0xbd8995c4	-0.06718019
118	0x3b2e2414	0.0026571797
119	0xbdd994eb	-0.10624107

lstm.bias_hh_l0 f4 [120]
0	0xbe81edf3	-0.25376853
1	0xbd94e873	-0.07270899
2	0x3d0270e8	0.031845957
3	0x3bf71918	0.007540833
4	0xbdc248d5	-0.09486548
5	0xbdc86b29	-0.09786064
6	0xbe81ec25	-0.25375476
7	0xbdbe9d42	-0.09307338
8	0xbe67d8f9	-0.22641362
9	0x3d3fdcca	0.04684142
10	0xbd969292	-0.07352175
11	0xbd108678	-0.03528449
12	0xbe1fee06	-0.15618142
13	0xbec203f9	-0.37893656
14	0xbdb64758	-0.089003265
15	0xbee5b374	-0.44863474
16	0xbe91b176	-0.28455704
17	0xbe118c65	-0.14213713
18	0x3d8f760a	0.07004936
19	0xbce0d636	-0.027445894
20	0xbe001e9a	-0.12511674
21	0xbddb3348	-0.107031405
22	0x3cb76cef	0.02239081
23	0xbd9648ad	-0.073380806
24	0x3c96ba39	0.018399345
25	0xbd05f383	-0.032702934
26	0xbdabc8fd	-0.08387945
27	0x3b7c9344	0.0038539926
28	0xbd8ec205	-0.069706
29	0xbe3a4b7b	-0.18192856
30	0xbd20c5ca	-0.039251126
31	0x3dcff8ea	0.101548985
32	0x3d7a0aae	0.06104534
33	0x3d324ce8	0.043530375
34	0x3a0b22f6	0.0005307639
35	0xbd69d946	-0.057091974
36	0x3df9920c	0.12186059
37	0xbe0bf352	-0.13667038
38	0x3d21bf1d	0.0394889
39	0x3ca07f0b	0.019591829
40	0x3ea3be08	0.3198092
41	0x3e6db466	0.23213348
42	0xbdf19f60	-0.117979765
43	0xbe57c69d	-0.21071859
44	0x3f158bfb	0.5841672
45	0x3eb31433	0.34976348
46	0x3ce7f98e	0.02831724
47	0x3b46d41c	0.003033883
48	0xbd8b0199	-0.06787414
49	0xbda64d77	-0.08120244
50	0xbe3e1d82	-0.18565944
51	0xbe239893	-0.15976171
52	0x3db6c3d8	0.08924073
53	0xbdb7a996	-0.08967893
54	0x3d704e86	0.058668636
55	0x3e39d154	0.18146259
56	0x3e39c4cc	0.18141478
57	0xbe5961b0	-0.21228671
58	0x3cd36f13	0.0258098
59	0xbd98d418	-0.07462329
60	0xbdf949ba	-0.12172265
61	0x3d9dd349	0.07706315
62	0x3e4be68c	0.19912165
63	0x3cc54380	0.024080038
64	0xbcecd539	-0.028910266
65	0xbe5f4ec5	-0.21807392
66	0xbdc4b722	-0.09605242
67	0xbe0b1b25	-0.13584574
68	0x3de2ebfb	0.11080166
69	0x3d521a9a	0.0512949
70	0xbd310d37	-0.043225493
71	0x3e429ea2	0.19005826
72	0x3d65120c	0.055925414
73	0xbda3c622	-0.07996775
74	0xbc9eb553	-0.019373572
75	0x3dc8c836	0.09803812
76	0xbe5a46c1	-0.21316053
77	0xbe2fec3e	-0.17179963
78	0xbde64dbc	-0.112452954
79	0xbe23eea5	-0.16009004
80	0xbe066b4d	-0.1312687
81	0xbdccf6cc	-0.1000801
82	0xbd864098	-0.06555289
83	0xbda1677d	-0.07881067
84	0x3e233784	0.15939146
85	0x3d203850	0.039116204
86	0x3e4d6b4e	0.20060465
87	0x3d83d60a	0.06437309
88	0x3db78a4c	0.08961925
89	0x3d955f4f	0.07293569
90	0xbe181f7d	-0.14855762
91	0xbdf09968	-0.1174801
92	0xbe52f899	-0.20602645
93	0xbe2316dc	-0.15926689
94	0xbe45e591	-0.19325854
95	0xbe1cc689	-0.1531011
96	0xbe147223	-0.14496665
97	0xbe47ed7b	-0.19524185
98	0xbd5f5738	-0.054526538
99	0x3cf7fe88	0.030272737
100	0xbc68b47a	-0.014203185
101	0xbcb6a977	-0.022297604
102	0xbe4b9e25	-0.19884546
103	0xbe899463	-0.26871023
104	0x3d0d036e	0.0344271
105	0xbda63148	-0.081148684
106	0xbd27ec02	-0.04099656
107	0xbe8f2c3f	-0.27963445
108	0xbe33694b	-0.17520635
109	0x3dda2150	0.10650885
110	0xbe9b2c71	-0.30307344
111	0xbe6b4f2b	-0.22979419
112	0x3dd20721	0.10255266
113	0x3e03ca49	0.12870134
114	0xbe1636a5	-0.14669283
115	0xbe35ac97	-0.17741619
116	0x3b2a5e32	0.0025996086
117	0x3d267999	0.04064331
118	0xbcb5ba9a	-0.022183705
119	0xbeab5cf4	-0.33469355

linear.model.0.weight f4 [1, 30]
0	0x3d06004d	0.03271513
1	0x3c698ec0	0.014255226
2	0x3d3a46dd	0.045477737
3	0x3d5560e6	0.052094363
4	0xbdd4d648	-0.103924334
5	0xbd877922	-0.06614901
6	0xbdcc8a51	-0.09987319
7	0xbcb37010	-0.021904022
8	0x3c74192f	0.014898582
9	0x3def27e4	0.116775304
10	0x3d047343	0.032336485
11	0x3df20718	0.11817759
12	0xbda79864	-0.08183363
13	0xbdd25288	-0.10269648
14	0x3be7fb72	0.007079535
15	0xbda030f7	-0.07821839
16	0xbdc35173	-0.095370196
17	0xbd3d34db	-0.046192985
18	0xbe3e668c	-0.18593806
19	0xbe18c282	-0.14917949
20	0xbdb1e53e	-0.086863026
21	0xbe2fb2fe	-0.17158124
22	0x3c08ac27	0.008341826
23	0xbcfdbe81	-0.030974628
24	0x3dbfb14e	0.0935999
25	0xbd924a8e	-0.071431264
26	0x3e21e517	0.15810047
27	0x3d548b94	0.051890925
28	0x3d4204f7	0.047368016
29	0xbd1246fa	-0.03571222
