examples/2_streamflow_isotope_simulation/results/20241125_101506_612553/loss_c60a7_00004_4_batch_size=6,hidden_size=8,learning_rate=0.0020,n_epochs=167,num_layers=2_2024-11-25_10-15-11/checkpoint_000009/model.pt (torch, 7324 bytes, 10 tensors)

lstm.weight_ih_l0 f4 [32, 4]
0	0x3eaaaa2b	0.33332953
1	0x3b7344ff	0.0037119982
2	0x3e6ea855	0.23306401
3	0x3e0ca46f	0.13734601
4	0x3ef9c4a7	0.48782846
5	0x3df3cb2d	0.11903987
6	0xbd57c704	-0.05268003
7	0x3debab4b	0.11507281
8	0xbebe8c7a	-0.3721655
9	0x3cb68eb6	0.022284847
10	0x3e62e171	0.22156312
11	0x3d8557cf	0.06510889
12	0x3efe9c85	0.4972879
13	0xbc7e8b9e	-0.015536217
14	0xbe03d0a2	-0.12872556
15	0x3e96fbf3	0.29489097
16	0x3e4aeb87	0.19816409
17	0xbe17b400	-0.14814758
18	0xbe6e8ae9	-0.23295178
19	0x3ea0293b	0.31281456
20	0x3ce17e24	0.027525969
21	0x3de6673f	0.112501614
22	0xbeaa44cd	-0.33255616
23	0xbe9066df	-0.28203484
24	0x3ec19460	0.37808514
25	0x3e9b96b5	0.30388418
26	0xbd2d6134	-0.04232903
27	0xbe57b5e2	-0.21065477
28	0x3ef3e39c	0.4763459
29	0x3e33e5c0	0.17568111
30	0x3ed700e7	0.41992876
31	0xbd90dbae	-0.070731506
32	0x3dea1c1c	0.11431143
33	0xbe6972ed	-0.22797747
34	0x3eda6a11	0.42659047
35	0xbde158e8	-0.11003286
36	0x3eb4f907	0.35346243
37	0xbdbe248d	-0.09284315
38	0x3e4e64de	0.20155665
39	0x3e31b5a7	0.17354451
40	0xbd872271	-0.06598366
41	0xbdda63af	-0.106635444
42	0x3c4bba2c	0.012434524
43	0xbe4eb932	-0.20187834
44	0x3e905d67	0.2819626
45	0x3e576f2f	0.21038507
46	0x3e5544de	0.20827052
47	0xbe31218f	-0.17297958
48	0x3ee6a053	0.45044193
49	0x3becdc15	0.0072283843
50	0xbe45b387	-0.19306765
51	0x3dbe248c	0.092843145
52	0x3df809ef	0.1211127
53	0xbde6e868	-0.11274797
54	0xbe693a66	-0.22776183
55	0x3d1e145f	0.038593646
56	0x3f2822cd	0.656781
57	0x3ebad8f6	0.36493653
58	0x3e9f89f3	0.31159934
59	0x3e48b065	0.19598539
60	0x3ed284e8	0.41117024
61	0xbe192418	-0.14955175
62	0x3e265989	0.16245092
63	0xbeb552fb	-0.35414872
64	0x3f0737c2	0.52819455
65	0x3e97a96b	0.29621443
66	0xbc04d5fa	-0.008107657
67	0xbea201ef	-0.316421
68	0x3e2c172a	0.16805711
69	0x3e4249ef	0.18973516
70	0x3ecf429b	0.40480503
71	0xbe1b2994	-0.1515258
72	0x3e9f3e87	0.31102392
73	0x3e885b84	0.2663232
74	0x3e072939	0.13199319
75	0x3dcb8466	0.099373624
76	0xbe914267	-0.28370973
77	0x3ee290d7	0.4425113
78	0x3e95c110	0.29248857
79	0x3d80f16c	0.062960476
80	0xbec33b1c	-0.38131034
81	0x3e92582a	0.2858289
82	0xbe96d4bd	-0.2945918
83	0xbd0e1c10	-0.03469473
84	0x3ecd427a	0.4008978
85	0x3e9ec279	0.31007746
86	0xbd3385a2	-0.043828614
87	0x3d980fd5	0.07424895
88	0x3b351fe3	0.0027637414
89	0x3ead609b	0.33862767
90	0x3eb6af7f	0.35680768
91	0x3e841da2	0.25803858
92	0xbeb5c528	-0.3550198
93	0x3e8a49ff	0.2700958
94	0x3e9ce6f8	0.30644965
95	0xbe578712	-0.21047619
96	0x3dbbda20	0.091724634
97	0xbc65280b	-0.013986598
98	0xbdef580d	-0.11686716
99	0x3ebdd6b1	0.3707786
100	0x3f0a1a94	0.53946805
101	0xbda8d64f	-0.08244001
102	0xbe6ac934	-0.22928315
103	0x3e0766d9	0.13222827
104	0xbd83532b	-0.064123474
105	0x3d781d50	0.06057483
106	0xbd3476e3	-0.04405869
107	0xbe8eb199	-0.2786987
108	0x3eb7597d	0.35810462
109	0xbe781a85	-0.24228866
110	0x3ef9d525	0.4879543
111	0xbe4101f7	-0.18848406
112	0x3efab7b2	0.48968273
113	0xbc1ef765	-0.009702538
114	0x3d4d7867	0.050163653
115	0x3e742f40	0.2384615
116	0xbe0e324b	-0.13886373
117	0xbed47fa3	-0.4150363
118	0xbef98d63	-0.48740682
119	0xbe937354	-0.28798926
120	0x3f0a9f14	0.54148984
121	0xbd951606	-0.07279591
122	0x3eba43db	0.36379895
123	0x3db86814	0.09004226
124	0x3e473cf8	0.19456851
125	0xbe30f633	-0.17281418
126	0x3ed63005	0.4183351
127	0x3decb975	0.115588106

lstm.weight_hh_l0 f4 [32, 8]
0	0x3acb33f3	0.0015503153
1	0x3e3c779e	0.18405005
2	0xbe4bf475	-0.19917472
3	0x3dc62f47	0.09676986
4	0xbf0df878	-0.5545726
5	0xbe235ec3	-0.15954117
6	0xbdc0b2d5	-0.094091095
7	0x3ea4795e	0.32123846
8	0x3e93f8f3	0.2890087
9	0x3d2f93f8	0.042865723
10	0xbecf0143	-0.4043065
11	0x3e10911e	0.14117858
12	0xbe6e735d	-0.23286195
13	0xbe3be70a	-0.18349853
14	0x3e25a168	0.16174853
15	0x3cd50287	0.026002182
16	0xbe79915c	-0.24371856
17	0xbd795481	-0.060871605
18	0xbe3d2006	-0.18469247
19	0xbdcc43eb	-0.09973892
20	0x3d7a7ac6	0.061152242
21	0xbedb4c0e	-0.42831463
22	0x3d21a024	0.039459363
23	0x3e89761f	0.26847932
24	0x3d8a48a5	0.06752137
25	0x3e9ec8dc	0.3101262
26	0xbe2466e2	-0.16054872
27	0xbe03cf25	-0.12871988
28	0xbdd6c919	-0.10487575
29	0x3e0e2e16	0.13884768
30	0x3e4bcf63	0.1990333
31	0x3e343d1d	0.17601438
32	0xbd63a5aa	-0.05557791
33	0xbe8c9378	-0.2745626
34	0xbedbf93f	-0.42963597
35	0x3dc25218	0.094883144
36	0xbee55ae0	-0.44795895
37	0x3e24df6d	0.16100855
38	0xbe608e86	-0.21929368
39	0x3e7abbfe	0.24485776
40	0x3d8cc27e	0.06873034
41	0xbec9bebe	-0.39403337
42	0xbee850ff	-0.45374295
43	0x3e28f45f	0.1649947
44	0x3dba5d7a	0.090998605
45	0x3e30f4cb	0.17280881
46	0xbda40960	-0.08009601
47	0xbe4e7b82	-0.20164302
48	0x3d88bccb	0.066766344
49	0x3d67f340	0.056628466
50	0x3e87b11c	0.2650231
51	0x3d977e05	0.07397083
52	0x3de7700d	0.11300669
53	0xbeb0d944	-0.3454076
54	0xbd4487e9	-0.047981177
55	0x3e8f078f	0.27935454
56	0x3ece8218	0.4033363
57	0xbb11c93e	-0.0022245194
58	0x3e89ddf8	0.2692716
59	0xbe09eff0	-0.13470435
60	0x3e7d1f02	0.2471886
61	0xbdb6a786	-0.08918671
62	0xbe828568	-0.25492406
63	0xbe8933b2	-0.26797253
64	0x3e525c9b	0.20543139
65	0x3eba2d01	0.3636246
66	0xbe56f7fa	-0.20993033
67	0xbdeb79ae	-0.11497818
68	0x3d6b8fed	0.057510305
69	0x3e632d3c	0.22185224
70	0x3e0275bf	0.12740229
71	0x3ea2a092	0.3176313
72	0x3ed5f1db	0.41786084
73	0xbe374f2c	-0.17901295
74	0x3e3566b5	0.17714961
75	0xbe570d33	-0.21001129
76	0xbd60f514	-0.054921225
77	0xbbca7c82	-0.0061793933
78	0xbbd96d90	-0.0066353753
79	0x3d9e234c	0.07721576
80	0x3d9b8e5b	0.075955115
81	0xbe402b0e	-0.18766424
82	0xbec68029	-0.38769653
83	0x3e94a547	0.29032347
84	0xbe8eda87	-0.27901098
85	0x3dd07aec	0.101796955
86	0x3ebfa8a3	0.37433347
87	0x3e9a8750	0.3018136
88	0x3d4b82c8	0.04968527
89	0xbddb8794	-0.10719219
90	0xbeb13b2b	-0.34615454
91	0x3daa484e	0.08314572
92	0xbef98bad	-0.48739377
93	0xbc9aea46	-0.018910538
94	0xbecb39be	-0.3969249
95	0xbea2bf26	-0.3178646
96	0xbe847112	-0.25867516
97	0xbe0a04b3	-0.13478355
98	0xbe602b08	-0.21891415
99	0xbeb218ef	-0.34784648
100	0xbe99626e	-0.29957908
101	0xbe31d500	-0.1736641
102	0xbf0336e8	-0.51255655
103	0xbc3a30f4	-0.01136421
104	0x3e116edf	0.1420245
105	0xbe84cf95	-0.25939623
106	0x3c906c00	0.017629623
107	0xbea71ae3	-0.326377
108	0xbe5c233f	-0.2149782
109	0x3b795c35	0.0038049344
110	0xbe0e4903	-0.1389504
111	0x3e9c0863	0.3047515
112	0xbd9e5923	-0.07731845
113	0x3ec6fe1c	0.38865745
114	0xbeec77f3	-0.46185264
115	0xbebbfc18	-0.3671577
116	0xbd7b6855	-0.061378796
117	0xbcd4dfdf	-0.025985656
118	0x3dabc5b8	0.08387321
119	0x3c443d29	0.011977472
120	0x3ebcce41	0.3687611
121	0xbdef465f	-0.11683344
122	0x3e8715da	0.2638386
123	0xbc84fdf7	-0.016234381
124	0x3d8856e1	0.06657196
125	0xbd4d7375	-0.050158937
126	0xbe8f9970	-0.2804675
127	0x3e0ebfb4	0.13940316
128	0x3bfe9e17	0.0077703106
129	0x3e4f9b36	0.20274052
130	0x3ed35f44	0.4128362
131	0xbe02dd3c	-0.12779707
132	0xbe36e08b	-0.17859094
133	0x3e8fb42f	0.28067157
134	0xbe8074fa	-0.25089246
135	0x3d02bb48	0.031916887
136	0x3ec14bd2	0.3775316
137	0xbd722254	-0.05911477
138	0x3e7779d2	0.24167565
139	0x3ec14a4c	0.37751997
140	0xbc69e456	-0.014275631
141	0x3dd98977	0.106219225
142	0x3ea49ca2	0.3215075
143	0x3c898f7b	0.01679205
144	0x3e71648a	0.23573509
145	0xbe9f4cce	-0.31113285
146	0xbd1af383	-0.037829887
147	0x3d3c7a17	0.04601487
148	0x3e68d80b	0.22738664
149	0x3e86e615	0.26347414
150	0xbed07e04	-0.40721142
151	0xbd697e05	-0.057004947
152	0x3ec30485	0.38089386
153	0xbdeae56b	-0.11469539
154	0xbe8b08d6	-0.2715518
155	0xbe04a1e8	-0.12952387
156	0x3e9917ef	0.29901072
157	0x3dee9d73	0.11651125
158	0xbdcb9e88	-0.09942347
159	0xbe0b19eb	-0.13584106
160	0xbdba6dbd	-0.09102962
161	0x3ea36256	0.31910962
162	0xbd584b8b	-0.05280642
163	0x3d3bc245	0.045839567
164	0x3c107f27	0.008819378
165	0x3d300034	0.042968944
166	0xbdd69e23	-0.10479381
167	0xbdf63dfe	-0.12023543
168	0xbe4cf2d4	-0.20014507
169	0x3ee05fad	0.43822995
170	0x3e26a153	0.16272478
171	0xbd12ea17	-0.035867777
172	0x3e9c4d25	0.30527607
173	0x3eb028c6	0.34406108
174	0xbdaa09d5	-0.083026566
175	0xbe595712	-0.21224621
176	0x3dbfe797	0.09370344
177	0x3ebe556d	0.3717455
178	0xbe8a1272	-0.26967198
179	0x3be8f5fc	0.0071094017
180	0xbda8512d	-0.08218608
181	0x3de7c76b	0.11317333
182	0xbd36c69c	-0.044623002
183	0x3e15ca88	0.14628041
184	0xbd65c802	-0.056098945
185	0xbd050bb3	-0.03248186
186	0xbdc7914d	-0.09744511
187	0x3e838761	0.25689223
188	0x3e072f20	0.1320157
189	0x3e95dd68	0.29270482
190	0xbe14bf81	-0.14526178
191	0x3c4db894	0.012556214
192	0xbe0cf3b7	-0.13764845
193	0x3f08504f	0.5324754
194	0xbef8f15d	-0.48621646
195	0xbc873d25	-0.016508648
196	0xbc557bf7	-0.013030044
197	0xbebbd5de	-0.36686605
198	0xbce430f7	-0.02785538
199	0xbc042eff	-0.008067845
200	0x3eba5527	0.3639309
201	0x3e0c2aa6	0.13688144
202	0xbe240ef6	-0.16021332
203	0x3e95c95a	0.29255182
204	0xbe939fea	-0.28832942
205	0x3e1224dc	0.14271873
206	0x3f0a7e7b	0.54099244
207	0x3ebbe103	0.36695108
208	0x3e760754	0.24026233
209	0xbe8efb62	-0.27926165
210	0xbd21482d	-0.039375473
211	0xbdf55b3d	-0.11980293
212	0x3e730738	0.23733222
213	0xbed132b4	-0.40858996
214	0xbcf1a7ad	-0.0294989
215	0xbddff602	-0.10935594
216	0x3f1a8a1e	0.60367
217	0xbe34a1f7	-0.1763991
218	0xbe074c74	-0.13212758
219	0x3e01249a	0.12611619
220	0xbe694f5c	-0.2278418
221	0x3dc2ad80	0.09505749
222	0xbe128770	-0.14309478
223	0x3e34d8cb	0.17660825
224	0x3f03a303	0.5142061
225	0xbeab23bb	-0.33425698
226	0xbef3611f	-0.47535035
227	0x3d94fe26	0.072750375
228	0xbef2f71e	-0.4745416
229	0xbea21810	-0.31658983
230	0xbd9a68c7	-0.07539516
231	0xbec86883	-0.39142236
232	0x3e608959	0.21927394
233	0x3c7471c2	0.0149197
234	0xbe2320e0	-0.1593051
235	0x3e3771b2	0.17914465
236	0xbe1d5957	-0.15366112
237	0xbea632fa	-0.32460767
238	0x3e998e5d	0.29991427
239	0x3eb9aca7	0.36264536
240	0x3e65afc9	0.22430338
241	0x3ebd56d5	0.3698031
242	0x3e698e9f	0.22808312
243	0x3d19f23f	0.03758454
244	0xbe2c81da	-0.1684641
245	0x3e1d8801	0.15383913
246	0xbdcbf7a1	-0.09959341
247	0x3e216791	0.15762164
248	0xbd95b1a2	-0.073092714
249	0x3f01917c	0.50612617
250	0x3eb624d8	0.35574985
251	0xbcaefecc	-0.021361731
252	0xbe449dd6	-0.19200835
253	0x3e18aad3	0.14908914
254	0xbe4c6f99	-0.19964446
255	0xbe806f08	-0.2508471

lstm.bias_ih_l0 f4 [32]
0	0x3e84ee39	0.25963
1	0x3ef5b511	0.47989705
2	0x3de06b93	0.10958018
3	0xbd2eb6b2	-0.0426547
4	0x3e3c1344	0.18366724
5	0x3e475c3d	0.1946878
6	0x38b1a550	8.4708096e-05
7	0x3e005449	0.12532152
8	0x3e6882e9	0.22706188
9	0xba73d4b7	-0.00093014113
10	0x3ea912bc	0.33022106
11	0x3eb77b50	0.35836267
12	0x3c633654	0.013867933
13	0xbe158b9b	-0.14604037
14	0xbc12c7a6	-0.008958733
15	0xbe0144cb	-0.12623899
16	0x3c870130	0.016480058
17	0x3e89ae8b	0.26890978
18	0xbec6d1b7	-0.38831875
19	0xbe82d0c5	-0.25549904
20	0xbebad6a3	-0.3649188
21	0xbe4f6ab8	-0.20255554
22	0xbe059781	-0.13046075
23	0x3e06dcf4	0.13170224
24	0xbcb5c213	-0.022187268
25	0xbe36ef9a	-0.17864838
26	0x3eb91ea1	0.3615618
27	0xbddc9699	-0.10770912
28	0x3d9f9458	0.07791966
29	0x3da8845d	0.08228371
30	0x3e789cb0	0.24278522
31	0x3c2e98f4	0.010656584

lstm.bias_hh_l0 f4 [32]
0	0x3eb3a55c	0.35087097
1	0x3e3f945d	0.1870894
2	0x3e88d142	0.2672215
3	0xbe621332	-0.22077635
4	0xbe1749d8	-0.14774263
5	0x3ec5a787	0.38604376
6	0x3ec0e2ec	0.37673128
7	0xbe3fafd5	-0.18719418
8	0x3e1653e9	0.14680447
9	0x3d8184ed	0.06324182
10	0x3d81cfa9	0.06338436
11	0x3dac0147	0.08398681
12	0x3d7f3c83	0.062313568
13	0x3e999283	0.29994592
14	0x3dd64fc5	0.104644336
15	0xbe3a86da	-0.18215504
16	0x3e58d187	0.21173678
17	0xbebe9071	-0.37219575
18	0xbec3a21f	-0.38209626
19	0x3e1c4419	0.15260352
20	0x3e337bba	0.17527667
21	0x3cc91a41	0.024548652
22	0x3deed4ca	0.1166168
23	0x3e34daca	0.17661586
24	0x3eb9cf6a	0.36291057
25	0x3f01f3f2	0.50762856
26	0xbdc57b32	-0.09642638
27	0xbdef63f3	-0.11688986
28	0x3e481c4b	0.19542043
29	0xbe392abd	-0.1808271
30	0xbe169cea	-0.14708295
31	0x3e801fd8	0.25024295

lstm.weight_ih_l1 f4 [32, 8]
0	0x3cb726f6	0.022357445
1	0xbc1c4453	-0.009537774
2	0x3e4037e2	0.18771318
3	0x3e36aac9	0.17838587
4	0x3e327d60	0.1743064
5	0xbf007853	-0.501836
6	0xbe85c908	-0.26129937
7	0x3e828275	0.25490156
8	0x3d041f2a	0.032256283
9	0xbe168afc	-0.14701456
10	0xbf178551	-0.591878
11	0xbed9d99f	-0.42548844
12	0xbdf54408	-0.119758666
13	0xbe9151e8	-0.28382802
14	0x3e949661	0.2902098
15	0xbef53806	-0.47894305
16	0xbd6d4cc8	-0.057934552
17	0x3ea00afe	0.31258386
18	0x3e2c2f05	0.16814812
19	0xbea7a7e8	-0.3274529
20	0xbdad99b9	-0.08476586
21	0x3ecfbb7e	0.40572733
22	0x3e1e1871	0.15439011
23	0xbe920de7	-0.28526232
24	0xbe81dcd9	-0.25363806
25	0xbef10996	-0.47077626
26	0xbd6528cc	-0.05594711
27	0xbd686489	-0.056736503
28	0xbd92d9eb	-0.07170471
29	0x3e1c1ce7	0.152454
30	0xbd2c4fce	-0.042068295
31	0xbe76978a	-0.24081245
32	0xbe0233d8	-0.1271509
33	0x3edbc2a2	0.4292193
34	0xbe8a15e3	-0.26969823
35	0x3ed5dd2e	0.4177031
36	0xbe879a40	-0.2648487
37	0x3ea59469	0.3233979
38	0xbdeaccb8	-0.11464828
39	0x3de2171f	0.11039566
40	0x3ea5ca18	0.32380748
41	0xbda323ca	-0.079658106
42	0x3e1ae3b9	0.15125932
43	0xbddb1ca1	-0.1069882
44	0x3cfd9e44	0.030959256
45	0x3e68010d	0.22656651
46	0x3e182c72	0.14860705
47	0x3e42d3fe	0.19026181
48	0x3dfd4471	0.1236657
49	0x3e1002e9	0.1406361
50	0x3cb68a5d	0.022282774
51	0xbdaac9a8	-0.08339244
52	0xbdea95cf	-0.11454355
53	0x3dfaa7f8	0.12239069
54	0x3d8fa343	0.070135616
55	0x3ed460d6	0.4148013
56	0x3eb20086	0.34766024
57	0xbe92503e	-0.28576845
58	0xbdd5366b	-0.1041077
59	0xbe8651ea	-0.2623437
60	0xbe517f6b	-0.20458762
61	0xbe5f83cd	-0.21827622
62	0x3db09a00	0.08623123
63	0x3c8f5b0a	0.017499465
64	0xbdfaaa01	-0.12239457
65	0x3e195f54	0.14977771
66	0xbe8d3171	-0.27576783
67	0xbd0a4995	-0.03376158
68	0xbeb80914	-0.35944426
69	0xbf009586	-0.50228155
70	0xbec461ee	-0.38355964
71	0x3e2537e9	0.1613461
72	0x3ea8c384	0.32961667
73	0x3b226aaa	0.0024782815
74	0xbe3d46e3	-0.18484072
75	0x3da99990	0.08281243
76	0xbf00a4d2	-0.50251496
77	0xbd782800	-0.060585022
78	0x3e5d78eb	0.21628158
79	0xbe07980c	-0.13241595
80	0x3e1e5ebc	0.15465826
81	0x3e0a4cc3	0.13505845
82	0x3e95ba9a	0.29243928
83	0xbec6da77	-0.3883855
84	0xbeddde28	-0.43333554
85	0x3e105619	0.14095344
86	0xbcff8da8	-0.031195477
87	0xbee5f956	-0.4491679
88	0xbe8fcf6c	-0.28087938
89	0xbe61070d	-0.21975346
90	0xbe113411	-0.14180018
91	0xbdd41ee3	-0.10357454
92	0x3d4bd86d	0.049766947
93	0xbcec6fe6	-0.028861951
94	0xbe8c2356	-0.2737071
95	0xbedc882e	-0.43072647
96	0xbe053a92	-0.13010624
97	0x3f0d14cd	0.55109864
98	0x3cee7b2f	0.029111473
99	0x3e86d778	0.26336265
100	0xbde4554a	-0.1114908
101	0xbdd0012a	-0.10156472
102	0x3e584487	0.21119891
103	0xbd21a534	-0.03946419
104	0xbcfe2cc0	-0.031027198
105	0x3e971a0f	0.2951207
106	0x3c5c0ce1	0.013430805
107	0x3e35c29e	0.17750022
108	0xbed0ef1a	-0.4080742
109	0x3ea8bc41	0.32956126
110	0xbd38d8c7	-0.04512861
111	0x3e58d7d7	0.21176086
112	0x3eb5bf27	0.354974
113	0x3ec113e2	0.37710482
114	0xbde309e6	-0.11085872
115	0x3d9ba20f	0.075992696
116	0xbec95365	-0.39321437
117	0xbe0b1fb0	-0.13586307
118	0xbc39cb78	-0.011340015
119	0xbe0f172a	-0.1397368
120	0xbd1280a6	-0.03576722
121	0xbee86bf4	-0.45394862
122	0xbef3ea07	-0.47639486
123	0x3e50cae8	0.20389903
124	0x3bd4f5eb	0.0064990423
125	0x3e12d13d	0.1433763
126	0xbe0d62b3	-0.13807182
127	0x3e5fd6a7	0.21859227
128	0x3e89db8b	0.2692531
129	0xbdb911ec	-0.090366215
130	0x3e9cc9a8	0.30622602
131	0x3ec3934a	0.3819831
132	0xbd9663f3	-0.073432826
133	0x3e9f6b2a	0.31136447
134	0x3ed81bdd	0.42208758
135	0xbe261c01	-0.1622162
136	0xbef3f4e1	-0.47647765
137	0xbe781fd2	-0.24230888
138	0xbe027255	-0.12738927
139	0x3ed47556	0.4149577
140	0x3eb55eaa	0.35423785
141	0xbeec189f	-0.46112534
142	0x3e260284	0.16211897
143	0x3e648d2a	0.22319475
144	0x3d1b2b14	0.03788288
145	0x3bdc77b7	0.0067281383
146	0x3ea264a9	0.31717423
147	0x3ef90e16	0.4864356
148	0x3e2ea4da	0.17055073
149	0x3e6338d1	0.22189642
150	0xbddea9ed	-0.108722545
151	0x3e8812f4	0.2657696
152	0xbd8bfbda	-0.06835146
153	0xbede63e9	-0.434356
154	0x3e0404b2	0.12892416
155	0x3dd5d313	0.1044065
156	0xbee80da1	-0.45322898
157	0xbe891013	-0.26770076
158	0x3d4d071e	0.050055616
159	0x3c21f5a2	0.009885224
160	0x3eca0a2a	0.3946088
161	0xbc626158	-0.013817154
162	0xbcbd91e1	-0.02314085
163	0x3ea885e0	0.3291464
164	0x3e3df73f	0.18551348
165	0x3da30740	0.07960367
166	0x3e68528d	0.2268774
167	0x3ec1f7f0	0.37884474
168	0x3e7018f2	0.23447016
169	0x3d19d1d7	0.037553634
170	0x3e239664	0.15975338
171	0x3e76d4d7	0.2410463
172	0x3d7b74f8	0.061390847
173	0x3c72dc25	0.014822994
174	0x3ea0fcfd	0.31443015
175	0x3c1008c9	0.008791157
176	0xbee8cda5	-0.45469394
177	0xbe279c78	-0.16368282
178	0x3b75c802	0.0037503247
179	0x3daad990	0.08342278
180	0xbe7bc987	-0.24588595
181	0xbe69278a	-0.22768989
182	0xbed7ba41	-0.42134288
183	0xbeba7727	-0.3641903
184	0xbe1152e3	-0.14191775
185	0xbe84c04e	-0.25927967
186	0x3e2cb42c	0.16865605
187	0xbea85bd9	-0.32882574
188	0x3e9b8b84	0.3037988
189	0xbe9ad0ec	-0.3023752
190	0xbd923600	-0.07139206
191	0xbdbb01d0	-0.09131205
192	0xbec5616f	-0.38550898
193	0xbe8b845e	-0.27249426
194	0xbedfbe31	-0.43699792
195	0x3e8079de	0.25092977
196	0x3e8030d7	0.25037262
197	0x3d88f524	0.06687382
198	0xbed6addf	-0.41929528
199	0xbe58934b	-0.21149938
200	0x3ea839ee	0.32856697
201	0xbeac19f7	-0.3361356
202	0x3cad866a	0.021182258
203	0xbe988b50	-0.29793787
204	0xbe9358d1	-0.287787
205	0xbefb0f76	-0.49035233
206	0x3e95044e	0.29104847
207	0xbf1c4865	-0.61047965
208	0x3e5cc564	0.21559674
209	0xbc8faf1a	-0.01753955
210	0xbd8d1161	-0.068880804
211	0xbefe50d4	-0.49671042
212	0xbf1148f5	-0.5675195
213	0x3e878d03	0.2647477
214	0xbd0c7aa8	-0.03429666
215	0x3d294a25	0.041330475
216	0x3eccfbe4	0.40035927
217	0xbec3bec9	-0.38231495
218	0x3e2af0db	0.16693442
219	0x3dcfbef9	0.10143847
220	0xbef0399f	-0.4691896
221	0xbe33c236	-0.17554554
222	0xbe5d75c3	-0.21626954
223	0x3da80452	0.08203949
224	0x3b818252	0.003952303
225	0x3ebb8ca5	0.3663074
226	0x3b18e157	0.0023327672
227	0x3e34ec69	0.17668308
228	0x3e298056	0.16552863
229	0x3e8c0ed3	0.2735506
230	0x3defaedf	0.11703276
231	0x3e78dc38	0.24302757
232	0x3da0145b	0.078163825
233	0x3eba5de7	0.36399767
234	0x3e808e39	0.25108507
235	0x3dff1e6d	0.12456975
236	0xbe5940f2	-0.21216181
237	0xbe0a0ef4	-0.13482267
238	0x3ebc3ca4	0.36765015
239	0x3e79c5ae	0.24391815
240	0x3ecbb44c	0.39785993
241	0x3ee6af3f	0.45055577
242	0xbd353abe	-0.044245474
243	0x3dd03f2d	0.101683
244	0xbe1aa04a	-0.15100208
245	0xbecc74c4	-0.39932835
246	0x3e4a07e4	0.19729573
247	0xbdece806	-0.115676925
248	0x3d138f2f	0.036025222
249	0xbe689560	-0.22713232
250	0xbe66ae1e	-0.22527358
251	0xbebe82df	-0.37209222
252	0x3e14b6b6	0.14522824
253	0xbe86b710	-0.2631154
254	0x3cc353da	0.023843694
255	0xbcc7cbc3	-0.024389153

lstm.weight_hh_l1 f4 [32, 8]
0	0xbe814685	-0.25249115
1	0x3cc71da2	0.024306122
2	0x3dc162c5	0.09442667
3	0x3da57e14	0.08080688
4	0x3ed57b7d	0.41695777
5	0xbcb9082a	-0.0225869
6	0x3e8cc4bd	0.2749385
7	0xbe523166	-0.20526657
8	0xbf05b7e5	-0.52233726
9	0xbc0bba7b	-0.008528347
10	0xbf062030	-0.52392864
11	0x3f01de99	0.5073028
12	0x3e6e178c	0.2325117
13	0x3d84bd6a	0.0648144
14	0xbe0bdb9f	-0.13657998
15	0x3e2ad0a4	0.16681153
16	0xbe0246bb	-0.12722294
17	0x3d4d69f7	0.050149884
18	0xbe8067f2	-0.25079304
19	0x3ea55dbd	0.3229808
20	0xbe643142	-0.22284415
21	0xbe079445	-0.13240154
22	0xbbe40672	-0.006958776
23	0x3e6039dc	0.21897072
24	0xbc247035	-0.010036518
25	0x3e0ac378	0.13551128
26	0xbdfdbc84	-0.12389472
27	0x3ec0db7d	0.37667456
28	0x3d98a790	0.07453835
29	0x3e7b9079	0.2456683
30	0x3c810a5d	0.015752012
31	0xbe453ca8	-0.1926142
32	0xbde9d30f	-0.11417209
33	0xbe530164	-0.20605999
34	0xbe9d634f	-0.3073983
35	0xbe1b20e7	-0.1514927
36	0xbdc76899	-0.09736747
37	0xbdebfbcc	-0.11522636
38	0xbec93da5	-0.39304844
39	0xbef03693	-0.46916637
40	0xbe3472c2	-0.17621902
41	0xbd947638	-0.07249111
42	0xbc605fda	-0.013694728
43	0xbe8bd034	-0.27307284
44	0xbdf98d75	-0.12185184
45	0x3e6e8f44	0.23296839
46	0xbe9e0ca8	-0.3086903
47	0xbeb91bdb	-0.36154065
48	0xbe82d603	-0.25553903
49	0xbd53c4d7	-0.051701393
50	0x3e1e2841	0.15445043
51	0x3e0ea7e3	0.13931231
52	0x3e33786d	0.17526408
53	0x3ee5f868	0.4491608
54	0xbeab9752	-0.33513886
55	0xbe21316f	-0.15741514
56	0xbe9b2bed	-0.3030695
57	0xbe8c4eae	-0.27403778
58	0xbda85193	-0.08218684
59	0xbe458352	-0.19288376
60	0xbe358733	-0.17727356
61	0x3ec3e090	0.38257265
62	0xbe618e8d	-0.22027035
63	0x3eafa462	0.34305102
64	0xbec4a861	-0.38409713
65	0xbe840518	-0.25785136
66	0x3db03a36	0.08604853
67	0x3e5c8b10	0.21537423
68	0xbe0fe6e6	-0.14052925
69	0xbe439690	-0.19100404
70	0x3e4b23fc	0.19837946
71	0xbcde6d16	-0.027151626
72	0x3df4c594	0.119517475
73	0x3e4f20e3	0.20227389
74	0xbe37526f	-0.1790254
75	0x3e9e1351	0.30874112
76	0xbe8b1de0	-0.2717123
77	0xbe8aa475	-0.27078596
78	0x3e55e847	0.20889388
79	0x3e530943	0.20609002
80	0xbedf9ea8	-0.43675733
81	0xbe4f65f1	-0.20253731
82	0xbea33cc6	-0.31882304
83	0x3df85ac2	0.12126686
84	0x3b8f4e4a	0.0043733465
85	0x3c8d74f0	0.017267674
86	0xbe65d822	-0.2244573
87	0x3eabdea8	0.3356831
88	0xbdeab771	-0.1146077
89	0x3d1b52f6	0.037920915
90	0x3df62944	0.120195895
91	0x3eac5ec3	0.33666047
92	0x3e0b28e3	0.13589816
93	0x3e9aef74	0.30260813
94	0x3e9a6f72	0.3016315
95	0x3ec4b86f	0.38421962
96	0xbdb4dcbf	-0.088311665
97	0x3de62f12	0.11239447
98	0xbe446db2	-0.1918247
99	0xbdd0b029	-0.1018985
100	0x3e995256	0.2994563
101	0x3e76eec6	0.24114522
102	0xbd2806e8	-0.04102221
103	0x3dc915af	0.09818589
104	0x3d4c58af	0.049889263
105	0xbdedd4d2	-0.11612858
106	0xbe9829a0	-0.29719257
107	0x3da3374a	0.0796953
108	0x3ecf8d06	0.4053728
109	0xbdf6ba65	-0.12047271
110	0xbdf7e76c	-0.12104687
111	0x3df643c1	0.12024642
112	0xbe71ea4a	-0.2362453
113	0xbed5e3a7	-0.41775247
114	0x3e06f294	0.13178474
115	0x3d5456f9	0.051840756
116	0x3eb65cc6	0.35617656
117	0xbd2ad8cd	-0.041710664
118	0xbe2934c9	-0.16524042
119	0x3e96f4b0	0.29483557
120	0xbe9212e5	-0.2853004
121	0xbef0d540	-0.47037697
122	0x3dcf0c0f	0.10109722
123	0x3e9b43ae	0.30325073
124	0xbd98be2a	-0.07458146
125	0x3e94fff2	0.2910152
126	0xbcb922c6	-0.02259959
127	0x3eb0a989	0.34504345
128	0x3e3db3e5	0.18525656
129	0xbde4248d	-0.11139784
130	0xbd7bc452	-0.061466523
131	0xbe89dab5	-0.26924673
132	0xbdca41cf	-0.09875833
133	0x3e810a08	0.25202966
134	0x3df054f8	0.117349565
135	0xbe847541	-0.25870708
136	0xbe1ad55f	-0.15120457
137	0xbe46aac9	-0.19401087
138	0x3e81d9fc	0.2536162
139	0xbe071bf3	-0.13194256
140	0x3d9a1dc5	0.07525209
141	0xbe32f286	-0.17475328
142	0xbc125cea	-0.008933285
143	0xbe8e4fe5	-0.2779533
144	0x3e3fb0b5	0.18719752
145	0xbdb974e3	-0.090554975
146	0x3e7a722b	0.24457614
147	0x3e64f82d	0.22360297
148	0x3de5fb5a	0.11229582
149	0x3e234377	0.15943705
150	0x3db4aa66	0.088215634
151	0x3dd0dafb	0.10198017
152	0xbe8d5016	-0.27600163
153	0xbe944c9f	-0.28964707
154	0xbe8354e9	-0.2565072
155	0xbd101fce	-0.03518658
156	0xbea5e867	-0.3240387
157	0x3d693791	0.056937758
158	0x3ee90f6d	0.4551958
159	0xbe7dd4db	-0.24788229
160	0x3edffacf	0.4374604
161	0x3eca24eb	0.3948129
162	0xbd8437f2	-0.06455983
163	0xbdb37246	-0.0876203
164	0x3d92cf1b	0.071684085
165	0xbdbda8e4	-0.09260729
166	0xbe30e2a5	-0.17273958
167	0x3def36e4	0.116803914
168	0xbdf58ca5	-0.119897164
169	0x3ea1c126	0.31592673
170	0x3d0eb5d7	0.034841385
171	0x3e554203	0.20825963
172	0xbe960c19	-0.29306105
173	0x3ec1ab17	0.37825844
174	0xbe20609d	-0.15661855
175	0xbed6fc83	-0.41989526
176	0xbdff181a	-0.12455769
177	0xbebe3fa9	-0.37157944
178	0xbeb75214	-0.35804808
179	0x3eb5eee9	0.35533836
180	0xbdb745e5	-0.08948878
181	0xbe0fb7cd	-0.14034958
182	0x3e0c57bc	0.13705343
183	0xbe2643f7	-0.16236864
184	0xbee3c907	-0.4448931
185	0xbda00e46	-0.078152224
186	0xbe2c83ce	-0.16847154
187	0xbe27b043	-0.16375832
188	0x3e83353c	0.25626552
189	0x3db4f28d	0.088353254
190	0x3ef3d8cd	0.47626343
191	0x3e2bdc4d	0.16783257
192	0x3d39ffda	0.045410015
193	0xbeb211ac	-0.34779108
194	0xbeaced7f	-0.33774945
195	0x3e1cfe0f	0.1533129
196	0xbe03bfd4	-0.12866145
197	0x3e271ccf	0.16319583
198	0x3ea03431	0.3128982
199	0xbe133d67	-0.14378892
200	0x3d35a4d0	0.04434663
201	0xbe7f4fe0	-0.24932814
202	0xbe9e10e8	-0.30872273
203	0x3e8e51c5	0.2779676
204	0x3ea38c72	0.3194309
205	0x3e27fbe2	0.1640468
206	0xbde9b480	-0.11411381
207	0x3ee09d14	0.4386984
208	0x3d9431a2	0.07236029
209	0xbecb17c3	-0.39666566
210	0x3dd31721	0.10307146
211	0x3e5d9932	0.2164047
212	0x3db59b0d	0.08867464
213	0x3ea27fbf	0.31738088
214	0x3bee132e	0.00726547
215	0xbe1c59fd	-0.15268703
216	0xbe7b3de0	-0.24535322
217	0xbf18fb91	-0.5975886
218	0xbe7c6f7f	-0.24651907
219	0x3ee959f0	0.4557643
220	0xbe9369f0	-0.2879176
221	0xbe4e8208	-0.2016679
222	0x3e8989a3	0.2686282
223	0xbdafd5a9	-0.08585674
224	0x3e7ef48d	0.24897976
225	0x3e8c4ab0	0.27400732
226	0x3ea50a15	0.32234254
227	0x3e933102	0.28748327
228	0x3e97e7b9	0.29668978
229	0x3d796c92	0.060894556
230	0x3a22955e	0.0006202067
231	0xbd06b9c6	-0.03289201
232	0x3c42721f	0.011868029
233	0xbe756e12	-0.2396777
234	0x3d3a4f29	0.04548565
235	0x3dacaab2	0.08430995
236	0x3edb3456	0.42813367
237	0x3c92f29d	0.017937953
238	0xbdfafa53	-0.12254777
239	0xbe934a62	-0.28767687
240	0xbedd607f	-0.43237683
241	0xbeac9c98	-0.33713222
242	0x3e212928	0.15738356
243	0xbd26a173	-0.040681314
244	0x3ea0a12a	0.31372958
245	0xbdb908f6	-0.09034912
246	0xbebd5fdc	-0.36987197
247	0x3e9c9c13	0.30587825
248	0xbe0facce	-0.14030764
249	0xbe8910b7	-0.26770565
250	0xbddedfb9	-0.108825155
251	0x3ee6656e	0.4499926
252	0xbc6694a9	-0.014073529
253	0x3e4f39b2	0.20236853
254	0x3db8b19d	0.09018252
255	0xbda9879c	-0.082778186

lstm.bias_ih_l1 f4 [32]
0	0x3ec4d159	0.3844097
1	0x3ea8bdf1	0.32957414
2	0x3d68efad	0.056869198
3	0x3ead399f	0.33833024
4	0x3d8ea2b8	0.0696463
5	0x3eb53c4a	0.3539756
6	0x3dc27fb6	0.09497015
7	0xbe3c8dfe	-0.1841354
8	0xbdf9cbac	-0.121970505
9	0x3e790073	0.24316578
10	0xbd95d3f6	-0.07315819
11	0x3e8f095e	0.27936834
12	0xbd9e8ce7	-0.07741719
13	0x3e7653d4	0.24055415
14	0xbe1915e3	-0.14949755
15	0x3c4beb4b	0.012446235
16	0x3e6a3aaa	0.22873941
17	0xbe8d1b3f	-0.2755985
18	0xbeaa17cc	-0.3322128
19	0x3e9bb555	0.30411783
20	0x3e2a7b3f	0.16648577
21	0x3d16828e	0.0367456
22	0x3db7e1e0	0.08978629
23	0x3e9c2c3b	0.30502495
24	0x3eda0781	0.4258385
25	0x3eb88c84	0.36044705
26	0x3da1559d	0.078776576
27	0xbdfb3113	-0.122652195
28	0x3ea8c580	0.3296318
29	0xbd5e20d5	-0.05423053
30	0x3c087cc2	0.008330526
31	0x3eef5f72	0.46752506

lstm.bias_hh_l1 f4 [32]
0	0x3e31a52d	0.17348166
1	0x3dcacc5a	0.09902258
2	0x3e72ee56	0.2372373
3	0x3e79c646	0.24392042
4	0x3dc27d67	0.09496575
5	0x3d5791d3	0.052629303
6	0x3ed9ca1d	0.42537013
7	0x3e5e93c2	0.21736053
8	0xbe451163	-0.19244914
9	0x3d404b06	0.046946548
10	0x3d6a6309	0.057223354
11	0xbccdbc8e	-0.025114324
12	0xbe6dd4a0	-0.23225641
13	0xbe105498	-0.1409477
14	0x3e361ea2	0.17785123
15	0x3c01d216	0.007923624
16	0xbebde398	-0.37087703
17	0x3e779174	0.2417658
18	0xbdce39b1	-0.100695975
19	0x3e7a3abe	0.24436471
20	0x3e847b9a	0.2587555
21	0x3de6e02b	0.112732254
22	0xbe736a70	-0.23771071
23	0xbd8d0166	-0.06885032
24	0x3e314db3	0.17314796
25	0x3ca86d15	0.020559827
26	0x3da25c51	0.07927764
27	0x3d9bc8e9	0.0760668
28	0xbe81faf8	-0.25386786
29	0xbd0fa3f8	-0.035068482
30	0x3e3cd223	0.18439536
31	0x3e0b4101	0.13599016

linear.model.0.weight f4 [2, 8]
0	0x3dac1af0	0.084035754
1	0xbecd44c2	-0.4009152
2	0xbebdab34	-0.3704468
3	0x3e686f8a	0.22698799
4	0x3ac72a60	0.0015195124
5	0x3d0879ff	0.03331947
6	0xbdd40117	-0.1035177
7	0x3d10e313	0.035372805
8	0x3e3439b9	0.17600144
9	0xbdf2f16d	-0.118624546
10	0xbc5a0758	-0.013307415
11	0xbe6f5b65	-0.23374708
12	0x3e8be6cc	0.27324522
13	0x3ec2655c	0.37967956
14	0xbf07d22d	-0.5305508
15	0xbea12b15	-0.3147818

linear.model.0.bias f4 [2]
0	0xbe867898	-0.2626388
1	0x3e5c77c0	0.21530056
