examples/2_streamflow_isotope_simulation/results/20241125_101506_612553/loss_c60a7_00001_1_batch_size=6,hidden_size=16,learning_rate=0.0010,n_epochs=279,num_layers=1_2024-11-25_10-15-11/checkpoint_000009/model.pt (torch, 8116 bytes, 6 tensors)

lstm.weight_ih_l0 f4 [64, 4]
00000000: 63ae 0c3e c3d1 aa3c ce5b 683d e20b 973e
00000010: 7e32 5cbd d7f0 723d 4ca9 2dbe 27ad 2abd
00000020: 0d4a 02bd be28 81bc 5aa9 d7bc 9c59 833d
00000030: b41c 0b3e 281a 75bd 10ca e73d 968a 0cbb
00000040: 23ef 3fbe a84a 08be bc53 043e c8c5 923d
00000050: 17d5 833d 616b 273d a10f 83be f354 0cbe
00000060: 381c 86bd 2658 84be 8042 eaba 371f 713e
00000070: 478e 103e 1845 8a3d 527a 393e 2c7b 053e
00000080: 3e70 383e 9b50 cebd a231 33bc fff8 6b3c
00000090: 3049 5a3e fd3b 413e 085e 233e 4fa5 1f3e
000000a0: 80df 743e a1b2 363e 8397 ad3d 3ebb 25be
000000b0: 6dc5 3c3e 30d5 1a3e 226b 85bc ff71 d7bd
000000c0: a822 f93d 5b68 4fbd c3b8 53bc dded 09be
000000d0: 318e 833e acc2 053d af5a 99bd 8004 563e
000000e0: 9b13 3e3e 77f5 713e 309a 03be 1f4b 1abc
000000f0: e649 bb3d 7225 2fbd b0f8 043e 5993 233d
00000100: e151 0e3d 033c 233e 2dd3 8b3d 7286 12be
00000110: f946 80bd dc04 55be 718b 83be c7a0 8b3e
00000120: fbba b73d aeec 84be 1a59 753e 64bb 0dbe
00000130: a768 883e d868 643e ea62 553e 31f0 5e3e
00000140: 69e0 a53a a861 b03d 1015 8d3e 9f42 a03c
00000150: 3c9b 9b3c 8a07 043e 5ecf ce3d be2f 1ebe
00000160: 510a 923d 32f3 f3bd 69d2 ebbc 3561 5f3e
00000170: c8de a03e 2d75 453e 5549 193e 1176 cc3d
00000180: da2e 4b3e e0a8 8c3e 20bd 2b3e ea78 463e
00000190: 822c 503e fb23 803e a49d 9c3d 455c 8f3e
000001a0: d272 373e dca5 c4bd 1f58 4dbe 26b5 433e
000001b0: 5587 4ebb c032 97bd 2fa5 463e 4042 23be
000001c0: db22 093d 9fa4 9d3d d882 53be f174 793c
000001d0: f8b0 4d3e 694e d13c eca6 42bd 6329 f53b
000001e0: 128e 763e 7b78 8d3d 65b5 1d3e 5e94 b3bd
000001f0: b3a1 05be ff19 323c 768e 29be 80e8 8fbc
00000200: 159f 83be a6ed de3d 9ead 163e cfa0 9bbd
00000210: 8ba3 9cbd 2127 64be 3c47 5cbe 34aa a73d
00000220: 32d3 a13e 11f8 ffbd edaf b0bc 9d2d f73d
00000230: 44ff 6d3e 2222 c7bb 14f7 043e 8e69 ec3d
00000240: dae3 ecbd e682 dcbd f66a a2bd db40 5e3e
00000250: 5ed3 45bd 3deb 2fbe 990d 3d3e 0fba bdbb
00000260: 0862 8abe ad48 a43d be8c b2bd 26dd 4a3e
00000270: 02cb cdbd 7394 6dbe fe5f 28be 47a9 3f3d
00000280: 386d 58bd 761e 543e 46ae d3ba 317f 193e
00000290: 5028 193e ace3 303e 4556 9abd ea14 dabd
000002a0: 43b1 2ebe 9585 813e 7a77 a23d 6cb5 803d
000002b0: 1c75 adbe c9a2 b73d 52eb 1e3d 1cae 8b3e
000002c0: 44d8 523e 48b8 233e 27ae d0bd 6a98 0d3c
000002d0: ebf7 85be ad1d e7bd 19a5 99be db7d ab3d
000002e0: a722 47be c2e5 903e 4d87 1ebe 8948 02bd
000002f0: 3269 d83d 8ccc 0c3e 6741 f73d f33d 4abd
00000300: d725 1d3e 05c4 903c 5e40 37bd 7db8 a63c
00000310: a41e 7c3d f56d 58be 7d7c babd 0e3d 5bbe
00000320: 389d 8e3b c05c 05be 7d58 47be 5c0b 4dbc
00000330: 6429 c83e 99b7 08be f9fd 5bbe b82f ba3c
00000340: 17c1 02be a032 b33c b1d0 9d3e a6ad dcbd
00000350: 8489 eebd 6a1c 7b3e f77d 5f3e 4b5f 81be
00000360: fd08 423e bfea 813d 7a31 283e 2bc0 5d3e
00000370: ab29 d7bd 1d14 d6bd 2d4b 203e 3777 e5bd
00000380: ea84 373e 0072 8f3e 5da1 b43d 9673 833d
00000390: c5c1 bb3e e93d 5abe 7150 cbbd ab32 a5bd
000003a0: 3ffa bfbc 57bd 40be fa99 fcbd da53 933d
000003b0: 71c5 8a3e 57ca dabd e838 633e 89ea 833e
000003c0: 4c18 49bd 5699 39be cc74 483e 9368 7dbe
000003d0: 1feb 81bd 13fc 8ebe 2db0 9bbc dd11 95bd
000003e0: 890c 6a3e 770d 223e 8c0b 513e 51c1 163e
000003f0: b66c 913d 1fb7 a1bd 022d 80be b5ba 06bd
0.13738398 0.020851975 0.056728177 0.29501253 -0.05375909 0.059311714 -0.16959113 -0.041669037
-0.0318089 -0.015766498 -0.02632587 0.06413576 0.13585168 -0.059839398 0.11317837 -0.0021444908
-0.18743567 -0.13309729 0.12922567 0.0716663 0.06437128 0.04087389 -0.2559786 -0.1370428
-0.06548351 -0.25848502 -0.0017872602 0.23547064 0.14116774 0.0675146 0.18113068 0.13035268
0.18011567 -0.10073968 -0.010937126 0.014402627 0.21316981 0.1887054 0.15953839 0.15590404
0.23913383 0.17841579 0.08476164 -0.16184708 0.18434687 0.15120387 -0.016286436 -0.1051979
0.12164813 -0.05063663 -0.012922469 -0.13469644 0.2569442 0.032656357 -0.07488 0.20900154
0.18562166 0.23628794 -0.12851787 -0.009417324 0.091449544 -0.04276032 0.12985492 0.039935444
0.034746055 0.15940861 0.06827388 -0.143091 -0.06263537 -0.20802635 -0.25692323 0.272711
0.089712106 -0.25961822 0.23959771 -0.13841015 0.26642343 0.2230562 0.20838514 0.21771313
0.001265538 0.086123765 0.27555132 0.019563017 0.01899492 0.12893501 0.10098146 -0.154479
0.07130874 -0.1191162 -0.028786855 0.21814425 0.3141997 0.1928298 0.1496938 0.09983457
0.19842091 0.2747259 0.16771364 0.19382063 0.20329478 0.2502745 0.07647255 0.28000084
0.17914894 -0.09601948 -0.20053147 0.19112071 -0.003151377 -0.07382727 0.1939895 -0.15943241
0.033480506 0.076974146 -0.20655382 0.015225635 0.2008704 0.025550084 -0.04752247 0.0074817403
0.24077633 0.069077455 0.15401228 -0.08768533 -0.13049965 0.010870456 -0.16558251 -0.01756692
-0.25707307 0.108851716 0.14714667 -0.07599031 -0.07648381 -0.22280551 -0.21511549 0.081867605
0.31606442 -0.12498487 -0.021568263 0.12069247 0.23241907 -0.006077067 0.12984878 0.115435705
-0.11566897 -0.107671544 -0.079305574 0.21704428 -0.04829728 -0.1717958 0.18462218 -0.005790002
-0.27027917 0.08021674 -0.08718251 0.19810924 -0.10048486 -0.2320116 -0.16442868 0.046792295
-0.052838534 0.20714745 -0.001614996 0.14989926 0.14956784 0.1727435 -0.07535986 -0.1064852
-0.17059807 0.25297228 0.079329446 0.062846035 -0.3387841 0.08966596 0.038798638 0.27281272
0.20590311 0.15988266 -0.10189467 0.008642295 -0.2616571 -0.11284957 -0.30008772 0.083736144
-0.19446813 0.2830029 -0.154813 -0.031807456 0.105669394 0.13749903 0.120730214 -0.049375486
0.15346466 0.017671594 -0.04473912 0.020351643 0.06155266 -0.21135695 -0.091057755 -0.2141001
0.004352238 -0.13023663 -0.1946735 -0.012514915 0.3909408 -0.13351287 -0.21483602 0.022727832
-0.1276897 0.021874726 0.3082328 -0.10775308 -0.11647323 0.24522558 0.21825396 -0.25268015
0.18948741 0.063436024 0.16425124 0.21655338 -0.105059944 -0.10453055 0.15653677 -0.11204379
0.17921796 0.28016663 0.0881984 0.06418531 0.36671272 -0.2131268 -0.09927452 -0.08066305
-0.023434756 -0.18822227 -0.12334056 0.07193728 0.2710376 -0.106831245 0.22189677 0.25764874
-0.049095437 -0.181249 0.19575804 -0.24746923 -0.06343674 -0.27926692 -0.019004906 -0.07278798
0.22856344 0.15825449 0.20414561 0.14722182 0.07100813 -0.07896256 -0.25034338 -0.0328929

lstm.weight_hh_l0 f4 [64, 16]
00000000: 18cc cc3d a050 a5bd 1254 07be 36f8 103e
00000010: cc53 24be d98a 173e 82ff 29be 261f 9a3d
00000020: ff69 433d 0e36 2d3d 673c 6abc d82e 6cbe
00000030: 8f13 07be e2b7 d6bd 4ff4 1cbe b7e5 dbbd
00000040: 0e76 743d dc69 f9bd 4c49 903d 3b02 24ba
00000050: 1a12 7cbd 8675 94be 22d5 233e cdf9 19be
00000060: 7418 ff3c 92e4 b03e 508c 04be f342 f03d
00000070: cbc7 643e cd52 e63d 92bc 8b3d 9b3c 733e
00000080: 55f4 91be ee5e a73d c8dc f1bd c97f 543e
00000090: ec52 1cbe f055 bb3d 5dd7 62be 245e 6bbd
000000a0: e404 4c3e 6773 0f3e 15da 1bbe ac8a 6abe
000000b0: b5f4 3fbd b903 26be 8741 96be 85ff ff3d
000000c0: 2bda c0bc a57b 74bd 66ee 2cbd 3373 b8bc
000000d0: 5c79 40be 9f20 99be ae4c 163d 0b6e adbd
000000e0: 8fea 5d3e 03af 763e 4f9b ae3d 8a55 453d
000000f0: 6a2a 0a3e ddec b53d 7dc2 a43d 2d59 adbd
00000100: 03c2 b63d b779 5fbe c1e6 183e 44f6 a4bd
00000110: 5395 493d 38ac 053e 0949 b53d 7338 98be
00000120: 9744 7e3e 3000 a83e a70a fcbd a7b8 b9bd
00000130: ac8d 47bb 4529 2a3e 5d10 7cbd a4d6 823e
00000140: 3f93 c3bd 8df5 bdbd 941b ab3d 44c3 83bd
00000150: b1f8 1a3e 0783 b73d 3e11 18be c00b 5c3e
00000160: 3717 6abe 32d1 d8bd 3583 97be 551e a6be
00000170: fb2f 8dbd 834d 253e b1f1 ef3d 7b77 963d
00000180: 4c13 a6be 767d 3b3e a222 a93e 52fe c8bc
00000190: 7dad bebd 53da a1be f26a 8f3d bc5b 3cbd
000001a0: ab6d f03c d51f 903e d2a1 77be 2b49 873d
000001b0: 12d5 a03e 915c 243e 8149 5fbe c8d7 09be
000001c0: 2539 54be 4381 d0bd 8d4b 4a3c 2243 313e
000001d0: f205 e03d 9f51 cbbd ee58 8fbe 7e60 3d3e
000001e0: d581 3abd c8a8 cbbd a0ab 3dbe 819b 8abe
000001f0: ae86 683d ec9b 3abd c4e9 f8bc 0e7a bfbc
00000200: 0332 333e 1ed5 4abe c36b c9bb b9dd ae3d
00000210: 4bd0 903d 53ce 853d 923f e63c 9cff cf3d
00000220: be6a 573e 6382 933e 205f 243e 3ed2 2ebe
00000230: 7172 debd 1425 6ebc e052 29be 3643 ef3d
00000240: 0d88 033d d0c0 89bd 30a7 a23e 3b55 103e
00000250: f6e7 9ebe 8c7f 3d3d c5a5 5bbe c210 30be
00000260: 99ca 08be 896d 9d3d ba03 18be 0d41 c4be
00000270: 2aca 603b 1937 50be 0aa6 07be 9702 08bd
00000280: 0d39 18be 4f6f b33d 2e37 b7bd 5bf4 a7bd
00000290: 9fe2 ae3d 9343 a63d 75fe 9cbd 8435 163e
000002a0: ef7f 6bbe 7061 f13d 76e6 0e3d 328f 98be
000002b0: 1b12 32be da98 78bd 3e33 88be cc5a 96bd
000002c0: 8083 703d 8913 ffbd c5fb 833e 1933 843e
000002d0: df23 adbc 5804 4fbe 36eb bfbd 5918 093e
000002e0: c6c5 1cbe dcd8 ddbc a02f d33d d6c9 f03d
000002f0: d52e fbbd e130 cb3c 3dd3 2fbc 3505 b03d
00000300: c08f 31bd b9a7 d63d b577 703e d467 5d3e
00000310: 320c 40be d484 bbbd 9b1f 193e 5157 69bd
00000320: 42ec e5bc 0b7c 133e b6f2 c33c d2d7 fabd
00000330: d2fe 03be d383 6c3c 4451 50be d9cb 013e
00000340: 2034 8e3d 6c34 633e 90b2 453d bbd7 b9bd
00000350: 7d55 313e 8c6a ebbd 1bfd 81be c333 e93d
00000360: 25d0 8e3e 880a cc3d a066 78be e8c3 26be
00000370: 85ea c13d 82cd 95bc 6d95 e9bd 8ffb 52be
00000380: 70b7 eebc d16a 073e 41c1 dbbd 6e2c fcbc
00000390: 46fc 3c3c c456 98bd d5cf ebbc cf8b f2ba
000003a0: 620b b93d 80a5 1a3e 69d8 48be 3d8e d3bd
000003b0: 8819 943d 3ae7 933d 9f9f 583d b965 89bd
000003c0: b9f8 343d 6f0c eb3d d158 cc3c 38fa 82be
000003d0: 65cc 0fbd 5db6 bd3d d1dc 17be 19c4 dabd
000003e0: 717b 3cbe fa7c 7fbe c592 05bd ffad 6a3e
000003f0: 4c75 0fbe 5005 69bd 47e2 593e f7a3 41be
0.09999865 -0.080720186 -0.13215664 0.14157185 -0.16047591 0.1479906 -0.16601375 0.07525472
0.047708508 0.04228788 -0.014296628 -0.23064744 -0.13191055 -0.104842916 -0.15327571 -0.10737174
0.0596829 -0.12178394 0.0704523 -0.0006256436 -0.0615407 -0.28995913 0.15999272 -0.15036698
0.03113959 0.34549385 -0.1294415 0.117315196 0.2234184 0.11246262 0.06823076 0.23753588
-0.28506723 0.08172403 -0.11809689 0.20751871 -0.15266007 0.09147251 -0.22152467 -0.057462826
0.1992374 0.14008866 -0.1521991 -0.22904462 -0.04686423 -0.16212358 -0.29346868 0.12499908
-0.02354153 -0.05968823 -0.042219542 -0.022515869 -0.18796295 -0.299077 0.03669422 -0.08468255
0.21671508 0.24090199 0.085257165 0.04817728 0.13492742 0.08883069 0.08044908 -0.084642746
0.089237235 -0.21823774 0.14931776 -0.08054784 0.049214672 0.13053977 0.08851821 -0.29730567
0.24830852 0.32812643 -0.12306719 -0.09068423 -0.0030449433 0.16617306 -0.061539043 0.25554383
-0.09549569 -0.09275351 0.083548695 -0.06433728 0.1513393 0.08960538 -0.14850327 0.21488857
-0.22860418 -0.10586776 -0.2959229 -0.32445017 -0.06893917 0.1614285 0.11716021 0.07347008
-0.32436597 0.18309578 0.33034235 -0.024535332 -0.09310434 -0.3161188 0.0700282 -0.045985922
0.029349169 0.28149286 -0.24182823 0.066057526 0.3141256 0.16050936 -0.21805383 -0.1346122
-0.20724924 -0.10180905 0.012347114 0.17310765 0.10938634 -0.09927677 -0.27997535 0.1849384
-0.045533974 -0.09944302 -0.18522501 -0.27071765 0.056769066 -0.045558855 -0.030384906 -0.02337363
0.17499547 -0.1980786 -0.0061468794 0.08538384 0.07070979 0.06533494 0.028106485 0.101561755
0.21036813 0.28810415 0.16051912 -0.17072389 -0.10861672 -0.014535207 -0.1653552 0.11682741
0.03211217 -0.06726229 0.3176818 0.14095013 -0.31036347 0.046264216 -0.21449955 -0.17193893
-0.13358535 0.07686908 -0.14845172 -0.3833088 0.0034300187 -0.20333518 -0.13246933 -0.033205595
-0.14865513 0.08761465 -0.089460716 -0.08200904 0.08539318 0.081183575 -0.07665721 0.14668852
-0.22998022 0.11786163 0.034887753 -0.2979675 -0.17389719 -0.060692646 -0.26601595 -0.07341537
0.05871916 -0.12454898 0.25778022 0.25820234 -0.021135269 -0.20216501 -0.09371035 0.13388194
-0.1530982 -0.027080946 0.10311818 0.11757247 -0.12264792 0.02480358 -0.0107315155 0.08594743
-0.04334998 0.10481209 0.23483165 0.21621639 -0.18754652 -0.09156194 0.14953463 -0.056968037
-0.028066758 0.14402787 0.023919445 -0.12248196 -0.12890175 0.014435726 -0.203435 0.12675418
0.06943536 0.22187966 0.048265994 -0.090743504 0.17317767 -0.114949316 -0.25388417 0.11386826
0.27893177 0.09962946 -0.24257898 -0.1628567 0.09468559 -0.01828647 -0.11405454 -0.20603774
-0.029140204 0.13224341 -0.1073022 -0.030782904 0.011534756 -0.07438424 -0.028785625 -0.0018504801
0.09035374 0.15102196 -0.19613804 -0.10329864 0.07231432 0.07221837 0.0528866 -0.06708855
0.044182513 0.11476981 0.024944695 -0.25581527 -0.035107035 0.09263299 -0.14830329 -0.10681934
-0.18406464 -0.24950019 -0.032610673 0.22917937 -0.14009589 -0.056889832 0.21277724 -0.18910204

lstm.bias_ih_l0 f4 [64]
00000000: 1e86 03be 6aa6 7e3e 66e6 c5ba 11f0 0b3c
00000010: 10be 393e 6306 093e 4dd2 cf3d 978c 29be
00000020: c5d9 ac3e 3074 333c 19fb ed3d 238e 353e
00000030: 8317 3f3c 1eea 07be 2bd3 813e 3f7b 283e
00000040: 7333 713e 77b7 643d d92a 863e 63bd 513e
00000050: ab48 803e 4808 103e eff1 613e c323 133e
00000060: 02f5 723d b9e0 2ebd 8d0c 423e 2489 c3bd
00000070: c2bb 2a3e d2e7 78bd f2dc 8e3e b627 2e3e
00000080: 98d3 91bd 1a47 ccbd 8525 363e acb2 803d
00000090: f7f3 0bbd b441 38be 406b 5b3e 0b91 00be
000000a0: 980c 7d3c 0f0e a3bd f719 6ebe 8dcd 64be
000000b0: 36a3 a23d 7ff9 dcbd 33a4 45be e2e9 62bc
000000c0: 2b28 323e 42b4 693e e422 d5bc b2fd 003c
000000d0: 99fb 6ebd b315 3ebe 2657 a73e 5272 73bd
000000e0: 2670 833e 0262 5cbb 9758 1dbd 12e8 b33e
000000f0: 04e6 2cbe a3c5 433d e470 e93d a58b 03be
-0.1284413 0.2486817 -0.0015098571 0.008541123 0.1813891 0.13381343 0.101475336 -0.16557537
0.33759895 0.010952994 0.11620159 0.17730002 0.0116633205 -0.13272902 0.2535642 0.16453265
0.23554783 0.05583903 0.26204565 0.20482402 0.2505544 0.14065659 0.22064947 0.14369111
0.05931569 -0.04269478 0.189501 -0.09547642 0.16673186 -0.060767956 0.27902943 0.17007336
-0.071204364 -0.09974499 0.1778775 0.06284079 -0.03416821 -0.17993814 0.21427631 -0.1255533
0.015444897 -0.07961666 -0.23252092 -0.22344036 0.07941286 -0.10789775 -0.19300918 -0.013849707
0.17398135 0.22822669 -0.026017614 0.007872986 -0.05834541 -0.18562965 0.32683676 -0.059435196
0.256715 -0.0033627753 -0.038414564 0.35137993 -0.16884619 0.047795903 0.11398485 -0.12846239

lstm.bias_hh_l0 f4 [64]
00000000: 766b 993d f436 bf3d 64e8 8abd cb1f bc3d
00000010: 64cd d13d 03c8 413e 21d1 debd 3d5b c0bd
00000020: 6a00 613e b192 6ebd f36c b6bc 6f5b 46bd
00000030: 696a 14be 1e5d 963e 11ed edbd 2d3d cc3b
00000040: 9600 0a3d 49f4 813e aef1 8c3e 5cb6 8d3d
00000050: 6843 3c3e 90b8 803e 5e6b 793e a509 a43e
00000060: 32fa 953e 6ba6 9b3e 65e7 913d 361f b83d
00000070: 6af1 423e 9781 973e 4327 983e 5388 003e
00000080: 747f e7bd 5805 9dbc 47ff 143e ae99 49bd
00000090: 7810 2ebe 4d70 a7bd 1408 45be f579 a83d
000000a0: 2c1a 37bd 2404 8d3e 50fc 0cbd 687b 91bd
000000b0: 7f32 613e 1619 42bd 8177 3abe b253 07be
000000c0: 7bdd 863e dff5 14bd 54b1 923e e7df ddbc
000000d0: 0f30 2dbe 30ca a2bd 884f 2c3e 28dc 5fbb
000000e0: b2b3 9a3c 6c37 aebd 5cc0 613e 6d68 da3d
000000f0: d4e0 43be bb47 ffbc 9d96 4d3e 62f2 443e
0.074912 0.09336653 -0.06782606 0.091857515 0.10244253 0.18923955 -0.10879732 -0.09392402
0.21972814 -0.058245365 -0.022268748 -0.04842704 -0.14493717 0.29367918 -0.116174825 0.0062328787
0.033691965 0.25381687 0.27528137 0.06919548 0.18385088 0.2514081 0.24357364 0.32038608
0.29292446 0.30400404 0.07124213 0.08990328 0.19037405 0.29591057 0.29717454 0.12552004
-0.11303607 -0.019167587 0.14550506 -0.049218826 -0.1699847 -0.081757165 -0.19241363 0.082263865
-0.044702694 0.27542222 -0.03442031 -0.07103616 0.21991919 -0.047387205 -0.1820965 -0.13215521
0.2634085 -0.036367293 0.28650916 -0.027084304 -0.16912864 -0.079487205 0.16827214 -0.0034158323
0.018884514 -0.08506665 0.22046036 0.10664449 -0.19128734 -0.031162133 0.20076986 0.19233087

linear.model.0.weight f4 [2, 16]
00000000: cc0a 87be efaa 25bd 6aa8 533e cd61 8f3e
00000010: 676a ad3d 328c 44bd fa0a 7ebe 6b52 e6bd
00000020: 295f 3fbe bde8 a43e cbfc d8bd 6b6b 34be
00000030: bd1c 1f3e 9ce1 b8be d93d 01be 1591 4b3e
00000040: 0525 d6bd 0465 98be 8fd7 a2bd d320 c63d
00000050: 6ef2 1ebe 587c 0c3d b804 6a3e dd18 99be
00000060: 5fce 113e bc1d f73d ab7f 4c3d 7fe8 bc3d
00000070: 0e05 97bd fddd a6be 9c63 e73d 761e 2ebe
-0.26375425 -0.040446218 0.20669714 0.28004304 0.0846756 -0.047985263 -0.24808875 -0.11246189
-0.18688644 0.32208815 -0.105950914 -0.17619102 0.15538307 -0.36109626 -0.1262125 0.19879563
-0.1045628 -0.2976457 -0.07951271 0.096742295 -0.15522167 0.03429827 0.22853363 -0.29901782
0.1423888 0.12066218 0.04992644 0.092240326 -0.07374011 -0.3259124 0.11298296 -0.17003807

linear.model.0.bias f4 [2]
00000000: fe7f 5abe 95de d73d
-0.21337888 0.10540501
