examples/2_streamflow_isotope_simulation/results/20241125_101506_612553/loss_c60a7_00002_2_batch_size=8,hidden_size=11,learning_rate=0.0020,n_epochs=182,num_layers=1_2024-11-25_10-15-11/checkpoint_000003/model.pt (torch, 5556 bytes, 6 tensors)

lstm.weight_ih_l0 f4 [44, 4]
000000 29 87 3f be c0 0a f7 bd 19 22 5f 3e 9e 09 c5 3d
       -0.18703903 -0.12062597 0.21790351 0.09620975
000010 af a0 9f 3e 2a 54 c8 bd 71 d5 76 be 8e 96 07 3e
       0.3117728 -0.09781678 -0.24104859 0.13241026
000020 b6 f3 29 be d2 27 63 3e 12 ed 6e be a2 b0 59 3e
       -0.16596875 0.22183159 -0.23332623 0.21258786
000030 d1 7e ad bb 19 f1 9a 3e 90 9c a0 3e ad b9 0e 3e
       -0.0052946587 0.30262068 0.31369448 0.13938017
000040 e0 6f e4 3b c9 14 95 be 14 8d df 3d a5 77 cc bd
       0.0069713444 -0.2911742 0.109155804 -0.09983758
000050 0c d1 58 bd 57 b4 97 be cb 1c 8f 3e 3a 32 14 3e
       -0.052933738 -0.29629776 0.27951655 0.14472285
000060 0e 15 7e 3d 66 f7 01 3e 60 0b 1b 3e c4 1b 38 3e
       0.062031798 0.12692031 0.15141058 0.17979342
000070 23 e0 e2 3d 79 88 7e be d3 f1 38 be 11 2e 4f 3e
       0.11077907 -0.24856748 -0.18060999 0.20232417
000080 ce b5 56 3d 92 98 80 bd bf 2b 91 3e 04 32 2f 3e
       0.052419476 -0.062791005 0.28353688 0.17108923
000090 7c bd 12 bb b5 3a 2d 3e b8 25 31 be af 9a 90 3d
       -0.0022390774 0.16916926 -0.17299545 0.070607536
0000a0 dc ce 94 be b7 6c 00 be 00 77 81 be 15 41 6a bd
       -0.2906407 -0.12541471 -0.25286102 -0.057190973
0000b0 35 b7 89 3e c9 60 9e be 4b 8c 06 3e 30 16 01 bd
       0.26897588 -0.30933216 0.13139455 -0.0315153
0000c0 06 84 8e bd 87 c5 22 3e 0e 86 82 be fd a1 01 be
       -0.06958775 0.15895663 -0.254929 -0.1265945
0000d0 e1 41 00 be e0 cd 3a 3e c7 df 24 be b0 ea ae bb
       -0.12525131 0.18242598 -0.1610099 -0.0053380355
0000e0 e6 9b f1 bd f9 49 c1 bd 24 04 12 3e 6a 31 9d 3e
       -0.117973134 -0.09437937 0.14259392 0.30701762
0000f0 36 94 16 3c 71 cd 86 be 16 e6 4d 3e 4a c5 5d 3e
       0.00919061 -0.26328614 0.20107302 0.21657291
000100 c8 93 c9 bd fa 07 ef bd 18 78 87 be 4a a8 4b be
       -0.0984264 -0.11671443 -0.26458812 -0.19888416
000110 8f de 12 3e 95 e2 6d be 4e e6 91 3e b6 f3 a6 3d
       0.14342712 -0.23230965 0.2849602 0.08151953
000120 dd a8 3b 3e 2f ee 76 be bc 85 47 3e a0 2a 6f 3d
       0.18326135 -0.24114297 0.1948461 0.05839026
000130 0b dc 81 3e 0d cb 89 3e 07 f8 6c bd 92 e2 41 be
       0.25363192 0.26912728 -0.057853725 -0.18934086
000140 d7 50 35 3e fc eb 1f 3d b3 68 0a 3e 1e 3b e5 3d
       0.17706619 0.03904341 0.13516502 0.11192916
000150 63 c3 ad bd df c5 2e 3e 63 f5 48 3e ab bc 7a 3e
       -0.08484533 0.1706767 0.19624858 0.24486034
000160 89 76 91 be b9 2c 38 be a7 d0 74 3e 0f 81 16 3e
       -0.28410748 -0.1798581 0.2390772 0.1469767
000170 34 70 f7 bd 4a ee 58 3e ec 65 04 3e 8f 5d 09 be
       -0.12081948 0.2118465 0.12929505 -0.13414596
000180 78 c0 eb 3d f9 48 fe 3d 4c 6e 58 3e e9 c1 3e bc
       0.1151132 0.12416262 0.21135825 -0.0116429115
000190 0b 0b 00 3e 70 42 1c be 71 4d 95 be 02 92 df bd
       0.12504213 -0.15259719 -0.29160646 -0.10916521
0001a0 7f f0 6e be 10 60 99 be 55 79 5b be 56 a2 b6 bd
       -0.2333393 -0.29956102 -0.21433003 -0.08917682
0001b0 6b ef 0a 3e 75 02 9c 3e 1f 6e c0 bd 29 49 b3 3d
       0.13567893 0.30470625 -0.09396004 0.087541886
0001c0 66 70 17 3e 47 7d 00 3e 6d 0d 7f bd 07 70 1b be
       0.1478897 0.1254779 -0.062268663 -0.15179454
0001d0 af 07 3f 3e bd dc 41 be 5e d5 22 be 7d 2f 69 be
       0.18655275 -0.18931861 -0.15901706 -0.22772022
0001e0 e5 ac 5f 3e ea 9c 5e be e4 a4 a5 be c5 fd 6d 3d
       0.21843298 -0.21739545 -0.32352364 0.05810334
0001f0 9d 70 8d 3c d9 9a ac 3c 14 53 87 be 67 ea 8d be
       0.017265612 0.02106993 -0.2643057 -0.27717897
000200 96 eb 53 3e 34 d8 07 ba 5d 40 0b bd fb af d1 3d
       0.20695338 -0.0005182058 -0.03399693 0.10238644
000210 c9 19 99 be 58 ef 4b be f9 91 64 3d c7 4f b5 bd
       -0.29902485 -0.19915521 0.055803273 -0.08853107
000220 e3 d6 73 bd a6 c8 8e be cc 06 f1 3d 2a f3 d9 bd
       -0.059531104 -0.27887458 0.117688745 -0.10642083
000230 e5 a6 19 3e b2 1d 21 3e 45 e1 68 be cd d7 82 be
       0.15005071 0.15733984 -0.22742184 -0.25555268
000240 24 2b 0d be 0e 25 b8 3d 64 f5 9a 3e 32 4d 90 3e
       -0.13785988 0.089914426 0.30265343 0.28183895
000250 e3 f0 1a be 95 e0 82 be 7b 5b 98 be 22 34 30 3e
       -0.15130953 -0.25561967 -0.29757294 0.17207387
000260 b7 59 96 be be fd 6e 3d d7 4e 06 be 87 92 1e 3e
       -0.29365322 0.058347456 -0.13116013 0.15485583
000270 2a 1f 67 be 61 bb ef 3d 52 e5 6c bd 62 f4 5f 3e
       -0.22570482 0.117056616 -0.057835884 0.21870568
000280 cc 0c 30 be 57 99 9d 3e d7 0d 6d 3d e5 e1 92 be
       -0.17192382 0.30781052 0.057874527 -0.2868797
000290 f0 97 6f ba 2c 70 cf bd 0a f3 c9 3d c2 16 33 3d
       -0.0009139767 -0.10128817 0.09860809 0.043722875
0002a0 f5 f6 85 3e 99 ac 96 3e c0 91 64 bd b5 ac 9d 3e
       0.26164976 0.29428557 -0.05580306 0.30795828
0002b0 7f f0 a2 bd c8 2c 85 3e c9 e0 29 be 76 b3 7d 3e
       -0.07956027 0.26010728 -0.16589655 0.2477549

lstm.weight_hh_l0 f4 [44, 11]
000000 88 72 13 3e c8 5c c6 bd af 0c 16 3e 79 d5 5f be
       0.14399159 -0.09685665 0.14653276 -0.21858777
000010 76 13 51 be 81 f4 57 bc 72 8a 33 3e a6 a2 d7 bd
       -0.2041758 -0.013180853 0.17533281 -0.105290696
000020 b1 38 c0 3d 02 19 87 bd 18 c8 b4 bc 5a f1 f8 bd
       0.09385813 -0.06596567 -0.022068068 -0.12155409
000030 cc 3a 3b be 8d e6 ac ba ee 3f 85 3e 2c 32 33 3e
       -0.18284148 -0.0013191268 0.26025337 0.17499608
000040 0d 55 f9 3d 68 d7 d9 bd c8 2e 3f 3e 08 b7 6e be
       0.12174425 -0.106367886 0.1867019 -0.23312008
000050 a8 9c 2e 3d c5 e4 54 be 3f 6a 22 3e 25 1f 70 3e
       0.042629868 -0.20790394 0.15860842 0.2344938
000060 16 6f 0c 3d 21 81 91 bd 38 65 94 3d 08 2d ca 3d
       0.034285627 -0.071047075 0.072458684 0.0987187
000070 c5 a7 83 bd 16 cf da bd d6 f5 1e bb dd e9 90 3e
       -0.06428484 -0.1068403 -0.0024255416 0.28303424
000080 dc a9 01 3e bc 6f c6 3d b9 9c 6d be fb 88 a0 3e
       0.12662452 0.096892804 -0.23204316 0.31354508
000090 1a f8 4c 3e 35 29 a2 be 3a 35 57 3e a5 70 74 be
       0.20016518 -0.31672063 0.21016398 -0.23871095
0000a0 c2 f6 79 be eb 75 9b be e3 57 ef bc 94 a0 55 3e
       -0.24410537 -0.30363402 -0.029216712 0.20862037
0000b0 87 1f 7a be c2 6a 1a 3d 17 71 6f be b4 6d 75 be
       -0.24426089 0.03769947 -0.23382984 -0.2396763
0000c0 0c 05 a1 3e 01 93 91 3e 0f 57 54 3e 98 e0 e8 b9
       0.31449163 0.28432468 0.20736335 -0.00044417824
0000d0 a2 9f ab bd 5b 3d cc bd 39 d6 46 be 0b eb 05 be
       -0.08380057 -0.0997264 -0.19417657 -0.13077943
0000e0 ec 30 45 3e dc 2c cd ba 30 c3 48 be 25 34 39 3e
       0.19256943 -0.0015653628 -0.19605708 0.18086298
0000f0 b1 0f 40 3e 3b f5 84 3e b4 d9 ba 3d 9b 8f 9e be
       0.18755986 0.25968346 0.09123555 -0.30968937
000100 87 2c 62 3e 75 bc 65 3e bb de 2a 3d 8f 0a 8d 3e
       0.22087298 0.22435172 0.04171632 0.27547118
000110 d8 bf 80 bd b6 7a ab 3d a9 c9 34 3e 7e 76 87 3e
       -0.06286591 0.08373015 0.17655052 0.2645759
000120 de e4 59 be 5d 19 8e 3d 86 e9 39 be 29 f3 a2 be
       -0.21278712 0.069384314 -0.18155488 -0.3182614
000130 55 ce 65 3e ae 09 69 be 77 86 4a be 5a 43 5e be
       0.2244199 -0.22757599 -0.19777857 -0.2170538
000140 14 a5 6f 3d b4 d7 52 be 9d d9 8e be 70 91 87 3e
       0.05850704 -0.20590097 -0.279004 0.26478148
000150 23 27 93 bd de f7 3d 3e eb 8e 1f be 80 04 36 be
       -0.07185199 0.18551585 -0.15581863 -0.17775154
000160 b5 90 68 3e b4 27 9a 3c 00 2f ad 3c 75 a1 d6 bd
       0.22711451 0.01881776 0.021140575 -0.10480014
000170 2d 9b 20 3e 10 98 c3 bd b0 28 7c 3e 5a 18 b6 bd
       0.15684195 -0.09550488 0.24624896 -0.088913634
000180 dc 7b 55 bd 33 0d 8c 3e 6e f8 50 be f1 c9 3e be
       -0.052120075 0.2735382 -0.20407268 -0.18631722
000190 34 b1 ea 3d c3 25 8a 3e 33 59 a7 3d 36 53 2b 3d
       0.1145958 0.26981935 0.0817131 0.041827403
0001a0 b6 ea 1e be 2d 62 16 3e 6d 15 a0 be 78 a3 81 3e
       -0.15519223 0.14685889 -0.31266347 0.2532003
0001b0 de bb 4b 3e ff a5 59 3e b3 0b 16 bb 1b 04 2f 3d
       0.19895884 0.21254729 -0.0022895157 0.042728525
0001c0 a3 07 9e bd fa f2 ec 3d df bc 83 3e 00 67 5a 3e
       -0.077163 0.115697816 0.25730035 0.21328354
0001d0 21 88 3e 3d b9 fd 7e 3d fa e2 67 3e f8 79 15 3e
       0.04651654 0.062253688 0.22645178 0.14597309
0001e0 40 48 d8 3d 88 2f 12 be 5f ca a1 be a9 bb f1 bd
       0.105606556 -0.14275944 -0.3159971 -0.118033715
0001f0 bc e2 5a be 4c c1 9e bc 00 5b 2f bd c6 57 9d bd
       -0.21375555 -0.01937928 -0.042811394 -0.07682757
000200 3d 48 15 bc 8f 14 91 3e 2e fc 5c 3e 42 4a d1 bd
       -0.009111461 0.28335997 0.21580574 -0.10219242
000210 e7 61 a6 bc 03 a8 54 be 1e 6d a1 3e f5 b5 7c 3e
       -0.020310355 -0.20767216 0.31528562 0.24678786
000220 5e bc 85 3e f2 e9 7a 3e 32 e7 a3 3e f2 e3 08 be
       0.26120275 0.24503306 0.32012326 -0.13368204
000230 04 75 c7 3a 51 8b de 3d cc a4 71 be e8 5a ab be
       0.0015217368 0.10866416 -0.23598021 -0.33467793
000240 1d 20 32 bd 49 cb 1e be 85 ab 5f 3e 35 3f a3 3d
       -0.043487657 -0.15507235 0.21842773 0.0797104
000250 df 52 22 bd 6f 3b 28 be e4 4d 02 be 4d 36 e7 bd
       -0.039629813 -0.16428922 -0.12725025 -0.11289654
000260 5a 17 ab 3d 53 0e c8 3c 5a d6 ee 3d 0a 7f db 3d
       0.08354063 0.024420893 0.11661978 0.1071759
000270 71 09 e5 3d ea 35 dd bc a3 21 7d 3e 41 6d 8c be
       0.111834414 -0.027003247 0.24719863 -0.27427104
000280 7a 8f 90 3e e7 5c a4 be df 4b 30 3e d8 59 43 bd
       0.28234464 -0.3210213 0.17216443 -0.047693104
000290 c6 ab ec bd c1 79 9b 3e a3 1e ae bb 3a e6 7b 3e
       -0.11556201 0.30366328 -0.005313711 0.24599543
0002a0 27 bb 1b 3e 8b 2d 10 bd 6c 65 e0 bd 93 d7 57 be
       0.15208112 -0.035199683 -0.10956845 -0.21078329
0002b0 e2 18 09 be ff b8 11 3e 19 3a 81 3e 6b 3a 1a be
       -0.13388398 0.14230727 0.25239637 -0.15061347
0002c0 46 f5 08 be 66 f7 02 be 4d c0 8d be 20 9e 06 be
       -0.13374814 -0.12789688 -0.27685776 -0.13146257
0002d0 d4 9a 18 be 60 01 c3 3d 0d 01 87 3e 6b 0b 39 3e
       -0.14902812 0.09521747 0.2636799 0.18070762
0002e0 bb 6e 31 3e 5f 1d 5c bd e7 69 91 bd 35 7d 7a 3e
       0.17327397 -0.053738948 -0.071002774 0.24461825
0002f0 68 f4 05 3e 67 86 7f 3e 8c 62 b4 3c 55 4e 67 3e
       0.13081515 0.24953614 0.022019647 0.22588475
000300 e6 16 56 be 62 09 30 be 8b 64 1f be b6 39 36 3c
       -0.20907173 -0.1719108 -0.15565698 0.011122158
000310 42 cf 76 be 27 92 8e bc 2b f7 a6 bd 3a 5d 37 be
       -0.241025 -0.017403675 -0.08152612 -0.17906657
000320 c9 a1 f2 bd 0c 2f a8 3e 34 06 87 3e 24 cd 8d 3e
       -0.11847264 0.32848394 0.2637192 0.27695572
000330 e6 ba 83 bb 22 fd 7d be 1d 41 5b be 11 1d 1c be
       -0.0040200828 -0.24803594 -0.21411557 -0.15245463
000340 36 2e 55 3e 55 88 40 bd 2e e8 01 be 31 32 84 3e
       0.2081841 -0.047005016 -0.12686226 0.25819543
000350 6a 4a a7 be 78 14 1c 3e 81 b1 69 be ad 3c 5a 3d
       -0.3267396 0.15242183 -0.22821619 0.05328052
000360 e4 fe 08 3e 6d 59 4d be bb ce 45 3e 1f 08 f4 3d
       0.13378483 -0.20053644 0.19317143 0.119156115
000370 a0 53 69 be 84 1f cb 3d c9 58 ce 3d 0a fb 83 bd
       -0.22785807 0.099181205 0.10075528 -0.06444366
000380 56 53 02 3e 36 4a 21 3e 56 a0 98 be a6 8e 85 3e
       0.12727103 0.15750965 -0.29809827 0.26085395
000390 f1 62 84 be 40 cb d7 ba 95 fc 5c be 54 42 63 3e
       -0.25856736 -0.0016463771 -0.21580727 0.22193271
0003a0 ac 58 db 3d 15 ab ed bd 67 77 91 bd 67 f8 81 3e
       0.10710272 -0.11604897 -0.07102852 0.25384828
0003b0 87 c9 13 be 1f d3 b0 bd 99 7f 89 3e 4b a4 83 be
       -0.14432345 -0.08634018 0.26855162 -0.25711283
0003c0 a7 54 65 3e 05 fd b9 3c b9 ef 61 bd 89 a3 6a 3d
       0.22395574 0.022703657 -0.055160258 0.057284866
0003d0 5e 0e 6e 3e ea b2 d6 bc a1 86 1a be 69 35 11 3d
       0.23247668 -0.02620836 -0.1509042 0.035451327
0003e0 ca 51 1e 3e 75 ad 87 3e c6 99 52 3e 64 4d 28 3e
       0.15460888 0.26499525 0.20566472 0.16435772
0003f0 c5 d9 97 3b dd 51 09 3e 23 d1 4d 3e c9 42 44 3e
       0.0046341144 0.13410135 0.2009931 0.19166102

lstm.bias_ih_l0 f4 [44]
000000 97 e7 a8 3d e8 22 79 3e a2 ce 13 3e fc 78 73 be
       0.08247297 0.24329722 0.14434293 -0.2377662
000010 86 da 09 3e 5c 9f 37 be 54 5c ed bd 9f d0 45 3e
       0.13462266 -0.17931885 -0.11589876 0.19317864
000020 07 d4 74 be f7 36 9e 3e ad 46 a7 3e ef 55 b8 3d
       -0.23909007 0.3090131 0.3267111 0.090007655
000030 83 22 84 3e ff 7b 2e 3d ff e8 93 bd 21 b1 d0 bd
       0.2580758 0.04259872 -0.07222175 -0.10190035
000040 5f ac 97 3c 19 33 93 3d 5a 9d d3 bd cf 79 03 3e
       0.01851481 0.071874805 -0.10332747 0.12839435
000050 07 a6 25 be 8e ad ac 3e e2 01 c1 3d 13 b3 23 3e
       -0.16176616 0.33726162 0.09424187 0.1598628
000060 ac 48 03 3d 64 f6 ce bc c0 0e ab 3d d5 84 79 bd
       0.032051727 -0.025263973 0.08352423 -0.060917694
000070 7f 66 c6 bd ac cd 06 3e f2 04 e4 bc 76 3e 35 be
       -0.09687518 0.13164395 -0.02783439 -0.17699608
000080 3c f1 81 be ad a0 fd bd b4 c5 35 3e ed ef 9b bd
       -0.2537936 -0.12384162 0.17751199 -0.076141216
000090 68 5e 77 be 5e b9 95 3e f2 82 2d 3d 89 3e ed bd
       -0.24157107 0.29242986 0.042361207 -0.11584193
0000a0 e3 28 86 bd ff 91 2c be bd 8d 52 be 4f 60 6f be
       -0.06550767 -0.16852568 -0.20561881 -0.23376583

lstm.bias_hh_l0 f4 [44]
000000 23 df 6e be a4 83 70 3e a0 93 bb 3d 82 b8 c0 bd
       -0.23327307 0.23487717 0.091590166 -0.09410192
000010 11 74 84 bd 49 02 8e be 62 30 06 3e 3f c8 4d be
       -0.064674504 -0.27736118 0.13104394 -0.20095919
000020 71 2d 9c bd 73 75 65 3e b7 8b 81 be 2b 14 dc 3c
       -0.07625855 0.22408085 -0.25301906 0.026865086
000030 4a 12 11 3e 7a 6b 42 be 7f 8f 33 3e ac 89 72 3e
       0.14167133 -0.18986312 0.17535208 0.2368533
000040 6e 44 7b 3e f1 61 d9 bc db bf 25 bd e9 56 af 3e
       0.24537823 -0.02653596 -0.04046617 0.34245995
000050 eb 72 7d 3e a1 d7 10 3e 12 94 4d 3e f8 2c 63 bc
       0.24750869 0.14144756 0.20076016 -0.013865702
000060 7b ca 4c bd f9 39 8c be 8a cc d3 3c 16 94 ac 3c
       -0.049997788 -0.2738798 0.025854368 0.021066707
000070 8e 40 a8 be 0e 53 13 3e 86 d8 f0 bb 3f e9 20 be
       -0.3286175 0.14387152 -0.0073500304 -0.15713976
000080 a0 ec 13 be 3b df 51 3e a0 3d 82 3e ae d7 f3 3d
       -0.14445734 0.20495312 0.2543764 0.11906372
000090 58 da 0b be cc 6e 7f be 2e 4f 2e be 9e 56 a0 3e
       -0.1365751 -0.2494461 -0.17022392 0.31316084
0000a0 eb 7a 97 be 13 cd 55 3e 39 ab eb 3c 7a b5 3f bd
       -0.29585966 0.20879011 0.028768169 -0.04680393

linear.model.0.weight f4 [2, 11]
000000 4b 3c ae 3d 5e a5 9e bd 28 2a 6a 3e 8c df 7d 3e
       0.08507594 -0.07746385 0.22867644 0.24792308
000010 5f 65 33 bc c5 f0 6e be 91 c7 40 be 33 04 30 be
       -0.010949462 -0.23334034 -0.18826129 -0.17189102
000020 11 bf 5a bd 7b ea b7 bc f3 af 43 be 5c 35 1c be
       -0.05340487 -0.022450676 -0.19110088 -0.1525473
000030 98 c6 12 be c5 d3 20 be b8 8f 91 be 05 36 69 be
       -0.1433357 -0.15705784 -0.2842996 -0.22774513
000040 b8 19 9b 3c c4 58 7d bc 1e 46 ad 3d b8 65 db bd
       0.018933162 -0.015463058 0.084606394 -0.10712761
000050 4d 70 8d be ae 9d 4a bd
       -0.2762474 -0.04946678

linear.model.0.bias f4 [2]
000000 23 95 80 be 2e 19 49 be
       -0.25113782 -0.19638512
