examples/2_streamflow_isotope_simulation/results/20241125_101506_612553/loss_c60a7_00004_4_batch_size=6,hidden_size=8,learning_rate=0.0020,n_epochs=167,num_layers=2_2024-11-25_10-15-11/checkpoint_000014/model.pt (torch, 7324 bytes, 10 tensors)

lstm.weight_ih_l0 f4 [32, 4]
0	0x3efd7b8b	0.49508318
1	0xbd0636d2	-0.032767124
2	0x3e201bb9	0.15635575
3	0x3e89c587	0.26908514
4	0x3f3e4274	0.7432015
5	0x3d60abfd	0.05485152
6	0xbe008614	-0.12551147
7	0xbd0f12ab	-0.034929913
8	0xbeeccfb6	-0.4625222
9	0x3ddcc34e	0.10779439
10	0x3e5fe4fc	0.21864694
11	0xbc57db86	-0.013174897
12	0x3f1dc5d7	0.61630005
13	0x3bcad8ee	0.006190411
14	0xbdbc978b	-0.09208592
15	0x3e36259e	0.17787787
16	0x3eb54f7e	0.3541221
17	0x3b237f43	0.002494768
18	0xbe7a3624	-0.24434716
19	0x3e8ce50f	0.27518508
20	0x3d2fba36	0.042902194
21	0x3e19ab07	0.15006648
22	0xbebe83f4	-0.37210047
23	0xbed1a8b9	-0.40949038
24	0x3f1520d6	0.5825323
25	0x3ea3ce96	0.3199355
26	0xbd24afa9	-0.040206585
27	0xbe4f13f4	-0.20222455
28	0x3f297e61	0.66208464
29	0x3e3253d6	0.17414793
30	0x3eee623c	0.46559322
31	0xbda28579	-0.07935614
32	0x3d69d41e	0.057087056
33	0xbe2f9ffd	-0.17150874
34	0x3e91aa5c	0.28450286
35	0xbe4a87bb	-0.1977834
36	0x3f124751	0.5714007
37	0xbdad833a	-0.08472295
38	0x3daa96a9	0.083295174
39	0x3d444015	0.047912676
40	0xbe18ac38	-0.14909446
41	0xbc942be7	-0.01808734
42	0xbc2546e9	-0.010087707
43	0xbe8af574	-0.2714039
44	0x3e9d7654	0.3075434
45	0x3e38a18c	0.18030375
46	0x3e06a438	0.13148582
47	0xbe9347bb	-0.28765664
48	0x3eff3efe	0.49852747
49	0x3e26118a	0.16217628
50	0xbe0e2bd1	-0.13883902
51	0x3c567c29	0.0130911255
52	0x3e580d18	0.21098745
53	0xbddbcd1c	-0.10732481
54	0xbeda96b3	-0.426931
55	0xbdb6566d	-0.08903203
56	0x3f5bab13	0.85807914
57	0x3e8db45b	0.27676663
58	0x3e57108a	0.21002403
59	0x3e72c6a0	0.23708582
60	0x3ebacc07	0.36483786
61	0xbdbcb139	-0.0921349
62	0x3e485785	0.19564636
63	0xbeaae39c	-0.33376777
64	0x3f2a362c	0.6648891
65	0x3e74fd17	0.23924671
66	0xbcbaf190	-0.022820264
67	0xbe9ced5f	-0.3064985
68	0x3e7f42c2	0.2492781
69	0x3e4a43c8	0.19752419
70	0x3eaf5a8c	0.3424877
71	0xbdca3eba	-0.098752454
72	0x3ee290b3	0.44251022
73	0x3e2c881a	0.16848794
74	0x3df0860f	0.1174432
75	0x3e23f0d9	0.16009845
76	0xbeb51f07	-0.35375234
77	0x3ef3620a	0.47535735
78	0x3e547328	0.20747054
79	0x3dd166b6	0.10224669
80	0xbee97200	-0.45594788
81	0x3e5afd5e	0.21385714
82	0xbeb4f4da	-0.35343057
83	0x3d1bffd7	0.038085785
84	0x3f037af3	0.5135948
85	0x3e5b9023	0.21441703
86	0xbd4ab1d1	-0.049485985
87	0x3e525182	0.20538905
88	0xbd2853a9	-0.04109541
89	0x3ea0fc35	0.3144242
90	0x3eb55ad8	0.3542087
91	0x3ea15e05	0.31517044
92	0xbee8abe2	-0.45443636
93	0x3eb828f8	0.35968757
94	0x3e7536b6	0.23946652
95	0xbe53d433	-0.20686416
96	0x3ea707c6	0.32623118
97	0x3cb52818	0.022113845
98	0xbe195c4e	-0.14976618
99	0x3efb3146	0.4906103
100	0x3f4ac2ad	0.792033
101	0xbe023720	-0.12716341
102	0xbea23719	-0.3168266
103	0xbc6bcb08	-0.014391668
104	0xbe9815a4	-0.2970401
105	0x3e4d8549	0.20070376
106	0xbd960c7f	-0.07326602
107	0xbea9bfe6	-0.3315422
108	0x3f16ca53	0.5890247
109	0xbe2f78d7	-0.1713594
110	0x3f20bfac	0.6279247
111	0xbe940e9a	-0.2891739
112	0x3f2ed7d1	0.6829806
113	0x3e2c24e9	0.16810955
114	0x3e0e14ee	0.13875172
115	0x3e3a5d5a	0.18199673
116	0xbd7b8d69	-0.061414156
117	0xbeb059aa	-0.34443408
118	0xbf1d8b32	-0.6154052
119	0xbecc2b16	-0.39876622
120	0x3f50b6b6	0.81528795
121	0xbe355709	-0.17708983
122	0x3e8c0fbd	0.27355757
123	0x3d8234ff	0.063577645
124	0x3ee1292f	0.43976733
125	0xbe260336	-0.16212162
126	0x3f0a0f33	0.5392944
127	0x3e0ff70b	0.14059083

lstm.weight_hh_l0 f4 [32, 8]
0	0x3decf6e4	0.11570528
1	0x3e611039	0.21978845
2	0xbe88bbb4	-0.26705706
3	0x3d56110c	0.05226235
4	0xbf37a48e	-0.71735466
5	0xbe1b590c	-0.15170687
6	0x3c2af83c	0.01043516
7	0x3e8b5108	0.2721026
8	0x3ebf7932	0.37397152
9	0x3d6a3ad4	0.05718501
10	0xbe99b571	-0.3002124
11	0x3de6090c	0.11232194
12	0xbe8c1eb7	-0.27367184
13	0xbe36755b	-0.17818205
14	0x3dea05d7	0.11426895
15	0xbc5e5340	-0.013569653
16	0xbe12f9d2	-0.14353111
17	0x3cb1f726	0.021724295
18	0xbe774e7a	-0.2415103
19	0xbde14378	-0.10999197
20	0x3d912e89	0.07088954
21	0xbef0eb1d	-0.47054377
22	0x3da9fec2	0.08300544
23	0x3e7d7702	0.24752429
24	0x3e0c8384	0.13722044
25	0x3eb81b9f	0.35958573
26	0xbde7c9bd	-0.113177754
27	0xbe30ad7c	-0.17253679
28	0xbe26d464	-0.16291958
29	0x3e1945f1	0.14968087
30	0x3e46f3fe	0.19429013
31	0x3e122ab9	0.1427411
32	0xbcece09c	-0.028915696
33	0xbe7993b0	-0.24372745
34	0xbf01b87b	-0.5067212
35	0x3e4a81c6	0.19776067
36	0xbed5081b	-0.41607746
37	0x3dfbf63e	0.12302826
38	0xbe244cf3	-0.16044979
39	0x3ec597a2	0.3859225
40	0x3e684409	0.22682203
41	0xbe958243	-0.29200944
42	0xbeefcfdf	-0.4683828
43	0x3e616af9	0.22013463
44	0x3ca96320	0.02067715
45	0x3e49cb6e	0.19706509
46	0x3c69d60d	0.014272225
47	0xbe154670	-0.14577651
48	0x3dac72ff	0.08420371
49	0x3b68c134	0.0035515549
50	0x3e977172	0.2957874
51	0xbc744707	-0.014909512
52	0xbc9c551b	-0.01908355
53	0xbeb0322c	-0.34413278
54	0xbd9cfa17	-0.07664888
55	0x3e555d08	0.2083627
56	0x3f0b0ba1	0.5431462
57	0x3e51aa7c	0.20475191
58	0x3e9fde66	0.31224364
59	0xbe1ba5bf	-0.15199946
60	0x3de17b29	0.11009819
61	0x3d16b5df	0.03679454
62	0xbe3ec7fe	-0.18630978
63	0xbe964400	-0.29348755
64	0x3e86c582	0.26322562
65	0x3eac330c	0.33632696
66	0xbd3126ca	-0.043249883
67	0x3dbb1452	0.09134735
68	0x3e5674cf	0.20942996
69	0x3eb07a10	0.34468126
70	0x3d72ed0c	0.059308097
71	0x3eea8c5e	0.45810217
72	0x3ef95f8b	0.48705706
73	0xbe471c7d	-0.19444461
74	0x3e747cc7	0.23875724
75	0xbe16e12c	-0.14734334
76	0xbc203d07	-0.009780175
77	0x3ce791d4	0.028267778
78	0xbd312cf4	-0.04325576
79	0x3df614b4	0.120156676
80	0x3e0b55f2	0.13607004
81	0xbe1b4cbf	-0.15165995
82	0xbeeae84e	-0.4588036
83	0x3e99d81e	0.30047697
84	0xbe76e1a7	-0.24109517
85	0x3d08583a	0.033287264
86	0x3ece2800	0.40264893
87	0x3ea39892	0.3195234
88	0x3d3c6a4e	0.045999818
89	0xbe500335	-0.20313723
90	0xbe61ff9b	-0.22070162
91	0x3ba1c7e6	0.00493716
92	0xbf0049be	-0.5011252
93	0xbcbad1ea	-0.022805173
94	0xbf0cb227	-0.5495934
95	0xbecbaf80	-0.39782333
96	0xbe73aac2	-0.23795608
97	0xbe13e1b0	-0.14441562
98	0xbe48fae6	-0.1962696
99	0xbe8f9d52	-0.28049713
100	0xbe7fd9d4	-0.24985439
101	0xbe2acd7e	-0.16679952
102	0xbf345a31	-0.7045012
103	0x3e143e9c	0.14477009
104	0x3e86633a	0.2624758
105	0xbe70260b	-0.23452012
106	0x3c4eb1b1	0.012615607
107	0xbe79d588	-0.24397862
108	0xbe2e02dd	-0.1699328
109	0xbadb1914	-0.0016715848
110	0xbd286575	-0.041112382
111	0x3eb9e2a8	0.36305737
112	0xbc843778	-0.01613973
113	0x3ea1d940	0.3161106
114	0xbed894ee	-0.42301124
115	0xbf008831	-0.5020781
116	0xbe916d67	-0.2840378
117	0x3d35e4ed	0.044407774
118	0x3d3cbb98	0.04607734
119	0xbdd1f93c	-0.10252616
120	0x3ede72de	0.43447012
121	0xbd5148ae	-0.051094703
122	0x3eb7bfb4	0.35888445
123	0xbd99e20d	-0.07513819
124	0x3bb74010	0.0055923536
125	0x3de693d8	0.11258668
126	0xbe83e35e	-0.25759405
127	0x3da88fe8	0.08230573
128	0xbe368e27	-0.17827664
129	0x3dfffc7c	0.124993294
130	0x3ede25e9	0.43388298
131	0xbde296ee	-0.11063944
132	0xbe516c2b	-0.20451419
133	0x3e48327a	0.19550505
134	0xbe943745	-0.28948417
135	0x3d6c324d	0.057665158
136	0x3eb73fdf	0.35790917
137	0xbd69467a	-0.056951977
138	0x3e72ff70	0.23730254
139	0x3ec78348	0.38967347
140	0xbd939886	-0.07206826
141	0x3df9a79e	0.121901736
142	0x3eb87cca	0.36032706
143	0x3c6eb5d2	0.0145697165
144	0x3e15976e	0.14608547
145	0xbec9cd01	-0.39414218
146	0x3c775ca5	0.015097772
147	0x3b9414d5	0.004519085
148	0x3e2b71ab	0.1674258
149	0x3e92db19	0.28682783
150	0xbedc9659	-0.43083456
151	0xbda61ede	-0.08111356
152	0x3ecdcbdd	0.40194598
153	0xbd9b99c4	-0.07597688
154	0xbe85076f	-0.25982234
155	0xbe70e353	-0.23524217
156	0x3e8ed85d	0.27899447
157	0x3e230a67	0.15921937
158	0xbd0f3f7b	-0.03497265
159	0xbe58b5d8	-0.21163118
160	0xbdbc4b54	-0.09194055
161	0x3ea2a502	0.31766516
162	0xbd5bf8cc	-0.053704068
163	0xbc1edd47	-0.009696311
164	0xbcafb02e	-0.021446314
165	0x3d80c8f0	0.06288326
166	0x3bf4eda3	0.0074746176
167	0xbe937c3e	-0.28805727
168	0xbe98a45e	-0.29812902
169	0x3ece826e	0.40333885
170	0x3e33068b	0.17482965
171	0xbd3931a8	-0.04521337
172	0x3e2bd03c	0.16778654
173	0x3ec8c602	0.39213568
174	0xbd2b9ac9	-0.04189566
175	0xbe5c4722	-0.2151151
176	0x3ca9522e	0.02066907
177	0x3ec36a38	0.38166976
178	0xbe912640	-0.28349495
179	0x3d9d9e3f	0.07696199
180	0xbdb68696	-0.08912389
181	0x3dc3ac82	0.09554388
182	0x3d7354e5	0.059407134
183	0x3e3e7021	0.18597461
184	0xbd0c1200	-0.034196854
185	0xbd18a871	-0.037270013
186	0xbd9e5dfd	-0.077327706
187	0x3e8023c5	0.2502729
188	0x3e0d2a29	0.13785614
189	0x3ea9e6a6	0.33183783
190	0xbe14c2c6	-0.14527425
191	0xbab27cfc	-0.001361757
192	0xbd7c88a6	-0.061653756
193	0x3f19018b	0.5976798
194	0xbf1b81f9	-0.607452
195	0x3d9cb085	0.07650856
196	0xbe211b9e	-0.15733191
197	0xbec1c361	-0.37844375
198	0x3d88cc71	0.06679619
199	0x3d561978	0.052270383
200	0x3ee889cc	0.4541763
201	0x3e1a6b3b	0.15079968
202	0xbd7ee9bf	-0.062234636
203	0x3ea632af	0.32460544
204	0xbe9e0452	-0.3086267
205	0x3e19a2fb	0.15003578
206	0x3f01db4b	0.5072524
207	0x3ebe0ed4	0.37120688
208	0x3ec94517	0.39310524
209	0xbe43d6e4	-0.19124943
210	0xbda82202	-0.082096115
211	0xbd98e052	-0.07464661
212	0x3ea5ff74	0.32421458
213	0xbecda60f	-0.40165755
214	0x3cbaf1a9	0.02282031
215	0xbdbec076	-0.09314053
216	0x3f3f5bb7	0.7474932
217	0xbd9dce16	-0.077053234
218	0xbd872177	-0.0659818
219	0x3dfb568f	0.12272369
220	0xbe8408db	-0.25788006
221	0x3e38a0cc	0.18030089
222	0xbdd3b566	-0.103373334
223	0x3e38746d	0.18013163
224	0x3f0da407	0.5532841
225	0xbe8fd587	-0.28092596
226	0xbef4ee54	-0.4783808
227	0x3e2612ad	0.16218062
228	0xbecf93ef	-0.40542552
229	0xbe94a576	-0.29032487
230	0xbd1bcbdd	-0.038036216
231	0xbe579d8c	-0.21056193
232	0x3ed49690	0.4152112
233	0x3ddfdf53	0.109312676
234	0xbe1a1c48	-0.15049851
235	0x3e849c19	0.25900343
236	0xbe36b0c8	-0.17840874
237	0xbe980dfe	-0.29698175
238	0x3ef2068c	0.4727062
239	0x3eda6f0c	0.42662847
240	0x3ebb3f73	0.36571845
241	0x3ec475d7	0.38371155
242	0x3e9b050d	0.3027729
243	0xbd94b2a4	-0.072606355
244	0xbede0333	-0.43361816
245	0x3e64aaa7	0.22330724
246	0xbdf2968c	-0.11845121
247	0x3d44b565	0.048024554
248	0x3d596ea4	0.05308403
249	0x3f33d8a1	0.70252424
250	0x3ebb657c	0.36600864
251	0xbc3b9deb	-0.011451225
252	0xbeba12c2	-0.36342436
253	0x3e86b247	0.2630789
254	0xbdc7a569	-0.09748346
255	0xbe7b2de9	-0.24529232

lstm.bias_ih_l0 f4 [32]
0	0x3eb61364	0.3556167
1	0x3ec84f52	0.39123017
2	0x3e14f569	0.14546742
3	0xbdc0fd62	-0.09423329
4	0x3e74d308	0.23908627
5	0x3e4b696c	0.19864434
6	0xbc843959	-0.016140627
7	0x3dcb8296	0.09937017
8	0x3d96d2f2	0.073644534
9	0xbd746832	-0.05966968
10	0x3ec358cd	0.38153687
11	0x3e74cc51	0.23906066
12	0xbcb67ef3	-0.022277331
13	0xbe1a8e05	-0.15093239
14	0xbc9e7906	-0.019344818
15	0xbe479850	-0.19491696
16	0xbb868e34	-0.0041063074
17	0x3e8f6a86	0.28010958
18	0xbed55710	-0.41667986
19	0xbe8379ea	-0.2567895
20	0xbeb35629	-0.35026672
21	0xbe46317d	-0.19354816
22	0xbdf4964d	-0.1194273
23	0x3de98642	0.11402561
24	0x3d9aa1d5	0.07550398
25	0xbe85aff1	-0.26110795
26	0x3ec8d239	0.39222887
27	0xbe234f24	-0.15948159
28	0x3d8a15ba	0.06742425
29	0x3d8f6f58	0.07003659
30	0x3e4aa0a4	0.19787842
31	0x3c82db0d	0.015973592

lstm.bias_hh_l0 f4 [32]
0	0x3ee4ca88	0.4468577
1	0x3dc991c3	0.09842255
2	0x3e9b311d	0.30310908
3	0xbe8b7217	-0.2723548
4	0xbdbd142c	-0.09232363
5	0x3ec7ae1c	0.39000022
6	0x3eb8943f	0.36050603
7	0xbe5a42d9	-0.21314563
8	0xbbd8b0da	-0.006612879
9	0x3b9387c8	0.0045022704
10	0x3deae7fa	0.11470027
11	0xbd10a6b6	-0.035315238
12	0x3cd65ed9	0.026168274
13	0x3e971157	0.29505417
14	0x3dc10a74	0.09425822
15	0xbe806d31	-0.25083306
16	0x3e43bcf3	0.19115047
17	0xbeb8d476	-0.36099595
18	0xbed22778	-0.41045737
19	0x3e1af1d8	0.15131319
20	0x3e427ca6	0.18992862
21	0x3d097205	0.033556003
22	0x3e02b6c8	0.12765038
23	0x3e22c0f5	0.1589392
24	0x3eebd400	0.4606018
25	0x3ed9afbe	0.42516893
26	0xbd86acd1	-0.06575931
27	0xbe2cb5d2	-0.16866234
28	0x3e3d5cfd	0.18492503
29	0xbe45b538	-0.1930741
30	0xbe4498f6	-0.19198975
31	0x3e82d8bc	0.2555598

lstm.weight_ih_l1 f4 [32, 8]
0	0x3e1a80c9	0.1508819
1	0x3d961037	0.073273115
2	0x3e3c72f8	0.18403232
3	0x3e615dc0	0.22008419
4	0x3e2da674	0.16958028
5	0xbef1619f	-0.4714479
6	0xbe2e4085	-0.170168
7	0x3e940dfa	0.28916913
8	0x3e5080fd	0.20361705
9	0x3c7f8e63	0.0155979125
10	0xbf3b75c8	-0.73226595
11	0xbf2576a3	-0.6463415
12	0xbeaa00cb	-0.3320373
13	0xbe62ded9	-0.22155322
14	0x3eed7096	0.4637496
15	0xbf40f57d	-0.75374585
16	0x3dbd2ef1	0.09237469
17	0x3ee44a45	0.44587913
18	0x3e3ce5df	0.18447064
19	0xbf025f05	-0.5092624
20	0xbe88e6f2	-0.26738697
21	0x3eed8d8d	0.46397057
22	0x3e814d76	0.2525441
23	0xbeef86ac	-0.46782434
24	0xbe1150fb	-0.14191048
25	0xbecf0c65	-0.40439144
26	0xbd14f4a2	-0.036366113
27	0xbe3243c6	-0.17408666
28	0xbe4947e0	-0.19656324
29	0x3e3ee8b0	0.1864345
30	0xbc72e060	-0.014824003
31	0xbe9f790b	-0.31147036
32	0xbcf3bf16	-0.029754203
33	0x3ee510a1	0.4473925
34	0xbe89c896	-0.26910847
35	0x3ec99d54	0.39377844
36	0xbec63c6a	-0.38717967
37	0x3eb98508	0.36234307
38	0xbe013994	-0.1261962
39	0x3da33f49	0.07971055
40	0x3ef118b7	0.47089168
41	0xbc581d41	-0.013190568
42	0x3da34601	0.079723366
43	0xbe17813e	-0.14795396
44	0xbdda901e	-0.106720194
45	0x3e807839	0.25091723
46	0x3e395054	0.18097049
47	0x3e10fedd	0.14159723
48	0x3e782fc6	0.24236974
49	0x3e2c2d01	0.16814043
50	0x3d466cd8	0.048443645
51	0xbdf2dae0	-0.11858153
52	0xbe2315ae	-0.15926239
53	0x3dd32334	0.10309449
54	0x3cfed5a3	0.03110773
55	0x3eb3407a	0.3501013
56	0x3eea9bce	0.45821995
57	0xbe2f1b26	-0.171002
58	0xbe01e49d	-0.12684865
59	0xbe154628	-0.14577544
60	0xbe4bbf2f	-0.1989715
61	0xbe48cca1	-0.1960931
62	0x3e31a4f4	0.17348081
63	0x3e0011d1	0.12506796
64	0xbdab7d05	-0.08373455
65	0x3e1bd339	0.15217294
66	0xbe9f7560	-0.31144238
67	0x3d0aa49b	0.033848386
68	0xbe9fd359	-0.31215933
69	0xbf064fcb	-0.52465504
70	0xbed31c12	-0.41232353
71	0x3e83b17f	0.25721356
72	0x3ead3cbe	0.33835405
73	0xbc3458e9	-0.011007526
74	0xbcd895fa	-0.026438702
75	0x3e59cca9	0.21269478
76	0xbe859dd9	-0.2609699
77	0x3e0e82b9	0.13917054
78	0x3dabc075	0.08386318
79	0xbded5b62	-0.115896955
80	0x3e46704d	0.19378777
81	0x3e1aa0f4	0.15100461
82	0x3e9daffb	0.30798325
83	0xbefc6fd3	-0.49304065
84	0xbf020c23	-0.5079977
85	0x3e282a50	0.16422391
86	0xbd2341f5	-0.039857823
87	0xbf0a9a2c	-0.541415
88	0xbe7be6e2	-0.24599794
89	0xbe54a0f4	-0.20764524
90	0xbe19aa86	-0.15006456
91	0xbe18c959	-0.14920558
92	0x3c8aacc4	0.016928084
93	0xbcde2bc3	-0.027120477
94	0xbe8bae20	-0.27281284
95	0xbedffe9e	-0.43748945
96	0xbda223ac	-0.0791696
97	0x3f080eb2	0.53147423
98	0xbc164827	-0.009172476
99	0x3ed24e38	0.410753
100	0xbdabe651	-0.08393539
101	0xbe1056fb	-0.1409568
102	0x3e3f1505	0.18660362
103	0x3d921110	0.07132161
104	0xbd7ae08a	-0.061249293
105	0x3ea1b08d	0.3158001
106	0xbe26aaf9	-0.16276158
107	0x3e92bab0	0.28658056
108	0xbee53dcd	-0.44773713
109	0x3e9726a9	0.29521683
110	0x3bca5e7b	0.0061758137
111	0x3e9e8799	0.30962828
112	0x3ecf90bc	0.4054011
113	0x3ebeb241	0.37245372
114	0xbe145f6c	-0.14489526
115	0x3df1272a	0.11775048
116	0xbec46eb2	-0.38365704
117	0xbe32c3cd	-0.17457505
118	0xbd7a8fb5	-0.061172206
119	0xbdc6aac9	-0.097005434
120	0xbcf190dc	-0.02948802
121	0xbee11bb7	-0.43966457
122	0xbf0beeb8	-0.5466113
123	0x3ea8d37a	0.32973844
124	0x3d51ae70	0.051191747
125	0x3de2b5f9	0.11069865
126	0xbddc7e17	-0.10766237
127	0x3ec40c7e	0.3829078
128	0x3e5e11f1	0.21686532
129	0xbde9c786	-0.11415009
130	0x3e91073b	0.2832583
131	0x3e8afc0c	0.27145422
132	0xbe2673cb	-0.16255109
133	0x3ea33555	0.31876627
134	0x3ee5aac7	0.44856855
135	0xbe841498	-0.25796962
136	0xbf0af354	-0.5427754
137	0xbea332bd	-0.31874648
138	0xbe0e94a8	-0.13923895
139	0x3eefb31f	0.46816346
140	0x3ecf1bcc	0.40450895
141	0xbf003999	-0.5008789
142	0x3da076de	0.07835172
143	0x3ea8484f	0.32867667
144	0xbdbbf57a	-0.0917768
145	0xbdb672f2	-0.08908643
146	0x3e93472f	0.28765246
147	0x3f16b8c5	0.58875686
148	0x3e99622e	0.29957718
149	0x3e1d81a8	0.15381491
150	0xbe0fe445	-0.14051922
151	0x3ec35ffe	0.38159174
152	0x3d417e39	0.047239516
153	0xbe90eb89	-0.283047
154	0x3e295715	0.16537125
155	0xbcc14ae1	-0.023595275
156	0xbf23f5d4	-0.6404698
157	0xbe33b12f	-0.17548059
158	0x3df8b10a	0.121431425
159	0xbdbf7026	-0.093475625
160	0x3eac605d	0.3366727
161	0xbdb847b5	-0.08998052
162	0xbcc48172	-0.023987506
163	0x3ef6dd69	0.48215798
164	0x3e7359b2	0.23764685
165	0x3d5c5159	0.053788517
166	0x3e10231b	0.14075892
167	0x3efbf258	0.4920833
168	0x3e698ef2	0.22808436
169	0x3d82a1af	0.06378495
170	0x3e26cfbe	0.16290185
171	0x3e1ec60a	0.15505233
172	0xbdd561ca	-0.104190424
173	0x3d51f600	0.051259995
174	0x3ea98948	0.3311255
175	0xbd8643e7	-0.0655592
176	0xbeee4489	-0.46536663
177	0xbe222a13	-0.15836363
178	0xbc19c763	-0.009385916
179	0x3e2701b0	0.16309237
180	0xbdfd6e95	-0.123746075
181	0xbe832938	-0.25617385
182	0xbecf4778	-0.40484214
183	0xbe932a94	-0.28743422
184	0xbdf7b3f8	-0.12094873
185	0xbe8b888f	-0.27252623
186	0x3e478c61	0.19487144
187	0xbea1e128	-0.31617093
188	0x3ec39c80	0.38205338
189	0xbea7ce53	-0.327746
190	0xbe019ba4	-0.12657028
191	0xbd853405	-0.065040626
192	0xbeb46686	-0.3523447
193	0xbe82712c	-0.25476968
194	0xbef470d8	-0.47742343
195	0x3ea13772	0.31487614
196	0x3e8f3996	0.27973622
197	0x3ccbc05e	0.024872001
198	0xbeb2a416	-0.34890813
199	0xbdc763bc	-0.0973582
200	0x3f0395ed	0.51400644
201	0xbe2e646e	-0.17030498
202	0xbe04f0ec	-0.1298253
203	0xbf08b0ee	-0.53394973
204	0xbf0252f1	-0.5090781
205	0xbecbf8b6	-0.3983819
206	0x3edc6f94	0.43053877
207	0xbf61dc75	-0.88227016
208	0x3ed2c1f1	0.4116359
209	0x3de16d6b	0.11007198
210	0xbd05c48a	-0.032658137
211	0xbf3a8368	-0.7285676
212	0xbf3f7819	-0.7479263
213	0x3ec4b228	0.38417172
214	0x3c77ec26	0.015131986
215	0xbe6fb551	-0.2340901
216	0x3eff68cf	0.4988465
217	0xbeb14e09	-0.3462985
218	0x3e2c7a6c	0.16843575
219	0xbd27c12b	-0.040955704
220	0xbf0c3e69	-0.5478273
221	0xbe2128c4	-0.15738207
222	0xbe63a390	-0.22230363
223	0xbd773cba	-0.060360648
224	0x3e027e7b	0.12743561
225	0x3ee19b33	0.4406372
226	0xbd56ff33	-0.05248947
227	0x3e8d9f98	0.27660823
228	0x3d103664	0.03520812
229	0x3eb26ee4	0.34850228
230	0x3e1bbf64	0.15209728
231	0x3e9aefed	0.30261174
232	0x3e8153c5	0.25259224
233	0x3eeb0b30	0.45906973
234	0x3e263107	0.1622964
235	0x3e1ffa75	0.15622886
236	0xbec06c7f	-0.37582776
237	0xbd7717e1	-0.060325507
238	0x3ed8169e	0.42204756
239	0x3e629b71	0.22129609
240	0x3f0604aa	0.52350867
241	0x3efff41a	0.49990922
242	0xbd4b66d2	-0.049658604
243	0x3de2b314	0.11069313
244	0xbe5249be	-0.20535943
245	0xbec868a1	-0.39142326
246	0x3e5310d1	0.20611884
247	0xbe05a7f8	-0.13052356
248	0x3de737a9	0.11289913
249	0xbe3ecf05	-0.18633659
250	0xbe89062f	-0.2676253
251	0xbea8d2df	-0.32973382
252	0x3e15bf96	0.14623865
253	0xbe86f9e2	-0.2636252
254	0x3d5f31b3	0.054490756
255	0x3d4479f5	0.04796787

lstm.weight_hh_l1 f4 [32, 8]
0	0xbe8e203e	-0.27758974
1	0xbd8d4c32	-0.06899299
2	0x3db030d1	0.08603061
3	0x3dbafc93	0.09130206
4	0x3ef04a92	0.46931893
5	0xbe3cde57	-0.18444191
6	0x3e905075	0.28186384
7	0xbe2f09b9	-0.17093553
8	0xbf1751ef	-0.59109396
9	0x3dc41540	0.095743656
10	0xbf3ae3a6	-0.73003614
11	0x3f22cda2	0.6359502
12	0x3f031ae1	0.5121289
13	0x3ec80639	0.39067248
14	0xbeb7fb82	-0.35934073
15	0x3e132403	0.14369206
16	0xbe1ef288	-0.15522206
17	0x3deb3cb4	0.114861876
18	0xbe7dc5fa	-0.24782553
19	0x3ea912a9	0.3302205
20	0xbe35e7b0	-0.17764163
21	0xbe1f5d80	-0.15563011
22	0xbc976e24	-0.018485136
23	0x3e7d8370	0.2475717
24	0xbcb453a2	-0.022012535
25	0x3d5cbbe1	0.053890113
26	0xbe042904	-0.12906271
27	0x3ec3966b	0.38200697
28	0x3d8bfe43	0.06835606
29	0x3e5076f9	0.20357884
30	0x3cce1aec	0.025159322
31	0xbe34ff02	-0.17675403
32	0xbdb669d2	-0.089069024
33	0xbe81516c	-0.25257432
34	0xbea1166b	-0.31462416
35	0xbe18d4d2	-0.14924935
36	0xbd8c5604	-0.06852344
37	0xbd77a11b	-0.060456377
38	0xbed2f195	-0.41199937
39	0xbf041fec	-0.5161121
40	0xbe47ab09	-0.19498838
41	0xbe5a8c0c	-0.21342486
42	0xbdda02f3	-0.10645094
43	0xbe5774ef	-0.210407
44	0xbd394754	-0.04523404
45	0x3ea5f928	0.32416654
46	0xbea24240	-0.3169117
47	0xbebcb966	-0.36860198
48	0xbe828652	-0.25493103
49	0xbe3eee84	-0.18645674
50	0x3e1c2c56	0.15251288
51	0x3e150e68	0.14556277
52	0x3e1f2d02	0.15544513
53	0x3ee781f4	0.45216334
54	0xbea0492a	-0.3130582
55	0xbe252ece	-0.16131136
56	0xbea4ca2b	-0.32185492
57	0xbe9d285a	-0.30694848
58	0xbdbefc89	-0.09325511
59	0xbe3d29af	-0.18472932
60	0xbd751c5e	-0.059841506
61	0x3ecc94f1	0.39957383
62	0xbe858c6a	-0.2608369
63	0x3eba071d	0.36333552
64	0xbedca548	-0.4309485
65	0xbe953f7c	-0.29149997
66	0x3d6c62e7	0.057711508
67	0x3e801af1	0.25020555
68	0xbdb7f8ac	-0.08982977
69	0xbeb5b6b5	-0.35490957
70	0x3e763c06	0.24046335
71	0x3cda75e2	0.026667539
72	0x3e5de6ff	0.2167015
73	0x3e721054	0.23639041
74	0x3d1d0b10	0.03834063
75	0x3e10a887	0.14126788
76	0xbeb21f94	-0.34789717
77	0xbeb7fa80	-0.35933304
78	0x3e30a29f	0.17249535
79	0x3de61377	0.112341814
80	0xbef7ec98	-0.48422694
81	0xbd4dac9d	-0.050213445
82	0xbe979ab8	-0.2961023
83	0x3e07fab7	0.13279234
84	0xbd5147e2	-0.051093943
85	0xbe77a2e0	-0.24183226
86	0xbdffc4cf	-0.1248871
87	0x3ec89b43	0.39180955
88	0xbe23bb03	-0.15989308
89	0x3c2b58ed	0.010458213
90	0x3dcf93d5	0.101356186
91	0x3ebc221e	0.3674478
92	0x3ddf2a7b	0.108967744
93	0x3dc6f65b	0.09714957
94	0x3ec26206	0.3796541
95	0x3edf1465	0.43570247
96	0xbdb83e6e	-0.089962825
97	0x3e121117	0.14264332
98	0xbe295d0d	-0.16539402
99	0xbda0c01d	-0.07849143
100	0x3ea831be	0.3285045
101	0x3e8774cf	0.26456305
102	0xbd294151	-0.041322056
103	0x3d9b842e	0.07593571
104	0xbce761e0	-0.028244913
105	0xbd755515	-0.059895594
106	0xbed621b5	-0.4182259
107	0x3e4bf988	0.19919407
108	0x3f07ea1d	0.53091604
109	0xbc70c7c7	-0.014696068
110	0xbe184dad	-0.14873381
111	0x3e0dd255	0.13849767
112	0xbe899f67	-0.26879427
113	0xbed99a16	-0.4250037
114	0x3e014148	0.12622559
115	0x3da76cd9	0.08175058
116	0x3ebdb0b1	0.37048867
117	0xbd68dc9e	-0.056851022
118	0xbe063816	-0.13107333
119	0x3ea5f15f	0.32410714
120	0xbeaff98c	-0.34370077
121	0xbec3d22b	-0.38246283
122	0x3d816050	0.06317198
123	0x3eb087cd	0.34478608
124	0x3db646c1	0.08900214
125	0x3e9bd051	0.3043237
126	0xbca64aec	-0.020299397
127	0x3ecc86c5	0.3994657
128	0x3e4ec90c	0.20193881
129	0xbdbaf74f	-0.091292016
130	0xbdaf1ffa	-0.08551021
131	0xbe811939	-0.25214556
132	0xbd88dba7	-0.0668252
133	0x3ec13171	0.37733033
134	0x3dde90d9	0.10867471
135	0xbe927c4a	-0.2861045
136	0xbe076af8	-0.13224399
137	0xbeb9d0b0	-0.36292028
138	0x3e62cef0	0.22149253
139	0xbdfb01ec	-0.12256226
140	0x3dcc5274	0.09976664
141	0x3cb401fa	0.021973599
142	0xbd0809c5	-0.033212442
143	0xbe9a187e	-0.3009681
144	0x3e67f96a	0.22653738
145	0xbe1d0ed9	-0.15337695
146	0x3e64e23d	0.22351928
147	0x3e61eb53	0.22062425
148	0x3e028221	0.12744953
149	0x3e99755c	0.2997235
150	0x3d30567e	0.043051235
151	0x3d519a2c	0.05117242
152	0xbe936c3c	-0.28793514
153	0xbe9943e2	-0.29934603
154	0xbe7de65c	-0.24794906
155	0xbd474867	-0.048653033
156	0xbea98f9d	-0.3311738
157	0xbaac9986	-0.0013168312
158	0x3ee1cd6a	0.4410203
159	0xbe658938	-0.22415626
160	0x3edcf2af	0.43153903
161	0x3f065ec0	0.5248833
162	0xbcc37569	-0.023859696
163	0xbdcb768c	-0.099347204
164	0x3d62b639	0.055349562
165	0xbe325983	-0.17416959
166	0xbdf11094	-0.1177074
167	0x3e01806b	0.12646644
168	0xbd9ff3f7	-0.078102045
169	0x3e83eedc	0.25768173
170	0x3ca883f2	0.020570729
171	0x3e58832b	0.21143787
172	0xbe90b0c7	-0.2825987
173	0x3f076194	0.5288327
174	0xbe28ca4b	-0.16483419
175	0xbef63226	-0.48085135
176	0xbe1db877	-0.15402399
177	0xbea9270f	-0.33037612
178	0xbeb783b2	-0.35842663
179	0x3eb8f9ce	0.36128086
180	0xbdbe7a2a	-0.09300645
181	0xbe6e0fca	-0.2324821
182	0x3e0bb6dd	0.13643976
183	0xbdfd163e	-0.12357758
184	0xbef5fca9	-0.48044327
185	0x3ca093d1	0.019601734
186	0xbe00070b	-0.12502687
187	0xbe3feee5	-0.18743475
188	0x3e46d5bd	0.19417472
189	0xbdcbe240	-0.09955263
190	0x3f078da1	0.52950484
191	0x3e639a5a	0.22226849
192	0x3b414084	0.0029487917
193	0xbebe91d2	-0.37220627
194	0xbebd3403	-0.36953744
195	0x3e3ebe7a	0.18627349
196	0xbccb4b57	-0.024816198
197	0x3de04118	0.10949916
198	0x3eaa7f70	0.33300352
199	0xbdca28bf	-0.09871053
200	0xbd47e271	-0.048799936
201	0xbe63d852	-0.22250488
202	0xbf0391f0	-0.5139456
203	0x3ed20ed8	0.4102695
204	0x3f204ac1	0.62614065
205	0x3f03ea1d	0.51529104
206	0xbead80a0	-0.33887196
207	0x3eeedddf	0.4665365
208	0x3d535110	0.05159098
209	0xbeb1dd67	-0.3473923
210	0x3dc33a5d	0.09532616
211	0x3e63c87d	0.22244449
212	0x3e062286	0.13099107
213	0x3e8b08c5	0.27155128
214	0xba2f0b8b	-0.000667744
215	0xbe01cce6	-0.12675819
216	0xbe885a1e	-0.26631254
217	0xbf199c4d	-0.6000412
218	0xbe84edcb	-0.25962672
219	0x3ef0cf92	0.47033364
220	0xbe8e6beb	-0.2781671
221	0xbe86b99e	-0.2631349
222	0x3e93e1b0	0.28883123
223	0xbd80aad4	-0.06282583
224	0x3e9f26e8	0.3108437
225	0x3e6183fa	0.22023001
226	0x3e9a916d	0.30189076
227	0x3e968133	0.29395446
228	0x3ec8b877	0.39203236
229	0x3e33b861	0.17550804
230	0xbd9aa06d	-0.0755013
231	0xbe0d4523	-0.13795905
232	0xbd0629a5	-0.03275456
233	0xbeba62bb	-0.3640345
234	0xbd1e393f	-0.038628813
235	0x3e218ae8	0.15775645
236	0x3f0dddc0	0.5541649
237	0x3de0e1b7	0.10980552
238	0xbe2ba1fc	-0.16761011
239	0xbe8d72ae	-0.27626556
240	0xbedd26bb	-0.43193612
241	0xbefb621c	-0.4909829
242	0x3e117147	0.14203368
243	0xbce4091f	-0.02783638
244	0x3ebf5bac	0.37374628
245	0xbce9539d	-0.028482253
246	0xbec58fda	-0.38586313
247	0x3e97f060	0.2967558
248	0xbe33bba4	-0.17552048
249	0xbe94fff2	-0.2910152
250	0xbe111820	-0.14169359
251	0x3ef55c93	0.4792219
252	0x3e25026e	0.16114208
253	0x3e7777d5	0.24166806
254	0x3dabe3fd	0.08393095
255	0xbd482c18	-0.048870176

lstm.bias_ih_l1 f4 [32]
0	0x3ec5fb27	0.38668177
1	0x3f11db48	0.5697522
2	0x3d83b564	0.06431082
3	0x3ea98ae3	0.33113775
4	0x3da3e424	0.08002499
5	0x3edfe0d7	0.43726227
6	0x3d976e13	0.07394042
7	0xbe2d8378	-0.16944683
8	0xbdbffffd	-0.09374998
9	0x3dbe4fdd	0.092925765
10	0xbdab6c0d	-0.083702184
11	0x3e9439cb	0.28950343
12	0xbd741a66	-0.059595488
13	0x3ecd62af	0.40114352
14	0xbe056d2b	-0.13029926
15	0x3d922ec6	0.071378276
16	0x3e854c8d	0.26034966
17	0xbe84a6eb	-0.25908598
18	0xbea3ad30	-0.3196807
19	0x3e92c7c1	0.28668025
20	0x3e1d58a7	0.1536585
21	0x3d3e041a	0.04639063
22	0x3db988b4	0.09059277
23	0x3e86cc3b	0.2632769
24	0x3eeb3958	0.45942187
25	0x3f192a3f	0.5983009
26	0x3db18972	0.08668794
27	0xbdeb8c39	-0.11501355
28	0x3ec2feff	0.38085172
29	0x3d62c038	0.055359095
30	0x3ce08d9e	0.027411278
31	0x3f028ccb	0.50996083

lstm.bias_hh_l1 f4 [32]
0	0x3e33f8c2	0.17575362
1	0x3eadabbe	0.3392009
2	0x3e7a8d1e	0.24467894
3	0x3e7268d7	0.23672806
4	0x3dd7bed3	0.10534444
5	0x3e0b2d8d	0.13591595
6	0x3ecf05b6	0.40434045
7	0x3e6d9e48	0.23204911
8	0xbe282b8d	-0.16422863
9	0xbdd38b8d	-0.103293516
10	0x3d3f32da	0.046679355
11	0xbc756c19	-0.014979386
12	0xbe5b94c5	-0.2144347
13	0x3ca0e72b	0.01964148
14	0x3e49c75a	0.19704953
15	0x3d88eb9e	0.066855654
16	0xbeadb45e	-0.33926672
17	0x3e843d0d	0.25827828
18	0xbdb48f3d	-0.08816383
19	0x3e685f9d	0.22692724
20	0x3e7bd4a0	0.24592829
21	0x3dfaa0f0	0.12237728
22	0xbe729702	-0.23690417
23	0xbde2815d	-0.1105983
24	0x3e53b15c	0.20673126
25	0x3e844ed0	0.2584138
26	0x3db29026	0.087189004
27	0x3dab6dbd	0.0837054
28	0xbe4f82ef	-0.20264791
29	0x3d989e89	0.07452113
30	0x3e505c11	0.2034762
31	0x3e36b553	0.17842607

linear.model.0.weight f4 [2, 8]
0	0x3df43130	0.11923444
1	0xbf3dd50b	-0.741532
2	0xbf1a681a	-0.60315096
3	0x3e9ca50b	0.30594668
4	0xbdb981fa	-0.09057994
5	0x3deae819	0.1147005
6	0xbe10156f	-0.14070676
7	0x3d32792a	0.043572582
8	0x3e4a7e4a	0.19774738
9	0xbd88f725	-0.06687764
10	0x3b7ce0cc	0.0038586138
11	0xbe8042d2	-0.2505098
12	0x3ea325b8	0.31864715
13	0x3ef440a4	0.47705567
14	0xbf15a013	-0.5844738
15	0xbeb107dc	-0.3457631

linear.model.0.bias f4 [2]
0	0xbe7830f1	-0.2423742
1	0x3e5d4eff	0.21612166
