examples/2_streamflow_isotope_simulation/results/20241125_101506_612553/loss_c60a7_00001_1_batch_size=6,hidden_size=16,learning_rate=0.0010,n_epochs=279,num_layers=1_2024-11-25_10-15-11/checkpoint_000008/model.pt (torch, 8116 bytes, 6 tensors)

lstm.weight_ih_l0 f4 [64, 4]
0.09705596 0.037419073 0.048042264 0.24446477 -0.082826674 0.03492356 -0.18399651 -0.020678421
-0.07154922 -0.028507123 -0.055730928 0.07908624 0.09325249 -0.037042025 0.13430329 -0.021088744
-0.19600956 -0.14494257 0.11837312 0.105107754 0.05295487 0.017892763 -0.27513558 -0.12582809
-0.102805756 -0.26428542 -0.0210607 0.21787868 0.105764665 0.06849185 0.18252102 0.17600116
0.14893705 -0.11774023 -0.03317553 0.028393686 0.1721747 0.22443797 0.1536543 0.12416554
0.20807697 0.1533583 0.05390301 -0.14692558 0.1419801 0.14213653 -0.038249414 -0.11513482
0.07830208 -0.036210492 -0.02401086 -0.13025664 0.21990623 0.032055523 -0.07568376 0.24116378
0.14817928 0.21041092 -0.1629155 0.0015173426 0.079549134 -0.03766066 0.14245777 0.014888275
0.010317595 0.17105143 0.08786145 -0.17855328 -0.08424946 -0.2300587 -0.25775006 0.27024364
0.057900105 -0.27721974 0.21884932 -0.11943926 0.24247402 0.2281671 0.23017977 0.20650946
-0.028398236 0.07240995 0.27107203 0.036615033 0.013821351 0.105486326 0.07868165 -0.14031543
0.06750078 -0.13338098 -0.041982315 0.20964253 0.29152465 0.18497942 0.14968477 0.14123057
0.20682472 0.25222048 0.15727648 0.18871579 0.1648778 0.26181337 0.06266713 0.2704848
0.1709863 -0.11829827 -0.21945456 0.19273843 -0.044134017 -0.07502648 0.18787228 -0.15512504
-0.0051507074 0.08558328 -0.2107941 0.021862244 0.18058105 0.022619974 -0.043460447 0.043541834
0.24021481 0.04291756 0.13167481 -0.08497772 -0.10798659 0.015101698 -0.1537337 -0.04044831
-0.2099142 0.08734903 0.15763466 -0.10116393 -0.058787934 -0.23593703 -0.23159926 0.08970598
0.2813743 -0.13066953 -0.040683996 0.14284965 0.19597355 0.033717055 0.15267666 0.097122215
-0.11948394 -0.124910794 -0.09782732 0.22107598 -0.033780087 -0.16731057 0.1950706 -0.02157429
-0.23903747 0.10605525 -0.052136485 0.1807284 -0.07152976 -0.24848454 -0.17787218 0.047921717
-0.034427077 0.21381669 0.012657771 0.14663225 0.11894386 0.18527982 -0.089780696 -0.124025434
-0.16190782 0.2704606 0.10494788 0.060351368 -0.30209845 0.10684523 0.06446983 0.25691327
0.17293665 0.16214336 -0.10206515 0.026511842 -0.2217051 -0.13246518 -0.3111288 0.0932228
-0.16585733 0.28680268 -0.13287282 -0.03670518 0.071238205 0.14631471 0.117329225 -0.027686505
0.11333092 0.04881923 -0.0458273 -0.029952435 0.022251638 -0.22446725 -0.100727886 -0.18961057
-0.034082007 -0.14368272 -0.22437714 0.0004880178 0.34420985 -0.11066642 -0.19105618 0.027563915
-0.15910435 -0.006306049 0.28577563 -0.08249251 -0.15156059 0.21193266 0.19346315 -0.23147416
0.15711555 0.05739726 0.14772716 0.21250723 -0.1395304 -0.109233744 0.15259835 -0.08134375
0.15164524 0.24806488 0.05905485 0.07779605 0.3157589 -0.17405784 -0.07703069 -0.107961655
-0.05858629 -0.20122938 -0.14650169 0.080391295 0.2281974 -0.120877214 0.19502354 0.2513542
-0.097280435 -0.16755569 0.18252449 -0.25104094 -0.101908356 -0.25991106 -0.0012781873 -0.054870714
0.197536 0.1340528 0.17589389 0.15818022 0.07152759 -0.07527658 -0.24079953 -0.054898817
00000000: 46c5 c63d be44 193d f7c7 443d f954 7a3e
00000010: 08a1 a9bd 020c 0f3d 9569 3cbe cb65 a9bc
00000020: 6688 92bd c587 e9bc 1d46 64bd f7f7 a13d
00000030: 29fb be3d 61b9 17bd cd86 093e 4dc2 acbc
00000040: bbb6 48be d36b 14be 9b6d f23d bc42 d73d
00000050: 35e7 583d d893 923c 92de 8cbe 14d9 00be
00000060: d38b d2bd 6b50 87be 7d87 acbc 971b 5f3e
00000070: 259b d83d 7445 8c3d cae6 3a3e a639 343e
00000080: f482 183e ca21 f1bd 11e3 07bd e099 e83c
00000090: 914e 303e 11d3 653e 8e57 1d3e 814a fe3d
000000a0: 2112 553e f509 1d3e 67c9 5c3d a973 16be
000000b0: 3b63 113e 3d8c 113e 6bab 1cbd cecb ebbd
000000c0: d75c a03d 7451 14bd 6cb2 c4bc ff61 05be
000000d0: 192f 613e a74c 033d 1600 9bbd a3f3 763e
000000e0: 4fbc 173e f675 573e 52d3 26be 92e1 c63a
000000f0: a8ea a23d 1042 1abd 73e0 113e f4ed 733c
00000100: 210b 293c 1b28 2f3e b4f0 b33d acd6 36be
00000110: fb8a acbd 8294 6bbe d1f7 83be 605d 8a3e
00000120: a928 6d3d bfef 8dbe 091a 603e 929c f4bd
00000130: 1c4b 783e a3a4 693e 3fb4 6b3e 3777 533e
00000140: 6ba3 e8bc ab4b 943d f4c9 8a3e a5f9 153d
00000150: f372 623c 3709 d83d d823 a13d d9ae 0fbe
00000160: d93d 8a3d 0695 08be a6f5 2bbd 88ac 563e
00000170: b842 953e 3f6b 3d3e f746 193e bf9e 103e
00000180: dcc9 533e 0b23 813e 160d 213e b63e 413e
00000190: bad5 283e 670c 863e a057 803d fc7c 8a3e
000001a0: 0817 2f3e 5d46 f2bd b2b8 60be 395d 453e
000001b0: dfc5 34bd 7ca7 99bd 9761 403e 19d9 1ebe
000001c0: 44c7 a8bb 4946 af3d 69da 57be 7318 b33c
000001d0: 3dea 383e 864d b93c 9503 32bd ec58 323d
000001e0: dffa 753e 53ca 2f3d c3d5 063e cd08 aebd
000001f0: 1328 ddbd 1d6d 773c 5e6c 1dbe 21ad 25bd
00000200: bff3 56be 0ce4 b23d fb6a 213e 092f cfbd
00000210: 9ecb 70bd 7a99 71be 5b28 6dbe c5b7 b73d
00000220: 4b10 903e 3cce 05be 43a4 26bd 2e47 123e
00000230: 4aad 483e e51a 0a3d 4557 1c3e 03e8 c63d
00000240: ffb3 f4bd 3bd1 ffbd b159 c8bd be61 623e
00000250: fd5c 0abd 7653 2bbe 96c0 473e 91bc b0bc
00000260: 3dc6 74be 7f33 d93d 118d 55bd de10 393e
00000270: 327e 92bd bb72 7ebe 2024 36be 9049 443d
00000280: 6803 0dbd c3f2 5a3e 8a62 4f3c c426 163e
00000290: d798 f33d feb9 3d3e f1de b7bd 0c01 febd
000002a0: 2acb 25be d079 8a3e eaee d63d ff32 773d
000002b0: a6ac 9abe acd1 da3d c208 843d 238a 833e
000002c0: 4e16 313e e908 263e 8907 d1bd 5d2f d93c
000002d0: a906 63be f4a4 07be 464c 9fbe 98eb be3d
000002e0: 81d6 29be cdd7 923e d00f 08be 2c58 16bd
000002f0: 56e5 913d 86d3 153e 4e4a f03d cfce e2bc
00000300: 0b1a e83d acf6 473d 68b5 3bbd cf5e f5bc
00000310: 1149 b63c beda 65be 6c4a cebd 4629 42be
00000320: 9399 0bbd 9021 13be 1fc3 65be a4dc ff39
00000330: 463c b03e 13a5 e2bd 3ba4 43be b8cd e13c
00000340: 40ec 22be f9a2 cebb 2f51 923e d5f1 a8bd
00000350: b332 1bbe e004 593e 341b 463e 9007 6dbe
00000360: e6e2 203e 6419 6b3d ca45 173e 7f9b 593e
00000370: 0fe1 0ebe f1b5 dfbd be42 1c3e 8d97 a6bd
00000380: e448 1b3e b804 7e3e 80e3 713d 8953 9f3d
00000390: 27ab a13e 383c 32be 44c2 9dbd 001b ddbd
000003a0: 2df8 6fbd 130f 4ebe 8a04 16be 31a4 a43d
000003b0: 94ac 693e 798e f7bd 40b4 473e 7fb1 803e
000003c0: f73a c7bd b893 2bbe b3e7 3a3e 7088 80be
000003d0: 54b5 d0bd 1013 85be d988 a7ba 1dc0 60bd
000003e0: e146 4a3e 2345 093e 871d 343e fff9 213e
000003f0: 0f7d 923d 9c2a 9abd 2794 76be 95dd 60bd

lstm.weight_hh_l0 f4 [64, 16]
0.13571489 -0.08202538 -0.1799264 0.097638205 -0.12249569 0.19561467 -0.13931586 0.10231138
0.027476208 -0.012009549 0.03361916 -0.18105178 -0.19013597 -0.09294314 -0.11551027 -0.087917954
0.05202159 -0.113700174 0.080353975 -0.0146846855 -0.048494246 -0.28109097 0.17210914 -0.13442118
0.023755847 0.31792048 -0.13365528 0.12056905 0.22016963 0.1276867 0.06337468 0.21914873
-0.26885962 0.09556201 -0.11539853 0.1621728 -0.11400233 0.09098261 -0.21621706 -0.029811854
0.18237716 0.08978039 -0.154223 -0.2162933 -0.05755361 -0.14205196 -0.2954634 0.11302019
-0.014764056 -0.086902656 -0.072172694 -0.028869051 -0.19669434 -0.26129097 0.06519419 -0.09806251
0.23963371 0.21693811 0.11696671 0.08376153 0.10408784 0.065156385 0.11527723 -0.061573286
0.07950913 -0.21193068 0.1662366 -0.088250875 0.054216877 0.12668835 0.09733458 -0.2885848
0.24623047 0.31446373 -0.13205384 -0.08501181 0.0017497768 0.17746416 -0.06827791 0.23375909
-0.128002 -0.10060666 0.083754405 -0.046242084 0.14366658 0.10476153 -0.13064663 0.21077465
-0.21110252 -0.12248386 -0.2915533 -0.31546587 -0.06810739 0.17044811 0.12906021 0.0502869
-0.28971604 0.19118997 0.3238879 -0.06395321 -0.061342586 -0.31134638 0.067310475 -0.026069747
0.010701648 0.23644285 -0.23438168 0.07950427 0.28232962 0.16859564 -0.22029205 -0.11145064
-0.21827157 -0.10590394 0.0152137885 0.1682154 0.11365535 -0.10142677 -0.26276824 0.18979526
-0.043232948 -0.11753157 -0.17928702 -0.25299597 0.05637737 -0.045039237 -0.029736964 -0.026637338
0.16701332 -0.19085541 0.0010903854 0.06979909 0.08008678 0.067004815 0.034619365 0.10964333
0.20947058 0.25974873 0.1580315 -0.16825835 -0.10876127 -0.0026476004 -0.16454192 0.0989781
0.058947314 -0.09943019 0.28186977 0.12305824 -0.3074987 0.06614797 -0.17590629 -0.17748643
-0.12303951 0.054115105 -0.10758406 -0.34118846 -0.025973503 -0.22865339 -0.094754405 -0.0135203665
-0.1673859 0.10059908 -0.078509994 -0.10607771 0.103808165 0.078527264 -0.06844827 0.16292602
-0.2340537 0.08945264 0.028182989 -0.30062658 -0.16448931 -0.042290986 -0.26969546 -0.09503951
0.09029447 -0.12013154 0.24861446 0.2102384 0.017203752 -0.19330625 -0.08806689 0.15295093
-0.16606206 -0.07581941 0.111011915 0.13271245 -0.14697114 0.02966414 -0.005774597 0.09027172
-0.019740222 0.104896314 0.22494955 0.17610681 -0.17542094 -0.088649 0.1680223 -0.054676365
-0.02502234 0.09306779 0.033690594 -0.09767871 -0.14154905 0.02050909 -0.1931809 0.12291806
0.073123455 0.21789332 0.045466702 -0.10573905 0.18226205 -0.10787295 -0.23558906 0.12351175
0.27706027 0.07182874 -0.23441382 -0.14205582 0.08259233 -0.013333877 -0.10985926 -0.21183862
-0.033701554 0.1481939 -0.0963914 -0.06420046 0.0374916 -0.0757852 -0.02368293 0.020857759
0.079758 0.111532494 -0.20391744 -0.10732544 0.07630543 0.094356045 0.04723626 -0.08554277
0.04882446 0.09076775 0.0056841676 -0.24828178 -0.038404495 0.12244454 -0.12699324 -0.122286096
-0.16127715 -0.26821056 -0.0062011112 0.24760781 -0.15963882 -0.08288059 0.23470035 -0.17819412
00000000: d8f8 0a3e ecfc a7bd a03e 38be 8af6 c73d
00000010: 05df fabd 364f 483e d1a8 0ebe a188 d13d
00000020: c915 e13c b3c3 44bc 3fb4 093d a365 39be
00000030: 01b3 42be f958 bebd a690 ecbd 540e b4bd
00000040: 9714 553d a3db e8bd a090 a43d 0998 70bc
00000050: e7a1 46bd 28eb 8fbe 613d 303e b5a5 09be
00000060: 9f9b c23c 79c6 a23e eedc 08be e8ec f63d
00000070: 2674 613e 4dc0 023e 96ca 813d 8668 603e
00000080: f8a7 89be 04b6 c33d 1156 ecbd a010 263e
00000090: 0e7a e9bd 1755 ba3d 0168 5dbe fd37 f4bc
000000a0: 14c1 3a3e c8de b73d a2ec 1dbe fe7b 5dbe
000000b0: 56bd 6bbd 1276 11be fb46 97be 2177 e73d
000000c0: f0e4 71bc 05fa b1bd 47cf 93bd ca7e ecbc
000000d0: 3e6a 49be eec7 85be 8884 853d ffd4 c8bd
000000e0: 8a62 753e 0625 5e3e 3e8c ef3d 2a8b ab3d
000000f0: 012c d53d b670 853d 7816 ec3d 4534 7cbd
00000100: afd5 a23d 5b04 59be ed39 2a3e e0bc b4bd
00000110: 8412 5e3d 97ba 013e 5a57 c73d 63c1 93be
00000120: d723 7c3e 6401 a13e 1f39 07be ac1a aebd
00000130: c458 e53a 2ab9 353e 4ad5 8bbd 8b5e 6f3e
00000140: f512 03be dd0a cebd 6e87 ab3d 5768 3dbd
00000150: 551d 133e 378d d63d 3bc8 05be 4fd5 573e
00000160: 422b 58be d1d8 fabd 7946 95be be84 a1be
00000170: e37b 8bbd f389 2e3e 5c28 043e a3f9 4d3d
00000180: a955 94be 4ec7 433e a3d4 a53e e7f9 82bd
00000190: 5d42 7bbd cb68 9fbe 13da 893d 3990 d5bc
000001a0: f755 2f3c 131e 723e c001 70be 22d3 a23d
000001b0: 828d 903e 56a4 2c3e 3d94 61be 3c40 e4bd
000001c0: 9582 5fbe 2ae4 d8bd 4143 793c a840 2c3e
000001d0: 23c4 e83d d7b8 cfbd 8f89 86be b059 423e
000001e0: 0815 31bd 64b4 f0bd 0497 37be b088 81be
000001f0: f5eb 663d 107b 38bd ef9a f3bc 8c36 dabc
00000200: 8a05 2b3e 9a6f 43be 43eb 8e3a d3f2 8e3d
00000210: 8a04 a43d d239 893d 09cd 0d3d af8c e03d
00000220: 757f 563e c9fd 843e 02d3 213e eb4b 2cbe
00000230: 3bbe debd 5d83 2dbb ad7d 28be 08b5 ca3d
00000240: bd72 713d 0ea2 cbbd 3c51 903e f505 fc3d
00000250: 7870 9dbe 9678 873d c720 34be 01bf 35be
00000260: 23fc fbbd cda7 5d3d 0855 dcbd 41b0 aebe
00000270: 62c6 d4bc 1d24 6abe 990e c2bd 8784 5dbc
00000280: 3667 2bbe e406 ce3d d9c9 a0bd 453f d9bd
00000290: 6099 d43d e7d2 a03d 9b2e 8cbd 14d6 263e
000002a0: c6ab 6fbe f232 b73d 03e0 e63c baeb 99be
000002b0: e36f 28be 5039 2dbd 8615 8abe 13a4 c2bd
000002c0: 4fec b83d 8607 f6bd ca94 7e3e bc48 573e
000002d0: e2ee 8c3c 13f2 45be 6a5c b4bd 2b9f 1c3e
000002e0: 2c0c 2abe 3547 9bbd 375a e33d c6e5 073e
000002f0: 9a7f 16be 3602 f33c d538 bdbb 61e0 b83d
00000300: 3fb6 a1bc e1d3 d63d 2d59 663e 5855 343e
00000310: 8ca1 33be 9b8d b5bd 0a0e 2c3e 53f4 5fbd
00000320: a6fb ccbc 539a be3d 26ff 093d c70b c8bd
00000330: 3cf2 10be ae02 a83c 37d1 45be 77bc fb3d
00000340: c0c1 953d 6d1f 5f3e 4b3b 3a3d b78d d8bd
00000350: e7a2 3a3e 7eec dcbd 423e 71be baf3 fc3d
00000360: d8da 8d3e f21a 933d 2d0a 70be 1577 11be
00000370: 2b26 a93d 5576 5abc e4fd e0bd 39ec 58be
00000380: a40a 0abd 24c0 173e db68 c5bd 887b 83bd
00000390: cb90 193d 4535 9bbd b402 c2bc e4dd aa3c
000003a0: 2a58 a33d 266b e43d bccf 50be 71cd dbbd
000003b0: 0546 9c3d be3d c13d cf7a 413d 0c31 afbd
000003c0: 28fc 473d 71e4 b93d 4142 ba3b 943d 7ebe
000003d0: 084e 1dbd 34c4 fa3d 840a 02be 2271 fabd
000003e0: d625 25be e552 89be b132 cbbb e78c 7d3e
000003f0: 5c78 23be 4cbd a9bd 4a55 703e 8578 36be

lstm.bias_ih_l0 f4 [64]
-0.18106128 0.24930187 -0.008502921 -0.01754573 0.19099972 0.12952477 0.076900706 -0.16073598
0.3384272 -0.011810407 0.1242451 0.15844916 0.003793485 -0.13761802 0.25676236 0.14895685
0.20954382 0.04678702 0.2659094 0.19722311 0.2478856 0.1335068 0.2072356 0.14470778
0.051565897 -0.05061245 0.18879887 -0.10458356 0.16355753 -0.057317443 0.27975848 0.16070342
-0.08501395 -0.097405754 0.18997717 0.056902166 -0.037002847 -0.17958082 0.19826238 -0.13404834
0.013740346 -0.08330203 -0.2359934 -0.23356463 0.0857247 -0.10862017 -0.20184664 -0.00025147514
0.12091643 0.2251731 -0.035481315 -0.012538884 -0.06757692 -0.18808906 0.30833122 -0.07162083
0.24590476 -0.026333708 -0.04346346 0.33646014 -0.18885031 0.026601456 0.11318288 -0.14289951
00000000: 2168 39be fd48 7f3e d64f 0bbc 10bc 8fbc
00000010: 6e95 433e 24a2 043e 1e7e 9d3d f997 24be
00000020: 5446 ad3e 7080 41bc 3774 fe3d 7f40 223e
00000030: 1e9c 783b bdeb 0cbe 5b76 833e 2588 183e
00000040: a892 563e bfa3 3f3d 4725 883e dbf4 493e
00000050: b9d5 7d3e 02b6 083e 9235 543e 472e 143e
00000060: c336 533d 004f 4fbd 7e54 413e e82f d6bd
00000070: a07b 273e b2c5 6abd 813c 8f3e 708f 243e
00000080: cb1b aebd ab7c c7bd 6089 423e 3f12 693d
00000090: 4c90 17bd 09e4 37be 4b05 4b3e f843 09be
000000a0: 301f 613c 419a aabd 41a8 71be 912b 6fbe
000000b0: 6e90 af3d 4074 debd e3b0 4ebe 6cd8 83b9
000000c0: 09a3 f73d c793 663e db54 11bd e46f 4dbc
000000d0: c565 8abd 6b9a 40be 97dd 9d3e f1ad 92bd
000000e0: 75ce 7b3e cab9 d7bc be06 32bd 8144 ac3e
000000f0: fa61 41be 4ceb d93c 6dcc e73d 4054 12be

lstm.bias_hh_l0 f4 [64]
0.022292078 0.09398674 -0.07481912 0.06577067 0.11205316 0.18495089 -0.13337195 -0.08908464
0.22055633 -0.08100878 -0.014225227 -0.06727786 -0.15280704 0.28879014 -0.11297663 -0.009342935
0.0076879724 0.24476482 0.27914512 0.06159453 0.181182 0.24425828 0.23015977 0.3214027
0.28517467 0.2960864 0.070540026 0.08079614 0.18719971 0.29936114 0.2979036 0.11615008
-0.12684564 -0.016828347 0.15760472 -0.05515747 -0.17281935 -0.081399836 -0.20842756 0.0737688
-0.046407256 0.27173683 -0.03789277 -0.08116043 0.22623101 -0.04810964 -0.19093396 -0.118557
0.21034358 -0.039420903 0.27704546 -0.047496177 -0.1783601 -0.081946634 0.14976662 -0.0156014385
0.0080742175 -0.10803756 0.21541151 0.09172474 -0.21129146 -0.052356586 0.19996785 0.17789374
00000000: e09d b63c 1f7c c03d c43a 99bd c6b2 863d
00000010: 217c e53d c463 3d3e a892 08be 0272 b6bd
00000020: 85d9 613e eee7 a5bd ed10 69bc fac8 89bd
00000030: 7379 1cbe 4ddc 933e 4b60 e7bd 1c13 19bc
00000040: 63eb fb3b a1a3 7a3e 1cec 8e3e 8c4a 7c3d
00000050: c687 393e d81e 7a3e 01af 6b3e e58e a43e
00000060: 6a02 923e a398 973e 4a77 903d 7278 a53d
00000070: 48b1 3f3e dd45 993e d286 983e 18e0 ed3d
00000080: d3e3 01be 9adb 89bc 2263 213e cdec 61bd
00000090: 8ef7 30be f5b4 a6bd 096e 55be 1914 973d
000000a0: 8915 3ebd 1721 8b3e 7335 1bbd 7137 a6bd
000000b0: 1aa9 673e 9d0e 45bd 3184 43be 03ce f2bd
000000c0: 4f64 573e d077 21bd e7d8 8d3e 5a8b 42bd
000000d0: 08a4 36be a3d3 a7bd 6c5c 193e 2d9d 7fbc
000000e0: b949 043c cc42 ddbd d694 5c3e 2eda bb3d
000000f0: ca5c 58be dc73 56bd 5fc4 4c3e c729 363e

linear.model.0.weight f4 [2, 16]
-0.21307762 -0.03020452 0.17902143 0.23398304 0.06116182 -0.05595061 -0.2086417 -0.12147338
-0.15723652 0.27412328 -0.09413912 -0.13519943 0.13269658 -0.3243457 -0.10116048 0.16489254
-0.083956726 -0.28944972 -0.07878869 0.07566492 -0.13818422 0.02350917 0.21837498 -0.28114724
0.12313799 0.105790496 0.045745682 0.09024286 -0.0824377 -0.3151194 0.10259014 -0.16869234
00000000: 0531 5abe 786f f7bc 6551 373e 4099 6f3e
00000010: d184 7a3d 782c 65bd 2ba6 55be 09c7 f8bd
00000020: 9c02 21be e359 8c3e 03cc c0bd b871 0abe
00000030: 9de1 073e a410 a6be 3a2d cfbd 97d9 283e
00000040: 81f1 abbd c132 94be f75b a1bd 36f6 9a3d
00000050: 2a80 0dbe 4e96 c03c b19d 5f3e 88f2 8fbe
00000060: c52f fc3d b0a8 d83d d35f 3b3d 40d1 b83d
00000070: 19d5 a8bd 5457 a1be c81a d23d afbd 2cbe

linear.model.0.bias f4 [2]
-0.19612277 0.1012732
00000000: 68d4 48be 5368 cf3d
