examples/2_streamflow_isotope_simulation/results/20241125_101506_612553/loss_c60a7_00004_4_batch_size=6,hidden_size=8,learning_rate=0.0020,n_epochs=167,num_layers=2_2024-11-25_10-15-11/checkpoint_000001/model.pt (torch, 7324 bytes, 10 tensors)

lstm.weight_ih_l0 f4 [32, 4]
0	0x3e791fed	0.24328585
1	0x3dd3294a	0.1031061
2	0x3e9a511f	0.30140015
3	0xbe0aca7a	-0.13553801
4	0x3e53a3ff	0.20668028
5	0x3dbc64bd	0.09198902
6	0xbddbf272	-0.10739602
7	0x3da15ac4	0.0787864
8	0xbe373122	-0.17889836
9	0x3c09f77e	0.008420823
10	0x3e889590	0.26676607
11	0x3dd64b85	0.10463623
12	0x3eb51afa	0.35372144
13	0xbe004b20	-0.12528658
14	0xbe9393c4	-0.28823674
15	0x3e827c6b	0.25485548
16	0xbdb15ef6	-0.086606905
17	0xbd713462	-0.058887847
18	0xbe3ea6a3	-0.18618254
19	0x3ebb4f66	0.36584014
20	0x3d9dd2dd	0.077062346
21	0x3e2b611f	0.16736268
22	0xbe749960	-0.23886633
23	0xbe96a751	-0.29424527
24	0x3e15abf2	0.14616373
25	0x3ea247d4	0.31695426
26	0xbd10e168	-0.035371214
27	0xbe5dbd34	-0.21654207
28	0x3ea7cd5c	0.32773864
29	0x3dc6f43a	0.09714551
30	0x3eb38a62	0.35066515
31	0xbd609820	-0.054832578
32	0xbd09aeff	-0.033614155
33	0xbea56557	-0.3230388
34	0x3eb9dee4	0.36302865
35	0xbeb2fe41	-0.34959605
36	0x3da0bb74	0.07848254
37	0xbe325148	-0.17413819
38	0x3e1b86ca	0.15188137
39	0x3d954029	0.07287628
40	0x3da62fc2	0.08114578
41	0xbdf0da9b	-0.11760446
42	0x3d7b239a	0.06131325
43	0xbe2720ad	-0.16321059
44	0xbcf399de	-0.029736456
45	0x3e27f887	0.164034
46	0x3e4e8732	0.2016876
47	0xbe65183c	-0.22372526
48	0x3e811ee6	0.25218886
49	0x3dcde7ea	0.10054
50	0xbdc43391	-0.09580148
51	0x3e24b954	0.16086322
52	0x3e7d10cb	0.24713437
53	0xbcaea149	-0.021317141
54	0xbd595ed6	-0.05306896
55	0x3c38b724	0.011274133
56	0x3eb34ac4	0.3501798
57	0x3e8d8e8c	0.27647817
58	0x3e9540b2	0.2915092
59	0x3dd72969	0.10505945
60	0x3e9d96a3	0.3077899
61	0xbe836332	-0.25661618
62	0x3e0e270b	0.13882081
63	0xbebd2afc	-0.36946857
64	0x3e88ddd5	0.26731744
65	0x3e72384f	0.23654293
66	0xbda0094a	-0.07814272
67	0xbeac3578	-0.33634543
68	0x3ccb6c0d	0.024831796
69	0x3cf3cafa	0.029759873
70	0x3eac8cc2	0.3370114
71	0xbe5ebc77	-0.21751581
72	0x3e5569c6	0.2084113
73	0x3ea45e8e	0.3210339
74	0x3e27d884	0.16391188
75	0x3d6138e1	0.054985885
76	0xbeb344ee	-0.35013527
77	0x3e7a3204	0.24433142
78	0x3e6ac92f	0.22928308
79	0x3c1b1b23	0.009466919
80	0xbe741278	-0.2383517
81	0x3e4b3700	0.198452
82	0xbe96c13a	-0.29444295
83	0xbe150c14	-0.14555389
84	0x3e9c093c	0.30475795
85	0x3e4e5d2e	0.20152733
86	0xbe107f7a	-0.14111128
87	0x3d17851f	0.03699219
88	0xbe194662	-0.14968255
89	0x3e709a61	0.23496391
90	0x3e9ef722	0.31047922
91	0x3e5d363e	0.21602723
92	0xbea5a9aa	-0.32356006
93	0x3e37e709	0.17959227
94	0x3ea49536	0.3214509
95	0xbea5e294	-0.32399428
96	0xbe219be2	-0.15782121
97	0xbe38f813	-0.18063383
98	0xbe92af40	-0.2864933
99	0x3de139d5	0.10997359
100	0x3e72e96f	0.2372186
101	0xbe2be488	-0.16786397
102	0xbea63657	-0.32463333
103	0x3dbf8374	0.093512446
104	0x3e4a204a	0.1973888
105	0x3d9b20c3	0.07574608
106	0x3d08353a	0.033253886
107	0xbe77c9c6	-0.24198064
108	0x3c814be9	0.015783267
109	0xbe9f5090	-0.31116152
110	0x3e9fd54a	0.31217414
111	0xbe76baf6	-0.24094757
112	0x3e3a8e4c	0.18218344
113	0x3d044f7b	0.03230236
114	0x3d9e47f4	0.07728568
115	0x3e9e4626	0.30912894
116	0x3cd6d47e	0.026224371
117	0xbe925978	-0.28583884
118	0xbe87c6be	-0.26518816
119	0xbe91f5c3	-0.28507814
120	0x3e4c2f64	0.19939953
121	0xbe048c71	-0.12944199
122	0x3e9b14e7	0.30289385
123	0x3d166148	0.03671387
124	0x3cd8b9f3	0.026455855
125	0xbe97bc71	-0.29635957
126	0x3e91e653	0.28496036
127	0x3d96a379	0.07355399

lstm.weight_hh_l0 f4 [32, 8]
0	0x3d57f9e0	0.052728534
1	0x3e8146d8	0.25249362
2	0xbbd3458a	-0.0064474987
3	0x3e592255	0.21204503
4	0xbe866fd7	-0.26257202
5	0x3e05523a	0.13019648
6	0xbe6f28d1	-0.23355414
7	0x3e77deb1	0.24206044
8	0x3dd7b6fd	0.10532949
9	0x3d5725d8	0.052526325
10	0xbea8ff66	-0.33007354
11	0x3e463967	0.19357835
12	0xbda920d4	-0.082582146
13	0xbd88b48c	-0.066750616
14	0x3cd7e01b	0.026351979
15	0xbda77fe3	-0.08178689
16	0xbe61dd39	-0.22057046
17	0x3cf99f05	0.030471334
18	0xbd4dd9c5	-0.05025651
19	0xbd73a128	-0.059479862
20	0x3e2b6391	0.167372
21	0xbe85a8bf	-0.26105306
22	0x3d907146	0.07052855
23	0x3e289025	0.16461237
24	0xbe2a2041	-0.16613866
25	0x3e88bf90	0.2670865
26	0xbda863ac	-0.08222136
27	0xbd70c1da	-0.05877862
28	0x3d5c7dec	0.053831026
29	0x3e541310	0.20710397
30	0x3d5dccc2	0.05415035
31	0x3d94d7dc	0.072677344
32	0xbdf56cbd	-0.11983631
33	0xbe322b44	-0.17399317
34	0xbe8ba814	-0.2727667
35	0x3e57fc80	0.21092415
36	0xbe9ca9f5	-0.30598417
37	0x3ea7db3c	0.3278445
38	0xbe339921	-0.17538883
39	0x3e5119fd	0.2042007
40	0x3daee339	0.08539433
41	0xbe9d71a1	-0.30750754
42	0xbe9a5e77	-0.30150196
43	0x3e503af8	0.20334995
44	0x3e45d06b	0.19317786
45	0x3ea46377	0.32107136
46	0xbd910999	-0.07081909
47	0xbe8f6a05	-0.28010574
48	0xbde424eb	-0.11139854
49	0x3df9908f	0.121857755
50	0x3eb07105	0.34461227
51	0x3e7f3d8a	0.24925819
52	0x3e942a8c	0.2893871
53	0xbe672778	-0.2257365
54	0xbde08326	-0.109625146
55	0x3e97f060	0.2967558
56	0x3e8bb84d	0.27289048
57	0xbe3777cf	-0.17916797
58	0x3e2c0691	0.1679938
59	0xbe09daae	-0.13462326
60	0x3e833cbd	0.25632277
61	0xbe82c9a7	-0.25544474
62	0xbea243be	-0.31692308
63	0xbe924e07	-0.28575155
64	0x3e13266b	0.14370124
65	0x3e7c0e16	0.24614748
66	0xbe0fa17b	-0.14026444
67	0xbe07c906	-0.13260278
68	0x3e7fa14d	0.24963875
69	0x3ea31ded	0.3185877
70	0xbd39a410	-0.045322478
71	0x3e53c808	0.20681775
72	0x3e44358b	0.1916105
73	0xbe215812	-0.15756252
74	0x3ea50b04	0.32234967
75	0xbe094fae	-0.13409302
76	0x3e085fd7	0.1331781
77	0x3e013bdc	0.12620491
78	0xbe4382b4	-0.19092828
79	0xbd3a21ca	-0.04544238
80	0x3dc4992b	0.09599527
81	0xbdc61b17	-0.09673136
82	0xbe8331f3	-0.25624046
83	0x3ea65f0f	0.324944
84	0xbe38f4d3	-0.18062143
85	0x3e88b258	0.26698565
86	0x3ebd0c08	0.36923242
87	0x3e46e094	0.19421607
88	0xbdec1480	-0.115273476
89	0x3d7904cf	0.0607956
90	0xbe4d2064	-0.20031887
91	0x3e52b864	0.20578152
92	0xbe930ea5	-0.2872211
93	0x3e0c186f	0.13681196
94	0xbeb41f73	-0.35180244
95	0xbe9a5f28	-0.30150723
96	0xbeab568e	-0.33464473
97	0x3cdd6c9e	0.027029332
98	0xbdb49a2d	-0.08818469
99	0xbe1ed90a	-0.15512481
100	0xbe219262	-0.15778497
101	0xbd25c71c	-0.04047309
102	0xbe8e8dc2	-0.27842528
103	0x3dfc2516	0.12311761
104	0x3e1c2368	0.15247881
105	0xbe0c4262	-0.13697198
106	0x3e3c3345	0.18378933
107	0xbe5e9d93	-0.21739797
108	0xbda603fa	-0.08106227
109	0x3e1e7feb	0.15478484
110	0xbe283af2	-0.16428736
111	0x3e8681a8	0.26270795
112	0xbe913b9d	-0.28365794
113	0x3eb871e1	0.36024383
114	0xbeb37203	-0.35047922
115	0xbe2b8175	-0.16748603
116	0x3e384a17	0.17997013
117	0x3d928721	0.0715468
118	0xbd4015c1	-0.046895746
119	0xbcc58853	-0.024112856
120	0x3e9e4c3f	0.30917546
121	0xbe0f04ed	-0.13966723
122	0x3e48a5d3	0.19594507
123	0x3caedac1	0.021344544
124	0x3e5a230d	0.21302433
125	0xbe0de2f3	-0.13856106
126	0xbe93fc44	-0.289034
127	0x3e14dae2	0.14536622
128	0xbd5853a5	-0.052814145
129	0x3dce9ad3	0.10088124
130	0x3e880ee7	0.2657387
131	0xbe1770b1	-0.14789082
132	0xbe5d2fe8	-0.21600306
133	0x3da37d89	0.07982928
134	0xbea9a904	-0.3313676
135	0x3ce05dcd	0.027388478
136	0x3e6fdd09	0.23424162
137	0xbe822dc4	-0.2542554
138	0x3e19f1de	0.15033671
139	0x3e99efe2	0.3006583
140	0xbd30ec50	-0.043194115
141	0xbdc02326	-0.09381704
142	0x3e0b0eb1	0.13579823
143	0xbd8481c2	-0.06470062
144	0x3e985f0b	0.29760012
145	0xbea1cbd9	-0.31600836
146	0xbe0ba35e	-0.13636538
147	0x3df6b754	0.12046686
148	0x3e3e88c8	0.18606865
149	0x3dc26758	0.094923675
150	0xbebe5380	-0.3717308
151	0x3d2cfb4d	0.042231847
152	0x3e750d5b	0.23930876
153	0xbeaf5053	-0.3424097
154	0xbeb5a034	-0.35473788
155	0xbe999cfe	-0.30002588
156	0x3e608efc	0.21929544
157	0xbd816d97	-0.06319731
158	0xbe9876e6	-0.29778212
159	0xbe751b6a	-0.23936239
160	0xbd55d8d6	-0.052208744
161	0x3e7e899c	0.24857181
162	0xbdbff531	-0.093729384
163	0xbd7be3f6	-0.061496697
164	0xbd8801da	-0.06640978
165	0xbd41052e	-0.04712408
166	0xbe82081c	-0.25396812
167	0xbe1658c0	-0.14682293
168	0xbe98e50c	-0.2986225
169	0x3e94cc56	0.29062146
170	0x3d81609a	0.063172534
171	0xbdb73b25	-0.08946828
172	0x3e8e8ea4	0.278432
173	0x3e2a26ab	0.16616313
174	0xbe869d51	-0.26291898
175	0xbe99c0a4	-0.30029786
176	0x39da0ff0	0.00041592075
177	0x3e577990	0.21042466
178	0xbeb3c753	-0.3511301
179	0xbde4564d	-0.11149273
180	0xbe0ae3b4	-0.13563424
181	0xbce9218c	-0.02845838
182	0xbe5d5b1e	-0.2161679
183	0x3de6f1c7	0.11276584
184	0xbe103e39	-0.14086236
185	0xbdded9a3	-0.10881355
186	0xbe0a400f	-0.13500999
187	0x3e7f0de5	0.24907644
188	0x3dbd8765	0.0925434
189	0x3e46f365	0.19428785
190	0xbe69dc25	-0.22837885
191	0x3cfd80c7	0.030945195
192	0xbea6ee9b	-0.32603917
193	0x3e9a1843	0.30096635
194	0xbe961998	-0.293164
195	0xbe29dd15	-0.16588242
196	0x3e997823	0.2997447
197	0xbe3e45b0	-0.18581271
198	0xbe90d679	-0.2828863
199	0xbe634916	-0.22195849
200	0x3df4dc54	0.11956087
201	0x3dee16e3	0.11625459
202	0xbd8ff028	-0.07028228
203	0x3ea624fe	0.32450098
204	0xbe0642c5	-0.13111408
205	0x3e7c353f	0.24629687
206	0x3eb659d8	0.3561542
207	0x3e60b7ad	0.21945067
208	0x3e91426b	0.28370985
209	0xbe4f4750	-0.20242047
210	0x3dcc1b44	0.09966138
211	0xbdd8cd0a	-0.10585983
212	0x3ea5837a	0.3232687
213	0xbe719d71	-0.23595215
214	0xbd57664a	-0.052587785
215	0xbe8179a8	-0.2528813
216	0x3e968103	0.29395303
217	0xbe21df59	-0.15807857
218	0xbcd34c4e	-0.02579322
219	0x3e806094	0.25073683
220	0xbc63b326	-0.013897693
221	0x3e2c2d34	0.16814119
222	0xbe8c0613	-0.27348384
223	0x3e078180	0.13232994
224	0x3eb4e080	0.3532753
225	0xbe63717a	-0.22211257
226	0xbeb824a5	-0.35965458
227	0x3e7840ee	0.24243519
228	0xbeaf45cc	-0.34232938
229	0xbe6169f6	-0.22013077
230	0x3cf96533	0.030443763
231	0xbeb147a0	-0.34624958
232	0x3e860b61	0.26180556
233	0x3e17326c	0.14765328
234	0x3c0dde71	0.008658991
235	0x3e8e4403	0.27786264
236	0xbd49c8ba	-0.049263693
237	0xbe1b88b2	-0.15188864
238	0x3ea7b84f	0.32757804
239	0x3e9bb254	0.3040949
240	0xbd3cf8bd	-0.046135653
241	0x3e88adb1	0.26695016
242	0x3ea62b19	0.32454756
243	0x3e55a9c3	0.2086554
244	0x3d9847cc	0.07435569
245	0x3e82932a	0.25502902
246	0xbe8e2128	-0.2775967
247	0x3d726495	0.059177954
248	0xbe76ae60	-0.24089956
249	0x3eb5f68c	0.35539663
250	0x3e9b6da0	0.30357075
251	0xbd5d3b3a	-0.05401156
252	0xbd2e3965	-0.042535204
253	0x3d8748a0	0.06605649
254	0xbe966001	-0.2937012
255	0xbea235ab	-0.3168157

lstm.bias_ih_l0 f4 [32]
0	0x3dc2d49a	0.09513207
1	0x3ebc587f	0.36786267
2	0xba95ecae	-0.0011438334
3	0xbe1d29c1	-0.15347959
4	0x3d5bcc6f	0.05366176
5	0x3d6ac16f	0.05731338
6	0xbdb24ccc	-0.08706054
7	0x3e2b1e33	0.16710739
8	0x3ded0d90	0.115748525
9	0xbe3fd4ae	-0.18733475
10	0x3e5e0f8c	0.21685618
11	0x3e6088dc	0.21927208
12	0xbdaf8a4d	-0.08571301
13	0xbe9fd499	-0.31216887
14	0xbe1277a7	-0.14303456
15	0xbdd9ebd3	-0.10640683
16	0x3ddf0e7c	0.108914346
17	0x3e911ed6	0.28343838
18	0xbe9b4142	-0.30323225
19	0xbe7f29d0	-0.24918294
20	0xbeb5b2b4	-0.35487902
21	0xbe1e397f	-0.1545162
22	0xbdc045ca	-0.09388311
23	0x3ddbfd5d	0.107416846
24	0xbe72f506	-0.23726282
25	0xbea733bc	-0.32656658
26	0x3e76b907	0.2409402
27	0xbe8ae174	-0.27125132
28	0xbcac2197	-0.02101211
29	0xbd872e32	-0.06600608
30	0x3dbb3261	0.091404684
31	0xbc48c9ec	-0.012255173

lstm.bias_hh_l0 f4 [32]
0	0x3e3ed892	0.18637303
1	0x3d99b660	0.075054884
2	0x3e2040de	0.15649745
3	0xbea9c7a7	-0.33160135
4	0xbe8e3501	-0.27774814
5	0x3e7ea331	0.2486694
6	0x3e9444a2	0.28958613
7	0xbe14e5ea	-0.1454083
8	0x3d115f21	0.035491113
9	0xbdfc3cc9	-0.12316281
10	0xbd4cb870	-0.04998058
11	0xbd61b4ad	-0.055103946
12	0xbd18a5ac	-0.037267372
13	0x3e09076b	0.13381736
14	0xbcf11a69	-0.029431539
15	0xbe2637f9	-0.1623229
16	0x3e9bbc4b	0.30417094
17	0xbeb72025	-0.35766712
18	0xbe9811aa	-0.29700977
19	0x3e22bbda	0.15891972
20	0x3e3dc390	0.18531632
21	0x3d94a90c	0.07258806
22	0x3e1cdef8	0.15319431
23	0x3e1bfc83	0.15233044
24	0x3e176210	0.14783502
25	0x3eb82bfc	0.35971057
26	0xbe5e41d5	-0.217048
27	0xbe8f94ca	-0.28043205
28	0x3dc59bd8	0.096488655
29	0xbea88206	-0.329117
30	0xbe98d039	-0.2984636
31	0x3e68c981	0.22733118

lstm.weight_ih_l1 f4 [32, 8]
0	0x3d99c3d6	0.07508056
1	0x3df3defe	0.11907767
2	0x3e9ba6cd	0.30400696
3	0x3e893729	0.26799896
4	0x3e73931c	0.23786587
5	0xbeb865b6	-0.360151
6	0xbe4305ed	-0.1904523
7	0x3e9f928b	0.3116649
8	0xbea47d79	-0.32126978
9	0xbe3087ea	-0.17239347
10	0xbe9bd216	-0.3043372
11	0xbdcd0c46	-0.100121066
12	0x3e6ef11d	0.23334165
13	0xbdcc99df	-0.09990286
14	0x3dc756e3	0.09733369
15	0xbe51b02b	-0.20477359
16	0xbea3c6b9	-0.3198755
17	0x3e9d37cf	0.3070664
18	0x3e4ee198	0.20203245
19	0xbd791355	-0.060809452
20	0x3e005769	0.12533344
21	0x3e94b2c6	0.29042643
22	0x3e1a2716	0.15053973
23	0xbdb89556	-0.090128586
24	0xbe54784e	-0.20749018
25	0xbeb196c6	-0.34685344
26	0x3bb1042a	0.0054021077
27	0x3dea3957	0.11436718
28	0x3d252a71	0.04032368
29	0x3e85d10b	0.2613605
30	0x3de0af74	0.10970965
31	0xbdd6a089	-0.104798384
32	0xbea16377	-0.31521198
33	0x3e838f3c	0.25695217
34	0xbea0899d	-0.3135499
35	0x3ea24ce4	0.31699288
36	0xbe282d27	-0.16423474
37	0x3e44cacf	0.1921799
38	0xbe96e66f	-0.29472682
39	0xbca3d909	-0.020000951
40	0x3dc5ec2c	0.09664187
41	0xbe86503e	-0.26233095
42	0x3e1b57f8	0.15170276
43	0xbe3e17ea	-0.1856381
44	0x3e0ff57b	0.14058487
45	0x3e21f184	0.15814787
46	0xbd5ec8c7	-0.054390695
47	0x3d1b4dd2	0.037916012
48	0xbd822e7f	-0.06356525
49	0x3df3c5e9	0.11902983
50	0x3dde10ba	0.10843034
51	0x3cff995b	0.031201055
52	0x3d7aebbd	0.061259974
53	0x3e764e03	0.24053197
54	0xbda0db1d	-0.078542925
55	0x3ea7651c	0.32694328
56	0x3ea89965	0.3292953
57	0xbe5a448a	-0.21315208
58	0xbcaf5994	-0.021405019
59	0xbe407c28	-0.18797362
60	0xbe1a4f06	-0.15069208
61	0xbde75b20	-0.112966776
62	0x3e28703d	0.16449066
63	0x3d71a8bf	0.05899882
64	0xbd0f57ee	-0.034995966
65	0x3e9b296f	0.3030505
66	0xbdf58bd0	-0.11989558
67	0x3d9e9f18	0.077451885
68	0xbe8d5b4c	-0.27608716
69	0xbea98dbd	-0.3311595
70	0xbe8bda13	-0.27314815
71	0x3e462714	0.19350845
72	0x3e1e4016	0.15454134
73	0x3e4337e6	0.19064292
74	0xbd28adba	-0.041181304
75	0x3eaf76d5	0.3427035
76	0xbe8b2e47	-0.27183744
77	0x3d1d2db4	0.038373664
78	0x3eaf97c8	0.34295487
79	0x3df31b86	0.11870484
80	0xbcd1c0f8	-0.02560471
81	0x3e6971f5	0.22797377
82	0x3ea49654	0.3214594
83	0xbe12ef67	-0.14349137
84	0xbe8ac7c2	-0.27105528
85	0x3d4a4daf	0.04939049
86	0x3d8da7d0	0.06916773
87	0xbe819489	-0.25308636
88	0xbe861a59	-0.26191977
89	0xbdb4f710	-0.08836186
90	0xbd41af39	-0.047286246
91	0x3d532ca1	0.051556233
92	0x3e3537d9	0.17697085
93	0x3dcdd460	0.10050273
94	0xbe136802	-0.14395145
95	0xbea5d942	-0.32392317
96	0xbeae74a3	-0.34073362
97	0x3eafb501	0.34317783
98	0x3cb0def5	0.02159069
99	0x3df2a4a4	0.11847809
100	0x3cf4b7d3	0.02987281
101	0xbe7618db	-0.24032919
102	0xbb972384	-0.004612388
103	0xbe53d604	-0.20687109
104	0xbe8a192d	-0.26972333
105	0x3da55640	0.080730915
106	0x3d7a0fdc	0.06105028
107	0x3d0bd94a	0.03414277
108	0xbe8df793	-0.27727947
109	0x3e880367	0.26565096
110	0xbe9318bd	-0.2872981
111	0x3c59be28	0.013289966
112	0x3e0b5fbf	0.13610743
113	0x3e942f81	0.28942493
114	0x3d3a7db6	0.045530044
115	0x3e1b4cac	0.15165967
116	0xbe430af6	-0.1904715
117	0xbbb92ffc	-0.005651472
118	0xbe6272cb	-0.22114103
119	0xbe9eba54	-0.31001532
120	0xbd202fc7	-0.039108064
121	0xbeacf689	-0.3378184
122	0xbeb0c16e	-0.34522575
123	0x3e9f4be5	0.3111259
124	0x3dcff9e0	0.10155082
125	0x3e922c43	0.28549394
126	0xbd78b15b	-0.060716014
127	0x3e82a967	0.2551987
128	0x3dc5a33a	0.096502736
129	0xbe7afc21	-0.24510242
130	0x3e741f27	0.23840009
131	0x3ead6047	0.33862516
132	0xbd364795	-0.04450186
133	0x3e292f99	0.16522063
134	0x3e82da68	0.25557256
135	0xbe8859ca	-0.26631004
136	0xbe484ede	-0.19561335
137	0xbdbf2f59	-0.09335203
138	0xbdafced9	-0.08584375
139	0x3e6537bf	0.22384547
140	0x3e507fdb	0.20361273
141	0xbe9ce2d6	-0.30641812
142	0x3ea5eb30	0.32405996
143	0x3e2d15a1	0.16902782
144	0x3e3c1d7b	0.18370621
145	0x3c347949	0.011015245
146	0x3e91210a	0.2834552
147	0x3e8922b1	0.2678428
148	0xbca9a1f7	-0.020707114
149	0x3ea93546	0.33048457
150	0xbe031f2a	-0.12804857
151	0x3ddc8836	0.10768168
152	0x3c164b91	0.00917329
153	0xbea59ccc	-0.3234619
154	0x3e2a4980	0.166296
155	0x3e9f4945	0.31110588
156	0xbea6b552	-0.3256021
157	0xbe488947	-0.19583617
158	0x3e4fbd3e	0.20287034
159	0x3e32d28e	0.17463133
160	0x3e92e715	0.28691927
161	0xbe221e25	-0.15831812
162	0xbdbd7801	-0.092514046
163	0x3e72ee36	0.23723683
164	0x3e23c0ff	0.15991591
165	0xbd57e3de	-0.052707545
166	0x3d97eb45	0.07417921
167	0x3e93cef5	0.28868833
168	0x3dae0192	0.08496393
169	0xbe021015	-0.12701447
170	0x3dbe1d61	0.09282947
171	0x3e01810a	0.12646881
172	0x3d83b276	0.06430523
173	0xbe06a28e	-0.13147947
174	0x3e1924fc	0.14955515
175	0xbde2b99f	-0.11070561
176	0xbea2f0d9	-0.31824377
177	0xbcb5ea18	-0.022206351
178	0x3dcd2552	0.10016884
179	0x3e0fb001	0.14031984
180	0xbe889c63	-0.26681814
181	0xbd83e1e8	-0.064395726
182	0xbe966ffc	-0.29382312
183	0xbe9f6eba	-0.31139165
184	0x3c6d904e	0.014499737
185	0xbddc73a5	-0.10764245
186	0x3e5ff1f6	0.21869645
187	0xbe3b3e14	-0.182854
188	0x3ea8e16b	0.3298448
189	0xbe3b0960	-0.18265295
190	0x3de1510c	0.110017866
191	0x3d8264f4	0.063669115
192	0xbe92b1cd	-0.28651276
193	0xbdfc5bea	-0.12322219
194	0xbe95df84	-0.2927209
195	0x3eb35d2d	0.35032025
196	0x3ea3daa3	0.32002744
197	0x3e7776c5	0.241664
198	0xbead6d2f	-0.33872363
199	0xbe3bb35c	-0.18330139
200	0xbd43d378	-0.047809094
201	0xbe85e841	-0.26153758
202	0x3ea2d9e6	0.31806868
203	0x3d807454	0.06272188
204	0x3db1c462	0.08680035
205	0xbea06797	-0.31329033
206	0x3e2386a8	0.15969336
207	0xbe8d690b	-0.27619204
208	0xbdf963e2	-0.12177254
209	0x3ce7c5a6	0.028292488
210	0xbd50bee6	-0.050963305
211	0xbe4b6d7e	-0.19865987
212	0xbeacec9b	-0.33774266
213	0x3d8b5929	0.06804115
214	0x3d293d00	0.04131794
215	0x3e9b0272	0.30275303
216	0x3e9337f7	0.28753635
217	0xbe8389f2	-0.2569118
218	0x3e7ad0cd	0.24493714
219	0x3e9db3e3	0.30801305
220	0xbeab3803	-0.3344117
221	0xbdc67d78	-0.096919
222	0xbd839f8e	-0.06426917
223	0x3e7f277b	0.24917404
224	0xbe587e5e	-0.21141955
225	0x3e1c2b3b	0.15250866
226	0xbc59e505	-0.013299231
227	0x3d5534bd	0.05205225
228	0x3e9ecd51	0.3101602
229	0x3debc0e2	0.11511399
230	0xbdc8dd99	-0.098078914
231	0x3db3366b	0.08750614
232	0xbe258e09	-0.16167463
233	0x3e297c93	0.16551428
234	0x3e8d46d0	0.27593088
235	0x3d4f060c	0.050542876
236	0xbd985d6e	-0.07439695
237	0xbe655b6a	-0.22398153
238	0x3e0e7edc	0.1391558
239	0x3da8a91b	0.08235379
240	0x3e291465	0.16511686
241	0x3ea72ba2	0.32650477
242	0x3d8aab70	0.0677098
243	0x3e2c3606	0.16817483
244	0x3d3f1174	0.046647504
245	0xbea1288d	-0.3147625
246	0xbcaaabe4	-0.020833917
247	0xbe8c1561	-0.2736006
248	0xbc8efd01	-0.017454626
249	0xbdd13bab	-0.10216459
250	0xbdd92ef3	-0.10604658
251	0xbe5f50c2	-0.2180815
252	0x3e7f7cea	0.24949995
253	0xbe0aa773	-0.1354044
254	0x3e088529	0.13332047
255	0x3d9391db	0.07205554

lstm.weight_hh_l1 f4 [32, 8]
0	0xbdf1b39f	-0.11801838
1	0x3e2f552d	0.17122336
2	0x3e45809b	0.1928734
3	0xbd00d021	-0.031448487
4	0x3eb44991	0.35212377
5	0xbd490f68	-0.04908696
6	0x3e0c3022	0.13690236
7	0xbead97c8	-0.33904862
8	0xbe6def29	-0.23235764
9	0x3e7a747e	0.244585
10	0xbe519375	-0.20466407
11	0x3e5eb593	0.21748953
12	0xbd8b9d45	-0.06817106
13	0xbe4c3570	-0.1994226
14	0x3d14f8c9	0.036370073
15	0xbdca23d2	-0.098701134
16	0xbd949824	-0.07255581
17	0x3e927f46	0.28612727
18	0xbe4d5d9c	-0.2005524
19	0x3e8928d7	0.2678897
20	0xbe903479	-0.28165033
21	0xbe4b054e	-0.19826242
22	0x39314a08	0.00016907614
23	0x3e279078	0.16363704
24	0x3db0156b	0.08597835
25	0x3e821138	0.25403762
26	0xbda824e6	-0.08210163
27	0x3ea1577c	0.31512058
28	0x3dde0fad	0.10842834
29	0x3eab9ee1	0.33519652
30	0xbe21d30b	-0.15803163
31	0xbe9254e9	-0.28580406
32	0xbe635926	-0.22201976
33	0xbe1c2511	-0.15248515
34	0xbea0edd2	-0.31431442
35	0xbddc06f0	-0.10743511
36	0xbe38ca54	-0.18045932
37	0xbe814664	-0.25249016
38	0xbe549beb	-0.20762603
39	0xbeb660c4	-0.356207
40	0xbe521337	-0.20515142
41	0xbbe46fe4	-0.006971346
42	0x3c1bf21d	0.0095181735
43	0xbe88cb10	-0.26717424
44	0xbe7b2392	-0.24525288
45	0x3da26911	0.07930196
46	0xbdfad507	-0.12247663
47	0xbea3ea8f	-0.32014892
48	0xbe06afc6	-0.1315299
49	0x3dbd214e	0.09234868
50	0x3e96721a	0.29383928
51	0x3c00be59	0.007857882
52	0x3d230684	0.039801136
53	0x3e945596	0.28971547
54	0xbe798679	-0.24367703
55	0xbe8ff7a4	-0.28118622
56	0xbe57a02c	-0.21057194
57	0xbe0e7328	-0.13911116
58	0xbc8bc2e5	-0.017060706
59	0xbe89a328	-0.2688229
60	0xbe824263	-0.25441274
61	0x3e93ee59	0.28892782
62	0xbe9630f0	-0.2933421
63	0x3e80bc0f	0.25143477
64	0xbe653b07	-0.22385798
65	0xbda5f722	-0.081037775
66	0x3e61ce49	0.22051348
67	0x3d8f2251	0.06988967
68	0xbe7690a4	-0.24078614
69	0xbe48d0fe	-0.19610974
70	0x3d13a51d	0.036046136
71	0xbe43262f	-0.19057535
72	0x3ead07f6	0.33795136
73	0x3ebc1531	0.36734918
74	0x3c655ada	0.0139987115
75	0x3de0ea4f	0.10982191
76	0xbe2f3699	-0.17110671
77	0xbd988508	-0.07447249
78	0xbc728307	-0.014801747
79	0xbc12d6e3	-0.008962366
80	0xbebd23e6	-0.3694145
81	0x3c9555e5	0.018229434
82	0xbe8d033c	-0.2754153
83	0x3d7db136	0.06193658
84	0x3d2d20af	0.042267498
85	0x3e0971f5	0.13422377
86	0xbeb99ae0	-0.36250973
87	0x3e874ccd	0.26425782
88	0x3c89249c	0.01674109
89	0x3e4b0106	0.19824609
90	0x3e4fdec8	0.20299828
91	0x3e7361b5	0.23767741
92	0x3e08cb19	0.13358726
93	0x3ebdac66	0.37045592
94	0x3e03389d	0.12814565
95	0x3e831aeb	0.25606474
96	0xbe4055de	-0.18782756
97	0x3e408c38	0.18803489
98	0xbe26495c	-0.16238922
99	0xbda904c5	-0.08252863
100	0x3e34b451	0.1764691
101	0x3d957a59	0.072987266
102	0x3e2992de	0.16559932
103	0x3e59bf5d	0.21264406
104	0x3cc46986	0.023976099
105	0xbce39663	-0.02778167
106	0xbe6968ff	-0.22793959
107	0x3d6cd033	0.05781574
108	0x3e7aceff	0.24493025
109	0xbe99e79a	-0.3005951
110	0x3dbef441	0.093239315
111	0x3e265e35	0.16246875
112	0xbda36d75	-0.07979862
113	0xbe7fe62b	-0.24990146
114	0x3ea45485	0.32095733
115	0xbe016daf	-0.12639497
116	0x3e1cf733	0.15328674
117	0xbe833dae	-0.25632995
118	0xbccba028	-0.024856642
119	0x3e0b14dc	0.13582176
120	0xbe13cd5c	-0.14433807
121	0xbe946867	-0.28985903
122	0x3e5c506e	0.21515056
123	0x3e3816d3	0.17977457
124	0xbe430ac1	-0.19047071
125	0x3e53e737	0.2069367
126	0xbe0b5fb0	-0.1361072
127	0x3e526864	0.20547634
128	0x3d984c10	0.07436383
129	0xbe0dcda5	-0.13847978
130	0xbdc1918a	-0.094515875
131	0xbe516d4d	-0.20451851
132	0xbe1ea569	-0.15492786
133	0x3df6f906	0.12059216
134	0x3ea8c65f	0.32963845
135	0xbe179386	-0.1480237
136	0xbdfaae0c	-0.12240228
137	0xbebc2f4d	-0.36754838
138	0x3e81e67c	0.25371158
139	0xbe132563	-0.1436973
140	0x3e031157	0.12799583
141	0xbe15bfcb	-0.14623944
142	0xbdb1596f	-0.08659636
143	0xbe9a2508	-0.30106378
144	0x3e0bb430	0.13642955
145	0xbe5ecabe	-0.21757028
146	0x3e62f234	0.22162706
147	0x3e879aa6	0.26485175
148	0x3e12a62a	0.14321199
149	0x3e47af42	0.1950045
150	0x3ddd2938	0.107988775
151	0x3e1c8d45	0.15288265
152	0xbe496a99	-0.1966957
153	0xbe83e2d3	-0.2575899
154	0xbe7a9a3b	-0.24472897
155	0xbd8d792f	-0.069078796
156	0xbe8ae1b6	-0.2712533
157	0x3e222ac3	0.15836625
158	0x3e97022f	0.29493853
159	0xbea5f2ae	-0.32411712
160	0x3ea7b1e4	0.32752907
161	0x3ea915dd	0.33024493
162	0xbdf7111b	-0.120638095
163	0xbc335741	-0.010946096
164	0x3cfd941b	0.030954411
165	0xbe54effb	-0.2079467
166	0x3c15f1da	0.0091519
167	0x3e6bc949	0.23026003
168	0xbe6d007b	-0.23144715
169	0x3e8ea7f1	0.27862504
170	0xbc88d42f	-0.01670274
171	0x3e8f6b29	0.28011444
172	0xbeb4a7b7	-0.35284206
173	0x3e82cb7d	0.25545874
174	0x3cf7ce04	0.030249603
175	0xbe9ace80	-0.30235672
176	0x3b98fcc0	0.004668802
177	0xbea90a67	-0.3301575
178	0xbe9a5eef	-0.30150554
179	0x3e8a0558	0.26957202
180	0xbd765ac8	-0.06014517
181	0xbcd706a8	-0.026248291
182	0xbd479311	-0.048724238
183	0xbe94daee	-0.2907328
184	0xbeb3a9f1	-0.35090593
185	0xbd7020b5	-0.05862494
186	0xbe13c99c	-0.14432377
187	0xbe5b9193	-0.21442251
188	0x3eaad072	0.33362156
189	0x3e6b9f33	0.23009948
190	0x3e861023	0.26184186
191	0x3d95abe7	0.073081784
192	0x3e4742e0	0.19459105
193	0xbe4a3d01	-0.19749834
194	0xbe61c86b	-0.2204911
195	0x3cbcdc9b	0.023054412
196	0xbe58ac7c	-0.21159548
197	0x3e2173b1	0.15766789
198	0x3e1faba2	0.15592816
199	0xbe962a8c	-0.29329336
200	0x3eb8a493	0.3606306
201	0x3d4c8395	0.049930174
202	0x3d0ed811	0.034874026
203	0xbd0f1c19	-0.034938905
204	0x3cf4ff3e	0.029906865
205	0xbd592eeb	-0.05302326
206	0xbd501b99	-0.05080757
207	0x3e0f567f	0.1399784
208	0x3df6badf	0.120473616
209	0xbd5b0fa7	-0.053481724
210	0x3e423d5d	0.1896872
211	0x3e16160e	0.1465685
212	0x3d471371	0.048602525
213	0x3e97a53f	0.2961826
214	0xbc9950f7	-0.018715365
215	0xbe568745	-0.20950039
216	0xbe0fa764	-0.14028698
217	0xbeb86edb	-0.36022076
218	0xbe28101b	-0.16412394
219	0x3ebb9d2d	0.36643353
220	0xbe946ff2	-0.28991657
221	0xbe13adcf	-0.14421771
222	0x3df77abd	0.12083957
223	0xbe45df5e	-0.19323489
224	0x3e0ab27f	0.13544653
225	0x3ebe927e	0.3722114
226	0x3eb0779c	0.34466255
227	0x3ea396bd	0.31950942
228	0x3e34e6bf	0.17666148
229	0xbddd7d88	-0.10814959
230	0x3e570161	0.2099662
231	0x3dbe025e	0.09277795
232	0xbcc63544	-0.02419532
233	0xbdfe3b63	-0.12413671
234	0x3dc33b56	0.09532802
235	0x3da9f0b2	0.08297862
236	0x3e91865b	0.28422818
237	0xbe1c7582	-0.152792
238	0x3da740bc	0.08166644
239	0xbe715eaf	-0.23571275
240	0xbea4caf7	-0.321861
241	0xbe2705c3	-0.16310792
242	0x3ea0c959	0.31403616
243	0xbe3524c6	-0.17689809
244	0x3dd779a7	0.1052125
245	0xbea5667c	-0.32304752
246	0xbe48e44c	-0.19618338
247	0x3e4b49f7	0.19852434
248	0xbc23bbb6	-0.009993484
249	0xbcfedef0	-0.031112164
250	0x39cd8f7c	0.0003920755
251	0x3eaadeb0	0.33373022
252	0xbdf14118	-0.11779994
253	0x3e17c367	0.14820634
254	0xbd04c3ce	-0.032413296
255	0xbe5a348e	-0.2130911

lstm.bias_ih_l1 f4 [32]
0	0x3e978172	0.29590946
1	0x3be8f2fa	0.007109043
2	0x3b98f58a	0.0046679424
3	0x3ea31f04	0.318596
4	0x3d2a1741	0.041526083
5	0x3e90e20d	0.28297463
6	0xbd1733ce	-0.03691464
7	0xbe7d8253	-0.24756746
8	0xbe7dec95	-0.2479728
9	0x3db0c3f2	0.086311236
10	0xbdc37905	-0.09544567
11	0x3e617f83	0.22021298
12	0xbe175bf8	-0.14781177
13	0x3df08b8d	0.11745367
14	0xbeb4ed2f	-0.35337207
15	0xbdc719f7	-0.09721749
16	0x3e73c1aa	0.23804346
17	0xbe89495f	-0.2681379
18	0xbe98847f	-0.29788586
19	0x3ea042ca	0.31300956
20	0x3e4090b7	0.18805204
21	0x3d2cfa39	0.04223082
22	0x3d754b8a	0.059886493
23	0x3ea02b4a	0.31283027
24	0x3ea30ecb	0.31847224
25	0x3cc133e4	0.023584314
26	0x3cac8f45	0.02106441
27	0xbe35e227	-0.17762052
28	0x3e888dd0	0.26670694
29	0xbe1c3064	-0.15252835
30	0xbe361c25	-0.17784174
31	0x3ebcece7	0.36899492

lstm.bias_hh_l1 f4 [32]
0	0x3dae0ab5	0.08498136
1	0xbe64ce1e	-0.22344252
2	0x3e3d7a13	0.18503599
3	0x3e659113	0.22418623
4	0x3d88e64b	0.0668455
5	0xbc968035	-0.01837168
6	0x3e9643b0	0.29348516
7	0x3e1d9f6c	0.15392846
8	0xbea30c12	-0.31845146
9	0xbde1176e	-0.10990797
10	0x3d0f18e6	0.034935854
11	0xbdac958f	-0.084269635
12	0xbe9af516	-0.3026511
13	0xbe873153	-0.2640482
14	0xbcd52ea7	-0.026023222
15	0xbdd05d1d	-0.1017401
16	0xbeb92019	-0.361573
17	0x3e7f352f	0.24922632
18	0xbd87ec97	-0.06636923
19	0x3e81aad3	0.2532564
20	0x3e8f8652	0.28032166
21	0x3df21c05	0.118217506
22	0xbe890444	-0.26761067
23	0xbd7a0a53	-0.061045002
24	0x3d86b87c	0.06578156
25	0xbea1f274	-0.3163029
26	0x3cb0aa16	0.021565478
27	0x3cacd6ab	0.021098455
28	0xbea232a7	-0.3167927
29	0xbe08912e	-0.13336632
30	0xbae8e5b3	-0.0017768651
31	0x3d196fa6	0.037459992

linear.model.0.weight f4 [2, 8]
0	0x3d86e04c	0.0658575
1	0xbd3a2ae4	-0.04545106
2	0xbe5cf523	-0.21577887
3	0x3e2e16d6	0.17000899
4	0xbc6471e6	-0.013943171
5	0xbd37f9e4	-0.04491605
6	0xbcc87634	-0.024470426
7	0x3d0eb123	0.0348369
8	0x3d9bd73f	0.07609414
9	0xbe55ab80	-0.20866203
10	0xbd70af76	-0.058761083
11	0xbe2bcd96	-0.16777644
12	0x3e59fe3a	0.21288386
13	0x3e82147c	0.25406253
14	0xbeadb01d	-0.33923426
15	0xbe5a15c9	-0.21297373

linear.model.0.bias f4 [2]
0	0xbea40857	-0.32037613
1	0x3e63f7ed	0.22262545
