examples/2_streamflow_isotope_simulation/results/20241125_101506_612553/loss_c60a7_00002_2_batch_size=8,hidden_size=11,learning_rate=0.0020,n_epochs=182,num_layers=1_2024-11-25_10-15-11/checkpoint_000023/model.pt (torch, 5556 bytes, 6 tensors)

lstm.weight_ih_l0 f4 [44, 4]
000000 9f 4a 9e be 36 7f eb bd 1c 05 73 3e 73 c8 d3 3c
       -0.30916306 -0.11498873 0.23732418 0.025852418
000010 b0 d0 1f 3f b6 3f d4 3c 09 27 a2 be a5 4e e2 3c
       0.62427807 0.025909286 -0.31670406 0.027625391
000020 0e 1c 8e 3e ee 36 3f be ee 50 e9 be 96 3a b0 3e
       0.2775578 -0.18673298 -0.45569557 0.34419698
000030 a9 f8 02 3f 6d ec 5e 3e 0f 6d 05 3f 51 23 4c 3e
       0.51160675 0.21769877 0.52119535 0.19935347
000040 79 95 64 3e 8f 4c c9 bd 39 d7 db 3d 42 f3 6b be
       0.22322644 -0.098290555 0.1073441 -0.23042014
000050 b4 94 4f 3e 87 f9 86 be f0 8e 9b 3e 9e 44 03 3b
       0.2027157 -0.2636225 0.3038249 0.0020029913
000060 90 3f a5 3e 7b ec 00 3f 16 38 1f 3f 07 55 c6 3d
       0.32275057 0.5036084 0.62194955 0.096841864
000070 68 80 99 bd eb a1 8e bc ac b2 47 bc 4a 95 0f 3e
       -0.07495195 -0.017411193 -0.012188595 0.14021793
000080 18 99 5c 3e da e2 c8 bd ca 63 93 3e bc a3 1d bc
       0.21542776 -0.098088935 0.2878707 -0.009621557
000090 79 ba ef 3e a4 5a 22 3d b9 63 8f be 8e 1b 48 be
       0.46821955 0.039637223 -0.2800577 -0.19541761
0000a0 b7 ff f0 bb 92 66 83 bd c5 05 d3 bd 8c 85 82 3d
       -0.0073547023 -0.06416048 -0.10303835 0.06373128
0000b0 61 70 81 3e c9 cd df be 59 f5 30 bd 7c cd cb bc
       0.2528105 -0.4371169 -0.04320273 -0.024878256
0000c0 36 fd 49 3e 8c ba b5 3e af 04 a3 be 06 5b 1e be
       0.19725499 0.35493886 -0.3183951 -0.1546441
0000d0 fa e6 ba be d1 a6 88 3b 51 a6 b4 be 32 f6 76 3d
       -0.36504346 0.0041702767 -0.3528314 0.060293384
0000e0 2e a8 68 be b8 0e 8a 3d e7 94 90 3e e3 0f b1 3e
       -0.22720405 0.06741089 0.28238603 0.34582433
0000f0 68 23 ba 3e fd 26 b2 bd 59 d1 86 3d 8a f6 13 3e
       0.36355138 -0.08698843 0.06582899 0.14449516
000100 ee a7 a5 bb 2e 8c cc bd 35 35 b1 be 54 aa 6b be
       -0.005055419 -0.09987675 -0.34610906 -0.23014194
000110 96 57 ad 3e 68 c3 d4 3d 4e 44 2c 3f c8 5c 06 bd
       0.33855885 0.10388833 0.67291725 -0.032803327
000120 84 74 5a be 1b 3f 38 bd af 74 c2 3e 4d 55 ca bd
       -0.2133351 -0.044982057 0.37979648 -0.09879551
000130 06 0a 85 3e c4 62 cf 3e 65 f6 d3 bd 64 ae bc bd
       0.2598421 0.4050504 -0.103497304 -0.0921295
000140 24 7b 0e 3f aa 04 e9 3c 00 84 cc 3d 77 1c 10 be
       0.5565665 0.028444607 0.099861145 -0.14073358
000150 41 1b 23 3e c1 27 84 3e 72 ce bf 3e c7 0c c3 3e
       0.15928365 0.2581158 0.37462193 0.38095686
000160 12 22 33 be db f9 74 be 49 a5 4b 3e d7 5e ea 3d
       -0.17493466 -0.23923437 0.1988727 0.114438705
000170 27 91 bc be 31 6c 6e 3e 52 b3 08 3e d6 cd 75 bd
       -0.36829492 0.23283459 0.13349655 -0.060010754
000180 ef 10 b2 3e fe ab 73 3e 74 19 d1 3e ca 84 2b bd
       0.34778544 0.23796079 0.40839732 -0.041874684
000190 4b b0 fd 3e 93 82 9d be e8 ea c6 be 62 4f a7 bd
       0.49548563 -0.30763683 -0.38851094 -0.08169438
0001a0 a2 89 eb be c8 61 89 be ac d8 8b be e7 d4 e2 3c
       -0.46003443 -0.26832414 -0.27313745 0.02768941
0001b0 38 5c 0d be c6 f3 b7 3e ae 87 50 bd 88 d7 d3 3d
       -0.1380471 0.35928172 -0.050910644 0.10343844
0001c0 be 7b 36 bd f3 ff f6 3b b5 b0 53 be cc ee 1e be
       -0.044551603 0.0075378357 -0.20672877 -0.15520781
0001d0 2b 44 0b 3e 09 8f 94 be 98 76 c7 bd 28 96 7a be
       0.13600223 -0.29015377 -0.09739417 -0.24471343
0001e0 83 d5 d8 bc d4 c6 62 be ce 10 ce be c8 b6 a6 3d
       -0.026468998 -0.2214616 -0.40247196 0.081403315
0001f0 ec 0f 33 be 86 09 9f 3d d9 01 b5 be d1 dc b4 be
       -0.17486542 0.07765488 -0.35352972 -0.3532472
000200 87 63 61 bd 10 01 1d be 80 c3 56 be f4 85 0a bc
       -0.055026557 -0.15332437 -0.20973015 -0.0084547885
000210 30 d1 8b be 69 1c 4e be fa 80 02 bd 1e e8 2c be
       -0.27308035 -0.20128025 -0.031861283 -0.1688542
000220 3a 1c be 3e be d2 3d bd b8 f6 cb 3e 12 9f 8f 3d
       0.3713091 -0.046343558 0.3983667 0.07012762
000230 20 32 06 3f 4b 71 ce bc 87 f3 c9 be fb 8c 5d bd
       0.52420235 -0.025200507 -0.3944361 -0.054089528
000240 3b 89 e3 3e 88 11 fb 3d ba 5a 19 3f bd 96 97 3e
       0.44440636 0.12259203 0.5990406 0.29607192
000250 9e 8a 7b 3e 60 98 41 be 50 87 7c be 2e ef aa 3b
       0.24564597 -0.18905783 -0.24660993 0.0052165007
000260 8c 6f df 3d 7d 5f da 3d ed fe a1 bd e1 1c aa bd
       0.10909948 0.10662744 -0.07909951 -0.083062895
000270 73 8d 78 3e c5 16 39 be 62 f4 19 be e7 31 06 3e
       0.24272709 -0.18075092 -0.15034631 0.13104974
000280 ca ea d2 be 89 81 37 3f e4 b5 5a 3e b3 ca 08 bf
       -0.41194755 0.7168203 0.21358448 -0.53434294
000290 53 43 af 3e cf 4c eb 3b cd 21 e7 3d 78 7c 87 bd
       0.34231052 0.007180787 0.11285744 -0.066155374
0002a0 d8 35 3b 3f b7 09 20 3e 1f 23 15 be 55 e0 28 3d
       0.73129034 0.15628706 -0.14564179 0.041229565
0002b0 77 93 e9 3e c6 7d e5 3c 64 f8 33 be 8a 98 e3 3c
       0.4562032 0.028014075 -0.17575222 0.027782697

lstm.weight_hh_l0 f4 [44, 11]
000000 d1 38 8c 3e 7d b5 f9 bd 97 09 b5 3e ef 46 85 be
       0.27387097 -0.12192819 0.3535888 -0.2603068
000010 58 43 d2 bd 88 af 5d be dd a4 b1 3d 99 3d 20 3d
       -0.10266751 -0.21648991 0.08674023 0.039121244
000020 dc e9 60 3e c6 20 3a bb ca 92 49 bd 3a a1 4f be
       0.2196421 -0.0028400882 -0.049212255 -0.20276347
000030 eb 20 4a be f6 86 c7 bd 88 24 9e 3e 60 80 53 3e
       -0.1973912 -0.09742539 0.30887246 0.2065444
000040 1c 8b 9a 3e 32 c4 c6 bd eb c9 85 3e e9 5d 99 be
       0.30184257 -0.0970539 0.26130614 -0.2995446
000050 b8 bf b4 3d 24 3b 84 be 29 cd 07 3f 2d c9 16 be
       0.0882563 -0.2582637 0.53047425 -0.1472518
000060 fe 73 03 bd b1 09 c3 bd 5b 50 a0 3e 83 f0 33 3d
       -0.03209304 -0.09523333 0.31311306 0.04393054
000070 8a 0e db be 54 e3 79 3e 9c 4a d7 3d 93 30 a2 3d
       -0.4278453 0.24403125 0.105122775 0.07919421
000080 b4 c4 94 be 8d a8 37 3e 96 4e ec be 78 67 6a bc
       -0.29056323 0.17935391 -0.46153706 -0.014306895
000090 9c 1c f8 3d 4b 1a d2 be 23 9c d8 3e 74 ff bf be
       0.12114832 -0.41035685 0.42306623 -0.37499583
0000a0 82 07 da 3d 66 98 04 bf 72 60 8a be 91 11 2d 3d
       0.10645963 -0.5179504 -0.27026707 0.04225308
0000b0 0e e3 ac bd 9a 3d 0e be 05 31 7c 3d f5 13 e4 be
       -0.08441745 -0.13890687 0.061570186 -0.44546476
0000c0 95 8c 9f 3e 6f c9 0b 3e e5 ab 9c bb 02 43 7c 3e
       0.31161943 0.1365106 -0.0047812336 0.24634936
0000d0 51 bd ae bd 09 69 a7 be a5 e1 c7 be 4a 61 33 bd
       -0.08532203 -0.32697323 -0.3903934 -0.043793954
0000e0 e0 c9 bd 3d 30 a2 c5 3d 6f 42 93 be 27 cd 63 3e
       0.0926702 0.096500754 -0.28761622 0.22246228
0000f0 44 6e 2e 3e 4c cb 11 3e f9 36 8e 3e 1a 0d b1 be
       0.1703425 0.14237708 0.27776316 -0.34580308
000100 46 b4 60 3e d8 4d b2 3d d1 d4 45 3d 04 7d f7 3e
       0.21943769 0.08706254 0.04829866 0.48337567
000110 9a 5b 0b 3e 48 dd 70 bc 63 ac 10 3e 5a 74 82 3e
       0.13609162 -0.014701195 0.1412826 0.25479394
000120 26 cb 8b be 18 74 c9 bc e9 d3 f7 bd 1b 53 7b be
       -0.27303427 -0.02459149 -0.121009655 -0.24543421
000130 24 0d 5b 3e f9 0d c4 bd 71 f1 bb be 61 a6 59 be
       0.21391732 -0.095729776 -0.36707643 -0.21254875
000140 2e 84 04 be ee bd 96 be 1b e0 92 bd 9e fb a3 3d
       -0.12941048 -0.2944178 -0.07171651 0.080069765
000150 65 eb d6 3d ad a1 5d bc 65 57 ae be c8 28 c0 be
       0.10494117 -0.013527316 -0.34051052 -0.37531114
000160 94 cd c8 3e 6e 42 09 3e 06 73 17 3e 12 1a d4 bd
       0.39219344 0.13404247 0.14789972 -0.10356535
000170 6a 2a 83 3e 3b 55 9a be 37 29 79 3e 3f 66 53 be
       0.25618297 -0.3014315 0.24332128 -0.20644473
000180 d4 eb a7 bb 74 9b e1 3e b0 6f e8 bd 3b c7 37 bd
       -0.0051245485 0.44063914 -0.11349428 -0.044867735
000190 44 9e 74 bd e9 1e 06 3f d6 70 3c 3e a5 59 bd 3d
       -0.059721246 0.52390915 0.18402418 0.09245614
0001a0 4b 04 69 be 1d 87 ec 3d b6 72 32 be c6 c6 99 3e
       -0.22755544 0.11549208 -0.17426571 0.30034465
0001b0 c6 f4 25 3e be 2d 18 3e 1c a2 99 3e df c8 27 be
       0.16206655 0.148612 0.30006492 -0.1638522
0001c0 70 26 de bd 84 09 2d bc b1 12 b0 3e 5f 6a 67 3e
       -0.10847175 -0.010561351 0.3438926 0.22599171
0001d0 06 74 51 be c6 e7 90 3e 18 7b 72 3e 9d d1 bf 3c
       -0.20454416 0.2830183 0.23679769 0.023415381
0001e0 fc 7d f2 bd df 49 28 3d c5 3f d6 be 3d 97 0a be
       -0.11840436 0.041086074 -0.41845527 -0.13534255
0001f0 aa 51 8a be 98 a1 2f 3e b5 31 7b be f3 9b 5f be
       -0.2701543 0.17151487 -0.2453068 -0.21836834
000200 d2 c1 27 3e 4e aa ec 3e 5d 94 a0 3e eb 93 5e be
       0.1638253 0.46223682 0.31363192 -0.21736114
000210 35 da 26 be d7 68 96 bd 76 24 07 3c 05 69 9d 3d
       -0.16294177 -0.07344215 0.008248439 0.076860465
000220 5c a9 c0 3e d7 4a 0d 3f 2c f8 d8 3e 31 e9 be bd
       0.3762921 0.5519232 0.4237684 -0.093218215
000230 28 df d7 bd 7e 27 81 3e b2 3f 47 be c2 9c f7 bd
       -0.105406106 0.25225443 -0.19457892 -0.12090446
000240 67 ca 9c bd 15 92 38 be 65 e9 69 3e e1 7d 89 3e
       -0.07655793 -0.18024476 0.22842939 0.2685385
000250 c2 12 dc bd 59 4f 83 be 00 3d 01 be 4a 6e 0b bc
       -0.10745765 -0.25646475 -0.12620926 -0.008510182
000260 fa d1 71 3e e2 3e c0 bd aa 37 7e 3e 04 13 a0 3a
       0.23615256 -0.09386994 0.24825922 0.0012212698
000270 bf 71 00 3e 40 87 8c bd ed 25 c0 3e 93 93 63 be
       0.1254339 -0.068617344 0.37528935 -0.22224264
000280 a5 0a 2f 3e c9 73 72 be 72 11 42 3e 03 e7 21 be
       0.17093904 -0.23676981 0.18951967 -0.1581078
000290 17 5b 79 be f6 db df 3e fe 37 ef bd cc 46 aa 3e
       -0.24351154 0.43722504 -0.116806015 0.3325714
0002a0 7a 3f c1 bd c1 b0 12 3c fb 9e 49 be a1 96 c7 be
       -0.09435935 0.008953274 -0.19689552 -0.38982108
0002b0 16 42 ea 3d 19 87 11 3e 98 da 06 3e 2c e0 a9 be
       0.11438386 0.14211692 0.13169324 -0.33178842
0002c0 d9 dc d3 3c 0d 8e b8 be c7 f8 db be ae f9 a1 be
       0.025862144 -0.36045876 -0.4296324 -0.31635803
0002d0 a6 0d 0a 3d 72 6e 69 3d a5 1f 59 3d 7d 82 ca 3e
       0.033704422 0.056990094 0.053008694 0.3955268
0002e0 e4 79 70 3e ab 2b 89 bd c6 5d a9 be a1 4e 87 3e
       0.23483998 -0.06697782 -0.33079356 0.26427177
0002f0 64 73 ca 3e f9 f8 b4 3e c9 58 b3 bd a9 c5 6c 3e
       0.3954116 0.353462 -0.08757169 0.23122276
000300 14 a1 65 be 1a bb 45 be f7 89 75 be 6e c9 36 3d
       -0.22424728 -0.19309655 -0.2397841 0.044625692
000310 f9 23 ec bd c1 10 3c 3c fe aa 3d 3e ab a5 80 be
       -0.11530299 0.011478604 0.1852226 -0.25126395
000320 5e 84 83 be 48 ed c9 3d c1 11 8f 3e b9 16 f2 3e
       -0.25686926 0.09859711 0.27943233 0.4728296
000330 0a 4e 2f be 25 25 ae bd 89 9e c9 be a4 b1 92 be
       -0.17119613 -0.085031785 -0.39378765 -0.28651154
000340 5e 30 4e 3c 03 ca 13 3e c1 d4 0d be 81 e6 dd 3d
       0.012584774 0.1443253 -0.1385069 0.10834981
000350 64 b6 02 bf 40 73 8d 3e 70 1b ae be 8a a8 f8 bd
       -0.51059556 0.2762699 -0.34005308 -0.12141521
000360 23 b5 39 3e 1b 78 48 be f9 a1 50 3e 06 2e 94 bc
       0.18135504 -0.19577067 0.20374288 -0.018088352
000370 fd e6 47 be 82 e4 d9 3d b7 cc 16 3e 54 d7 bb bd
       -0.19521709 0.106392875 0.1472653 -0.0917193
000380 7e 99 a2 3d 96 24 82 3e 4c 03 99 be 36 6d ca 3e
       0.079394326 0.25418538 -0.29885328 0.39536446
000390 d3 5a b0 be 7b a7 15 ba 66 ea 71 be 23 36 f9 3e
       -0.34444293 -0.00057088555 -0.23624572 0.48674116
0003a0 84 c4 ef bc f1 d9 aa be 37 dc 81 be 6d 9c a8 3e
       -0.02926851 -0.333694 -0.25363323 0.32931843
0003b0 77 56 72 bd 35 b7 95 be 73 f5 04 3f 36 bd a4 be
       -0.05916449 -0.29241338 0.51937026 -0.32175606
0003c0 21 bb eb 3d e5 2a 2d be d4 8a a9 3d 14 ad f9 3d
       0.115103014 -0.16910894 0.082784325 0.12191215
0003d0 ce 11 b1 3e 10 c9 8a 3c 87 5c 80 bd 28 70 83 be
       0.34583896 0.016941577 -0.06267648 -0.25671506
0003e0 6a 59 ee 3d 4e a9 46 3e 33 0a b9 3e a7 e3 a5 3e
       0.11638148 0.19400522 0.36140594 0.32400247
0003f0 09 86 2b 3d ca ff 84 3d 8a ec ee 3d 7f f6 9d 3e
       0.041875873 0.064941004 0.1166621 0.30852124

lstm.bias_ih_l0 f4 [44]
000000 61 3d 14 3e ce dc 8b 3e e2 31 f2 3e 19 0e bc bd
       0.14476539 0.27316898 0.47303683 -0.091823764
000010 f8 e9 9d 3e 9e 33 76 bd ee 6b 86 bd 54 de ad 3e
       0.30842566 -0.06010782 -0.06563555 0.33958685
000020 c7 7c 68 be b4 69 c9 3e 1a 8f 15 3f 56 a4 70 3e
       -0.22703849 0.39338458 0.5842148 0.23500189
000030 99 a2 6a 3e c8 70 0c 3e 4c 0e 6e 3d 67 3b 87 3d
       0.22913589 0.13714898 0.058119103 0.06603127
000040 21 98 80 3e f8 77 dd 3d 01 ff 6e 3d 97 58 9d 3e
       0.25116065 0.10813898 0.05834866 0.3073165
000050 ff c7 f4 bd ee e4 0c 3f b4 cd ff 3d 25 67 f2 3d
       -0.11952209 0.5503682 0.12490407 0.118360795
000060 0f 82 57 3d cc ef bc bc be e4 50 3e 8b 29 9b bd
       0.052614268 -0.023063563 0.20399758 -0.07576283
000070 c6 2a 3b be 89 81 0a 3e 66 fb 0e 3c 16 e1 26 be
       -0.18278036 0.13525976 0.00872693 -0.16296801
000080 62 f8 c8 be f4 4f 4d bd 41 d8 a7 3e db b7 4c 3e
       -0.39252 -0.050125077 0.32782176 0.1999201
000090 47 d4 7d bd c7 a1 fa 3e 64 2c 77 3e c7 de d6 3d
       -0.06197002 0.4895155 0.24138027 0.1049171
0000a0 d0 74 9b bc ad 9a 1e 3c d2 4c 69 bd bc 99 12 be
       -0.018976599 0.009680432 -0.056958027 -0.14316458

lstm.bias_hh_l0 f4 [44]
000000 96 15 2f be 2a 8d 87 3e 7c 2f d7 3e d5 56 54 3d
       -0.17098078 0.26474887 0.42028415 0.051840622
000010 b4 7e df 3d 21 f2 21 be 9a a8 39 3e d2 70 5f bd
       0.109128386 -0.15815021 0.18130723 -0.054550953
000020 02 7f 83 bd 78 ed 9d 3e 0e f0 92 3b e7 fb 2f 3e
       -0.06420709 0.30845237 0.004484183 0.17185937
000030 bb df e6 3d 69 33 c3 bd c7 83 9c 3e 05 40 cf 3e
       0.11273142 -0.0953129 0.30569288 0.4047853
000040 99 bf f4 3e b6 62 1f 3c eb 3c f8 3d 51 79 05 3f
       0.47802427 0.009728124 0.12120994 0.5213824
000050 79 5a 94 3e 14 88 b5 3e fd f9 6c 3e 3c c9 62 bd
       0.28975275 0.35455382 0.23142238 -0.055367693
000060 2d 22 f1 bc 8f 19 8b be ef d6 15 3e 41 de cb 3b
       -0.029435242 -0.27167937 0.14632772 0.006221563
000070 50 3c d4 be eb 06 17 3e 7e 4c ef 3c e0 8b 12 be
       -0.41452265 0.14748733 0.029211279 -0.1431117
000080 6d fd 90 be c8 ad 8e 3e 08 33 cf 3e cd 4d ca 3e
       -0.2831835 0.2786696 0.4046862 0.39512482
000090 14 3c 30 3d ff 77 56 bd e0 e3 eb 3c f5 ae 08 3f
       0.043026045 -0.05236053 0.028795183 0.53391963
0000a0 06 50 7f be 59 24 c6 3e f5 af 35 3e f9 64 33 3d
       -0.2493287 0.38699606 0.17742904 0.043797467

linear.model.0.weight f4 [2, 11]
000000 85 33 e1 bd fb 5c 0e bf ae 60 49 3f a0 2c 57 3f
       -0.10996155 -0.55610627 0.78663146 0.8405247
000010 33 60 7e be 1b 79 8e be a5 36 f9 be 7f bd 6a be
       -0.24841385 -0.2782677 -0.48674503 -0.2292385
000020 6a 11 56 3e 61 39 d8 be 49 d5 f5 be e9 48 83 be
       0.2090508 -0.42231277 -0.48014286 -0.25641564
000030 65 72 5a be df 09 50 be 1d 97 8c be 61 31 e2 be
       -0.213327 -0.20316266 -0.2745904 -0.44178298
000040 da f3 94 3e 51 54 2f bd 40 40 83 3e 7e 89 a7 be
       0.29092294 -0.04280502 0.25634956 -0.32722086
000050 fb 02 e7 be 0a 5f 18 be
       -0.4511946 -0.14880005

linear.model.0.bias f4 [2]
000000 31 22 f5 bd a6 31 40 be
       -0.11969412 -0.1876894
